{"format": "graph-model", "generatedBy": "2.19.0", "convertedBy": "TensorFlow.js Converter v4.22.0", "signature": {"inputs": {"inputs": {"name": "inputs:0", "dtype": "DT_FLOAT", "tensorShape": {"dim": [{"size": "-1"}, {"size": "96"}, {"size": "96"}, {"size": "3"}]}}}, "outputs": {"output_0": {"name": "Identity:0", "dtype": "DT_FLOAT", "tensorShape": {"dim": [{"size": "-1"}, {"size": "29"}]}}}}, "modelTopology": {"node": [{"name": "StatefulPartitionedCall/asl_resnet50_improved_1/resnet50_1/conv5_block1_0_conv_1/convolution/ReadVariableOp", "op": "Const", "attr": {"dtype": {"type": "DT_FLOAT"}, "value": {"tensor": {"dtype": "DT_FLOAT", "tensorShape": {"dim": [{"size": "1"}, {"size": "1"}, {"size": "1024"}, {"size": "2048"}]}}}}}, {"name": "StatefulPartitionedCall/asl_resnet50_improved_1/resnet50_1/conv5_block1_0_conv_1/Squeeze", "op": "Const", "attr": {"dtype": {"type": "DT_FLOAT"}, "value": {"tensor": {"dtype": "DT_FLOAT", "tensorShape": {"dim": [{"size": "2048"}]}}}}}, {"name": "StatefulPartitionedCall/asl_resnet50_improved_1/resnet50_1/conv5_block1_0_bn_1/batchnorm/mul", "op": "Const", "attr": {"dtype": {"type": "DT_FLOAT"}, "value": {"tensor": {"dtype": "DT_FLOAT", "tensorShape": {"dim": [{"size": "1"}, {"size": "1"}, {"size": "1"}, {"size": "2048"}]}}}}}, {"name": "StatefulPartitionedCall/asl_resnet50_improved_1/resnet50_1/conv5_block1_0_bn_1/batchnorm/sub", "op": "Const", "attr": {"dtype": {"type": "DT_FLOAT"}, "value": {"tensor": {"dtype": "DT_FLOAT", "tensorShape": {"dim": [{"size": "1"}, {"size": "1"}, {"size": "1"}, {"size": "2048"}]}}}}}, {"name": "StatefulPartitionedCall/asl_resnet50_improved_1/resnet50_1/conv4_block1_0_conv_1/convolution/ReadVariableOp", "op": "Const", "attr": {"dtype": {"type": "DT_FLOAT"}, "value": {"tensor": {"dtype": "DT_FLOAT", "tensorShape": {"dim": [{"size": "1"}, {"size": "1"}, {"size": "512"}, {"size": "1024"}]}}}}}, {"name": "StatefulPartitionedCall/asl_resnet50_improved_1/resnet50_1/conv4_block1_0_conv_1/Squeeze", "op": "Const", "attr": {"dtype": {"type": "DT_FLOAT"}, "value": {"tensor": {"dtype": "DT_FLOAT", "tensorShape": {"dim": [{"size": "1024"}]}}}}}, {"name": "StatefulPartitionedCall/asl_resnet50_improved_1/resnet50_1/conv4_block1_0_bn_1/batchnorm/mul", "op": "Const", "attr": {"dtype": {"type": "DT_FLOAT"}, "value": {"tensor": {"dtype": "DT_FLOAT", "tensorShape": {"dim": [{"size": "1"}, {"size": "1"}, {"size": "1"}, {"size": "1024"}]}}}}}, {"name": "StatefulPartitionedCall/asl_resnet50_improved_1/resnet50_1/conv4_block1_0_bn_1/batchnorm/sub", "op": "Const", "attr": {"dtype": {"type": "DT_FLOAT"}, "value": {"tensor": {"dtype": "DT_FLOAT", "tensorShape": {"dim": [{"size": "1"}, {"size": "1"}, {"size": "1"}, {"size": "1024"}]}}}}}, {"name": "StatefulPartitionedCall/asl_resnet50_improved_1/resnet50_1/conv3_block1_0_conv_1/convolution/ReadVariableOp", "op": "Const", "attr": {"dtype": {"type": "DT_FLOAT"}, "value": {"tensor": {"dtype": "DT_FLOAT", "tensorShape": {"dim": [{"size": "1"}, {"size": "1"}, {"size": "256"}, {"size": "512"}]}}}}}, {"name": "StatefulPartitionedCall/asl_resnet50_improved_1/resnet50_1/conv3_block1_0_conv_1/Squeeze", "op": "Const", "attr": {"dtype": {"type": "DT_FLOAT"}, "value": {"tensor": {"dtype": "DT_FLOAT", "tensorShape": {"dim": [{"size": "512"}]}}}}}, {"name": "StatefulPartitionedCall/asl_resnet50_improved_1/resnet50_1/conv3_block1_0_bn_1/batchnorm/mul", "op": "Const", "attr": {"dtype": {"type": "DT_FLOAT"}, "value": {"tensor": {"dtype": "DT_FLOAT", "tensorShape": {"dim": [{"size": "1"}, {"size": "1"}, {"size": "1"}, {"size": "512"}]}}}}}, {"name": "StatefulPartitionedCall/asl_resnet50_improved_1/resnet50_1/conv3_block1_0_bn_1/batchnorm/sub", "op": "Const", "attr": {"dtype": {"type": "DT_FLOAT"}, "value": {"tensor": {"dtype": "DT_FLOAT", "tensorShape": {"dim": [{"size": "1"}, {"size": "1"}, {"size": "1"}, {"size": "512"}]}}}}}, {"name": "StatefulPartitionedCall/asl_resnet50_improved_1/resnet50_1/conv2_block1_0_conv_1/convolution/ReadVariableOp", "op": "Const", "attr": {"dtype": {"type": "DT_FLOAT"}, "value": {"tensor": {"dtype": "DT_FLOAT", "tensorShape": {"dim": [{"size": "1"}, {"size": "1"}, {"size": "64"}, {"size": "256"}]}}}}}, {"name": "StatefulPartitionedCall/asl_resnet50_improved_1/resnet50_1/conv2_block1_0_conv_1/Squeeze", "op": "Const", "attr": {"dtype": {"type": "DT_FLOAT"}, "value": {"tensor": {"dtype": "DT_FLOAT", "tensorShape": {"dim": [{"size": "256"}]}}}}}, {"name": "StatefulPartitionedCall/asl_resnet50_improved_1/resnet50_1/conv2_block1_0_bn_1/batchnorm/mul", "op": "Const", "attr": {"dtype": {"type": "DT_FLOAT"}, "value": {"tensor": {"dtype": "DT_FLOAT", "tensorShape": {"dim": [{"size": "1"}, {"size": "1"}, {"size": "1"}, {"size": "256"}]}}}}}, {"name": "StatefulPartitionedCall/asl_resnet50_improved_1/resnet50_1/conv2_block1_0_bn_1/batchnorm/sub", "op": "Const", "attr": {"dtype": {"type": "DT_FLOAT"}, "value": {"tensor": {"dtype": "DT_FLOAT", "tensorShape": {"dim": [{"size": "1"}, {"size": "1"}, {"size": "1"}, {"size": "256"}]}}}}}, {"name": "StatefulPartitionedCall/asl_resnet50_improved_1/resnet50_1/conv1_pad_1/Const", "op": "Const", "attr": {"dtype": {"type": "DT_INT32"}, "value": {"tensor": {"dtype": "DT_INT32", "tensorShape": {"dim": [{"size": "4"}, {"size": "2"}]}}}}}, {"name": "StatefulPartitionedCall/asl_resnet50_improved_1/resnet50_1/conv1_conv_1/convolution/ReadVariableOp", "op": "Const", "attr": {"dtype": {"type": "DT_FLOAT"}, "value": {"tensor": {"dtype": "DT_FLOAT", "tensorShape": {"dim": [{"size": "7"}, {"size": "7"}, {"size": "3"}, {"size": "64"}]}}}}}, {"name": "StatefulPartitionedCall/asl_resnet50_improved_1/resnet50_1/conv1_conv_1/Squeeze", "op": "Const", "attr": {"dtype": {"type": "DT_FLOAT"}, "value": {"tensor": {"dtype": "DT_FLOAT", "tensorShape": {"dim": [{"size": "64"}]}}}}}, {"name": "StatefulPartitionedCall/asl_resnet50_improved_1/resnet50_1/conv1_bn_1/batchnorm/mul", "op": "Const", "attr": {"dtype": {"type": "DT_FLOAT"}, "value": {"tensor": {"dtype": "DT_FLOAT", "tensorShape": {"dim": [{"size": "1"}, {"size": "1"}, {"size": "1"}, {"size": "64"}]}}}}}, {"name": "StatefulPartitionedCall/asl_resnet50_improved_1/resnet50_1/conv1_bn_1/batchnorm/sub", "op": "Const", "attr": {"dtype": {"type": "DT_FLOAT"}, "value": {"tensor": {"dtype": "DT_FLOAT", "tensorShape": {"dim": [{"size": "1"}, {"size": "1"}, {"size": "1"}, {"size": "64"}]}}}}}, {"name": "StatefulPartitionedCall/asl_resnet50_improved_1/resnet50_1/pool1_pad_1/Const", "op": "Const", "attr": {"dtype": {"type": "DT_INT32"}, "value": {"tensor": {"dtype": "DT_INT32", "tensorShape": {"dim": [{"size": "4"}, {"size": "2"}]}}}}}, {"name": "StatefulPartitionedCall/asl_resnet50_improved_1/resnet50_1/conv2_block1_1_conv_1/convolution/ReadVariableOp", "op": "Const", "attr": {"dtype": {"type": "DT_FLOAT"}, "value": {"tensor": {"dtype": "DT_FLOAT", "tensorShape": {"dim": [{"size": "1"}, {"size": "1"}, {"size": "64"}, {"size": "64"}]}}}}}, {"name": "StatefulPartitionedCall/asl_resnet50_improved_1/resnet50_1/conv2_block1_1_conv_1/Squeeze", "op": "Const", "attr": {"dtype": {"type": "DT_FLOAT"}, "value": {"tensor": {"dtype": "DT_FLOAT", "tensorShape": {"dim": [{"size": "64"}]}}}}}, {"name": "StatefulPartitionedCall/asl_resnet50_improved_1/resnet50_1/conv2_block1_1_bn_1/batchnorm/mul", "op": "Const", "attr": {"dtype": {"type": "DT_FLOAT"}, "value": {"tensor": {"dtype": "DT_FLOAT", "tensorShape": {"dim": [{"size": "1"}, {"size": "1"}, {"size": "1"}, {"size": "64"}]}}}}}, {"name": "StatefulPartitionedCall/asl_resnet50_improved_1/resnet50_1/conv2_block1_1_bn_1/batchnorm/sub", "op": "Const", "attr": {"dtype": {"type": "DT_FLOAT"}, "value": {"tensor": {"dtype": "DT_FLOAT", "tensorShape": {"dim": [{"size": "1"}, {"size": "1"}, {"size": "1"}, {"size": "64"}]}}}}}, {"name": "StatefulPartitionedCall/asl_resnet50_improved_1/resnet50_1/conv2_block1_2_conv_1/convolution/ReadVariableOp", "op": "Const", "attr": {"dtype": {"type": "DT_FLOAT"}, "value": {"tensor": {"dtype": "DT_FLOAT", "tensorShape": {"dim": [{"size": "3"}, {"size": "3"}, {"size": "64"}, {"size": "64"}]}}}}}, {"name": "StatefulPartitionedCall/asl_resnet50_improved_1/resnet50_1/conv2_block1_2_conv_1/Squeeze", "op": "Const", "attr": {"dtype": {"type": "DT_FLOAT"}, "value": {"tensor": {"dtype": "DT_FLOAT", "tensorShape": {"dim": [{"size": "64"}]}}}}}, {"name": "StatefulPartitionedCall/asl_resnet50_improved_1/resnet50_1/conv2_block1_2_bn_1/batchnorm/mul", "op": "Const", "attr": {"dtype": {"type": "DT_FLOAT"}, "value": {"tensor": {"dtype": "DT_FLOAT", "tensorShape": {"dim": [{"size": "1"}, {"size": "1"}, {"size": "1"}, {"size": "64"}]}}}}}, {"name": "StatefulPartitionedCall/asl_resnet50_improved_1/resnet50_1/conv2_block1_2_bn_1/batchnorm/sub", "op": "Const", "attr": {"dtype": {"type": "DT_FLOAT"}, "value": {"tensor": {"dtype": "DT_FLOAT", "tensorShape": {"dim": [{"size": "1"}, {"size": "1"}, {"size": "1"}, {"size": "64"}]}}}}}, {"name": "StatefulPartitionedCall/asl_resnet50_improved_1/resnet50_1/conv2_block1_3_conv_1/convolution/ReadVariableOp", "op": "Const", "attr": {"dtype": {"type": "DT_FLOAT"}, "value": {"tensor": {"dtype": "DT_FLOAT", "tensorShape": {"dim": [{"size": "1"}, {"size": "1"}, {"size": "64"}, {"size": "256"}]}}}}}, {"name": "StatefulPartitionedCall/asl_resnet50_improved_1/resnet50_1/conv2_block1_3_conv_1/Squeeze", "op": "Const", "attr": {"dtype": {"type": "DT_FLOAT"}, "value": {"tensor": {"dtype": "DT_FLOAT", "tensorShape": {"dim": [{"size": "256"}]}}}}}, {"name": "StatefulPartitionedCall/asl_resnet50_improved_1/resnet50_1/conv2_block1_3_bn_1/batchnorm/mul", "op": "Const", "attr": {"dtype": {"type": "DT_FLOAT"}, "value": {"tensor": {"dtype": "DT_FLOAT", "tensorShape": {"dim": [{"size": "1"}, {"size": "1"}, {"size": "1"}, {"size": "256"}]}}}}}, {"name": "StatefulPartitionedCall/asl_resnet50_improved_1/resnet50_1/conv2_block1_3_bn_1/batchnorm/sub", "op": "Const", "attr": {"dtype": {"type": "DT_FLOAT"}, "value": {"tensor": {"dtype": "DT_FLOAT", "tensorShape": {"dim": [{"size": "1"}, {"size": "1"}, {"size": "1"}, {"size": "256"}]}}}}}, {"name": "StatefulPartitionedCall/asl_resnet50_improved_1/resnet50_1/conv2_block2_1_conv_1/convolution/ReadVariableOp", "op": "Const", "attr": {"dtype": {"type": "DT_FLOAT"}, "value": {"tensor": {"dtype": "DT_FLOAT", "tensorShape": {"dim": [{"size": "1"}, {"size": "1"}, {"size": "256"}, {"size": "64"}]}}}}}, {"name": "StatefulPartitionedCall/asl_resnet50_improved_1/resnet50_1/conv2_block2_1_conv_1/Squeeze", "op": "Const", "attr": {"dtype": {"type": "DT_FLOAT"}, "value": {"tensor": {"dtype": "DT_FLOAT", "tensorShape": {"dim": [{"size": "64"}]}}}}}, {"name": "StatefulPartitionedCall/asl_resnet50_improved_1/resnet50_1/conv2_block2_1_bn_1/batchnorm/mul", "op": "Const", "attr": {"dtype": {"type": "DT_FLOAT"}, "value": {"tensor": {"dtype": "DT_FLOAT", "tensorShape": {"dim": [{"size": "1"}, {"size": "1"}, {"size": "1"}, {"size": "64"}]}}}}}, {"name": "StatefulPartitionedCall/asl_resnet50_improved_1/resnet50_1/conv2_block2_1_bn_1/batchnorm/sub", "op": "Const", "attr": {"dtype": {"type": "DT_FLOAT"}, "value": {"tensor": {"dtype": "DT_FLOAT", "tensorShape": {"dim": [{"size": "1"}, {"size": "1"}, {"size": "1"}, {"size": "64"}]}}}}}, {"name": "StatefulPartitionedCall/asl_resnet50_improved_1/resnet50_1/conv2_block2_2_conv_1/convolution/ReadVariableOp", "op": "Const", "attr": {"dtype": {"type": "DT_FLOAT"}, "value": {"tensor": {"dtype": "DT_FLOAT", "tensorShape": {"dim": [{"size": "3"}, {"size": "3"}, {"size": "64"}, {"size": "64"}]}}}}}, {"name": "StatefulPartitionedCall/asl_resnet50_improved_1/resnet50_1/conv2_block2_2_conv_1/Squeeze", "op": "Const", "attr": {"dtype": {"type": "DT_FLOAT"}, "value": {"tensor": {"dtype": "DT_FLOAT", "tensorShape": {"dim": [{"size": "64"}]}}}}}, {"name": "StatefulPartitionedCall/asl_resnet50_improved_1/resnet50_1/conv2_block2_2_bn_1/batchnorm/mul", "op": "Const", "attr": {"dtype": {"type": "DT_FLOAT"}, "value": {"tensor": {"dtype": "DT_FLOAT", "tensorShape": {"dim": [{"size": "1"}, {"size": "1"}, {"size": "1"}, {"size": "64"}]}}}}}, {"name": "StatefulPartitionedCall/asl_resnet50_improved_1/resnet50_1/conv2_block2_2_bn_1/batchnorm/sub", "op": "Const", "attr": {"dtype": {"type": "DT_FLOAT"}, "value": {"tensor": {"dtype": "DT_FLOAT", "tensorShape": {"dim": [{"size": "1"}, {"size": "1"}, {"size": "1"}, {"size": "64"}]}}}}}, {"name": "StatefulPartitionedCall/asl_resnet50_improved_1/resnet50_1/conv2_block2_3_conv_1/convolution/ReadVariableOp", "op": "Const", "attr": {"dtype": {"type": "DT_FLOAT"}, "value": {"tensor": {"dtype": "DT_FLOAT", "tensorShape": {"dim": [{"size": "1"}, {"size": "1"}, {"size": "64"}, {"size": "256"}]}}}}}, {"name": "StatefulPartitionedCall/asl_resnet50_improved_1/resnet50_1/conv2_block2_3_conv_1/Squeeze", "op": "Const", "attr": {"dtype": {"type": "DT_FLOAT"}, "value": {"tensor": {"dtype": "DT_FLOAT", "tensorShape": {"dim": [{"size": "256"}]}}}}}, {"name": "StatefulPartitionedCall/asl_resnet50_improved_1/resnet50_1/conv2_block2_3_bn_1/batchnorm/mul", "op": "Const", "attr": {"dtype": {"type": "DT_FLOAT"}, "value": {"tensor": {"dtype": "DT_FLOAT", "tensorShape": {"dim": [{"size": "1"}, {"size": "1"}, {"size": "1"}, {"size": "256"}]}}}}}, {"name": "StatefulPartitionedCall/asl_resnet50_improved_1/resnet50_1/conv2_block2_3_bn_1/batchnorm/sub", "op": "Const", "attr": {"dtype": {"type": "DT_FLOAT"}, "value": {"tensor": {"dtype": "DT_FLOAT", "tensorShape": {"dim": [{"size": "1"}, {"size": "1"}, {"size": "1"}, {"size": "256"}]}}}}}, {"name": "StatefulPartitionedCall/asl_resnet50_improved_1/resnet50_1/conv2_block3_1_conv_1/convolution/ReadVariableOp", "op": "Const", "attr": {"dtype": {"type": "DT_FLOAT"}, "value": {"tensor": {"dtype": "DT_FLOAT", "tensorShape": {"dim": [{"size": "1"}, {"size": "1"}, {"size": "256"}, {"size": "64"}]}}}}}, {"name": "StatefulPartitionedCall/asl_resnet50_improved_1/resnet50_1/conv2_block3_1_conv_1/Squeeze", "op": "Const", "attr": {"dtype": {"type": "DT_FLOAT"}, "value": {"tensor": {"dtype": "DT_FLOAT", "tensorShape": {"dim": [{"size": "64"}]}}}}}, {"name": "StatefulPartitionedCall/asl_resnet50_improved_1/resnet50_1/conv2_block3_1_bn_1/batchnorm/mul", "op": "Const", "attr": {"dtype": {"type": "DT_FLOAT"}, "value": {"tensor": {"dtype": "DT_FLOAT", "tensorShape": {"dim": [{"size": "1"}, {"size": "1"}, {"size": "1"}, {"size": "64"}]}}}}}, {"name": "StatefulPartitionedCall/asl_resnet50_improved_1/resnet50_1/conv2_block3_1_bn_1/batchnorm/sub", "op": "Const", "attr": {"dtype": {"type": "DT_FLOAT"}, "value": {"tensor": {"dtype": "DT_FLOAT", "tensorShape": {"dim": [{"size": "1"}, {"size": "1"}, {"size": "1"}, {"size": "64"}]}}}}}, {"name": "StatefulPartitionedCall/asl_resnet50_improved_1/resnet50_1/conv2_block3_2_conv_1/convolution/ReadVariableOp", "op": "Const", "attr": {"dtype": {"type": "DT_FLOAT"}, "value": {"tensor": {"dtype": "DT_FLOAT", "tensorShape": {"dim": [{"size": "3"}, {"size": "3"}, {"size": "64"}, {"size": "64"}]}}}}}, {"name": "StatefulPartitionedCall/asl_resnet50_improved_1/resnet50_1/conv2_block3_2_conv_1/Squeeze", "op": "Const", "attr": {"dtype": {"type": "DT_FLOAT"}, "value": {"tensor": {"dtype": "DT_FLOAT", "tensorShape": {"dim": [{"size": "64"}]}}}}}, {"name": "StatefulPartitionedCall/asl_resnet50_improved_1/resnet50_1/conv2_block3_2_bn_1/batchnorm/mul", "op": "Const", "attr": {"dtype": {"type": "DT_FLOAT"}, "value": {"tensor": {"dtype": "DT_FLOAT", "tensorShape": {"dim": [{"size": "1"}, {"size": "1"}, {"size": "1"}, {"size": "64"}]}}}}}, {"name": "StatefulPartitionedCall/asl_resnet50_improved_1/resnet50_1/conv2_block3_2_bn_1/batchnorm/sub", "op": "Const", "attr": {"dtype": {"type": "DT_FLOAT"}, "value": {"tensor": {"dtype": "DT_FLOAT", "tensorShape": {"dim": [{"size": "1"}, {"size": "1"}, {"size": "1"}, {"size": "64"}]}}}}}, {"name": "StatefulPartitionedCall/asl_resnet50_improved_1/resnet50_1/conv2_block3_3_conv_1/convolution/ReadVariableOp", "op": "Const", "attr": {"dtype": {"type": "DT_FLOAT"}, "value": {"tensor": {"dtype": "DT_FLOAT", "tensorShape": {"dim": [{"size": "1"}, {"size": "1"}, {"size": "64"}, {"size": "256"}]}}}}}, {"name": "StatefulPartitionedCall/asl_resnet50_improved_1/resnet50_1/conv2_block3_3_conv_1/Squeeze", "op": "Const", "attr": {"dtype": {"type": "DT_FLOAT"}, "value": {"tensor": {"dtype": "DT_FLOAT", "tensorShape": {"dim": [{"size": "256"}]}}}}}, {"name": "StatefulPartitionedCall/asl_resnet50_improved_1/resnet50_1/conv2_block3_3_bn_1/batchnorm/mul", "op": "Const", "attr": {"dtype": {"type": "DT_FLOAT"}, "value": {"tensor": {"dtype": "DT_FLOAT", "tensorShape": {"dim": [{"size": "1"}, {"size": "1"}, {"size": "1"}, {"size": "256"}]}}}}}, {"name": "StatefulPartitionedCall/asl_resnet50_improved_1/resnet50_1/conv2_block3_3_bn_1/batchnorm/sub", "op": "Const", "attr": {"dtype": {"type": "DT_FLOAT"}, "value": {"tensor": {"dtype": "DT_FLOAT", "tensorShape": {"dim": [{"size": "1"}, {"size": "1"}, {"size": "1"}, {"size": "256"}]}}}}}, {"name": "StatefulPartitionedCall/asl_resnet50_improved_1/resnet50_1/conv3_block1_1_conv_1/convolution/ReadVariableOp", "op": "Const", "attr": {"dtype": {"type": "DT_FLOAT"}, "value": {"tensor": {"dtype": "DT_FLOAT", "tensorShape": {"dim": [{"size": "1"}, {"size": "1"}, {"size": "256"}, {"size": "128"}]}}}}}, {"name": "StatefulPartitionedCall/asl_resnet50_improved_1/resnet50_1/conv3_block1_1_conv_1/Squeeze", "op": "Const", "attr": {"dtype": {"type": "DT_FLOAT"}, "value": {"tensor": {"dtype": "DT_FLOAT", "tensorShape": {"dim": [{"size": "128"}]}}}}}, {"name": "StatefulPartitionedCall/asl_resnet50_improved_1/resnet50_1/conv3_block1_1_bn_1/batchnorm/mul", "op": "Const", "attr": {"dtype": {"type": "DT_FLOAT"}, "value": {"tensor": {"dtype": "DT_FLOAT", "tensorShape": {"dim": [{"size": "1"}, {"size": "1"}, {"size": "1"}, {"size": "128"}]}}}}}, {"name": "StatefulPartitionedCall/asl_resnet50_improved_1/resnet50_1/conv3_block1_1_bn_1/batchnorm/sub", "op": "Const", "attr": {"dtype": {"type": "DT_FLOAT"}, "value": {"tensor": {"dtype": "DT_FLOAT", "tensorShape": {"dim": [{"size": "1"}, {"size": "1"}, {"size": "1"}, {"size": "128"}]}}}}}, {"name": "StatefulPartitionedCall/asl_resnet50_improved_1/resnet50_1/conv3_block1_2_conv_1/convolution/ReadVariableOp", "op": "Const", "attr": {"dtype": {"type": "DT_FLOAT"}, "value": {"tensor": {"dtype": "DT_FLOAT", "tensorShape": {"dim": [{"size": "3"}, {"size": "3"}, {"size": "128"}, {"size": "128"}]}}}}}, {"name": "StatefulPartitionedCall/asl_resnet50_improved_1/resnet50_1/conv3_block1_2_conv_1/Squeeze", "op": "Const", "attr": {"dtype": {"type": "DT_FLOAT"}, "value": {"tensor": {"dtype": "DT_FLOAT", "tensorShape": {"dim": [{"size": "128"}]}}}}}, {"name": "StatefulPartitionedCall/asl_resnet50_improved_1/resnet50_1/conv3_block1_2_bn_1/batchnorm/mul", "op": "Const", "attr": {"dtype": {"type": "DT_FLOAT"}, "value": {"tensor": {"dtype": "DT_FLOAT", "tensorShape": {"dim": [{"size": "1"}, {"size": "1"}, {"size": "1"}, {"size": "128"}]}}}}}, {"name": "StatefulPartitionedCall/asl_resnet50_improved_1/resnet50_1/conv3_block1_2_bn_1/batchnorm/sub", "op": "Const", "attr": {"dtype": {"type": "DT_FLOAT"}, "value": {"tensor": {"dtype": "DT_FLOAT", "tensorShape": {"dim": [{"size": "1"}, {"size": "1"}, {"size": "1"}, {"size": "128"}]}}}}}, {"name": "StatefulPartitionedCall/asl_resnet50_improved_1/resnet50_1/conv3_block1_3_conv_1/convolution/ReadVariableOp", "op": "Const", "attr": {"dtype": {"type": "DT_FLOAT"}, "value": {"tensor": {"dtype": "DT_FLOAT", "tensorShape": {"dim": [{"size": "1"}, {"size": "1"}, {"size": "128"}, {"size": "512"}]}}}}}, {"name": "StatefulPartitionedCall/asl_resnet50_improved_1/resnet50_1/conv3_block1_3_conv_1/Squeeze", "op": "Const", "attr": {"dtype": {"type": "DT_FLOAT"}, "value": {"tensor": {"dtype": "DT_FLOAT", "tensorShape": {"dim": [{"size": "512"}]}}}}}, {"name": "StatefulPartitionedCall/asl_resnet50_improved_1/resnet50_1/conv3_block1_3_bn_1/batchnorm/mul", "op": "Const", "attr": {"dtype": {"type": "DT_FLOAT"}, "value": {"tensor": {"dtype": "DT_FLOAT", "tensorShape": {"dim": [{"size": "1"}, {"size": "1"}, {"size": "1"}, {"size": "512"}]}}}}}, {"name": "StatefulPartitionedCall/asl_resnet50_improved_1/resnet50_1/conv3_block1_3_bn_1/batchnorm/sub", "op": "Const", "attr": {"dtype": {"type": "DT_FLOAT"}, "value": {"tensor": {"dtype": "DT_FLOAT", "tensorShape": {"dim": [{"size": "1"}, {"size": "1"}, {"size": "1"}, {"size": "512"}]}}}}}, {"name": "StatefulPartitionedCall/asl_resnet50_improved_1/resnet50_1/conv3_block2_1_conv_1/convolution/ReadVariableOp", "op": "Const", "attr": {"dtype": {"type": "DT_FLOAT"}, "value": {"tensor": {"dtype": "DT_FLOAT", "tensorShape": {"dim": [{"size": "1"}, {"size": "1"}, {"size": "512"}, {"size": "128"}]}}}}}, {"name": "StatefulPartitionedCall/asl_resnet50_improved_1/resnet50_1/conv3_block2_1_conv_1/Squeeze", "op": "Const", "attr": {"dtype": {"type": "DT_FLOAT"}, "value": {"tensor": {"dtype": "DT_FLOAT", "tensorShape": {"dim": [{"size": "128"}]}}}}}, {"name": "StatefulPartitionedCall/asl_resnet50_improved_1/resnet50_1/conv3_block2_1_bn_1/batchnorm/mul", "op": "Const", "attr": {"dtype": {"type": "DT_FLOAT"}, "value": {"tensor": {"dtype": "DT_FLOAT", "tensorShape": {"dim": [{"size": "1"}, {"size": "1"}, {"size": "1"}, {"size": "128"}]}}}}}, {"name": "StatefulPartitionedCall/asl_resnet50_improved_1/resnet50_1/conv3_block2_1_bn_1/batchnorm/sub", "op": "Const", "attr": {"dtype": {"type": "DT_FLOAT"}, "value": {"tensor": {"dtype": "DT_FLOAT", "tensorShape": {"dim": [{"size": "1"}, {"size": "1"}, {"size": "1"}, {"size": "128"}]}}}}}, {"name": "StatefulPartitionedCall/asl_resnet50_improved_1/resnet50_1/conv3_block2_2_conv_1/convolution/ReadVariableOp", "op": "Const", "attr": {"dtype": {"type": "DT_FLOAT"}, "value": {"tensor": {"dtype": "DT_FLOAT", "tensorShape": {"dim": [{"size": "3"}, {"size": "3"}, {"size": "128"}, {"size": "128"}]}}}}}, {"name": "StatefulPartitionedCall/asl_resnet50_improved_1/resnet50_1/conv3_block2_2_conv_1/Squeeze", "op": "Const", "attr": {"dtype": {"type": "DT_FLOAT"}, "value": {"tensor": {"dtype": "DT_FLOAT", "tensorShape": {"dim": [{"size": "128"}]}}}}}, {"name": "StatefulPartitionedCall/asl_resnet50_improved_1/resnet50_1/conv3_block2_2_bn_1/batchnorm/mul", "op": "Const", "attr": {"dtype": {"type": "DT_FLOAT"}, "value": {"tensor": {"dtype": "DT_FLOAT", "tensorShape": {"dim": [{"size": "1"}, {"size": "1"}, {"size": "1"}, {"size": "128"}]}}}}}, {"name": "StatefulPartitionedCall/asl_resnet50_improved_1/resnet50_1/conv3_block2_2_bn_1/batchnorm/sub", "op": "Const", "attr": {"dtype": {"type": "DT_FLOAT"}, "value": {"tensor": {"dtype": "DT_FLOAT", "tensorShape": {"dim": [{"size": "1"}, {"size": "1"}, {"size": "1"}, {"size": "128"}]}}}}}, {"name": "StatefulPartitionedCall/asl_resnet50_improved_1/resnet50_1/conv3_block2_3_conv_1/convolution/ReadVariableOp", "op": "Const", "attr": {"dtype": {"type": "DT_FLOAT"}, "value": {"tensor": {"dtype": "DT_FLOAT", "tensorShape": {"dim": [{"size": "1"}, {"size": "1"}, {"size": "128"}, {"size": "512"}]}}}}}, {"name": "StatefulPartitionedCall/asl_resnet50_improved_1/resnet50_1/conv3_block2_3_conv_1/Squeeze", "op": "Const", "attr": {"dtype": {"type": "DT_FLOAT"}, "value": {"tensor": {"dtype": "DT_FLOAT", "tensorShape": {"dim": [{"size": "512"}]}}}}}, {"name": "StatefulPartitionedCall/asl_resnet50_improved_1/resnet50_1/conv3_block2_3_bn_1/batchnorm/mul", "op": "Const", "attr": {"dtype": {"type": "DT_FLOAT"}, "value": {"tensor": {"dtype": "DT_FLOAT", "tensorShape": {"dim": [{"size": "1"}, {"size": "1"}, {"size": "1"}, {"size": "512"}]}}}}}, {"name": "StatefulPartitionedCall/asl_resnet50_improved_1/resnet50_1/conv3_block2_3_bn_1/batchnorm/sub", "op": "Const", "attr": {"dtype": {"type": "DT_FLOAT"}, "value": {"tensor": {"dtype": "DT_FLOAT", "tensorShape": {"dim": [{"size": "1"}, {"size": "1"}, {"size": "1"}, {"size": "512"}]}}}}}, {"name": "StatefulPartitionedCall/asl_resnet50_improved_1/resnet50_1/conv3_block3_1_conv_1/convolution/ReadVariableOp", "op": "Const", "attr": {"dtype": {"type": "DT_FLOAT"}, "value": {"tensor": {"dtype": "DT_FLOAT", "tensorShape": {"dim": [{"size": "1"}, {"size": "1"}, {"size": "512"}, {"size": "128"}]}}}}}, {"name": "StatefulPartitionedCall/asl_resnet50_improved_1/resnet50_1/conv3_block3_1_conv_1/Squeeze", "op": "Const", "attr": {"dtype": {"type": "DT_FLOAT"}, "value": {"tensor": {"dtype": "DT_FLOAT", "tensorShape": {"dim": [{"size": "128"}]}}}}}, {"name": "StatefulPartitionedCall/asl_resnet50_improved_1/resnet50_1/conv3_block3_1_bn_1/batchnorm/mul", "op": "Const", "attr": {"dtype": {"type": "DT_FLOAT"}, "value": {"tensor": {"dtype": "DT_FLOAT", "tensorShape": {"dim": [{"size": "1"}, {"size": "1"}, {"size": "1"}, {"size": "128"}]}}}}}, {"name": "StatefulPartitionedCall/asl_resnet50_improved_1/resnet50_1/conv3_block3_1_bn_1/batchnorm/sub", "op": "Const", "attr": {"dtype": {"type": "DT_FLOAT"}, "value": {"tensor": {"dtype": "DT_FLOAT", "tensorShape": {"dim": [{"size": "1"}, {"size": "1"}, {"size": "1"}, {"size": "128"}]}}}}}, {"name": "StatefulPartitionedCall/asl_resnet50_improved_1/resnet50_1/conv3_block3_2_conv_1/convolution/ReadVariableOp", "op": "Const", "attr": {"dtype": {"type": "DT_FLOAT"}, "value": {"tensor": {"dtype": "DT_FLOAT", "tensorShape": {"dim": [{"size": "3"}, {"size": "3"}, {"size": "128"}, {"size": "128"}]}}}}}, {"name": "StatefulPartitionedCall/asl_resnet50_improved_1/resnet50_1/conv3_block3_2_conv_1/Squeeze", "op": "Const", "attr": {"dtype": {"type": "DT_FLOAT"}, "value": {"tensor": {"dtype": "DT_FLOAT", "tensorShape": {"dim": [{"size": "128"}]}}}}}, {"name": "StatefulPartitionedCall/asl_resnet50_improved_1/resnet50_1/conv3_block3_2_bn_1/batchnorm/mul", "op": "Const", "attr": {"dtype": {"type": "DT_FLOAT"}, "value": {"tensor": {"dtype": "DT_FLOAT", "tensorShape": {"dim": [{"size": "1"}, {"size": "1"}, {"size": "1"}, {"size": "128"}]}}}}}, {"name": "StatefulPartitionedCall/asl_resnet50_improved_1/resnet50_1/conv3_block3_2_bn_1/batchnorm/sub", "op": "Const", "attr": {"dtype": {"type": "DT_FLOAT"}, "value": {"tensor": {"dtype": "DT_FLOAT", "tensorShape": {"dim": [{"size": "1"}, {"size": "1"}, {"size": "1"}, {"size": "128"}]}}}}}, {"name": "StatefulPartitionedCall/asl_resnet50_improved_1/resnet50_1/conv3_block3_3_conv_1/convolution/ReadVariableOp", "op": "Const", "attr": {"dtype": {"type": "DT_FLOAT"}, "value": {"tensor": {"dtype": "DT_FLOAT", "tensorShape": {"dim": [{"size": "1"}, {"size": "1"}, {"size": "128"}, {"size": "512"}]}}}}}, {"name": "StatefulPartitionedCall/asl_resnet50_improved_1/resnet50_1/conv3_block3_3_conv_1/Squeeze", "op": "Const", "attr": {"dtype": {"type": "DT_FLOAT"}, "value": {"tensor": {"dtype": "DT_FLOAT", "tensorShape": {"dim": [{"size": "512"}]}}}}}, {"name": "StatefulPartitionedCall/asl_resnet50_improved_1/resnet50_1/conv3_block3_3_bn_1/batchnorm/mul", "op": "Const", "attr": {"dtype": {"type": "DT_FLOAT"}, "value": {"tensor": {"dtype": "DT_FLOAT", "tensorShape": {"dim": [{"size": "1"}, {"size": "1"}, {"size": "1"}, {"size": "512"}]}}}}}, {"name": "StatefulPartitionedCall/asl_resnet50_improved_1/resnet50_1/conv3_block3_3_bn_1/batchnorm/sub", "op": "Const", "attr": {"dtype": {"type": "DT_FLOAT"}, "value": {"tensor": {"dtype": "DT_FLOAT", "tensorShape": {"dim": [{"size": "1"}, {"size": "1"}, {"size": "1"}, {"size": "512"}]}}}}}, {"name": "StatefulPartitionedCall/asl_resnet50_improved_1/resnet50_1/conv3_block4_1_conv_1/convolution/ReadVariableOp", "op": "Const", "attr": {"dtype": {"type": "DT_FLOAT"}, "value": {"tensor": {"dtype": "DT_FLOAT", "tensorShape": {"dim": [{"size": "1"}, {"size": "1"}, {"size": "512"}, {"size": "128"}]}}}}}, {"name": "StatefulPartitionedCall/asl_resnet50_improved_1/resnet50_1/conv3_block4_1_conv_1/Squeeze", "op": "Const", "attr": {"dtype": {"type": "DT_FLOAT"}, "value": {"tensor": {"dtype": "DT_FLOAT", "tensorShape": {"dim": [{"size": "128"}]}}}}}, {"name": "StatefulPartitionedCall/asl_resnet50_improved_1/resnet50_1/conv3_block4_1_bn_1/batchnorm/mul", "op": "Const", "attr": {"dtype": {"type": "DT_FLOAT"}, "value": {"tensor": {"dtype": "DT_FLOAT", "tensorShape": {"dim": [{"size": "1"}, {"size": "1"}, {"size": "1"}, {"size": "128"}]}}}}}, {"name": "StatefulPartitionedCall/asl_resnet50_improved_1/resnet50_1/conv3_block4_1_bn_1/batchnorm/sub", "op": "Const", "attr": {"dtype": {"type": "DT_FLOAT"}, "value": {"tensor": {"dtype": "DT_FLOAT", "tensorShape": {"dim": [{"size": "1"}, {"size": "1"}, {"size": "1"}, {"size": "128"}]}}}}}, {"name": "StatefulPartitionedCall/asl_resnet50_improved_1/resnet50_1/conv3_block4_2_conv_1/convolution/ReadVariableOp", "op": "Const", "attr": {"dtype": {"type": "DT_FLOAT"}, "value": {"tensor": {"dtype": "DT_FLOAT", "tensorShape": {"dim": [{"size": "3"}, {"size": "3"}, {"size": "128"}, {"size": "128"}]}}}}}, {"name": "StatefulPartitionedCall/asl_resnet50_improved_1/resnet50_1/conv3_block4_2_conv_1/Squeeze", "op": "Const", "attr": {"dtype": {"type": "DT_FLOAT"}, "value": {"tensor": {"dtype": "DT_FLOAT", "tensorShape": {"dim": [{"size": "128"}]}}}}}, {"name": "StatefulPartitionedCall/asl_resnet50_improved_1/resnet50_1/conv3_block4_2_bn_1/batchnorm/mul", "op": "Const", "attr": {"dtype": {"type": "DT_FLOAT"}, "value": {"tensor": {"dtype": "DT_FLOAT", "tensorShape": {"dim": [{"size": "1"}, {"size": "1"}, {"size": "1"}, {"size": "128"}]}}}}}, {"name": "StatefulPartitionedCall/asl_resnet50_improved_1/resnet50_1/conv3_block4_2_bn_1/batchnorm/sub", "op": "Const", "attr": {"dtype": {"type": "DT_FLOAT"}, "value": {"tensor": {"dtype": "DT_FLOAT", "tensorShape": {"dim": [{"size": "1"}, {"size": "1"}, {"size": "1"}, {"size": "128"}]}}}}}, {"name": "StatefulPartitionedCall/asl_resnet50_improved_1/resnet50_1/conv3_block4_3_conv_1/convolution/ReadVariableOp", "op": "Const", "attr": {"dtype": {"type": "DT_FLOAT"}, "value": {"tensor": {"dtype": "DT_FLOAT", "tensorShape": {"dim": [{"size": "1"}, {"size": "1"}, {"size": "128"}, {"size": "512"}]}}}}}, {"name": "StatefulPartitionedCall/asl_resnet50_improved_1/resnet50_1/conv3_block4_3_conv_1/Squeeze", "op": "Const", "attr": {"dtype": {"type": "DT_FLOAT"}, "value": {"tensor": {"dtype": "DT_FLOAT", "tensorShape": {"dim": [{"size": "512"}]}}}}}, {"name": "StatefulPartitionedCall/asl_resnet50_improved_1/resnet50_1/conv3_block4_3_bn_1/batchnorm/mul", "op": "Const", "attr": {"dtype": {"type": "DT_FLOAT"}, "value": {"tensor": {"dtype": "DT_FLOAT", "tensorShape": {"dim": [{"size": "1"}, {"size": "1"}, {"size": "1"}, {"size": "512"}]}}}}}, {"name": "StatefulPartitionedCall/asl_resnet50_improved_1/resnet50_1/conv3_block4_3_bn_1/batchnorm/sub", "op": "Const", "attr": {"dtype": {"type": "DT_FLOAT"}, "value": {"tensor": {"dtype": "DT_FLOAT", "tensorShape": {"dim": [{"size": "1"}, {"size": "1"}, {"size": "1"}, {"size": "512"}]}}}}}, {"name": "StatefulPartitionedCall/asl_resnet50_improved_1/resnet50_1/conv4_block1_1_conv_1/convolution/ReadVariableOp", "op": "Const", "attr": {"dtype": {"type": "DT_FLOAT"}, "value": {"tensor": {"dtype": "DT_FLOAT", "tensorShape": {"dim": [{"size": "1"}, {"size": "1"}, {"size": "512"}, {"size": "256"}]}}}}}, {"name": "StatefulPartitionedCall/asl_resnet50_improved_1/resnet50_1/conv4_block1_1_conv_1/Squeeze", "op": "Const", "attr": {"dtype": {"type": "DT_FLOAT"}, "value": {"tensor": {"dtype": "DT_FLOAT", "tensorShape": {"dim": [{"size": "256"}]}}}}}, {"name": "StatefulPartitionedCall/asl_resnet50_improved_1/resnet50_1/conv4_block1_1_bn_1/batchnorm/mul", "op": "Const", "attr": {"dtype": {"type": "DT_FLOAT"}, "value": {"tensor": {"dtype": "DT_FLOAT", "tensorShape": {"dim": [{"size": "1"}, {"size": "1"}, {"size": "1"}, {"size": "256"}]}}}}}, {"name": "StatefulPartitionedCall/asl_resnet50_improved_1/resnet50_1/conv4_block1_1_bn_1/batchnorm/sub", "op": "Const", "attr": {"dtype": {"type": "DT_FLOAT"}, "value": {"tensor": {"dtype": "DT_FLOAT", "tensorShape": {"dim": [{"size": "1"}, {"size": "1"}, {"size": "1"}, {"size": "256"}]}}}}}, {"name": "StatefulPartitionedCall/asl_resnet50_improved_1/resnet50_1/conv4_block1_2_conv_1/convolution/ReadVariableOp", "op": "Const", "attr": {"dtype": {"type": "DT_FLOAT"}, "value": {"tensor": {"dtype": "DT_FLOAT", "tensorShape": {"dim": [{"size": "3"}, {"size": "3"}, {"size": "256"}, {"size": "256"}]}}}}}, {"name": "StatefulPartitionedCall/asl_resnet50_improved_1/resnet50_1/conv4_block1_2_conv_1/Squeeze", "op": "Const", "attr": {"dtype": {"type": "DT_FLOAT"}, "value": {"tensor": {"dtype": "DT_FLOAT", "tensorShape": {"dim": [{"size": "256"}]}}}}}, {"name": "StatefulPartitionedCall/asl_resnet50_improved_1/resnet50_1/conv4_block1_2_bn_1/batchnorm/mul", "op": "Const", "attr": {"dtype": {"type": "DT_FLOAT"}, "value": {"tensor": {"dtype": "DT_FLOAT", "tensorShape": {"dim": [{"size": "1"}, {"size": "1"}, {"size": "1"}, {"size": "256"}]}}}}}, {"name": "StatefulPartitionedCall/asl_resnet50_improved_1/resnet50_1/conv4_block1_2_bn_1/batchnorm/sub", "op": "Const", "attr": {"dtype": {"type": "DT_FLOAT"}, "value": {"tensor": {"dtype": "DT_FLOAT", "tensorShape": {"dim": [{"size": "1"}, {"size": "1"}, {"size": "1"}, {"size": "256"}]}}}}}, {"name": "StatefulPartitionedCall/asl_resnet50_improved_1/resnet50_1/conv4_block1_3_conv_1/convolution/ReadVariableOp", "op": "Const", "attr": {"dtype": {"type": "DT_FLOAT"}, "value": {"tensor": {"dtype": "DT_FLOAT", "tensorShape": {"dim": [{"size": "1"}, {"size": "1"}, {"size": "256"}, {"size": "1024"}]}}}}}, {"name": "StatefulPartitionedCall/asl_resnet50_improved_1/resnet50_1/conv4_block1_3_conv_1/Squeeze", "op": "Const", "attr": {"dtype": {"type": "DT_FLOAT"}, "value": {"tensor": {"dtype": "DT_FLOAT", "tensorShape": {"dim": [{"size": "1024"}]}}}}}, {"name": "StatefulPartitionedCall/asl_resnet50_improved_1/resnet50_1/conv4_block1_3_bn_1/batchnorm/mul", "op": "Const", "attr": {"dtype": {"type": "DT_FLOAT"}, "value": {"tensor": {"dtype": "DT_FLOAT", "tensorShape": {"dim": [{"size": "1"}, {"size": "1"}, {"size": "1"}, {"size": "1024"}]}}}}}, {"name": "StatefulPartitionedCall/asl_resnet50_improved_1/resnet50_1/conv4_block1_3_bn_1/batchnorm/sub", "op": "Const", "attr": {"dtype": {"type": "DT_FLOAT"}, "value": {"tensor": {"dtype": "DT_FLOAT", "tensorShape": {"dim": [{"size": "1"}, {"size": "1"}, {"size": "1"}, {"size": "1024"}]}}}}}, {"name": "StatefulPartitionedCall/asl_resnet50_improved_1/resnet50_1/conv4_block2_1_conv_1/convolution/ReadVariableOp", "op": "Const", "attr": {"dtype": {"type": "DT_FLOAT"}, "value": {"tensor": {"dtype": "DT_FLOAT", "tensorShape": {"dim": [{"size": "1"}, {"size": "1"}, {"size": "1024"}, {"size": "256"}]}}}}}, {"name": "StatefulPartitionedCall/asl_resnet50_improved_1/resnet50_1/conv4_block2_1_conv_1/Squeeze", "op": "Const", "attr": {"dtype": {"type": "DT_FLOAT"}, "value": {"tensor": {"dtype": "DT_FLOAT", "tensorShape": {"dim": [{"size": "256"}]}}}}}, {"name": "StatefulPartitionedCall/asl_resnet50_improved_1/resnet50_1/conv4_block2_1_bn_1/batchnorm/mul", "op": "Const", "attr": {"dtype": {"type": "DT_FLOAT"}, "value": {"tensor": {"dtype": "DT_FLOAT", "tensorShape": {"dim": [{"size": "1"}, {"size": "1"}, {"size": "1"}, {"size": "256"}]}}}}}, {"name": "StatefulPartitionedCall/asl_resnet50_improved_1/resnet50_1/conv4_block2_1_bn_1/batchnorm/sub", "op": "Const", "attr": {"dtype": {"type": "DT_FLOAT"}, "value": {"tensor": {"dtype": "DT_FLOAT", "tensorShape": {"dim": [{"size": "1"}, {"size": "1"}, {"size": "1"}, {"size": "256"}]}}}}}, {"name": "StatefulPartitionedCall/asl_resnet50_improved_1/resnet50_1/conv4_block2_2_conv_1/convolution/ReadVariableOp", "op": "Const", "attr": {"dtype": {"type": "DT_FLOAT"}, "value": {"tensor": {"dtype": "DT_FLOAT", "tensorShape": {"dim": [{"size": "3"}, {"size": "3"}, {"size": "256"}, {"size": "256"}]}}}}}, {"name": "StatefulPartitionedCall/asl_resnet50_improved_1/resnet50_1/conv4_block2_2_conv_1/Squeeze", "op": "Const", "attr": {"dtype": {"type": "DT_FLOAT"}, "value": {"tensor": {"dtype": "DT_FLOAT", "tensorShape": {"dim": [{"size": "256"}]}}}}}, {"name": "StatefulPartitionedCall/asl_resnet50_improved_1/resnet50_1/conv4_block2_2_bn_1/batchnorm/mul", "op": "Const", "attr": {"dtype": {"type": "DT_FLOAT"}, "value": {"tensor": {"dtype": "DT_FLOAT", "tensorShape": {"dim": [{"size": "1"}, {"size": "1"}, {"size": "1"}, {"size": "256"}]}}}}}, {"name": "StatefulPartitionedCall/asl_resnet50_improved_1/resnet50_1/conv4_block2_2_bn_1/batchnorm/sub", "op": "Const", "attr": {"dtype": {"type": "DT_FLOAT"}, "value": {"tensor": {"dtype": "DT_FLOAT", "tensorShape": {"dim": [{"size": "1"}, {"size": "1"}, {"size": "1"}, {"size": "256"}]}}}}}, {"name": "StatefulPartitionedCall/asl_resnet50_improved_1/resnet50_1/conv4_block2_3_conv_1/convolution/ReadVariableOp", "op": "Const", "attr": {"dtype": {"type": "DT_FLOAT"}, "value": {"tensor": {"dtype": "DT_FLOAT", "tensorShape": {"dim": [{"size": "1"}, {"size": "1"}, {"size": "256"}, {"size": "1024"}]}}}}}, {"name": "StatefulPartitionedCall/asl_resnet50_improved_1/resnet50_1/conv4_block2_3_conv_1/Squeeze", "op": "Const", "attr": {"dtype": {"type": "DT_FLOAT"}, "value": {"tensor": {"dtype": "DT_FLOAT", "tensorShape": {"dim": [{"size": "1024"}]}}}}}, {"name": "StatefulPartitionedCall/asl_resnet50_improved_1/resnet50_1/conv4_block2_3_bn_1/batchnorm/mul", "op": "Const", "attr": {"dtype": {"type": "DT_FLOAT"}, "value": {"tensor": {"dtype": "DT_FLOAT", "tensorShape": {"dim": [{"size": "1"}, {"size": "1"}, {"size": "1"}, {"size": "1024"}]}}}}}, {"name": "StatefulPartitionedCall/asl_resnet50_improved_1/resnet50_1/conv4_block2_3_bn_1/batchnorm/sub", "op": "Const", "attr": {"dtype": {"type": "DT_FLOAT"}, "value": {"tensor": {"dtype": "DT_FLOAT", "tensorShape": {"dim": [{"size": "1"}, {"size": "1"}, {"size": "1"}, {"size": "1024"}]}}}}}, {"name": "StatefulPartitionedCall/asl_resnet50_improved_1/resnet50_1/conv4_block3_1_conv_1/convolution/ReadVariableOp", "op": "Const", "attr": {"dtype": {"type": "DT_FLOAT"}, "value": {"tensor": {"dtype": "DT_FLOAT", "tensorShape": {"dim": [{"size": "1"}, {"size": "1"}, {"size": "1024"}, {"size": "256"}]}}}}}, {"name": "StatefulPartitionedCall/asl_resnet50_improved_1/resnet50_1/conv4_block3_1_conv_1/Squeeze", "op": "Const", "attr": {"dtype": {"type": "DT_FLOAT"}, "value": {"tensor": {"dtype": "DT_FLOAT", "tensorShape": {"dim": [{"size": "256"}]}}}}}, {"name": "StatefulPartitionedCall/asl_resnet50_improved_1/resnet50_1/conv4_block3_1_bn_1/batchnorm/mul", "op": "Const", "attr": {"dtype": {"type": "DT_FLOAT"}, "value": {"tensor": {"dtype": "DT_FLOAT", "tensorShape": {"dim": [{"size": "1"}, {"size": "1"}, {"size": "1"}, {"size": "256"}]}}}}}, {"name": "StatefulPartitionedCall/asl_resnet50_improved_1/resnet50_1/conv4_block3_1_bn_1/batchnorm/sub", "op": "Const", "attr": {"dtype": {"type": "DT_FLOAT"}, "value": {"tensor": {"dtype": "DT_FLOAT", "tensorShape": {"dim": [{"size": "1"}, {"size": "1"}, {"size": "1"}, {"size": "256"}]}}}}}, {"name": "StatefulPartitionedCall/asl_resnet50_improved_1/resnet50_1/conv4_block3_2_conv_1/convolution/ReadVariableOp", "op": "Const", "attr": {"dtype": {"type": "DT_FLOAT"}, "value": {"tensor": {"dtype": "DT_FLOAT", "tensorShape": {"dim": [{"size": "3"}, {"size": "3"}, {"size": "256"}, {"size": "256"}]}}}}}, {"name": "StatefulPartitionedCall/asl_resnet50_improved_1/resnet50_1/conv4_block3_2_conv_1/Squeeze", "op": "Const", "attr": {"dtype": {"type": "DT_FLOAT"}, "value": {"tensor": {"dtype": "DT_FLOAT", "tensorShape": {"dim": [{"size": "256"}]}}}}}, {"name": "StatefulPartitionedCall/asl_resnet50_improved_1/resnet50_1/conv4_block3_2_bn_1/batchnorm/mul", "op": "Const", "attr": {"dtype": {"type": "DT_FLOAT"}, "value": {"tensor": {"dtype": "DT_FLOAT", "tensorShape": {"dim": [{"size": "1"}, {"size": "1"}, {"size": "1"}, {"size": "256"}]}}}}}, {"name": "StatefulPartitionedCall/asl_resnet50_improved_1/resnet50_1/conv4_block3_2_bn_1/batchnorm/sub", "op": "Const", "attr": {"dtype": {"type": "DT_FLOAT"}, "value": {"tensor": {"dtype": "DT_FLOAT", "tensorShape": {"dim": [{"size": "1"}, {"size": "1"}, {"size": "1"}, {"size": "256"}]}}}}}, {"name": "StatefulPartitionedCall/asl_resnet50_improved_1/resnet50_1/conv4_block3_3_conv_1/convolution/ReadVariableOp", "op": "Const", "attr": {"dtype": {"type": "DT_FLOAT"}, "value": {"tensor": {"dtype": "DT_FLOAT", "tensorShape": {"dim": [{"size": "1"}, {"size": "1"}, {"size": "256"}, {"size": "1024"}]}}}}}, {"name": "StatefulPartitionedCall/asl_resnet50_improved_1/resnet50_1/conv4_block3_3_conv_1/Squeeze", "op": "Const", "attr": {"dtype": {"type": "DT_FLOAT"}, "value": {"tensor": {"dtype": "DT_FLOAT", "tensorShape": {"dim": [{"size": "1024"}]}}}}}, {"name": "StatefulPartitionedCall/asl_resnet50_improved_1/resnet50_1/conv4_block3_3_bn_1/batchnorm/mul", "op": "Const", "attr": {"dtype": {"type": "DT_FLOAT"}, "value": {"tensor": {"dtype": "DT_FLOAT", "tensorShape": {"dim": [{"size": "1"}, {"size": "1"}, {"size": "1"}, {"size": "1024"}]}}}}}, {"name": "StatefulPartitionedCall/asl_resnet50_improved_1/resnet50_1/conv4_block3_3_bn_1/batchnorm/sub", "op": "Const", "attr": {"dtype": {"type": "DT_FLOAT"}, "value": {"tensor": {"dtype": "DT_FLOAT", "tensorShape": {"dim": [{"size": "1"}, {"size": "1"}, {"size": "1"}, {"size": "1024"}]}}}}}, {"name": "StatefulPartitionedCall/asl_resnet50_improved_1/resnet50_1/conv4_block4_1_conv_1/convolution/ReadVariableOp", "op": "Const", "attr": {"dtype": {"type": "DT_FLOAT"}, "value": {"tensor": {"dtype": "DT_FLOAT", "tensorShape": {"dim": [{"size": "1"}, {"size": "1"}, {"size": "1024"}, {"size": "256"}]}}}}}, {"name": "StatefulPartitionedCall/asl_resnet50_improved_1/resnet50_1/conv4_block4_1_conv_1/Squeeze", "op": "Const", "attr": {"dtype": {"type": "DT_FLOAT"}, "value": {"tensor": {"dtype": "DT_FLOAT", "tensorShape": {"dim": [{"size": "256"}]}}}}}, {"name": "StatefulPartitionedCall/asl_resnet50_improved_1/resnet50_1/conv4_block4_1_bn_1/batchnorm/mul", "op": "Const", "attr": {"dtype": {"type": "DT_FLOAT"}, "value": {"tensor": {"dtype": "DT_FLOAT", "tensorShape": {"dim": [{"size": "1"}, {"size": "1"}, {"size": "1"}, {"size": "256"}]}}}}}, {"name": "StatefulPartitionedCall/asl_resnet50_improved_1/resnet50_1/conv4_block4_1_bn_1/batchnorm/sub", "op": "Const", "attr": {"dtype": {"type": "DT_FLOAT"}, "value": {"tensor": {"dtype": "DT_FLOAT", "tensorShape": {"dim": [{"size": "1"}, {"size": "1"}, {"size": "1"}, {"size": "256"}]}}}}}, {"name": "StatefulPartitionedCall/asl_resnet50_improved_1/resnet50_1/conv4_block4_2_conv_1/convolution/ReadVariableOp", "op": "Const", "attr": {"dtype": {"type": "DT_FLOAT"}, "value": {"tensor": {"dtype": "DT_FLOAT", "tensorShape": {"dim": [{"size": "3"}, {"size": "3"}, {"size": "256"}, {"size": "256"}]}}}}}, {"name": "StatefulPartitionedCall/asl_resnet50_improved_1/resnet50_1/conv4_block4_2_conv_1/Squeeze", "op": "Const", "attr": {"dtype": {"type": "DT_FLOAT"}, "value": {"tensor": {"dtype": "DT_FLOAT", "tensorShape": {"dim": [{"size": "256"}]}}}}}, {"name": "StatefulPartitionedCall/asl_resnet50_improved_1/resnet50_1/conv4_block4_2_bn_1/batchnorm/mul", "op": "Const", "attr": {"dtype": {"type": "DT_FLOAT"}, "value": {"tensor": {"dtype": "DT_FLOAT", "tensorShape": {"dim": [{"size": "1"}, {"size": "1"}, {"size": "1"}, {"size": "256"}]}}}}}, {"name": "StatefulPartitionedCall/asl_resnet50_improved_1/resnet50_1/conv4_block4_2_bn_1/batchnorm/sub", "op": "Const", "attr": {"dtype": {"type": "DT_FLOAT"}, "value": {"tensor": {"dtype": "DT_FLOAT", "tensorShape": {"dim": [{"size": "1"}, {"size": "1"}, {"size": "1"}, {"size": "256"}]}}}}}, {"name": "StatefulPartitionedCall/asl_resnet50_improved_1/resnet50_1/conv4_block4_3_conv_1/convolution/ReadVariableOp", "op": "Const", "attr": {"dtype": {"type": "DT_FLOAT"}, "value": {"tensor": {"dtype": "DT_FLOAT", "tensorShape": {"dim": [{"size": "1"}, {"size": "1"}, {"size": "256"}, {"size": "1024"}]}}}}}, {"name": "StatefulPartitionedCall/asl_resnet50_improved_1/resnet50_1/conv4_block4_3_conv_1/Squeeze", "op": "Const", "attr": {"dtype": {"type": "DT_FLOAT"}, "value": {"tensor": {"dtype": "DT_FLOAT", "tensorShape": {"dim": [{"size": "1024"}]}}}}}, {"name": "StatefulPartitionedCall/asl_resnet50_improved_1/resnet50_1/conv4_block4_3_bn_1/batchnorm/mul", "op": "Const", "attr": {"dtype": {"type": "DT_FLOAT"}, "value": {"tensor": {"dtype": "DT_FLOAT", "tensorShape": {"dim": [{"size": "1"}, {"size": "1"}, {"size": "1"}, {"size": "1024"}]}}}}}, {"name": "StatefulPartitionedCall/asl_resnet50_improved_1/resnet50_1/conv4_block4_3_bn_1/batchnorm/sub", "op": "Const", "attr": {"dtype": {"type": "DT_FLOAT"}, "value": {"tensor": {"dtype": "DT_FLOAT", "tensorShape": {"dim": [{"size": "1"}, {"size": "1"}, {"size": "1"}, {"size": "1024"}]}}}}}, {"name": "StatefulPartitionedCall/asl_resnet50_improved_1/resnet50_1/conv4_block5_1_conv_1/convolution/ReadVariableOp", "op": "Const", "attr": {"dtype": {"type": "DT_FLOAT"}, "value": {"tensor": {"dtype": "DT_FLOAT", "tensorShape": {"dim": [{"size": "1"}, {"size": "1"}, {"size": "1024"}, {"size": "256"}]}}}}}, {"name": "StatefulPartitionedCall/asl_resnet50_improved_1/resnet50_1/conv4_block5_1_conv_1/Squeeze", "op": "Const", "attr": {"dtype": {"type": "DT_FLOAT"}, "value": {"tensor": {"dtype": "DT_FLOAT", "tensorShape": {"dim": [{"size": "256"}]}}}}}, {"name": "StatefulPartitionedCall/asl_resnet50_improved_1/resnet50_1/conv4_block5_1_bn_1/batchnorm/mul", "op": "Const", "attr": {"dtype": {"type": "DT_FLOAT"}, "value": {"tensor": {"dtype": "DT_FLOAT", "tensorShape": {"dim": [{"size": "1"}, {"size": "1"}, {"size": "1"}, {"size": "256"}]}}}}}, {"name": "StatefulPartitionedCall/asl_resnet50_improved_1/resnet50_1/conv4_block5_1_bn_1/batchnorm/sub", "op": "Const", "attr": {"dtype": {"type": "DT_FLOAT"}, "value": {"tensor": {"dtype": "DT_FLOAT", "tensorShape": {"dim": [{"size": "1"}, {"size": "1"}, {"size": "1"}, {"size": "256"}]}}}}}, {"name": "StatefulPartitionedCall/asl_resnet50_improved_1/resnet50_1/conv4_block5_2_conv_1/convolution/ReadVariableOp", "op": "Const", "attr": {"dtype": {"type": "DT_FLOAT"}, "value": {"tensor": {"dtype": "DT_FLOAT", "tensorShape": {"dim": [{"size": "3"}, {"size": "3"}, {"size": "256"}, {"size": "256"}]}}}}}, {"name": "StatefulPartitionedCall/asl_resnet50_improved_1/resnet50_1/conv4_block5_2_conv_1/Squeeze", "op": "Const", "attr": {"dtype": {"type": "DT_FLOAT"}, "value": {"tensor": {"dtype": "DT_FLOAT", "tensorShape": {"dim": [{"size": "256"}]}}}}}, {"name": "StatefulPartitionedCall/asl_resnet50_improved_1/resnet50_1/conv4_block5_2_bn_1/batchnorm/mul", "op": "Const", "attr": {"dtype": {"type": "DT_FLOAT"}, "value": {"tensor": {"dtype": "DT_FLOAT", "tensorShape": {"dim": [{"size": "1"}, {"size": "1"}, {"size": "1"}, {"size": "256"}]}}}}}, {"name": "StatefulPartitionedCall/asl_resnet50_improved_1/resnet50_1/conv4_block5_2_bn_1/batchnorm/sub", "op": "Const", "attr": {"dtype": {"type": "DT_FLOAT"}, "value": {"tensor": {"dtype": "DT_FLOAT", "tensorShape": {"dim": [{"size": "1"}, {"size": "1"}, {"size": "1"}, {"size": "256"}]}}}}}, {"name": "StatefulPartitionedCall/asl_resnet50_improved_1/resnet50_1/conv4_block5_3_conv_1/convolution/ReadVariableOp", "op": "Const", "attr": {"dtype": {"type": "DT_FLOAT"}, "value": {"tensor": {"dtype": "DT_FLOAT", "tensorShape": {"dim": [{"size": "1"}, {"size": "1"}, {"size": "256"}, {"size": "1024"}]}}}}}, {"name": "StatefulPartitionedCall/asl_resnet50_improved_1/resnet50_1/conv4_block5_3_conv_1/Squeeze", "op": "Const", "attr": {"dtype": {"type": "DT_FLOAT"}, "value": {"tensor": {"dtype": "DT_FLOAT", "tensorShape": {"dim": [{"size": "1024"}]}}}}}, {"name": "StatefulPartitionedCall/asl_resnet50_improved_1/resnet50_1/conv4_block5_3_bn_1/batchnorm/mul", "op": "Const", "attr": {"dtype": {"type": "DT_FLOAT"}, "value": {"tensor": {"dtype": "DT_FLOAT", "tensorShape": {"dim": [{"size": "1"}, {"size": "1"}, {"size": "1"}, {"size": "1024"}]}}}}}, {"name": "StatefulPartitionedCall/asl_resnet50_improved_1/resnet50_1/conv4_block5_3_bn_1/batchnorm/sub", "op": "Const", "attr": {"dtype": {"type": "DT_FLOAT"}, "value": {"tensor": {"dtype": "DT_FLOAT", "tensorShape": {"dim": [{"size": "1"}, {"size": "1"}, {"size": "1"}, {"size": "1024"}]}}}}}, {"name": "StatefulPartitionedCall/asl_resnet50_improved_1/resnet50_1/conv4_block6_1_conv_1/convolution/ReadVariableOp", "op": "Const", "attr": {"dtype": {"type": "DT_FLOAT"}, "value": {"tensor": {"dtype": "DT_FLOAT", "tensorShape": {"dim": [{"size": "1"}, {"size": "1"}, {"size": "1024"}, {"size": "256"}]}}}}}, {"name": "StatefulPartitionedCall/asl_resnet50_improved_1/resnet50_1/conv4_block6_1_conv_1/Squeeze", "op": "Const", "attr": {"dtype": {"type": "DT_FLOAT"}, "value": {"tensor": {"dtype": "DT_FLOAT", "tensorShape": {"dim": [{"size": "256"}]}}}}}, {"name": "StatefulPartitionedCall/asl_resnet50_improved_1/resnet50_1/conv4_block6_1_bn_1/batchnorm/mul", "op": "Const", "attr": {"dtype": {"type": "DT_FLOAT"}, "value": {"tensor": {"dtype": "DT_FLOAT", "tensorShape": {"dim": [{"size": "1"}, {"size": "1"}, {"size": "1"}, {"size": "256"}]}}}}}, {"name": "StatefulPartitionedCall/asl_resnet50_improved_1/resnet50_1/conv4_block6_1_bn_1/batchnorm/sub", "op": "Const", "attr": {"dtype": {"type": "DT_FLOAT"}, "value": {"tensor": {"dtype": "DT_FLOAT", "tensorShape": {"dim": [{"size": "1"}, {"size": "1"}, {"size": "1"}, {"size": "256"}]}}}}}, {"name": "StatefulPartitionedCall/asl_resnet50_improved_1/resnet50_1/conv4_block6_2_conv_1/convolution/ReadVariableOp", "op": "Const", "attr": {"dtype": {"type": "DT_FLOAT"}, "value": {"tensor": {"dtype": "DT_FLOAT", "tensorShape": {"dim": [{"size": "3"}, {"size": "3"}, {"size": "256"}, {"size": "256"}]}}}}}, {"name": "StatefulPartitionedCall/asl_resnet50_improved_1/resnet50_1/conv4_block6_2_conv_1/Squeeze", "op": "Const", "attr": {"dtype": {"type": "DT_FLOAT"}, "value": {"tensor": {"dtype": "DT_FLOAT", "tensorShape": {"dim": [{"size": "256"}]}}}}}, {"name": "StatefulPartitionedCall/asl_resnet50_improved_1/resnet50_1/conv4_block6_2_bn_1/batchnorm/mul", "op": "Const", "attr": {"dtype": {"type": "DT_FLOAT"}, "value": {"tensor": {"dtype": "DT_FLOAT", "tensorShape": {"dim": [{"size": "1"}, {"size": "1"}, {"size": "1"}, {"size": "256"}]}}}}}, {"name": "StatefulPartitionedCall/asl_resnet50_improved_1/resnet50_1/conv4_block6_2_bn_1/batchnorm/sub", "op": "Const", "attr": {"dtype": {"type": "DT_FLOAT"}, "value": {"tensor": {"dtype": "DT_FLOAT", "tensorShape": {"dim": [{"size": "1"}, {"size": "1"}, {"size": "1"}, {"size": "256"}]}}}}}, {"name": "StatefulPartitionedCall/asl_resnet50_improved_1/resnet50_1/conv4_block6_3_conv_1/convolution/ReadVariableOp", "op": "Const", "attr": {"dtype": {"type": "DT_FLOAT"}, "value": {"tensor": {"dtype": "DT_FLOAT", "tensorShape": {"dim": [{"size": "1"}, {"size": "1"}, {"size": "256"}, {"size": "1024"}]}}}}}, {"name": "StatefulPartitionedCall/asl_resnet50_improved_1/resnet50_1/conv4_block6_3_conv_1/Squeeze", "op": "Const", "attr": {"dtype": {"type": "DT_FLOAT"}, "value": {"tensor": {"dtype": "DT_FLOAT", "tensorShape": {"dim": [{"size": "1024"}]}}}}}, {"name": "StatefulPartitionedCall/asl_resnet50_improved_1/resnet50_1/conv4_block6_3_bn_1/batchnorm/mul", "op": "Const", "attr": {"dtype": {"type": "DT_FLOAT"}, "value": {"tensor": {"dtype": "DT_FLOAT", "tensorShape": {"dim": [{"size": "1"}, {"size": "1"}, {"size": "1"}, {"size": "1024"}]}}}}}, {"name": "StatefulPartitionedCall/asl_resnet50_improved_1/resnet50_1/conv4_block6_3_bn_1/batchnorm/sub", "op": "Const", "attr": {"dtype": {"type": "DT_FLOAT"}, "value": {"tensor": {"dtype": "DT_FLOAT", "tensorShape": {"dim": [{"size": "1"}, {"size": "1"}, {"size": "1"}, {"size": "1024"}]}}}}}, {"name": "StatefulPartitionedCall/asl_resnet50_improved_1/resnet50_1/conv5_block1_1_conv_1/convolution/ReadVariableOp", "op": "Const", "attr": {"dtype": {"type": "DT_FLOAT"}, "value": {"tensor": {"dtype": "DT_FLOAT", "tensorShape": {"dim": [{"size": "1"}, {"size": "1"}, {"size": "1024"}, {"size": "512"}]}}}}}, {"name": "StatefulPartitionedCall/asl_resnet50_improved_1/resnet50_1/conv5_block1_1_conv_1/Squeeze", "op": "Const", "attr": {"dtype": {"type": "DT_FLOAT"}, "value": {"tensor": {"dtype": "DT_FLOAT", "tensorShape": {"dim": [{"size": "512"}]}}}}}, {"name": "StatefulPartitionedCall/asl_resnet50_improved_1/resnet50_1/conv5_block1_1_bn_1/batchnorm/mul", "op": "Const", "attr": {"dtype": {"type": "DT_FLOAT"}, "value": {"tensor": {"dtype": "DT_FLOAT", "tensorShape": {"dim": [{"size": "1"}, {"size": "1"}, {"size": "1"}, {"size": "512"}]}}}}}, {"name": "StatefulPartitionedCall/asl_resnet50_improved_1/resnet50_1/conv5_block1_1_bn_1/batchnorm/sub", "op": "Const", "attr": {"dtype": {"type": "DT_FLOAT"}, "value": {"tensor": {"dtype": "DT_FLOAT", "tensorShape": {"dim": [{"size": "1"}, {"size": "1"}, {"size": "1"}, {"size": "512"}]}}}}}, {"name": "StatefulPartitionedCall/asl_resnet50_improved_1/resnet50_1/conv5_block1_2_conv_1/convolution/ReadVariableOp", "op": "Const", "attr": {"dtype": {"type": "DT_FLOAT"}, "value": {"tensor": {"dtype": "DT_FLOAT", "tensorShape": {"dim": [{"size": "3"}, {"size": "3"}, {"size": "512"}, {"size": "512"}]}}}}}, {"name": "StatefulPartitionedCall/asl_resnet50_improved_1/resnet50_1/conv5_block1_2_conv_1/Squeeze", "op": "Const", "attr": {"dtype": {"type": "DT_FLOAT"}, "value": {"tensor": {"dtype": "DT_FLOAT", "tensorShape": {"dim": [{"size": "512"}]}}}}}, {"name": "StatefulPartitionedCall/asl_resnet50_improved_1/resnet50_1/conv5_block1_2_bn_1/batchnorm/mul", "op": "Const", "attr": {"dtype": {"type": "DT_FLOAT"}, "value": {"tensor": {"dtype": "DT_FLOAT", "tensorShape": {"dim": [{"size": "1"}, {"size": "1"}, {"size": "1"}, {"size": "512"}]}}}}}, {"name": "StatefulPartitionedCall/asl_resnet50_improved_1/resnet50_1/conv5_block1_2_bn_1/batchnorm/sub", "op": "Const", "attr": {"dtype": {"type": "DT_FLOAT"}, "value": {"tensor": {"dtype": "DT_FLOAT", "tensorShape": {"dim": [{"size": "1"}, {"size": "1"}, {"size": "1"}, {"size": "512"}]}}}}}, {"name": "StatefulPartitionedCall/asl_resnet50_improved_1/resnet50_1/conv5_block1_3_conv_1/convolution/ReadVariableOp", "op": "Const", "attr": {"dtype": {"type": "DT_FLOAT"}, "value": {"tensor": {"dtype": "DT_FLOAT", "tensorShape": {"dim": [{"size": "1"}, {"size": "1"}, {"size": "512"}, {"size": "2048"}]}}}}}, {"name": "StatefulPartitionedCall/asl_resnet50_improved_1/resnet50_1/conv5_block1_3_conv_1/Squeeze", "op": "Const", "attr": {"dtype": {"type": "DT_FLOAT"}, "value": {"tensor": {"dtype": "DT_FLOAT", "tensorShape": {"dim": [{"size": "2048"}]}}}}}, {"name": "StatefulPartitionedCall/asl_resnet50_improved_1/resnet50_1/conv5_block1_3_bn_1/batchnorm/mul", "op": "Const", "attr": {"dtype": {"type": "DT_FLOAT"}, "value": {"tensor": {"dtype": "DT_FLOAT", "tensorShape": {"dim": [{"size": "1"}, {"size": "1"}, {"size": "1"}, {"size": "2048"}]}}}}}, {"name": "StatefulPartitionedCall/asl_resnet50_improved_1/resnet50_1/conv5_block1_3_bn_1/batchnorm/sub", "op": "Const", "attr": {"dtype": {"type": "DT_FLOAT"}, "value": {"tensor": {"dtype": "DT_FLOAT", "tensorShape": {"dim": [{"size": "1"}, {"size": "1"}, {"size": "1"}, {"size": "2048"}]}}}}}, {"name": "StatefulPartitionedCall/asl_resnet50_improved_1/resnet50_1/conv5_block2_1_conv_1/convolution/ReadVariableOp", "op": "Const", "attr": {"dtype": {"type": "DT_FLOAT"}, "value": {"tensor": {"dtype": "DT_FLOAT", "tensorShape": {"dim": [{"size": "1"}, {"size": "1"}, {"size": "2048"}, {"size": "512"}]}}}}}, {"name": "StatefulPartitionedCall/asl_resnet50_improved_1/resnet50_1/conv5_block2_1_conv_1/Squeeze", "op": "Const", "attr": {"dtype": {"type": "DT_FLOAT"}, "value": {"tensor": {"dtype": "DT_FLOAT", "tensorShape": {"dim": [{"size": "512"}]}}}}}, {"name": "StatefulPartitionedCall/asl_resnet50_improved_1/resnet50_1/conv5_block2_1_bn_1/batchnorm/mul", "op": "Const", "attr": {"dtype": {"type": "DT_FLOAT"}, "value": {"tensor": {"dtype": "DT_FLOAT", "tensorShape": {"dim": [{"size": "1"}, {"size": "1"}, {"size": "1"}, {"size": "512"}]}}}}}, {"name": "StatefulPartitionedCall/asl_resnet50_improved_1/resnet50_1/conv5_block2_1_bn_1/batchnorm/sub", "op": "Const", "attr": {"dtype": {"type": "DT_FLOAT"}, "value": {"tensor": {"dtype": "DT_FLOAT", "tensorShape": {"dim": [{"size": "1"}, {"size": "1"}, {"size": "1"}, {"size": "512"}]}}}}}, {"name": "StatefulPartitionedCall/asl_resnet50_improved_1/resnet50_1/conv5_block2_2_conv_1/convolution/ReadVariableOp", "op": "Const", "attr": {"dtype": {"type": "DT_FLOAT"}, "value": {"tensor": {"dtype": "DT_FLOAT", "tensorShape": {"dim": [{"size": "3"}, {"size": "3"}, {"size": "512"}, {"size": "512"}]}}}}}, {"name": "StatefulPartitionedCall/asl_resnet50_improved_1/resnet50_1/conv5_block2_2_conv_1/Squeeze", "op": "Const", "attr": {"dtype": {"type": "DT_FLOAT"}, "value": {"tensor": {"dtype": "DT_FLOAT", "tensorShape": {"dim": [{"size": "512"}]}}}}}, {"name": "StatefulPartitionedCall/asl_resnet50_improved_1/resnet50_1/conv5_block2_2_bn_1/batchnorm/mul", "op": "Const", "attr": {"dtype": {"type": "DT_FLOAT"}, "value": {"tensor": {"dtype": "DT_FLOAT", "tensorShape": {"dim": [{"size": "1"}, {"size": "1"}, {"size": "1"}, {"size": "512"}]}}}}}, {"name": "StatefulPartitionedCall/asl_resnet50_improved_1/resnet50_1/conv5_block2_2_bn_1/batchnorm/sub", "op": "Const", "attr": {"dtype": {"type": "DT_FLOAT"}, "value": {"tensor": {"dtype": "DT_FLOAT", "tensorShape": {"dim": [{"size": "1"}, {"size": "1"}, {"size": "1"}, {"size": "512"}]}}}}}, {"name": "StatefulPartitionedCall/asl_resnet50_improved_1/resnet50_1/conv5_block2_3_conv_1/convolution/ReadVariableOp", "op": "Const", "attr": {"dtype": {"type": "DT_FLOAT"}, "value": {"tensor": {"dtype": "DT_FLOAT", "tensorShape": {"dim": [{"size": "1"}, {"size": "1"}, {"size": "512"}, {"size": "2048"}]}}}}}, {"name": "StatefulPartitionedCall/asl_resnet50_improved_1/resnet50_1/conv5_block2_3_conv_1/Squeeze", "op": "Const", "attr": {"dtype": {"type": "DT_FLOAT"}, "value": {"tensor": {"dtype": "DT_FLOAT", "tensorShape": {"dim": [{"size": "2048"}]}}}}}, {"name": "StatefulPartitionedCall/asl_resnet50_improved_1/resnet50_1/conv5_block2_3_bn_1/batchnorm/mul", "op": "Const", "attr": {"dtype": {"type": "DT_FLOAT"}, "value": {"tensor": {"dtype": "DT_FLOAT", "tensorShape": {"dim": [{"size": "1"}, {"size": "1"}, {"size": "1"}, {"size": "2048"}]}}}}}, {"name": "StatefulPartitionedCall/asl_resnet50_improved_1/resnet50_1/conv5_block2_3_bn_1/batchnorm/sub", "op": "Const", "attr": {"dtype": {"type": "DT_FLOAT"}, "value": {"tensor": {"dtype": "DT_FLOAT", "tensorShape": {"dim": [{"size": "1"}, {"size": "1"}, {"size": "1"}, {"size": "2048"}]}}}}}, {"name": "StatefulPartitionedCall/asl_resnet50_improved_1/resnet50_1/conv5_block3_1_conv_1/convolution/ReadVariableOp", "op": "Const", "attr": {"dtype": {"type": "DT_FLOAT"}, "value": {"tensor": {"dtype": "DT_FLOAT", "tensorShape": {"dim": [{"size": "1"}, {"size": "1"}, {"size": "2048"}, {"size": "512"}]}}}}}, {"name": "StatefulPartitionedCall/asl_resnet50_improved_1/resnet50_1/conv5_block3_1_conv_1/Squeeze", "op": "Const", "attr": {"dtype": {"type": "DT_FLOAT"}, "value": {"tensor": {"dtype": "DT_FLOAT", "tensorShape": {"dim": [{"size": "512"}]}}}}}, {"name": "StatefulPartitionedCall/asl_resnet50_improved_1/resnet50_1/conv5_block3_1_bn_1/batchnorm/mul", "op": "Const", "attr": {"dtype": {"type": "DT_FLOAT"}, "value": {"tensor": {"dtype": "DT_FLOAT", "tensorShape": {"dim": [{"size": "1"}, {"size": "1"}, {"size": "1"}, {"size": "512"}]}}}}}, {"name": "StatefulPartitionedCall/asl_resnet50_improved_1/resnet50_1/conv5_block3_1_bn_1/batchnorm/sub", "op": "Const", "attr": {"dtype": {"type": "DT_FLOAT"}, "value": {"tensor": {"dtype": "DT_FLOAT", "tensorShape": {"dim": [{"size": "1"}, {"size": "1"}, {"size": "1"}, {"size": "512"}]}}}}}, {"name": "StatefulPartitionedCall/asl_resnet50_improved_1/resnet50_1/conv5_block3_2_conv_1/convolution/ReadVariableOp", "op": "Const", "attr": {"dtype": {"type": "DT_FLOAT"}, "value": {"tensor": {"dtype": "DT_FLOAT", "tensorShape": {"dim": [{"size": "3"}, {"size": "3"}, {"size": "512"}, {"size": "512"}]}}}}}, {"name": "StatefulPartitionedCall/asl_resnet50_improved_1/resnet50_1/conv5_block3_2_conv_1/Squeeze", "op": "Const", "attr": {"dtype": {"type": "DT_FLOAT"}, "value": {"tensor": {"dtype": "DT_FLOAT", "tensorShape": {"dim": [{"size": "512"}]}}}}}, {"name": "StatefulPartitionedCall/asl_resnet50_improved_1/resnet50_1/conv5_block3_2_bn_1/batchnorm/mul", "op": "Const", "attr": {"dtype": {"type": "DT_FLOAT"}, "value": {"tensor": {"dtype": "DT_FLOAT", "tensorShape": {"dim": [{"size": "1"}, {"size": "1"}, {"size": "1"}, {"size": "512"}]}}}}}, {"name": "StatefulPartitionedCall/asl_resnet50_improved_1/resnet50_1/conv5_block3_2_bn_1/batchnorm/sub", "op": "Const", "attr": {"dtype": {"type": "DT_FLOAT"}, "value": {"tensor": {"dtype": "DT_FLOAT", "tensorShape": {"dim": [{"size": "1"}, {"size": "1"}, {"size": "1"}, {"size": "512"}]}}}}}, {"name": "StatefulPartitionedCall/asl_resnet50_improved_1/resnet50_1/conv5_block3_3_conv_1/convolution/ReadVariableOp", "op": "Const", "attr": {"dtype": {"type": "DT_FLOAT"}, "value": {"tensor": {"dtype": "DT_FLOAT", "tensorShape": {"dim": [{"size": "1"}, {"size": "1"}, {"size": "512"}, {"size": "2048"}]}}}}}, {"name": "StatefulPartitionedCall/asl_resnet50_improved_1/resnet50_1/conv5_block3_3_conv_1/Squeeze", "op": "Const", "attr": {"dtype": {"type": "DT_FLOAT"}, "value": {"tensor": {"dtype": "DT_FLOAT", "tensorShape": {"dim": [{"size": "2048"}]}}}}}, {"name": "StatefulPartitionedCall/asl_resnet50_improved_1/resnet50_1/conv5_block3_3_bn_1/batchnorm/mul", "op": "Const", "attr": {"dtype": {"type": "DT_FLOAT"}, "value": {"tensor": {"dtype": "DT_FLOAT", "tensorShape": {"dim": [{"size": "1"}, {"size": "1"}, {"size": "1"}, {"size": "2048"}]}}}}}, {"name": "StatefulPartitionedCall/asl_resnet50_improved_1/resnet50_1/conv5_block3_3_bn_1/batchnorm/sub", "op": "Const", "attr": {"dtype": {"type": "DT_FLOAT"}, "value": {"tensor": {"dtype": "DT_FLOAT", "tensorShape": {"dim": [{"size": "1"}, {"size": "1"}, {"size": "1"}, {"size": "2048"}]}}}}}, {"name": "StatefulPartitionedCall/asl_resnet50_improved_1/global_average_pooling2d_1/Mean/reduction_indices", "op": "Const", "attr": {"dtype": {"type": "DT_INT32"}, "value": {"tensor": {"dtype": "DT_INT32", "tensorShape": {"dim": [{"size": "2"}]}}}}}, {"name": "StatefulPartitionedCall/asl_resnet50_improved_1/dense_1/Cast/ReadVariableOp", "op": "Const", "attr": {"dtype": {"type": "DT_FLOAT"}, "value": {"tensor": {"dtype": "DT_FLOAT", "tensorShape": {"dim": [{"size": "2048"}, {"size": "128"}]}}}}}, {"name": "StatefulPartitionedCall/asl_resnet50_improved_1/dense_1/BiasAdd/ReadVariableOp", "op": "Const", "attr": {"dtype": {"type": "DT_FLOAT"}, "value": {"tensor": {"dtype": "DT_FLOAT", "tensorShape": {"dim": [{"size": "128"}]}}}}}, {"name": "StatefulPartitionedCall/asl_resnet50_improved_1/dense_1_2/Cast/ReadVariableOp", "op": "Const", "attr": {"dtype": {"type": "DT_FLOAT"}, "value": {"tensor": {"dtype": "DT_FLOAT", "tensorShape": {"dim": [{"size": "128"}, {"size": "29"}]}}}}}, {"name": "StatefulPartitionedCall/asl_resnet50_improved_1/dense_1_2/BiasAdd/ReadVariableOp", "op": "Const", "attr": {"dtype": {"type": "DT_FLOAT"}, "value": {"tensor": {"dtype": "DT_FLOAT", "tensorShape": {"dim": [{"size": "29"}]}}}}}, {"name": "inputs", "op": "Placeholder", "attr": {"dtype": {"type": "DT_FLOAT"}, "shape": {"shape": {"dim": [{"size": "-1"}, {"size": "96"}, {"size": "96"}, {"size": "3"}]}}}}, {"name": "StatefulPartitionedCall/asl_resnet50_improved_1/resnet50_1/conv1_pad_1/Pad", "op": "Pad", "input": ["inputs", "StatefulPartitionedCall/asl_resnet50_improved_1/resnet50_1/conv1_pad_1/Const"], "attr": {"T": {"type": "DT_FLOAT"}, "Tpaddings": {"type": "DT_INT32"}}}, {"name": "StatefulPartitionedCall/asl_resnet50_improved_1/resnet50_1/conv1_conv_1/BiasAdd", "op": "_FusedConv2D", "input": ["StatefulPartitionedCall/asl_resnet50_improved_1/resnet50_1/conv1_pad_1/Pad", "StatefulPartitionedCall/asl_resnet50_improved_1/resnet50_1/conv1_conv_1/convolution/ReadVariableOp", "StatefulPartitionedCall/asl_resnet50_improved_1/resnet50_1/conv1_conv_1/Squeeze"], "device": "/device:CPU:0", "attr": {"epsilon": {"f": 0.0}, "fused_ops": {"list": {"s": ["Qmlhc0FkZA=="]}}, "leakyrelu_alpha": {"f": 0.2}, "num_host_args": {"i": "0"}, "use_cudnn_on_gpu": {"b": true}, "data_format": {"s": "TkhXQw=="}, "strides": {"list": {"i": ["1", "2", "2", "1"]}}, "T": {"type": "DT_FLOAT"}, "num_args": {"i": "1"}, "TArgs": {"list": {"type": ["DT_FLOAT"]}}, "padding": {"s": "VkFMSUQ="}, "filter_format": {"s": "SFdJTw=="}, "explicit_paddings": {"list": {}}, "dilations": {"list": {"i": ["1", "1", "1", "1"]}}}}, {"name": "StatefulPartitionedCall/asl_resnet50_improved_1/resnet50_1/conv1_bn_1/batchnorm/mul_1", "op": "Mul", "input": ["StatefulPartitionedCall/asl_resnet50_improved_1/resnet50_1/conv1_conv_1/BiasAdd", "StatefulPartitionedCall/asl_resnet50_improved_1/resnet50_1/conv1_bn_1/batchnorm/mul"], "attr": {"T": {"type": "DT_FLOAT"}}}, {"name": "StatefulPartitionedCall/asl_resnet50_improved_1/resnet50_1/conv1_bn_1/batchnorm/add_1", "op": "AddV2", "input": ["StatefulPartitionedCall/asl_resnet50_improved_1/resnet50_1/conv1_bn_1/batchnorm/mul_1", "StatefulPartitionedCall/asl_resnet50_improved_1/resnet50_1/conv1_bn_1/batchnorm/sub"], "attr": {"T": {"type": "DT_FLOAT"}}}, {"name": "StatefulPartitionedCall/asl_resnet50_improved_1/resnet50_1/conv1_relu_1/Relu", "op": "Relu", "input": ["StatefulPartitionedCall/asl_resnet50_improved_1/resnet50_1/conv1_bn_1/batchnorm/add_1"], "attr": {"T": {"type": "DT_FLOAT"}}}, {"name": "StatefulPartitionedCall/asl_resnet50_improved_1/resnet50_1/pool1_pad_1/Pad", "op": "Pad", "input": ["StatefulPartitionedCall/asl_resnet50_improved_1/resnet50_1/conv1_relu_1/Relu", "StatefulPartitionedCall/asl_resnet50_improved_1/resnet50_1/pool1_pad_1/Const"], "attr": {"T": {"type": "DT_FLOAT"}, "Tpaddings": {"type": "DT_INT32"}}}, {"name": "StatefulPartitionedCall/asl_resnet50_improved_1/resnet50_1/pool1_pool_1/MaxPool2d", "op": "MaxPool", "input": ["StatefulPartitionedCall/asl_resnet50_improved_1/resnet50_1/pool1_pad_1/Pad"], "attr": {"T": {"type": "DT_FLOAT"}, "data_format": {"s": "TkhXQw=="}, "ksize": {"list": {"i": ["1", "3", "3", "1"]}}, "padding": {"s": "VkFMSUQ="}, "explicit_paddings": {"list": {}}, "strides": {"list": {"i": ["1", "2", "2", "1"]}}}}, {"name": "StatefulPartitionedCall/asl_resnet50_improved_1/resnet50_1/conv2_block1_0_conv_1/BiasAdd", "op": "_FusedConv2D", "input": ["StatefulPartitionedCall/asl_resnet50_improved_1/resnet50_1/pool1_pool_1/MaxPool2d", "StatefulPartitionedCall/asl_resnet50_improved_1/resnet50_1/conv2_block1_0_conv_1/convolution/ReadVariableOp", "StatefulPartitionedCall/asl_resnet50_improved_1/resnet50_1/conv2_block1_0_conv_1/Squeeze"], "device": "/device:CPU:0", "attr": {"epsilon": {"f": 0.0}, "fused_ops": {"list": {"s": ["Qmlhc0FkZA=="]}}, "dilations": {"list": {"i": ["1", "1", "1", "1"]}}, "num_host_args": {"i": "0"}, "use_cudnn_on_gpu": {"b": true}, "data_format": {"s": "TkhXQw=="}, "strides": {"list": {"i": ["1", "1", "1", "1"]}}, "num_args": {"i": "1"}, "T": {"type": "DT_FLOAT"}, "TArgs": {"list": {"type": ["DT_FLOAT"]}}, "padding": {"s": "VkFMSUQ="}, "filter_format": {"s": "SFdJTw=="}, "explicit_paddings": {"list": {}}, "leakyrelu_alpha": {"f": 0.2}}}, {"name": "StatefulPartitionedCall/asl_resnet50_improved_1/resnet50_1/conv2_block1_1_conv_1/BiasAdd", "op": "_FusedConv2D", "input": ["StatefulPartitionedCall/asl_resnet50_improved_1/resnet50_1/pool1_pool_1/MaxPool2d", "StatefulPartitionedCall/asl_resnet50_improved_1/resnet50_1/conv2_block1_1_conv_1/convolution/ReadVariableOp", "StatefulPartitionedCall/asl_resnet50_improved_1/resnet50_1/conv2_block1_1_conv_1/Squeeze"], "device": "/device:CPU:0", "attr": {"epsilon": {"f": 0.0}, "explicit_paddings": {"list": {}}, "dilations": {"list": {"i": ["1", "1", "1", "1"]}}, "num_host_args": {"i": "0"}, "use_cudnn_on_gpu": {"b": true}, "data_format": {"s": "TkhXQw=="}, "strides": {"list": {"i": ["1", "1", "1", "1"]}}, "T": {"type": "DT_FLOAT"}, "num_args": {"i": "1"}, "TArgs": {"list": {"type": ["DT_FLOAT"]}}, "padding": {"s": "VkFMSUQ="}, "filter_format": {"s": "SFdJTw=="}, "fused_ops": {"list": {"s": ["Qmlhc0FkZA=="]}}, "leakyrelu_alpha": {"f": 0.2}}}, {"name": "StatefulPartitionedCall/asl_resnet50_improved_1/resnet50_1/conv2_block1_0_bn_1/batchnorm/mul_1", "op": "Mul", "input": ["StatefulPartitionedCall/asl_resnet50_improved_1/resnet50_1/conv2_block1_0_conv_1/BiasAdd", "StatefulPartitionedCall/asl_resnet50_improved_1/resnet50_1/conv2_block1_0_bn_1/batchnorm/mul"], "attr": {"T": {"type": "DT_FLOAT"}}}, {"name": "StatefulPartitionedCall/asl_resnet50_improved_1/resnet50_1/conv2_block1_1_bn_1/batchnorm/mul_1", "op": "Mul", "input": ["StatefulPartitionedCall/asl_resnet50_improved_1/resnet50_1/conv2_block1_1_conv_1/BiasAdd", "StatefulPartitionedCall/asl_resnet50_improved_1/resnet50_1/conv2_block1_1_bn_1/batchnorm/mul"], "attr": {"T": {"type": "DT_FLOAT"}}}, {"name": "StatefulPartitionedCall/asl_resnet50_improved_1/resnet50_1/conv2_block1_0_bn_1/batchnorm/add_1", "op": "AddV2", "input": ["StatefulPartitionedCall/asl_resnet50_improved_1/resnet50_1/conv2_block1_0_bn_1/batchnorm/mul_1", "StatefulPartitionedCall/asl_resnet50_improved_1/resnet50_1/conv2_block1_0_bn_1/batchnorm/sub"], "attr": {"T": {"type": "DT_FLOAT"}}}, {"name": "StatefulPartitionedCall/asl_resnet50_improved_1/resnet50_1/conv2_block1_1_bn_1/batchnorm/add_1", "op": "AddV2", "input": ["StatefulPartitionedCall/asl_resnet50_improved_1/resnet50_1/conv2_block1_1_bn_1/batchnorm/mul_1", "StatefulPartitionedCall/asl_resnet50_improved_1/resnet50_1/conv2_block1_1_bn_1/batchnorm/sub"], "attr": {"T": {"type": "DT_FLOAT"}}}, {"name": "StatefulPartitionedCall/asl_resnet50_improved_1/resnet50_1/conv2_block1_1_relu_1/Relu", "op": "Relu", "input": ["StatefulPartitionedCall/asl_resnet50_improved_1/resnet50_1/conv2_block1_1_bn_1/batchnorm/add_1"], "attr": {"T": {"type": "DT_FLOAT"}}}, {"name": "StatefulPartitionedCall/asl_resnet50_improved_1/resnet50_1/conv2_block1_2_conv_1/BiasAdd", "op": "_FusedConv2D", "input": ["StatefulPartitionedCall/asl_resnet50_improved_1/resnet50_1/conv2_block1_1_relu_1/Relu", "StatefulPartitionedCall/asl_resnet50_improved_1/resnet50_1/conv2_block1_2_conv_1/convolution/ReadVariableOp", "StatefulPartitionedCall/asl_resnet50_improved_1/resnet50_1/conv2_block1_2_conv_1/Squeeze"], "device": "/device:CPU:0", "attr": {"epsilon": {"f": 0.0}, "explicit_paddings": {"list": {}}, "dilations": {"list": {"i": ["1", "1", "1", "1"]}}, "num_host_args": {"i": "0"}, "use_cudnn_on_gpu": {"b": true}, "data_format": {"s": "TkhXQw=="}, "strides": {"list": {"i": ["1", "1", "1", "1"]}}, "num_args": {"i": "1"}, "T": {"type": "DT_FLOAT"}, "TArgs": {"list": {"type": ["DT_FLOAT"]}}, "padding": {"s": "U0FNRQ=="}, "filter_format": {"s": "SFdJTw=="}, "fused_ops": {"list": {"s": ["Qmlhc0FkZA=="]}}, "leakyrelu_alpha": {"f": 0.2}}}, {"name": "StatefulPartitionedCall/asl_resnet50_improved_1/resnet50_1/conv2_block1_2_bn_1/batchnorm/mul_1", "op": "Mul", "input": ["StatefulPartitionedCall/asl_resnet50_improved_1/resnet50_1/conv2_block1_2_conv_1/BiasAdd", "StatefulPartitionedCall/asl_resnet50_improved_1/resnet50_1/conv2_block1_2_bn_1/batchnorm/mul"], "attr": {"T": {"type": "DT_FLOAT"}}}, {"name": "StatefulPartitionedCall/asl_resnet50_improved_1/resnet50_1/conv2_block1_2_bn_1/batchnorm/add_1", "op": "AddV2", "input": ["StatefulPartitionedCall/asl_resnet50_improved_1/resnet50_1/conv2_block1_2_bn_1/batchnorm/mul_1", "StatefulPartitionedCall/asl_resnet50_improved_1/resnet50_1/conv2_block1_2_bn_1/batchnorm/sub"], "attr": {"T": {"type": "DT_FLOAT"}}}, {"name": "StatefulPartitionedCall/asl_resnet50_improved_1/resnet50_1/conv2_block1_2_relu_1/Relu", "op": "Relu", "input": ["StatefulPartitionedCall/asl_resnet50_improved_1/resnet50_1/conv2_block1_2_bn_1/batchnorm/add_1"], "attr": {"T": {"type": "DT_FLOAT"}}}, {"name": "StatefulPartitionedCall/asl_resnet50_improved_1/resnet50_1/conv2_block1_3_conv_1/BiasAdd", "op": "_FusedConv2D", "input": ["StatefulPartitionedCall/asl_resnet50_improved_1/resnet50_1/conv2_block1_2_relu_1/Relu", "StatefulPartitionedCall/asl_resnet50_improved_1/resnet50_1/conv2_block1_3_conv_1/convolution/ReadVariableOp", "StatefulPartitionedCall/asl_resnet50_improved_1/resnet50_1/conv2_block1_3_conv_1/Squeeze"], "device": "/device:CPU:0", "attr": {"epsilon": {"f": 0.0}, "fused_ops": {"list": {"s": ["Qmlhc0FkZA=="]}}, "filter_format": {"s": "SFdJTw=="}, "num_host_args": {"i": "0"}, "use_cudnn_on_gpu": {"b": true}, "data_format": {"s": "TkhXQw=="}, "strides": {"list": {"i": ["1", "1", "1", "1"]}}, "T": {"type": "DT_FLOAT"}, "num_args": {"i": "1"}, "TArgs": {"list": {"type": ["DT_FLOAT"]}}, "padding": {"s": "VkFMSUQ="}, "leakyrelu_alpha": {"f": 0.2}, "explicit_paddings": {"list": {}}, "dilations": {"list": {"i": ["1", "1", "1", "1"]}}}}, {"name": "StatefulPartitionedCall/asl_resnet50_improved_1/resnet50_1/conv2_block1_3_bn_1/batchnorm/mul_1", "op": "Mul", "input": ["StatefulPartitionedCall/asl_resnet50_improved_1/resnet50_1/conv2_block1_3_conv_1/BiasAdd", "StatefulPartitionedCall/asl_resnet50_improved_1/resnet50_1/conv2_block1_3_bn_1/batchnorm/mul"], "attr": {"T": {"type": "DT_FLOAT"}}}, {"name": "StatefulPartitionedCall/asl_resnet50_improved_1/resnet50_1/conv2_block1_3_bn_1/batchnorm/add_1", "op": "AddV2", "input": ["StatefulPartitionedCall/asl_resnet50_improved_1/resnet50_1/conv2_block1_3_bn_1/batchnorm/mul_1", "StatefulPartitionedCall/asl_resnet50_improved_1/resnet50_1/conv2_block1_3_bn_1/batchnorm/sub"], "attr": {"T": {"type": "DT_FLOAT"}}}, {"name": "StatefulPartitionedCall/asl_resnet50_improved_1/resnet50_1/conv2_block1_add_1/Add", "op": "AddV2", "input": ["StatefulPartitionedCall/asl_resnet50_improved_1/resnet50_1/conv2_block1_0_bn_1/batchnorm/add_1", "StatefulPartitionedCall/asl_resnet50_improved_1/resnet50_1/conv2_block1_3_bn_1/batchnorm/add_1"], "attr": {"T": {"type": "DT_FLOAT"}}}, {"name": "StatefulPartitionedCall/asl_resnet50_improved_1/resnet50_1/conv2_block1_out_1/Relu", "op": "Relu", "input": ["StatefulPartitionedCall/asl_resnet50_improved_1/resnet50_1/conv2_block1_add_1/Add"], "attr": {"T": {"type": "DT_FLOAT"}}}, {"name": "StatefulPartitionedCall/asl_resnet50_improved_1/resnet50_1/conv2_block2_1_conv_1/BiasAdd", "op": "_FusedConv2D", "input": ["StatefulPartitionedCall/asl_resnet50_improved_1/resnet50_1/conv2_block1_out_1/Relu", "StatefulPartitionedCall/asl_resnet50_improved_1/resnet50_1/conv2_block2_1_conv_1/convolution/ReadVariableOp", "StatefulPartitionedCall/asl_resnet50_improved_1/resnet50_1/conv2_block2_1_conv_1/Squeeze"], "device": "/device:CPU:0", "attr": {"epsilon": {"f": 0.0}, "fused_ops": {"list": {"s": ["Qmlhc0FkZA=="]}}, "leakyrelu_alpha": {"f": 0.2}, "num_host_args": {"i": "0"}, "use_cudnn_on_gpu": {"b": true}, "data_format": {"s": "TkhXQw=="}, "strides": {"list": {"i": ["1", "1", "1", "1"]}}, "T": {"type": "DT_FLOAT"}, "num_args": {"i": "1"}, "TArgs": {"list": {"type": ["DT_FLOAT"]}}, "padding": {"s": "VkFMSUQ="}, "dilations": {"list": {"i": ["1", "1", "1", "1"]}}, "explicit_paddings": {"list": {}}, "filter_format": {"s": "SFdJTw=="}}}, {"name": "StatefulPartitionedCall/asl_resnet50_improved_1/resnet50_1/conv2_block2_1_bn_1/batchnorm/mul_1", "op": "Mul", "input": ["StatefulPartitionedCall/asl_resnet50_improved_1/resnet50_1/conv2_block2_1_conv_1/BiasAdd", "StatefulPartitionedCall/asl_resnet50_improved_1/resnet50_1/conv2_block2_1_bn_1/batchnorm/mul"], "attr": {"T": {"type": "DT_FLOAT"}}}, {"name": "StatefulPartitionedCall/asl_resnet50_improved_1/resnet50_1/conv2_block2_1_bn_1/batchnorm/add_1", "op": "AddV2", "input": ["StatefulPartitionedCall/asl_resnet50_improved_1/resnet50_1/conv2_block2_1_bn_1/batchnorm/mul_1", "StatefulPartitionedCall/asl_resnet50_improved_1/resnet50_1/conv2_block2_1_bn_1/batchnorm/sub"], "attr": {"T": {"type": "DT_FLOAT"}}}, {"name": "StatefulPartitionedCall/asl_resnet50_improved_1/resnet50_1/conv2_block2_1_relu_1/Relu", "op": "Relu", "input": ["StatefulPartitionedCall/asl_resnet50_improved_1/resnet50_1/conv2_block2_1_bn_1/batchnorm/add_1"], "attr": {"T": {"type": "DT_FLOAT"}}}, {"name": "StatefulPartitionedCall/asl_resnet50_improved_1/resnet50_1/conv2_block2_2_conv_1/BiasAdd", "op": "_FusedConv2D", "input": ["StatefulPartitionedCall/asl_resnet50_improved_1/resnet50_1/conv2_block2_1_relu_1/Relu", "StatefulPartitionedCall/asl_resnet50_improved_1/resnet50_1/conv2_block2_2_conv_1/convolution/ReadVariableOp", "StatefulPartitionedCall/asl_resnet50_improved_1/resnet50_1/conv2_block2_2_conv_1/Squeeze"], "device": "/device:CPU:0", "attr": {"num_host_args": {"i": "0"}, "explicit_paddings": {"list": {}}, "filter_format": {"s": "SFdJTw=="}, "epsilon": {"f": 0.0}, "use_cudnn_on_gpu": {"b": true}, "data_format": {"s": "TkhXQw=="}, "strides": {"list": {"i": ["1", "1", "1", "1"]}}, "T": {"type": "DT_FLOAT"}, "num_args": {"i": "1"}, "TArgs": {"list": {"type": ["DT_FLOAT"]}}, "padding": {"s": "U0FNRQ=="}, "leakyrelu_alpha": {"f": 0.2}, "fused_ops": {"list": {"s": ["Qmlhc0FkZA=="]}}, "dilations": {"list": {"i": ["1", "1", "1", "1"]}}}}, {"name": "StatefulPartitionedCall/asl_resnet50_improved_1/resnet50_1/conv2_block2_2_bn_1/batchnorm/mul_1", "op": "Mul", "input": ["StatefulPartitionedCall/asl_resnet50_improved_1/resnet50_1/conv2_block2_2_conv_1/BiasAdd", "StatefulPartitionedCall/asl_resnet50_improved_1/resnet50_1/conv2_block2_2_bn_1/batchnorm/mul"], "attr": {"T": {"type": "DT_FLOAT"}}}, {"name": "StatefulPartitionedCall/asl_resnet50_improved_1/resnet50_1/conv2_block2_2_bn_1/batchnorm/add_1", "op": "AddV2", "input": ["StatefulPartitionedCall/asl_resnet50_improved_1/resnet50_1/conv2_block2_2_bn_1/batchnorm/mul_1", "StatefulPartitionedCall/asl_resnet50_improved_1/resnet50_1/conv2_block2_2_bn_1/batchnorm/sub"], "attr": {"T": {"type": "DT_FLOAT"}}}, {"name": "StatefulPartitionedCall/asl_resnet50_improved_1/resnet50_1/conv2_block2_2_relu_1/Relu", "op": "Relu", "input": ["StatefulPartitionedCall/asl_resnet50_improved_1/resnet50_1/conv2_block2_2_bn_1/batchnorm/add_1"], "attr": {"T": {"type": "DT_FLOAT"}}}, {"name": "StatefulPartitionedCall/asl_resnet50_improved_1/resnet50_1/conv2_block2_3_conv_1/BiasAdd", "op": "_FusedConv2D", "input": ["StatefulPartitionedCall/asl_resnet50_improved_1/resnet50_1/conv2_block2_2_relu_1/Relu", "StatefulPartitionedCall/asl_resnet50_improved_1/resnet50_1/conv2_block2_3_conv_1/convolution/ReadVariableOp", "StatefulPartitionedCall/asl_resnet50_improved_1/resnet50_1/conv2_block2_3_conv_1/Squeeze"], "device": "/device:CPU:0", "attr": {"num_host_args": {"i": "0"}, "fused_ops": {"list": {"s": ["Qmlhc0FkZA=="]}}, "leakyrelu_alpha": {"f": 0.2}, "epsilon": {"f": 0.0}, "use_cudnn_on_gpu": {"b": true}, "data_format": {"s": "TkhXQw=="}, "strides": {"list": {"i": ["1", "1", "1", "1"]}}, "num_args": {"i": "1"}, "T": {"type": "DT_FLOAT"}, "TArgs": {"list": {"type": ["DT_FLOAT"]}}, "padding": {"s": "VkFMSUQ="}, "dilations": {"list": {"i": ["1", "1", "1", "1"]}}, "explicit_paddings": {"list": {}}, "filter_format": {"s": "SFdJTw=="}}}, {"name": "StatefulPartitionedCall/asl_resnet50_improved_1/resnet50_1/conv2_block2_3_bn_1/batchnorm/mul_1", "op": "Mul", "input": ["StatefulPartitionedCall/asl_resnet50_improved_1/resnet50_1/conv2_block2_3_conv_1/BiasAdd", "StatefulPartitionedCall/asl_resnet50_improved_1/resnet50_1/conv2_block2_3_bn_1/batchnorm/mul"], "attr": {"T": {"type": "DT_FLOAT"}}}, {"name": "StatefulPartitionedCall/asl_resnet50_improved_1/resnet50_1/conv2_block2_3_bn_1/batchnorm/add_1", "op": "AddV2", "input": ["StatefulPartitionedCall/asl_resnet50_improved_1/resnet50_1/conv2_block2_3_bn_1/batchnorm/mul_1", "StatefulPartitionedCall/asl_resnet50_improved_1/resnet50_1/conv2_block2_3_bn_1/batchnorm/sub"], "attr": {"T": {"type": "DT_FLOAT"}}}, {"name": "StatefulPartitionedCall/asl_resnet50_improved_1/resnet50_1/conv2_block2_add_1/Add", "op": "AddV2", "input": ["StatefulPartitionedCall/asl_resnet50_improved_1/resnet50_1/conv2_block1_out_1/Relu", "StatefulPartitionedCall/asl_resnet50_improved_1/resnet50_1/conv2_block2_3_bn_1/batchnorm/add_1"], "attr": {"T": {"type": "DT_FLOAT"}}}, {"name": "StatefulPartitionedCall/asl_resnet50_improved_1/resnet50_1/conv2_block2_out_1/Relu", "op": "Relu", "input": ["StatefulPartitionedCall/asl_resnet50_improved_1/resnet50_1/conv2_block2_add_1/Add"], "attr": {"T": {"type": "DT_FLOAT"}}}, {"name": "StatefulPartitionedCall/asl_resnet50_improved_1/resnet50_1/conv2_block3_1_conv_1/BiasAdd", "op": "_FusedConv2D", "input": ["StatefulPartitionedCall/asl_resnet50_improved_1/resnet50_1/conv2_block2_out_1/Relu", "StatefulPartitionedCall/asl_resnet50_improved_1/resnet50_1/conv2_block3_1_conv_1/convolution/ReadVariableOp", "StatefulPartitionedCall/asl_resnet50_improved_1/resnet50_1/conv2_block3_1_conv_1/Squeeze"], "device": "/device:CPU:0", "attr": {"num_host_args": {"i": "0"}, "explicit_paddings": {"list": {}}, "leakyrelu_alpha": {"f": 0.2}, "epsilon": {"f": 0.0}, "use_cudnn_on_gpu": {"b": true}, "data_format": {"s": "TkhXQw=="}, "strides": {"list": {"i": ["1", "1", "1", "1"]}}, "num_args": {"i": "1"}, "T": {"type": "DT_FLOAT"}, "TArgs": {"list": {"type": ["DT_FLOAT"]}}, "padding": {"s": "VkFMSUQ="}, "filter_format": {"s": "SFdJTw=="}, "fused_ops": {"list": {"s": ["Qmlhc0FkZA=="]}}, "dilations": {"list": {"i": ["1", "1", "1", "1"]}}}}, {"name": "StatefulPartitionedCall/asl_resnet50_improved_1/resnet50_1/conv2_block3_1_bn_1/batchnorm/mul_1", "op": "Mul", "input": ["StatefulPartitionedCall/asl_resnet50_improved_1/resnet50_1/conv2_block3_1_conv_1/BiasAdd", "StatefulPartitionedCall/asl_resnet50_improved_1/resnet50_1/conv2_block3_1_bn_1/batchnorm/mul"], "attr": {"T": {"type": "DT_FLOAT"}}}, {"name": "StatefulPartitionedCall/asl_resnet50_improved_1/resnet50_1/conv2_block3_1_bn_1/batchnorm/add_1", "op": "AddV2", "input": ["StatefulPartitionedCall/asl_resnet50_improved_1/resnet50_1/conv2_block3_1_bn_1/batchnorm/mul_1", "StatefulPartitionedCall/asl_resnet50_improved_1/resnet50_1/conv2_block3_1_bn_1/batchnorm/sub"], "attr": {"T": {"type": "DT_FLOAT"}}}, {"name": "StatefulPartitionedCall/asl_resnet50_improved_1/resnet50_1/conv2_block3_1_relu_1/Relu", "op": "Relu", "input": ["StatefulPartitionedCall/asl_resnet50_improved_1/resnet50_1/conv2_block3_1_bn_1/batchnorm/add_1"], "attr": {"T": {"type": "DT_FLOAT"}}}, {"name": "StatefulPartitionedCall/asl_resnet50_improved_1/resnet50_1/conv2_block3_2_conv_1/BiasAdd", "op": "_FusedConv2D", "input": ["StatefulPartitionedCall/asl_resnet50_improved_1/resnet50_1/conv2_block3_1_relu_1/Relu", "StatefulPartitionedCall/asl_resnet50_improved_1/resnet50_1/conv2_block3_2_conv_1/convolution/ReadVariableOp", "StatefulPartitionedCall/asl_resnet50_improved_1/resnet50_1/conv2_block3_2_conv_1/Squeeze"], "device": "/device:CPU:0", "attr": {"num_host_args": {"i": "0"}, "explicit_paddings": {"list": {}}, "filter_format": {"s": "SFdJTw=="}, "epsilon": {"f": 0.0}, "use_cudnn_on_gpu": {"b": true}, "data_format": {"s": "TkhXQw=="}, "strides": {"list": {"i": ["1", "1", "1", "1"]}}, "num_args": {"i": "1"}, "T": {"type": "DT_FLOAT"}, "TArgs": {"list": {"type": ["DT_FLOAT"]}}, "padding": {"s": "U0FNRQ=="}, "dilations": {"list": {"i": ["1", "1", "1", "1"]}}, "fused_ops": {"list": {"s": ["Qmlhc0FkZA=="]}}, "leakyrelu_alpha": {"f": 0.2}}}, {"name": "StatefulPartitionedCall/asl_resnet50_improved_1/resnet50_1/conv2_block3_2_bn_1/batchnorm/mul_1", "op": "Mul", "input": ["StatefulPartitionedCall/asl_resnet50_improved_1/resnet50_1/conv2_block3_2_conv_1/BiasAdd", "StatefulPartitionedCall/asl_resnet50_improved_1/resnet50_1/conv2_block3_2_bn_1/batchnorm/mul"], "attr": {"T": {"type": "DT_FLOAT"}}}, {"name": "StatefulPartitionedCall/asl_resnet50_improved_1/resnet50_1/conv2_block3_2_bn_1/batchnorm/add_1", "op": "AddV2", "input": ["StatefulPartitionedCall/asl_resnet50_improved_1/resnet50_1/conv2_block3_2_bn_1/batchnorm/mul_1", "StatefulPartitionedCall/asl_resnet50_improved_1/resnet50_1/conv2_block3_2_bn_1/batchnorm/sub"], "attr": {"T": {"type": "DT_FLOAT"}}}, {"name": "StatefulPartitionedCall/asl_resnet50_improved_1/resnet50_1/conv2_block3_2_relu_1/Relu", "op": "Relu", "input": ["StatefulPartitionedCall/asl_resnet50_improved_1/resnet50_1/conv2_block3_2_bn_1/batchnorm/add_1"], "attr": {"T": {"type": "DT_FLOAT"}}}, {"name": "StatefulPartitionedCall/asl_resnet50_improved_1/resnet50_1/conv2_block3_3_conv_1/BiasAdd", "op": "_FusedConv2D", "input": ["StatefulPartitionedCall/asl_resnet50_improved_1/resnet50_1/conv2_block3_2_relu_1/Relu", "StatefulPartitionedCall/asl_resnet50_improved_1/resnet50_1/conv2_block3_3_conv_1/convolution/ReadVariableOp", "StatefulPartitionedCall/asl_resnet50_improved_1/resnet50_1/conv2_block3_3_conv_1/Squeeze"], "device": "/device:CPU:0", "attr": {"num_host_args": {"i": "0"}, "explicit_paddings": {"list": {}}, "dilations": {"list": {"i": ["1", "1", "1", "1"]}}, "epsilon": {"f": 0.0}, "use_cudnn_on_gpu": {"b": true}, "data_format": {"s": "TkhXQw=="}, "strides": {"list": {"i": ["1", "1", "1", "1"]}}, "num_args": {"i": "1"}, "T": {"type": "DT_FLOAT"}, "TArgs": {"list": {"type": ["DT_FLOAT"]}}, "padding": {"s": "VkFMSUQ="}, "leakyrelu_alpha": {"f": 0.2}, "fused_ops": {"list": {"s": ["Qmlhc0FkZA=="]}}, "filter_format": {"s": "SFdJTw=="}}}, {"name": "StatefulPartitionedCall/asl_resnet50_improved_1/resnet50_1/conv2_block3_3_bn_1/batchnorm/mul_1", "op": "Mul", "input": ["StatefulPartitionedCall/asl_resnet50_improved_1/resnet50_1/conv2_block3_3_conv_1/BiasAdd", "StatefulPartitionedCall/asl_resnet50_improved_1/resnet50_1/conv2_block3_3_bn_1/batchnorm/mul"], "attr": {"T": {"type": "DT_FLOAT"}}}, {"name": "StatefulPartitionedCall/asl_resnet50_improved_1/resnet50_1/conv2_block3_3_bn_1/batchnorm/add_1", "op": "AddV2", "input": ["StatefulPartitionedCall/asl_resnet50_improved_1/resnet50_1/conv2_block3_3_bn_1/batchnorm/mul_1", "StatefulPartitionedCall/asl_resnet50_improved_1/resnet50_1/conv2_block3_3_bn_1/batchnorm/sub"], "attr": {"T": {"type": "DT_FLOAT"}}}, {"name": "StatefulPartitionedCall/asl_resnet50_improved_1/resnet50_1/conv2_block3_add_1/Add", "op": "AddV2", "input": ["StatefulPartitionedCall/asl_resnet50_improved_1/resnet50_1/conv2_block2_out_1/Relu", "StatefulPartitionedCall/asl_resnet50_improved_1/resnet50_1/conv2_block3_3_bn_1/batchnorm/add_1"], "attr": {"T": {"type": "DT_FLOAT"}}}, {"name": "StatefulPartitionedCall/asl_resnet50_improved_1/resnet50_1/conv2_block3_out_1/Relu", "op": "Relu", "input": ["StatefulPartitionedCall/asl_resnet50_improved_1/resnet50_1/conv2_block3_add_1/Add"], "attr": {"T": {"type": "DT_FLOAT"}}}, {"name": "StatefulPartitionedCall/asl_resnet50_improved_1/resnet50_1/conv3_block1_0_conv_1/BiasAdd", "op": "_FusedConv2D", "input": ["StatefulPartitionedCall/asl_resnet50_improved_1/resnet50_1/conv2_block3_out_1/Relu", "StatefulPartitionedCall/asl_resnet50_improved_1/resnet50_1/conv3_block1_0_conv_1/convolution/ReadVariableOp", "StatefulPartitionedCall/asl_resnet50_improved_1/resnet50_1/conv3_block1_0_conv_1/Squeeze"], "device": "/device:CPU:0", "attr": {"num_host_args": {"i": "0"}, "fused_ops": {"list": {"s": ["Qmlhc0FkZA=="]}}, "dilations": {"list": {"i": ["1", "1", "1", "1"]}}, "epsilon": {"f": 0.0}, "use_cudnn_on_gpu": {"b": true}, "data_format": {"s": "TkhXQw=="}, "strides": {"list": {"i": ["1", "2", "2", "1"]}}, "T": {"type": "DT_FLOAT"}, "num_args": {"i": "1"}, "TArgs": {"list": {"type": ["DT_FLOAT"]}}, "padding": {"s": "VkFMSUQ="}, "filter_format": {"s": "SFdJTw=="}, "explicit_paddings": {"list": {}}, "leakyrelu_alpha": {"f": 0.2}}}, {"name": "StatefulPartitionedCall/asl_resnet50_improved_1/resnet50_1/conv3_block1_1_conv_1/BiasAdd", "op": "_FusedConv2D", "input": ["StatefulPartitionedCall/asl_resnet50_improved_1/resnet50_1/conv2_block3_out_1/Relu", "StatefulPartitionedCall/asl_resnet50_improved_1/resnet50_1/conv3_block1_1_conv_1/convolution/ReadVariableOp", "StatefulPartitionedCall/asl_resnet50_improved_1/resnet50_1/conv3_block1_1_conv_1/Squeeze"], "device": "/device:CPU:0", "attr": {"epsilon": {"f": 0.0}, "explicit_paddings": {"list": {}}, "filter_format": {"s": "SFdJTw=="}, "num_host_args": {"i": "0"}, "use_cudnn_on_gpu": {"b": true}, "data_format": {"s": "TkhXQw=="}, "strides": {"list": {"i": ["1", "2", "2", "1"]}}, "T": {"type": "DT_FLOAT"}, "num_args": {"i": "1"}, "TArgs": {"list": {"type": ["DT_FLOAT"]}}, "padding": {"s": "VkFMSUQ="}, "leakyrelu_alpha": {"f": 0.2}, "fused_ops": {"list": {"s": ["Qmlhc0FkZA=="]}}, "dilations": {"list": {"i": ["1", "1", "1", "1"]}}}}, {"name": "StatefulPartitionedCall/asl_resnet50_improved_1/resnet50_1/conv3_block1_0_bn_1/batchnorm/mul_1", "op": "Mul", "input": ["StatefulPartitionedCall/asl_resnet50_improved_1/resnet50_1/conv3_block1_0_conv_1/BiasAdd", "StatefulPartitionedCall/asl_resnet50_improved_1/resnet50_1/conv3_block1_0_bn_1/batchnorm/mul"], "attr": {"T": {"type": "DT_FLOAT"}}}, {"name": "StatefulPartitionedCall/asl_resnet50_improved_1/resnet50_1/conv3_block1_1_bn_1/batchnorm/mul_1", "op": "Mul", "input": ["StatefulPartitionedCall/asl_resnet50_improved_1/resnet50_1/conv3_block1_1_conv_1/BiasAdd", "StatefulPartitionedCall/asl_resnet50_improved_1/resnet50_1/conv3_block1_1_bn_1/batchnorm/mul"], "attr": {"T": {"type": "DT_FLOAT"}}}, {"name": "StatefulPartitionedCall/asl_resnet50_improved_1/resnet50_1/conv3_block1_0_bn_1/batchnorm/add_1", "op": "AddV2", "input": ["StatefulPartitionedCall/asl_resnet50_improved_1/resnet50_1/conv3_block1_0_bn_1/batchnorm/mul_1", "StatefulPartitionedCall/asl_resnet50_improved_1/resnet50_1/conv3_block1_0_bn_1/batchnorm/sub"], "attr": {"T": {"type": "DT_FLOAT"}}}, {"name": "StatefulPartitionedCall/asl_resnet50_improved_1/resnet50_1/conv3_block1_1_bn_1/batchnorm/add_1", "op": "AddV2", "input": ["StatefulPartitionedCall/asl_resnet50_improved_1/resnet50_1/conv3_block1_1_bn_1/batchnorm/mul_1", "StatefulPartitionedCall/asl_resnet50_improved_1/resnet50_1/conv3_block1_1_bn_1/batchnorm/sub"], "attr": {"T": {"type": "DT_FLOAT"}}}, {"name": "StatefulPartitionedCall/asl_resnet50_improved_1/resnet50_1/conv3_block1_1_relu_1/Relu", "op": "Relu", "input": ["StatefulPartitionedCall/asl_resnet50_improved_1/resnet50_1/conv3_block1_1_bn_1/batchnorm/add_1"], "attr": {"T": {"type": "DT_FLOAT"}}}, {"name": "StatefulPartitionedCall/asl_resnet50_improved_1/resnet50_1/conv3_block1_2_conv_1/BiasAdd", "op": "_FusedConv2D", "input": ["StatefulPartitionedCall/asl_resnet50_improved_1/resnet50_1/conv3_block1_1_relu_1/Relu", "StatefulPartitionedCall/asl_resnet50_improved_1/resnet50_1/conv3_block1_2_conv_1/convolution/ReadVariableOp", "StatefulPartitionedCall/asl_resnet50_improved_1/resnet50_1/conv3_block1_2_conv_1/Squeeze"], "device": "/device:CPU:0", "attr": {"num_host_args": {"i": "0"}, "fused_ops": {"list": {"s": ["Qmlhc0FkZA=="]}}, "dilations": {"list": {"i": ["1", "1", "1", "1"]}}, "epsilon": {"f": 0.0}, "use_cudnn_on_gpu": {"b": true}, "data_format": {"s": "TkhXQw=="}, "strides": {"list": {"i": ["1", "1", "1", "1"]}}, "T": {"type": "DT_FLOAT"}, "num_args": {"i": "1"}, "TArgs": {"list": {"type": ["DT_FLOAT"]}}, "padding": {"s": "U0FNRQ=="}, "leakyrelu_alpha": {"f": 0.2}, "explicit_paddings": {"list": {}}, "filter_format": {"s": "SFdJTw=="}}}, {"name": "StatefulPartitionedCall/asl_resnet50_improved_1/resnet50_1/conv3_block1_2_bn_1/batchnorm/mul_1", "op": "Mul", "input": ["StatefulPartitionedCall/asl_resnet50_improved_1/resnet50_1/conv3_block1_2_conv_1/BiasAdd", "StatefulPartitionedCall/asl_resnet50_improved_1/resnet50_1/conv3_block1_2_bn_1/batchnorm/mul"], "attr": {"T": {"type": "DT_FLOAT"}}}, {"name": "StatefulPartitionedCall/asl_resnet50_improved_1/resnet50_1/conv3_block1_2_bn_1/batchnorm/add_1", "op": "AddV2", "input": ["StatefulPartitionedCall/asl_resnet50_improved_1/resnet50_1/conv3_block1_2_bn_1/batchnorm/mul_1", "StatefulPartitionedCall/asl_resnet50_improved_1/resnet50_1/conv3_block1_2_bn_1/batchnorm/sub"], "attr": {"T": {"type": "DT_FLOAT"}}}, {"name": "StatefulPartitionedCall/asl_resnet50_improved_1/resnet50_1/conv3_block1_2_relu_1/Relu", "op": "Relu", "input": ["StatefulPartitionedCall/asl_resnet50_improved_1/resnet50_1/conv3_block1_2_bn_1/batchnorm/add_1"], "attr": {"T": {"type": "DT_FLOAT"}}}, {"name": "StatefulPartitionedCall/asl_resnet50_improved_1/resnet50_1/conv3_block1_3_conv_1/BiasAdd", "op": "_FusedConv2D", "input": ["StatefulPartitionedCall/asl_resnet50_improved_1/resnet50_1/conv3_block1_2_relu_1/Relu", "StatefulPartitionedCall/asl_resnet50_improved_1/resnet50_1/conv3_block1_3_conv_1/convolution/ReadVariableOp", "StatefulPartitionedCall/asl_resnet50_improved_1/resnet50_1/conv3_block1_3_conv_1/Squeeze"], "device": "/device:CPU:0", "attr": {"num_host_args": {"i": "0"}, "explicit_paddings": {"list": {}}, "filter_format": {"s": "SFdJTw=="}, "epsilon": {"f": 0.0}, "use_cudnn_on_gpu": {"b": true}, "data_format": {"s": "TkhXQw=="}, "strides": {"list": {"i": ["1", "1", "1", "1"]}}, "T": {"type": "DT_FLOAT"}, "num_args": {"i": "1"}, "TArgs": {"list": {"type": ["DT_FLOAT"]}}, "padding": {"s": "VkFMSUQ="}, "dilations": {"list": {"i": ["1", "1", "1", "1"]}}, "fused_ops": {"list": {"s": ["Qmlhc0FkZA=="]}}, "leakyrelu_alpha": {"f": 0.2}}}, {"name": "StatefulPartitionedCall/asl_resnet50_improved_1/resnet50_1/conv3_block1_3_bn_1/batchnorm/mul_1", "op": "Mul", "input": ["StatefulPartitionedCall/asl_resnet50_improved_1/resnet50_1/conv3_block1_3_conv_1/BiasAdd", "StatefulPartitionedCall/asl_resnet50_improved_1/resnet50_1/conv3_block1_3_bn_1/batchnorm/mul"], "attr": {"T": {"type": "DT_FLOAT"}}}, {"name": "StatefulPartitionedCall/asl_resnet50_improved_1/resnet50_1/conv3_block1_3_bn_1/batchnorm/add_1", "op": "AddV2", "input": ["StatefulPartitionedCall/asl_resnet50_improved_1/resnet50_1/conv3_block1_3_bn_1/batchnorm/mul_1", "StatefulPartitionedCall/asl_resnet50_improved_1/resnet50_1/conv3_block1_3_bn_1/batchnorm/sub"], "attr": {"T": {"type": "DT_FLOAT"}}}, {"name": "StatefulPartitionedCall/asl_resnet50_improved_1/resnet50_1/conv3_block1_add_1/Add", "op": "AddV2", "input": ["StatefulPartitionedCall/asl_resnet50_improved_1/resnet50_1/conv3_block1_0_bn_1/batchnorm/add_1", "StatefulPartitionedCall/asl_resnet50_improved_1/resnet50_1/conv3_block1_3_bn_1/batchnorm/add_1"], "attr": {"T": {"type": "DT_FLOAT"}}}, {"name": "StatefulPartitionedCall/asl_resnet50_improved_1/resnet50_1/conv3_block1_out_1/Relu", "op": "Relu", "input": ["StatefulPartitionedCall/asl_resnet50_improved_1/resnet50_1/conv3_block1_add_1/Add"], "attr": {"T": {"type": "DT_FLOAT"}}}, {"name": "StatefulPartitionedCall/asl_resnet50_improved_1/resnet50_1/conv3_block2_1_conv_1/BiasAdd", "op": "_FusedConv2D", "input": ["StatefulPartitionedCall/asl_resnet50_improved_1/resnet50_1/conv3_block1_out_1/Relu", "StatefulPartitionedCall/asl_resnet50_improved_1/resnet50_1/conv3_block2_1_conv_1/convolution/ReadVariableOp", "StatefulPartitionedCall/asl_resnet50_improved_1/resnet50_1/conv3_block2_1_conv_1/Squeeze"], "device": "/device:CPU:0", "attr": {"num_host_args": {"i": "0"}, "fused_ops": {"list": {"s": ["Qmlhc0FkZA=="]}}, "filter_format": {"s": "SFdJTw=="}, "epsilon": {"f": 0.0}, "use_cudnn_on_gpu": {"b": true}, "data_format": {"s": "TkhXQw=="}, "strides": {"list": {"i": ["1", "1", "1", "1"]}}, "num_args": {"i": "1"}, "T": {"type": "DT_FLOAT"}, "TArgs": {"list": {"type": ["DT_FLOAT"]}}, "padding": {"s": "VkFMSUQ="}, "dilations": {"list": {"i": ["1", "1", "1", "1"]}}, "explicit_paddings": {"list": {}}, "leakyrelu_alpha": {"f": 0.2}}}, {"name": "StatefulPartitionedCall/asl_resnet50_improved_1/resnet50_1/conv3_block2_1_bn_1/batchnorm/mul_1", "op": "Mul", "input": ["StatefulPartitionedCall/asl_resnet50_improved_1/resnet50_1/conv3_block2_1_conv_1/BiasAdd", "StatefulPartitionedCall/asl_resnet50_improved_1/resnet50_1/conv3_block2_1_bn_1/batchnorm/mul"], "attr": {"T": {"type": "DT_FLOAT"}}}, {"name": "StatefulPartitionedCall/asl_resnet50_improved_1/resnet50_1/conv3_block2_1_bn_1/batchnorm/add_1", "op": "AddV2", "input": ["StatefulPartitionedCall/asl_resnet50_improved_1/resnet50_1/conv3_block2_1_bn_1/batchnorm/mul_1", "StatefulPartitionedCall/asl_resnet50_improved_1/resnet50_1/conv3_block2_1_bn_1/batchnorm/sub"], "attr": {"T": {"type": "DT_FLOAT"}}}, {"name": "StatefulPartitionedCall/asl_resnet50_improved_1/resnet50_1/conv3_block2_1_relu_1/Relu", "op": "Relu", "input": ["StatefulPartitionedCall/asl_resnet50_improved_1/resnet50_1/conv3_block2_1_bn_1/batchnorm/add_1"], "attr": {"T": {"type": "DT_FLOAT"}}}, {"name": "StatefulPartitionedCall/asl_resnet50_improved_1/resnet50_1/conv3_block2_2_conv_1/BiasAdd", "op": "_FusedConv2D", "input": ["StatefulPartitionedCall/asl_resnet50_improved_1/resnet50_1/conv3_block2_1_relu_1/Relu", "StatefulPartitionedCall/asl_resnet50_improved_1/resnet50_1/conv3_block2_2_conv_1/convolution/ReadVariableOp", "StatefulPartitionedCall/asl_resnet50_improved_1/resnet50_1/conv3_block2_2_conv_1/Squeeze"], "device": "/device:CPU:0", "attr": {"num_host_args": {"i": "0"}, "explicit_paddings": {"list": {}}, "leakyrelu_alpha": {"f": 0.2}, "epsilon": {"f": 0.0}, "use_cudnn_on_gpu": {"b": true}, "data_format": {"s": "TkhXQw=="}, "strides": {"list": {"i": ["1", "1", "1", "1"]}}, "num_args": {"i": "1"}, "T": {"type": "DT_FLOAT"}, "TArgs": {"list": {"type": ["DT_FLOAT"]}}, "padding": {"s": "U0FNRQ=="}, "filter_format": {"s": "SFdJTw=="}, "fused_ops": {"list": {"s": ["Qmlhc0FkZA=="]}}, "dilations": {"list": {"i": ["1", "1", "1", "1"]}}}}, {"name": "StatefulPartitionedCall/asl_resnet50_improved_1/resnet50_1/conv3_block2_2_bn_1/batchnorm/mul_1", "op": "Mul", "input": ["StatefulPartitionedCall/asl_resnet50_improved_1/resnet50_1/conv3_block2_2_conv_1/BiasAdd", "StatefulPartitionedCall/asl_resnet50_improved_1/resnet50_1/conv3_block2_2_bn_1/batchnorm/mul"], "attr": {"T": {"type": "DT_FLOAT"}}}, {"name": "StatefulPartitionedCall/asl_resnet50_improved_1/resnet50_1/conv3_block2_2_bn_1/batchnorm/add_1", "op": "AddV2", "input": ["StatefulPartitionedCall/asl_resnet50_improved_1/resnet50_1/conv3_block2_2_bn_1/batchnorm/mul_1", "StatefulPartitionedCall/asl_resnet50_improved_1/resnet50_1/conv3_block2_2_bn_1/batchnorm/sub"], "attr": {"T": {"type": "DT_FLOAT"}}}, {"name": "StatefulPartitionedCall/asl_resnet50_improved_1/resnet50_1/conv3_block2_2_relu_1/Relu", "op": "Relu", "input": ["StatefulPartitionedCall/asl_resnet50_improved_1/resnet50_1/conv3_block2_2_bn_1/batchnorm/add_1"], "attr": {"T": {"type": "DT_FLOAT"}}}, {"name": "StatefulPartitionedCall/asl_resnet50_improved_1/resnet50_1/conv3_block2_3_conv_1/BiasAdd", "op": "_FusedConv2D", "input": ["StatefulPartitionedCall/asl_resnet50_improved_1/resnet50_1/conv3_block2_2_relu_1/Relu", "StatefulPartitionedCall/asl_resnet50_improved_1/resnet50_1/conv3_block2_3_conv_1/convolution/ReadVariableOp", "StatefulPartitionedCall/asl_resnet50_improved_1/resnet50_1/conv3_block2_3_conv_1/Squeeze"], "device": "/device:CPU:0", "attr": {"epsilon": {"f": 0.0}, "fused_ops": {"list": {"s": ["Qmlhc0FkZA=="]}}, "dilations": {"list": {"i": ["1", "1", "1", "1"]}}, "num_host_args": {"i": "0"}, "use_cudnn_on_gpu": {"b": true}, "data_format": {"s": "TkhXQw=="}, "strides": {"list": {"i": ["1", "1", "1", "1"]}}, "T": {"type": "DT_FLOAT"}, "num_args": {"i": "1"}, "TArgs": {"list": {"type": ["DT_FLOAT"]}}, "padding": {"s": "VkFMSUQ="}, "leakyrelu_alpha": {"f": 0.2}, "explicit_paddings": {"list": {}}, "filter_format": {"s": "SFdJTw=="}}}, {"name": "StatefulPartitionedCall/asl_resnet50_improved_1/resnet50_1/conv3_block2_3_bn_1/batchnorm/mul_1", "op": "Mul", "input": ["StatefulPartitionedCall/asl_resnet50_improved_1/resnet50_1/conv3_block2_3_conv_1/BiasAdd", "StatefulPartitionedCall/asl_resnet50_improved_1/resnet50_1/conv3_block2_3_bn_1/batchnorm/mul"], "attr": {"T": {"type": "DT_FLOAT"}}}, {"name": "StatefulPartitionedCall/asl_resnet50_improved_1/resnet50_1/conv3_block2_3_bn_1/batchnorm/add_1", "op": "AddV2", "input": ["StatefulPartitionedCall/asl_resnet50_improved_1/resnet50_1/conv3_block2_3_bn_1/batchnorm/mul_1", "StatefulPartitionedCall/asl_resnet50_improved_1/resnet50_1/conv3_block2_3_bn_1/batchnorm/sub"], "attr": {"T": {"type": "DT_FLOAT"}}}, {"name": "StatefulPartitionedCall/asl_resnet50_improved_1/resnet50_1/conv3_block2_add_1/Add", "op": "AddV2", "input": ["StatefulPartitionedCall/asl_resnet50_improved_1/resnet50_1/conv3_block1_out_1/Relu", "StatefulPartitionedCall/asl_resnet50_improved_1/resnet50_1/conv3_block2_3_bn_1/batchnorm/add_1"], "attr": {"T": {"type": "DT_FLOAT"}}}, {"name": "StatefulPartitionedCall/asl_resnet50_improved_1/resnet50_1/conv3_block2_out_1/Relu", "op": "Relu", "input": ["StatefulPartitionedCall/asl_resnet50_improved_1/resnet50_1/conv3_block2_add_1/Add"], "attr": {"T": {"type": "DT_FLOAT"}}}, {"name": "StatefulPartitionedCall/asl_resnet50_improved_1/resnet50_1/conv3_block3_1_conv_1/BiasAdd", "op": "_FusedConv2D", "input": ["StatefulPartitionedCall/asl_resnet50_improved_1/resnet50_1/conv3_block2_out_1/Relu", "StatefulPartitionedCall/asl_resnet50_improved_1/resnet50_1/conv3_block3_1_conv_1/convolution/ReadVariableOp", "StatefulPartitionedCall/asl_resnet50_improved_1/resnet50_1/conv3_block3_1_conv_1/Squeeze"], "device": "/device:CPU:0", "attr": {"epsilon": {"f": 0.0}, "explicit_paddings": {"list": {}}, "dilations": {"list": {"i": ["1", "1", "1", "1"]}}, "num_host_args": {"i": "0"}, "use_cudnn_on_gpu": {"b": true}, "data_format": {"s": "TkhXQw=="}, "strides": {"list": {"i": ["1", "1", "1", "1"]}}, "num_args": {"i": "1"}, "T": {"type": "DT_FLOAT"}, "TArgs": {"list": {"type": ["DT_FLOAT"]}}, "padding": {"s": "VkFMSUQ="}, "leakyrelu_alpha": {"f": 0.2}, "fused_ops": {"list": {"s": ["Qmlhc0FkZA=="]}}, "filter_format": {"s": "SFdJTw=="}}}, {"name": "StatefulPartitionedCall/asl_resnet50_improved_1/resnet50_1/conv3_block3_1_bn_1/batchnorm/mul_1", "op": "Mul", "input": ["StatefulPartitionedCall/asl_resnet50_improved_1/resnet50_1/conv3_block3_1_conv_1/BiasAdd", "StatefulPartitionedCall/asl_resnet50_improved_1/resnet50_1/conv3_block3_1_bn_1/batchnorm/mul"], "attr": {"T": {"type": "DT_FLOAT"}}}, {"name": "StatefulPartitionedCall/asl_resnet50_improved_1/resnet50_1/conv3_block3_1_bn_1/batchnorm/add_1", "op": "AddV2", "input": ["StatefulPartitionedCall/asl_resnet50_improved_1/resnet50_1/conv3_block3_1_bn_1/batchnorm/mul_1", "StatefulPartitionedCall/asl_resnet50_improved_1/resnet50_1/conv3_block3_1_bn_1/batchnorm/sub"], "attr": {"T": {"type": "DT_FLOAT"}}}, {"name": "StatefulPartitionedCall/asl_resnet50_improved_1/resnet50_1/conv3_block3_1_relu_1/Relu", "op": "Relu", "input": ["StatefulPartitionedCall/asl_resnet50_improved_1/resnet50_1/conv3_block3_1_bn_1/batchnorm/add_1"], "attr": {"T": {"type": "DT_FLOAT"}}}, {"name": "StatefulPartitionedCall/asl_resnet50_improved_1/resnet50_1/conv3_block3_2_conv_1/BiasAdd", "op": "_FusedConv2D", "input": ["StatefulPartitionedCall/asl_resnet50_improved_1/resnet50_1/conv3_block3_1_relu_1/Relu", "StatefulPartitionedCall/asl_resnet50_improved_1/resnet50_1/conv3_block3_2_conv_1/convolution/ReadVariableOp", "StatefulPartitionedCall/asl_resnet50_improved_1/resnet50_1/conv3_block3_2_conv_1/Squeeze"], "device": "/device:CPU:0", "attr": {"epsilon": {"f": 0.0}, "fused_ops": {"list": {"s": ["Qmlhc0FkZA=="]}}, "dilations": {"list": {"i": ["1", "1", "1", "1"]}}, "num_host_args": {"i": "0"}, "use_cudnn_on_gpu": {"b": true}, "data_format": {"s": "TkhXQw=="}, "strides": {"list": {"i": ["1", "1", "1", "1"]}}, "num_args": {"i": "1"}, "T": {"type": "DT_FLOAT"}, "TArgs": {"list": {"type": ["DT_FLOAT"]}}, "padding": {"s": "U0FNRQ=="}, "leakyrelu_alpha": {"f": 0.2}, "explicit_paddings": {"list": {}}, "filter_format": {"s": "SFdJTw=="}}}, {"name": "StatefulPartitionedCall/asl_resnet50_improved_1/resnet50_1/conv3_block3_2_bn_1/batchnorm/mul_1", "op": "Mul", "input": ["StatefulPartitionedCall/asl_resnet50_improved_1/resnet50_1/conv3_block3_2_conv_1/BiasAdd", "StatefulPartitionedCall/asl_resnet50_improved_1/resnet50_1/conv3_block3_2_bn_1/batchnorm/mul"], "attr": {"T": {"type": "DT_FLOAT"}}}, {"name": "StatefulPartitionedCall/asl_resnet50_improved_1/resnet50_1/conv3_block3_2_bn_1/batchnorm/add_1", "op": "AddV2", "input": ["StatefulPartitionedCall/asl_resnet50_improved_1/resnet50_1/conv3_block3_2_bn_1/batchnorm/mul_1", "StatefulPartitionedCall/asl_resnet50_improved_1/resnet50_1/conv3_block3_2_bn_1/batchnorm/sub"], "attr": {"T": {"type": "DT_FLOAT"}}}, {"name": "StatefulPartitionedCall/asl_resnet50_improved_1/resnet50_1/conv3_block3_2_relu_1/Relu", "op": "Relu", "input": ["StatefulPartitionedCall/asl_resnet50_improved_1/resnet50_1/conv3_block3_2_bn_1/batchnorm/add_1"], "attr": {"T": {"type": "DT_FLOAT"}}}, {"name": "StatefulPartitionedCall/asl_resnet50_improved_1/resnet50_1/conv3_block3_3_conv_1/BiasAdd", "op": "_FusedConv2D", "input": ["StatefulPartitionedCall/asl_resnet50_improved_1/resnet50_1/conv3_block3_2_relu_1/Relu", "StatefulPartitionedCall/asl_resnet50_improved_1/resnet50_1/conv3_block3_3_conv_1/convolution/ReadVariableOp", "StatefulPartitionedCall/asl_resnet50_improved_1/resnet50_1/conv3_block3_3_conv_1/Squeeze"], "device": "/device:CPU:0", "attr": {"num_host_args": {"i": "0"}, "fused_ops": {"list": {"s": ["Qmlhc0FkZA=="]}}, "dilations": {"list": {"i": ["1", "1", "1", "1"]}}, "epsilon": {"f": 0.0}, "use_cudnn_on_gpu": {"b": true}, "data_format": {"s": "TkhXQw=="}, "strides": {"list": {"i": ["1", "1", "1", "1"]}}, "T": {"type": "DT_FLOAT"}, "num_args": {"i": "1"}, "TArgs": {"list": {"type": ["DT_FLOAT"]}}, "padding": {"s": "VkFMSUQ="}, "leakyrelu_alpha": {"f": 0.2}, "explicit_paddings": {"list": {}}, "filter_format": {"s": "SFdJTw=="}}}, {"name": "StatefulPartitionedCall/asl_resnet50_improved_1/resnet50_1/conv3_block3_3_bn_1/batchnorm/mul_1", "op": "Mul", "input": ["StatefulPartitionedCall/asl_resnet50_improved_1/resnet50_1/conv3_block3_3_conv_1/BiasAdd", "StatefulPartitionedCall/asl_resnet50_improved_1/resnet50_1/conv3_block3_3_bn_1/batchnorm/mul"], "attr": {"T": {"type": "DT_FLOAT"}}}, {"name": "StatefulPartitionedCall/asl_resnet50_improved_1/resnet50_1/conv3_block3_3_bn_1/batchnorm/add_1", "op": "AddV2", "input": ["StatefulPartitionedCall/asl_resnet50_improved_1/resnet50_1/conv3_block3_3_bn_1/batchnorm/mul_1", "StatefulPartitionedCall/asl_resnet50_improved_1/resnet50_1/conv3_block3_3_bn_1/batchnorm/sub"], "attr": {"T": {"type": "DT_FLOAT"}}}, {"name": "StatefulPartitionedCall/asl_resnet50_improved_1/resnet50_1/conv3_block3_add_1/Add", "op": "AddV2", "input": ["StatefulPartitionedCall/asl_resnet50_improved_1/resnet50_1/conv3_block2_out_1/Relu", "StatefulPartitionedCall/asl_resnet50_improved_1/resnet50_1/conv3_block3_3_bn_1/batchnorm/add_1"], "attr": {"T": {"type": "DT_FLOAT"}}}, {"name": "StatefulPartitionedCall/asl_resnet50_improved_1/resnet50_1/conv3_block3_out_1/Relu", "op": "Relu", "input": ["StatefulPartitionedCall/asl_resnet50_improved_1/resnet50_1/conv3_block3_add_1/Add"], "attr": {"T": {"type": "DT_FLOAT"}}}, {"name": "StatefulPartitionedCall/asl_resnet50_improved_1/resnet50_1/conv3_block4_1_conv_1/BiasAdd", "op": "_FusedConv2D", "input": ["StatefulPartitionedCall/asl_resnet50_improved_1/resnet50_1/conv3_block3_out_1/Relu", "StatefulPartitionedCall/asl_resnet50_improved_1/resnet50_1/conv3_block4_1_conv_1/convolution/ReadVariableOp", "StatefulPartitionedCall/asl_resnet50_improved_1/resnet50_1/conv3_block4_1_conv_1/Squeeze"], "device": "/device:CPU:0", "attr": {"num_host_args": {"i": "0"}, "explicit_paddings": {"list": {}}, "dilations": {"list": {"i": ["1", "1", "1", "1"]}}, "epsilon": {"f": 0.0}, "use_cudnn_on_gpu": {"b": true}, "data_format": {"s": "TkhXQw=="}, "strides": {"list": {"i": ["1", "1", "1", "1"]}}, "T": {"type": "DT_FLOAT"}, "num_args": {"i": "1"}, "TArgs": {"list": {"type": ["DT_FLOAT"]}}, "padding": {"s": "VkFMSUQ="}, "filter_format": {"s": "SFdJTw=="}, "fused_ops": {"list": {"s": ["Qmlhc0FkZA=="]}}, "leakyrelu_alpha": {"f": 0.2}}}, {"name": "StatefulPartitionedCall/asl_resnet50_improved_1/resnet50_1/conv3_block4_1_bn_1/batchnorm/mul_1", "op": "Mul", "input": ["StatefulPartitionedCall/asl_resnet50_improved_1/resnet50_1/conv3_block4_1_conv_1/BiasAdd", "StatefulPartitionedCall/asl_resnet50_improved_1/resnet50_1/conv3_block4_1_bn_1/batchnorm/mul"], "attr": {"T": {"type": "DT_FLOAT"}}}, {"name": "StatefulPartitionedCall/asl_resnet50_improved_1/resnet50_1/conv3_block4_1_bn_1/batchnorm/add_1", "op": "AddV2", "input": ["StatefulPartitionedCall/asl_resnet50_improved_1/resnet50_1/conv3_block4_1_bn_1/batchnorm/mul_1", "StatefulPartitionedCall/asl_resnet50_improved_1/resnet50_1/conv3_block4_1_bn_1/batchnorm/sub"], "attr": {"T": {"type": "DT_FLOAT"}}}, {"name": "StatefulPartitionedCall/asl_resnet50_improved_1/resnet50_1/conv3_block4_1_relu_1/Relu", "op": "Relu", "input": ["StatefulPartitionedCall/asl_resnet50_improved_1/resnet50_1/conv3_block4_1_bn_1/batchnorm/add_1"], "attr": {"T": {"type": "DT_FLOAT"}}}, {"name": "StatefulPartitionedCall/asl_resnet50_improved_1/resnet50_1/conv3_block4_2_conv_1/BiasAdd", "op": "_FusedConv2D", "input": ["StatefulPartitionedCall/asl_resnet50_improved_1/resnet50_1/conv3_block4_1_relu_1/Relu", "StatefulPartitionedCall/asl_resnet50_improved_1/resnet50_1/conv3_block4_2_conv_1/convolution/ReadVariableOp", "StatefulPartitionedCall/asl_resnet50_improved_1/resnet50_1/conv3_block4_2_conv_1/Squeeze"], "device": "/device:CPU:0", "attr": {"epsilon": {"f": 0.0}, "fused_ops": {"list": {"s": ["Qmlhc0FkZA=="]}}, "filter_format": {"s": "SFdJTw=="}, "num_host_args": {"i": "0"}, "use_cudnn_on_gpu": {"b": true}, "data_format": {"s": "TkhXQw=="}, "strides": {"list": {"i": ["1", "1", "1", "1"]}}, "num_args": {"i": "1"}, "T": {"type": "DT_FLOAT"}, "TArgs": {"list": {"type": ["DT_FLOAT"]}}, "padding": {"s": "U0FNRQ=="}, "leakyrelu_alpha": {"f": 0.2}, "explicit_paddings": {"list": {}}, "dilations": {"list": {"i": ["1", "1", "1", "1"]}}}}, {"name": "StatefulPartitionedCall/asl_resnet50_improved_1/resnet50_1/conv3_block4_2_bn_1/batchnorm/mul_1", "op": "Mul", "input": ["StatefulPartitionedCall/asl_resnet50_improved_1/resnet50_1/conv3_block4_2_conv_1/BiasAdd", "StatefulPartitionedCall/asl_resnet50_improved_1/resnet50_1/conv3_block4_2_bn_1/batchnorm/mul"], "attr": {"T": {"type": "DT_FLOAT"}}}, {"name": "StatefulPartitionedCall/asl_resnet50_improved_1/resnet50_1/conv3_block4_2_bn_1/batchnorm/add_1", "op": "AddV2", "input": ["StatefulPartitionedCall/asl_resnet50_improved_1/resnet50_1/conv3_block4_2_bn_1/batchnorm/mul_1", "StatefulPartitionedCall/asl_resnet50_improved_1/resnet50_1/conv3_block4_2_bn_1/batchnorm/sub"], "attr": {"T": {"type": "DT_FLOAT"}}}, {"name": "StatefulPartitionedCall/asl_resnet50_improved_1/resnet50_1/conv3_block4_2_relu_1/Relu", "op": "Relu", "input": ["StatefulPartitionedCall/asl_resnet50_improved_1/resnet50_1/conv3_block4_2_bn_1/batchnorm/add_1"], "attr": {"T": {"type": "DT_FLOAT"}}}, {"name": "StatefulPartitionedCall/asl_resnet50_improved_1/resnet50_1/conv3_block4_3_conv_1/BiasAdd", "op": "_FusedConv2D", "input": ["StatefulPartitionedCall/asl_resnet50_improved_1/resnet50_1/conv3_block4_2_relu_1/Relu", "StatefulPartitionedCall/asl_resnet50_improved_1/resnet50_1/conv3_block4_3_conv_1/convolution/ReadVariableOp", "StatefulPartitionedCall/asl_resnet50_improved_1/resnet50_1/conv3_block4_3_conv_1/Squeeze"], "device": "/device:CPU:0", "attr": {"num_host_args": {"i": "0"}, "explicit_paddings": {"list": {}}, "filter_format": {"s": "SFdJTw=="}, "epsilon": {"f": 0.0}, "use_cudnn_on_gpu": {"b": true}, "data_format": {"s": "TkhXQw=="}, "strides": {"list": {"i": ["1", "1", "1", "1"]}}, "num_args": {"i": "1"}, "T": {"type": "DT_FLOAT"}, "TArgs": {"list": {"type": ["DT_FLOAT"]}}, "padding": {"s": "VkFMSUQ="}, "dilations": {"list": {"i": ["1", "1", "1", "1"]}}, "fused_ops": {"list": {"s": ["Qmlhc0FkZA=="]}}, "leakyrelu_alpha": {"f": 0.2}}}, {"name": "StatefulPartitionedCall/asl_resnet50_improved_1/resnet50_1/conv3_block4_3_bn_1/batchnorm/mul_1", "op": "Mul", "input": ["StatefulPartitionedCall/asl_resnet50_improved_1/resnet50_1/conv3_block4_3_conv_1/BiasAdd", "StatefulPartitionedCall/asl_resnet50_improved_1/resnet50_1/conv3_block4_3_bn_1/batchnorm/mul"], "attr": {"T": {"type": "DT_FLOAT"}}}, {"name": "StatefulPartitionedCall/asl_resnet50_improved_1/resnet50_1/conv3_block4_3_bn_1/batchnorm/add_1", "op": "AddV2", "input": ["StatefulPartitionedCall/asl_resnet50_improved_1/resnet50_1/conv3_block4_3_bn_1/batchnorm/mul_1", "StatefulPartitionedCall/asl_resnet50_improved_1/resnet50_1/conv3_block4_3_bn_1/batchnorm/sub"], "attr": {"T": {"type": "DT_FLOAT"}}}, {"name": "StatefulPartitionedCall/asl_resnet50_improved_1/resnet50_1/conv3_block4_add_1/Add", "op": "AddV2", "input": ["StatefulPartitionedCall/asl_resnet50_improved_1/resnet50_1/conv3_block3_out_1/Relu", "StatefulPartitionedCall/asl_resnet50_improved_1/resnet50_1/conv3_block4_3_bn_1/batchnorm/add_1"], "attr": {"T": {"type": "DT_FLOAT"}}}, {"name": "StatefulPartitionedCall/asl_resnet50_improved_1/resnet50_1/conv3_block4_out_1/Relu", "op": "Relu", "input": ["StatefulPartitionedCall/asl_resnet50_improved_1/resnet50_1/conv3_block4_add_1/Add"], "attr": {"T": {"type": "DT_FLOAT"}}}, {"name": "StatefulPartitionedCall/asl_resnet50_improved_1/resnet50_1/conv4_block1_0_conv_1/BiasAdd", "op": "_FusedConv2D", "input": ["StatefulPartitionedCall/asl_resnet50_improved_1/resnet50_1/conv3_block4_out_1/Relu", "StatefulPartitionedCall/asl_resnet50_improved_1/resnet50_1/conv4_block1_0_conv_1/convolution/ReadVariableOp", "StatefulPartitionedCall/asl_resnet50_improved_1/resnet50_1/conv4_block1_0_conv_1/Squeeze"], "device": "/device:CPU:0", "attr": {"num_host_args": {"i": "0"}, "explicit_paddings": {"list": {}}, "filter_format": {"s": "SFdJTw=="}, "epsilon": {"f": 0.0}, "use_cudnn_on_gpu": {"b": true}, "data_format": {"s": "TkhXQw=="}, "strides": {"list": {"i": ["1", "2", "2", "1"]}}, "T": {"type": "DT_FLOAT"}, "num_args": {"i": "1"}, "TArgs": {"list": {"type": ["DT_FLOAT"]}}, "padding": {"s": "VkFMSUQ="}, "leakyrelu_alpha": {"f": 0.2}, "fused_ops": {"list": {"s": ["Qmlhc0FkZA=="]}}, "dilations": {"list": {"i": ["1", "1", "1", "1"]}}}}, {"name": "StatefulPartitionedCall/asl_resnet50_improved_1/resnet50_1/conv4_block1_1_conv_1/BiasAdd", "op": "_FusedConv2D", "input": ["StatefulPartitionedCall/asl_resnet50_improved_1/resnet50_1/conv3_block4_out_1/Relu", "StatefulPartitionedCall/asl_resnet50_improved_1/resnet50_1/conv4_block1_1_conv_1/convolution/ReadVariableOp", "StatefulPartitionedCall/asl_resnet50_improved_1/resnet50_1/conv4_block1_1_conv_1/Squeeze"], "device": "/device:CPU:0", "attr": {"num_host_args": {"i": "0"}, "explicit_paddings": {"list": {}}, "leakyrelu_alpha": {"f": 0.2}, "epsilon": {"f": 0.0}, "use_cudnn_on_gpu": {"b": true}, "data_format": {"s": "TkhXQw=="}, "strides": {"list": {"i": ["1", "2", "2", "1"]}}, "T": {"type": "DT_FLOAT"}, "num_args": {"i": "1"}, "TArgs": {"list": {"type": ["DT_FLOAT"]}}, "padding": {"s": "VkFMSUQ="}, "dilations": {"list": {"i": ["1", "1", "1", "1"]}}, "fused_ops": {"list": {"s": ["Qmlhc0FkZA=="]}}, "filter_format": {"s": "SFdJTw=="}}}, {"name": "StatefulPartitionedCall/asl_resnet50_improved_1/resnet50_1/conv4_block1_0_bn_1/batchnorm/mul_1", "op": "Mul", "input": ["StatefulPartitionedCall/asl_resnet50_improved_1/resnet50_1/conv4_block1_0_conv_1/BiasAdd", "StatefulPartitionedCall/asl_resnet50_improved_1/resnet50_1/conv4_block1_0_bn_1/batchnorm/mul"], "attr": {"T": {"type": "DT_FLOAT"}}}, {"name": "StatefulPartitionedCall/asl_resnet50_improved_1/resnet50_1/conv4_block1_1_bn_1/batchnorm/mul_1", "op": "Mul", "input": ["StatefulPartitionedCall/asl_resnet50_improved_1/resnet50_1/conv4_block1_1_conv_1/BiasAdd", "StatefulPartitionedCall/asl_resnet50_improved_1/resnet50_1/conv4_block1_1_bn_1/batchnorm/mul"], "attr": {"T": {"type": "DT_FLOAT"}}}, {"name": "StatefulPartitionedCall/asl_resnet50_improved_1/resnet50_1/conv4_block1_0_bn_1/batchnorm/add_1", "op": "AddV2", "input": ["StatefulPartitionedCall/asl_resnet50_improved_1/resnet50_1/conv4_block1_0_bn_1/batchnorm/mul_1", "StatefulPartitionedCall/asl_resnet50_improved_1/resnet50_1/conv4_block1_0_bn_1/batchnorm/sub"], "attr": {"T": {"type": "DT_FLOAT"}}}, {"name": "StatefulPartitionedCall/asl_resnet50_improved_1/resnet50_1/conv4_block1_1_bn_1/batchnorm/add_1", "op": "AddV2", "input": ["StatefulPartitionedCall/asl_resnet50_improved_1/resnet50_1/conv4_block1_1_bn_1/batchnorm/mul_1", "StatefulPartitionedCall/asl_resnet50_improved_1/resnet50_1/conv4_block1_1_bn_1/batchnorm/sub"], "attr": {"T": {"type": "DT_FLOAT"}}}, {"name": "StatefulPartitionedCall/asl_resnet50_improved_1/resnet50_1/conv4_block1_1_relu_1/Relu", "op": "Relu", "input": ["StatefulPartitionedCall/asl_resnet50_improved_1/resnet50_1/conv4_block1_1_bn_1/batchnorm/add_1"], "attr": {"T": {"type": "DT_FLOAT"}}}, {"name": "StatefulPartitionedCall/asl_resnet50_improved_1/resnet50_1/conv4_block1_2_conv_1/BiasAdd", "op": "_FusedConv2D", "input": ["StatefulPartitionedCall/asl_resnet50_improved_1/resnet50_1/conv4_block1_1_relu_1/Relu", "StatefulPartitionedCall/asl_resnet50_improved_1/resnet50_1/conv4_block1_2_conv_1/convolution/ReadVariableOp", "StatefulPartitionedCall/asl_resnet50_improved_1/resnet50_1/conv4_block1_2_conv_1/Squeeze"], "device": "/device:CPU:0", "attr": {"num_host_args": {"i": "0"}, "explicit_paddings": {"list": {}}, "dilations": {"list": {"i": ["1", "1", "1", "1"]}}, "epsilon": {"f": 0.0}, "use_cudnn_on_gpu": {"b": true}, "data_format": {"s": "TkhXQw=="}, "strides": {"list": {"i": ["1", "1", "1", "1"]}}, "num_args": {"i": "1"}, "T": {"type": "DT_FLOAT"}, "TArgs": {"list": {"type": ["DT_FLOAT"]}}, "padding": {"s": "U0FNRQ=="}, "filter_format": {"s": "SFdJTw=="}, "fused_ops": {"list": {"s": ["Qmlhc0FkZA=="]}}, "leakyrelu_alpha": {"f": 0.2}}}, {"name": "StatefulPartitionedCall/asl_resnet50_improved_1/resnet50_1/conv4_block1_2_bn_1/batchnorm/mul_1", "op": "Mul", "input": ["StatefulPartitionedCall/asl_resnet50_improved_1/resnet50_1/conv4_block1_2_conv_1/BiasAdd", "StatefulPartitionedCall/asl_resnet50_improved_1/resnet50_1/conv4_block1_2_bn_1/batchnorm/mul"], "attr": {"T": {"type": "DT_FLOAT"}}}, {"name": "StatefulPartitionedCall/asl_resnet50_improved_1/resnet50_1/conv4_block1_2_bn_1/batchnorm/add_1", "op": "AddV2", "input": ["StatefulPartitionedCall/asl_resnet50_improved_1/resnet50_1/conv4_block1_2_bn_1/batchnorm/mul_1", "StatefulPartitionedCall/asl_resnet50_improved_1/resnet50_1/conv4_block1_2_bn_1/batchnorm/sub"], "attr": {"T": {"type": "DT_FLOAT"}}}, {"name": "StatefulPartitionedCall/asl_resnet50_improved_1/resnet50_1/conv4_block1_2_relu_1/Relu", "op": "Relu", "input": ["StatefulPartitionedCall/asl_resnet50_improved_1/resnet50_1/conv4_block1_2_bn_1/batchnorm/add_1"], "attr": {"T": {"type": "DT_FLOAT"}}}, {"name": "StatefulPartitionedCall/asl_resnet50_improved_1/resnet50_1/conv4_block1_3_conv_1/BiasAdd", "op": "_FusedConv2D", "input": ["StatefulPartitionedCall/asl_resnet50_improved_1/resnet50_1/conv4_block1_2_relu_1/Relu", "StatefulPartitionedCall/asl_resnet50_improved_1/resnet50_1/conv4_block1_3_conv_1/convolution/ReadVariableOp", "StatefulPartitionedCall/asl_resnet50_improved_1/resnet50_1/conv4_block1_3_conv_1/Squeeze"], "device": "/device:CPU:0", "attr": {"num_host_args": {"i": "0"}, "explicit_paddings": {"list": {}}, "leakyrelu_alpha": {"f": 0.2}, "epsilon": {"f": 0.0}, "use_cudnn_on_gpu": {"b": true}, "data_format": {"s": "TkhXQw=="}, "strides": {"list": {"i": ["1", "1", "1", "1"]}}, "T": {"type": "DT_FLOAT"}, "num_args": {"i": "1"}, "TArgs": {"list": {"type": ["DT_FLOAT"]}}, "padding": {"s": "VkFMSUQ="}, "filter_format": {"s": "SFdJTw=="}, "fused_ops": {"list": {"s": ["Qmlhc0FkZA=="]}}, "dilations": {"list": {"i": ["1", "1", "1", "1"]}}}}, {"name": "StatefulPartitionedCall/asl_resnet50_improved_1/resnet50_1/conv4_block1_3_bn_1/batchnorm/mul_1", "op": "Mul", "input": ["StatefulPartitionedCall/asl_resnet50_improved_1/resnet50_1/conv4_block1_3_conv_1/BiasAdd", "StatefulPartitionedCall/asl_resnet50_improved_1/resnet50_1/conv4_block1_3_bn_1/batchnorm/mul"], "attr": {"T": {"type": "DT_FLOAT"}}}, {"name": "StatefulPartitionedCall/asl_resnet50_improved_1/resnet50_1/conv4_block1_3_bn_1/batchnorm/add_1", "op": "AddV2", "input": ["StatefulPartitionedCall/asl_resnet50_improved_1/resnet50_1/conv4_block1_3_bn_1/batchnorm/mul_1", "StatefulPartitionedCall/asl_resnet50_improved_1/resnet50_1/conv4_block1_3_bn_1/batchnorm/sub"], "attr": {"T": {"type": "DT_FLOAT"}}}, {"name": "StatefulPartitionedCall/asl_resnet50_improved_1/resnet50_1/conv4_block1_add_1/Add", "op": "AddV2", "input": ["StatefulPartitionedCall/asl_resnet50_improved_1/resnet50_1/conv4_block1_0_bn_1/batchnorm/add_1", "StatefulPartitionedCall/asl_resnet50_improved_1/resnet50_1/conv4_block1_3_bn_1/batchnorm/add_1"], "attr": {"T": {"type": "DT_FLOAT"}}}, {"name": "StatefulPartitionedCall/asl_resnet50_improved_1/resnet50_1/conv4_block1_out_1/Relu", "op": "Relu", "input": ["StatefulPartitionedCall/asl_resnet50_improved_1/resnet50_1/conv4_block1_add_1/Add"], "attr": {"T": {"type": "DT_FLOAT"}}}, {"name": "StatefulPartitionedCall/asl_resnet50_improved_1/resnet50_1/conv4_block2_1_conv_1/BiasAdd", "op": "_FusedConv2D", "input": ["StatefulPartitionedCall/asl_resnet50_improved_1/resnet50_1/conv4_block1_out_1/Relu", "StatefulPartitionedCall/asl_resnet50_improved_1/resnet50_1/conv4_block2_1_conv_1/convolution/ReadVariableOp", "StatefulPartitionedCall/asl_resnet50_improved_1/resnet50_1/conv4_block2_1_conv_1/Squeeze"], "device": "/device:CPU:0", "attr": {"epsilon": {"f": 0.0}, "explicit_paddings": {"list": {}}, "filter_format": {"s": "SFdJTw=="}, "num_host_args": {"i": "0"}, "use_cudnn_on_gpu": {"b": true}, "data_format": {"s": "TkhXQw=="}, "strides": {"list": {"i": ["1", "1", "1", "1"]}}, "num_args": {"i": "1"}, "T": {"type": "DT_FLOAT"}, "TArgs": {"list": {"type": ["DT_FLOAT"]}}, "padding": {"s": "VkFMSUQ="}, "dilations": {"list": {"i": ["1", "1", "1", "1"]}}, "fused_ops": {"list": {"s": ["Qmlhc0FkZA=="]}}, "leakyrelu_alpha": {"f": 0.2}}}, {"name": "StatefulPartitionedCall/asl_resnet50_improved_1/resnet50_1/conv4_block2_1_bn_1/batchnorm/mul_1", "op": "Mul", "input": ["StatefulPartitionedCall/asl_resnet50_improved_1/resnet50_1/conv4_block2_1_conv_1/BiasAdd", "StatefulPartitionedCall/asl_resnet50_improved_1/resnet50_1/conv4_block2_1_bn_1/batchnorm/mul"], "attr": {"T": {"type": "DT_FLOAT"}}}, {"name": "StatefulPartitionedCall/asl_resnet50_improved_1/resnet50_1/conv4_block2_1_bn_1/batchnorm/add_1", "op": "AddV2", "input": ["StatefulPartitionedCall/asl_resnet50_improved_1/resnet50_1/conv4_block2_1_bn_1/batchnorm/mul_1", "StatefulPartitionedCall/asl_resnet50_improved_1/resnet50_1/conv4_block2_1_bn_1/batchnorm/sub"], "attr": {"T": {"type": "DT_FLOAT"}}}, {"name": "StatefulPartitionedCall/asl_resnet50_improved_1/resnet50_1/conv4_block2_1_relu_1/Relu", "op": "Relu", "input": ["StatefulPartitionedCall/asl_resnet50_improved_1/resnet50_1/conv4_block2_1_bn_1/batchnorm/add_1"], "attr": {"T": {"type": "DT_FLOAT"}}}, {"name": "StatefulPartitionedCall/asl_resnet50_improved_1/resnet50_1/conv4_block2_2_conv_1/BiasAdd", "op": "_FusedConv2D", "input": ["StatefulPartitionedCall/asl_resnet50_improved_1/resnet50_1/conv4_block2_1_relu_1/Relu", "StatefulPartitionedCall/asl_resnet50_improved_1/resnet50_1/conv4_block2_2_conv_1/convolution/ReadVariableOp", "StatefulPartitionedCall/asl_resnet50_improved_1/resnet50_1/conv4_block2_2_conv_1/Squeeze"], "device": "/device:CPU:0", "attr": {"epsilon": {"f": 0.0}, "explicit_paddings": {"list": {}}, "leakyrelu_alpha": {"f": 0.2}, "num_host_args": {"i": "0"}, "use_cudnn_on_gpu": {"b": true}, "data_format": {"s": "TkhXQw=="}, "strides": {"list": {"i": ["1", "1", "1", "1"]}}, "T": {"type": "DT_FLOAT"}, "num_args": {"i": "1"}, "TArgs": {"list": {"type": ["DT_FLOAT"]}}, "padding": {"s": "U0FNRQ=="}, "dilations": {"list": {"i": ["1", "1", "1", "1"]}}, "fused_ops": {"list": {"s": ["Qmlhc0FkZA=="]}}, "filter_format": {"s": "SFdJTw=="}}}, {"name": "StatefulPartitionedCall/asl_resnet50_improved_1/resnet50_1/conv4_block2_2_bn_1/batchnorm/mul_1", "op": "Mul", "input": ["StatefulPartitionedCall/asl_resnet50_improved_1/resnet50_1/conv4_block2_2_conv_1/BiasAdd", "StatefulPartitionedCall/asl_resnet50_improved_1/resnet50_1/conv4_block2_2_bn_1/batchnorm/mul"], "attr": {"T": {"type": "DT_FLOAT"}}}, {"name": "StatefulPartitionedCall/asl_resnet50_improved_1/resnet50_1/conv4_block2_2_bn_1/batchnorm/add_1", "op": "AddV2", "input": ["StatefulPartitionedCall/asl_resnet50_improved_1/resnet50_1/conv4_block2_2_bn_1/batchnorm/mul_1", "StatefulPartitionedCall/asl_resnet50_improved_1/resnet50_1/conv4_block2_2_bn_1/batchnorm/sub"], "attr": {"T": {"type": "DT_FLOAT"}}}, {"name": "StatefulPartitionedCall/asl_resnet50_improved_1/resnet50_1/conv4_block2_2_relu_1/Relu", "op": "Relu", "input": ["StatefulPartitionedCall/asl_resnet50_improved_1/resnet50_1/conv4_block2_2_bn_1/batchnorm/add_1"], "attr": {"T": {"type": "DT_FLOAT"}}}, {"name": "StatefulPartitionedCall/asl_resnet50_improved_1/resnet50_1/conv4_block2_3_conv_1/BiasAdd", "op": "_FusedConv2D", "input": ["StatefulPartitionedCall/asl_resnet50_improved_1/resnet50_1/conv4_block2_2_relu_1/Relu", "StatefulPartitionedCall/asl_resnet50_improved_1/resnet50_1/conv4_block2_3_conv_1/convolution/ReadVariableOp", "StatefulPartitionedCall/asl_resnet50_improved_1/resnet50_1/conv4_block2_3_conv_1/Squeeze"], "device": "/device:CPU:0", "attr": {"epsilon": {"f": 0.0}, "fused_ops": {"list": {"s": ["Qmlhc0FkZA=="]}}, "leakyrelu_alpha": {"f": 0.2}, "num_host_args": {"i": "0"}, "use_cudnn_on_gpu": {"b": true}, "data_format": {"s": "TkhXQw=="}, "strides": {"list": {"i": ["1", "1", "1", "1"]}}, "num_args": {"i": "1"}, "T": {"type": "DT_FLOAT"}, "TArgs": {"list": {"type": ["DT_FLOAT"]}}, "padding": {"s": "VkFMSUQ="}, "filter_format": {"s": "SFdJTw=="}, "explicit_paddings": {"list": {}}, "dilations": {"list": {"i": ["1", "1", "1", "1"]}}}}, {"name": "StatefulPartitionedCall/asl_resnet50_improved_1/resnet50_1/conv4_block2_3_bn_1/batchnorm/mul_1", "op": "Mul", "input": ["StatefulPartitionedCall/asl_resnet50_improved_1/resnet50_1/conv4_block2_3_conv_1/BiasAdd", "StatefulPartitionedCall/asl_resnet50_improved_1/resnet50_1/conv4_block2_3_bn_1/batchnorm/mul"], "attr": {"T": {"type": "DT_FLOAT"}}}, {"name": "StatefulPartitionedCall/asl_resnet50_improved_1/resnet50_1/conv4_block2_3_bn_1/batchnorm/add_1", "op": "AddV2", "input": ["StatefulPartitionedCall/asl_resnet50_improved_1/resnet50_1/conv4_block2_3_bn_1/batchnorm/mul_1", "StatefulPartitionedCall/asl_resnet50_improved_1/resnet50_1/conv4_block2_3_bn_1/batchnorm/sub"], "attr": {"T": {"type": "DT_FLOAT"}}}, {"name": "StatefulPartitionedCall/asl_resnet50_improved_1/resnet50_1/conv4_block2_add_1/Add", "op": "AddV2", "input": ["StatefulPartitionedCall/asl_resnet50_improved_1/resnet50_1/conv4_block1_out_1/Relu", "StatefulPartitionedCall/asl_resnet50_improved_1/resnet50_1/conv4_block2_3_bn_1/batchnorm/add_1"], "attr": {"T": {"type": "DT_FLOAT"}}}, {"name": "StatefulPartitionedCall/asl_resnet50_improved_1/resnet50_1/conv4_block2_out_1/Relu", "op": "Relu", "input": ["StatefulPartitionedCall/asl_resnet50_improved_1/resnet50_1/conv4_block2_add_1/Add"], "attr": {"T": {"type": "DT_FLOAT"}}}, {"name": "StatefulPartitionedCall/asl_resnet50_improved_1/resnet50_1/conv4_block3_1_conv_1/BiasAdd", "op": "_FusedConv2D", "input": ["StatefulPartitionedCall/asl_resnet50_improved_1/resnet50_1/conv4_block2_out_1/Relu", "StatefulPartitionedCall/asl_resnet50_improved_1/resnet50_1/conv4_block3_1_conv_1/convolution/ReadVariableOp", "StatefulPartitionedCall/asl_resnet50_improved_1/resnet50_1/conv4_block3_1_conv_1/Squeeze"], "device": "/device:CPU:0", "attr": {"num_host_args": {"i": "0"}, "fused_ops": {"list": {"s": ["Qmlhc0FkZA=="]}}, "dilations": {"list": {"i": ["1", "1", "1", "1"]}}, "epsilon": {"f": 0.0}, "use_cudnn_on_gpu": {"b": true}, "data_format": {"s": "TkhXQw=="}, "strides": {"list": {"i": ["1", "1", "1", "1"]}}, "T": {"type": "DT_FLOAT"}, "num_args": {"i": "1"}, "TArgs": {"list": {"type": ["DT_FLOAT"]}}, "padding": {"s": "VkFMSUQ="}, "leakyrelu_alpha": {"f": 0.2}, "explicit_paddings": {"list": {}}, "filter_format": {"s": "SFdJTw=="}}}, {"name": "StatefulPartitionedCall/asl_resnet50_improved_1/resnet50_1/conv4_block3_1_bn_1/batchnorm/mul_1", "op": "Mul", "input": ["StatefulPartitionedCall/asl_resnet50_improved_1/resnet50_1/conv4_block3_1_conv_1/BiasAdd", "StatefulPartitionedCall/asl_resnet50_improved_1/resnet50_1/conv4_block3_1_bn_1/batchnorm/mul"], "attr": {"T": {"type": "DT_FLOAT"}}}, {"name": "StatefulPartitionedCall/asl_resnet50_improved_1/resnet50_1/conv4_block3_1_bn_1/batchnorm/add_1", "op": "AddV2", "input": ["StatefulPartitionedCall/asl_resnet50_improved_1/resnet50_1/conv4_block3_1_bn_1/batchnorm/mul_1", "StatefulPartitionedCall/asl_resnet50_improved_1/resnet50_1/conv4_block3_1_bn_1/batchnorm/sub"], "attr": {"T": {"type": "DT_FLOAT"}}}, {"name": "StatefulPartitionedCall/asl_resnet50_improved_1/resnet50_1/conv4_block3_1_relu_1/Relu", "op": "Relu", "input": ["StatefulPartitionedCall/asl_resnet50_improved_1/resnet50_1/conv4_block3_1_bn_1/batchnorm/add_1"], "attr": {"T": {"type": "DT_FLOAT"}}}, {"name": "StatefulPartitionedCall/asl_resnet50_improved_1/resnet50_1/conv4_block3_2_conv_1/BiasAdd", "op": "_FusedConv2D", "input": ["StatefulPartitionedCall/asl_resnet50_improved_1/resnet50_1/conv4_block3_1_relu_1/Relu", "StatefulPartitionedCall/asl_resnet50_improved_1/resnet50_1/conv4_block3_2_conv_1/convolution/ReadVariableOp", "StatefulPartitionedCall/asl_resnet50_improved_1/resnet50_1/conv4_block3_2_conv_1/Squeeze"], "device": "/device:CPU:0", "attr": {"epsilon": {"f": 0.0}, "fused_ops": {"list": {"s": ["Qmlhc0FkZA=="]}}, "leakyrelu_alpha": {"f": 0.2}, "num_host_args": {"i": "0"}, "use_cudnn_on_gpu": {"b": true}, "data_format": {"s": "TkhXQw=="}, "strides": {"list": {"i": ["1", "1", "1", "1"]}}, "num_args": {"i": "1"}, "T": {"type": "DT_FLOAT"}, "TArgs": {"list": {"type": ["DT_FLOAT"]}}, "padding": {"s": "U0FNRQ=="}, "filter_format": {"s": "SFdJTw=="}, "explicit_paddings": {"list": {}}, "dilations": {"list": {"i": ["1", "1", "1", "1"]}}}}, {"name": "StatefulPartitionedCall/asl_resnet50_improved_1/resnet50_1/conv4_block3_2_bn_1/batchnorm/mul_1", "op": "Mul", "input": ["StatefulPartitionedCall/asl_resnet50_improved_1/resnet50_1/conv4_block3_2_conv_1/BiasAdd", "StatefulPartitionedCall/asl_resnet50_improved_1/resnet50_1/conv4_block3_2_bn_1/batchnorm/mul"], "attr": {"T": {"type": "DT_FLOAT"}}}, {"name": "StatefulPartitionedCall/asl_resnet50_improved_1/resnet50_1/conv4_block3_2_bn_1/batchnorm/add_1", "op": "AddV2", "input": ["StatefulPartitionedCall/asl_resnet50_improved_1/resnet50_1/conv4_block3_2_bn_1/batchnorm/mul_1", "StatefulPartitionedCall/asl_resnet50_improved_1/resnet50_1/conv4_block3_2_bn_1/batchnorm/sub"], "attr": {"T": {"type": "DT_FLOAT"}}}, {"name": "StatefulPartitionedCall/asl_resnet50_improved_1/resnet50_1/conv4_block3_2_relu_1/Relu", "op": "Relu", "input": ["StatefulPartitionedCall/asl_resnet50_improved_1/resnet50_1/conv4_block3_2_bn_1/batchnorm/add_1"], "attr": {"T": {"type": "DT_FLOAT"}}}, {"name": "StatefulPartitionedCall/asl_resnet50_improved_1/resnet50_1/conv4_block3_3_conv_1/BiasAdd", "op": "_FusedConv2D", "input": ["StatefulPartitionedCall/asl_resnet50_improved_1/resnet50_1/conv4_block3_2_relu_1/Relu", "StatefulPartitionedCall/asl_resnet50_improved_1/resnet50_1/conv4_block3_3_conv_1/convolution/ReadVariableOp", "StatefulPartitionedCall/asl_resnet50_improved_1/resnet50_1/conv4_block3_3_conv_1/Squeeze"], "device": "/device:CPU:0", "attr": {"epsilon": {"f": 0.0}, "explicit_paddings": {"list": {}}, "filter_format": {"s": "SFdJTw=="}, "num_host_args": {"i": "0"}, "use_cudnn_on_gpu": {"b": true}, "data_format": {"s": "TkhXQw=="}, "strides": {"list": {"i": ["1", "1", "1", "1"]}}, "num_args": {"i": "1"}, "T": {"type": "DT_FLOAT"}, "TArgs": {"list": {"type": ["DT_FLOAT"]}}, "padding": {"s": "VkFMSUQ="}, "dilations": {"list": {"i": ["1", "1", "1", "1"]}}, "fused_ops": {"list": {"s": ["Qmlhc0FkZA=="]}}, "leakyrelu_alpha": {"f": 0.2}}}, {"name": "StatefulPartitionedCall/asl_resnet50_improved_1/resnet50_1/conv4_block3_3_bn_1/batchnorm/mul_1", "op": "Mul", "input": ["StatefulPartitionedCall/asl_resnet50_improved_1/resnet50_1/conv4_block3_3_conv_1/BiasAdd", "StatefulPartitionedCall/asl_resnet50_improved_1/resnet50_1/conv4_block3_3_bn_1/batchnorm/mul"], "attr": {"T": {"type": "DT_FLOAT"}}}, {"name": "StatefulPartitionedCall/asl_resnet50_improved_1/resnet50_1/conv4_block3_3_bn_1/batchnorm/add_1", "op": "AddV2", "input": ["StatefulPartitionedCall/asl_resnet50_improved_1/resnet50_1/conv4_block3_3_bn_1/batchnorm/mul_1", "StatefulPartitionedCall/asl_resnet50_improved_1/resnet50_1/conv4_block3_3_bn_1/batchnorm/sub"], "attr": {"T": {"type": "DT_FLOAT"}}}, {"name": "StatefulPartitionedCall/asl_resnet50_improved_1/resnet50_1/conv4_block3_add_1/Add", "op": "AddV2", "input": ["StatefulPartitionedCall/asl_resnet50_improved_1/resnet50_1/conv4_block2_out_1/Relu", "StatefulPartitionedCall/asl_resnet50_improved_1/resnet50_1/conv4_block3_3_bn_1/batchnorm/add_1"], "attr": {"T": {"type": "DT_FLOAT"}}}, {"name": "StatefulPartitionedCall/asl_resnet50_improved_1/resnet50_1/conv4_block3_out_1/Relu", "op": "Relu", "input": ["StatefulPartitionedCall/asl_resnet50_improved_1/resnet50_1/conv4_block3_add_1/Add"], "attr": {"T": {"type": "DT_FLOAT"}}}, {"name": "StatefulPartitionedCall/asl_resnet50_improved_1/resnet50_1/conv4_block4_1_conv_1/BiasAdd", "op": "_FusedConv2D", "input": ["StatefulPartitionedCall/asl_resnet50_improved_1/resnet50_1/conv4_block3_out_1/Relu", "StatefulPartitionedCall/asl_resnet50_improved_1/resnet50_1/conv4_block4_1_conv_1/convolution/ReadVariableOp", "StatefulPartitionedCall/asl_resnet50_improved_1/resnet50_1/conv4_block4_1_conv_1/Squeeze"], "device": "/device:CPU:0", "attr": {"num_host_args": {"i": "0"}, "explicit_paddings": {"list": {}}, "filter_format": {"s": "SFdJTw=="}, "epsilon": {"f": 0.0}, "use_cudnn_on_gpu": {"b": true}, "data_format": {"s": "TkhXQw=="}, "strides": {"list": {"i": ["1", "1", "1", "1"]}}, "num_args": {"i": "1"}, "T": {"type": "DT_FLOAT"}, "TArgs": {"list": {"type": ["DT_FLOAT"]}}, "padding": {"s": "VkFMSUQ="}, "leakyrelu_alpha": {"f": 0.2}, "fused_ops": {"list": {"s": ["Qmlhc0FkZA=="]}}, "dilations": {"list": {"i": ["1", "1", "1", "1"]}}}}, {"name": "StatefulPartitionedCall/asl_resnet50_improved_1/resnet50_1/conv4_block4_1_bn_1/batchnorm/mul_1", "op": "Mul", "input": ["StatefulPartitionedCall/asl_resnet50_improved_1/resnet50_1/conv4_block4_1_conv_1/BiasAdd", "StatefulPartitionedCall/asl_resnet50_improved_1/resnet50_1/conv4_block4_1_bn_1/batchnorm/mul"], "attr": {"T": {"type": "DT_FLOAT"}}}, {"name": "StatefulPartitionedCall/asl_resnet50_improved_1/resnet50_1/conv4_block4_1_bn_1/batchnorm/add_1", "op": "AddV2", "input": ["StatefulPartitionedCall/asl_resnet50_improved_1/resnet50_1/conv4_block4_1_bn_1/batchnorm/mul_1", "StatefulPartitionedCall/asl_resnet50_improved_1/resnet50_1/conv4_block4_1_bn_1/batchnorm/sub"], "attr": {"T": {"type": "DT_FLOAT"}}}, {"name": "StatefulPartitionedCall/asl_resnet50_improved_1/resnet50_1/conv4_block4_1_relu_1/Relu", "op": "Relu", "input": ["StatefulPartitionedCall/asl_resnet50_improved_1/resnet50_1/conv4_block4_1_bn_1/batchnorm/add_1"], "attr": {"T": {"type": "DT_FLOAT"}}}, {"name": "StatefulPartitionedCall/asl_resnet50_improved_1/resnet50_1/conv4_block4_2_conv_1/BiasAdd", "op": "_FusedConv2D", "input": ["StatefulPartitionedCall/asl_resnet50_improved_1/resnet50_1/conv4_block4_1_relu_1/Relu", "StatefulPartitionedCall/asl_resnet50_improved_1/resnet50_1/conv4_block4_2_conv_1/convolution/ReadVariableOp", "StatefulPartitionedCall/asl_resnet50_improved_1/resnet50_1/conv4_block4_2_conv_1/Squeeze"], "device": "/device:CPU:0", "attr": {"num_host_args": {"i": "0"}, "fused_ops": {"list": {"s": ["Qmlhc0FkZA=="]}}, "dilations": {"list": {"i": ["1", "1", "1", "1"]}}, "epsilon": {"f": 0.0}, "use_cudnn_on_gpu": {"b": true}, "data_format": {"s": "TkhXQw=="}, "strides": {"list": {"i": ["1", "1", "1", "1"]}}, "num_args": {"i": "1"}, "T": {"type": "DT_FLOAT"}, "TArgs": {"list": {"type": ["DT_FLOAT"]}}, "padding": {"s": "U0FNRQ=="}, "filter_format": {"s": "SFdJTw=="}, "explicit_paddings": {"list": {}}, "leakyrelu_alpha": {"f": 0.2}}}, {"name": "StatefulPartitionedCall/asl_resnet50_improved_1/resnet50_1/conv4_block4_2_bn_1/batchnorm/mul_1", "op": "Mul", "input": ["StatefulPartitionedCall/asl_resnet50_improved_1/resnet50_1/conv4_block4_2_conv_1/BiasAdd", "StatefulPartitionedCall/asl_resnet50_improved_1/resnet50_1/conv4_block4_2_bn_1/batchnorm/mul"], "attr": {"T": {"type": "DT_FLOAT"}}}, {"name": "StatefulPartitionedCall/asl_resnet50_improved_1/resnet50_1/conv4_block4_2_bn_1/batchnorm/add_1", "op": "AddV2", "input": ["StatefulPartitionedCall/asl_resnet50_improved_1/resnet50_1/conv4_block4_2_bn_1/batchnorm/mul_1", "StatefulPartitionedCall/asl_resnet50_improved_1/resnet50_1/conv4_block4_2_bn_1/batchnorm/sub"], "attr": {"T": {"type": "DT_FLOAT"}}}, {"name": "StatefulPartitionedCall/asl_resnet50_improved_1/resnet50_1/conv4_block4_2_relu_1/Relu", "op": "Relu", "input": ["StatefulPartitionedCall/asl_resnet50_improved_1/resnet50_1/conv4_block4_2_bn_1/batchnorm/add_1"], "attr": {"T": {"type": "DT_FLOAT"}}}, {"name": "StatefulPartitionedCall/asl_resnet50_improved_1/resnet50_1/conv4_block4_3_conv_1/BiasAdd", "op": "_FusedConv2D", "input": ["StatefulPartitionedCall/asl_resnet50_improved_1/resnet50_1/conv4_block4_2_relu_1/Relu", "StatefulPartitionedCall/asl_resnet50_improved_1/resnet50_1/conv4_block4_3_conv_1/convolution/ReadVariableOp", "StatefulPartitionedCall/asl_resnet50_improved_1/resnet50_1/conv4_block4_3_conv_1/Squeeze"], "device": "/device:CPU:0", "attr": {"num_host_args": {"i": "0"}, "fused_ops": {"list": {"s": ["Qmlhc0FkZA=="]}}, "leakyrelu_alpha": {"f": 0.2}, "epsilon": {"f": 0.0}, "use_cudnn_on_gpu": {"b": true}, "data_format": {"s": "TkhXQw=="}, "strides": {"list": {"i": ["1", "1", "1", "1"]}}, "T": {"type": "DT_FLOAT"}, "num_args": {"i": "1"}, "TArgs": {"list": {"type": ["DT_FLOAT"]}}, "padding": {"s": "VkFMSUQ="}, "filter_format": {"s": "SFdJTw=="}, "explicit_paddings": {"list": {}}, "dilations": {"list": {"i": ["1", "1", "1", "1"]}}}}, {"name": "StatefulPartitionedCall/asl_resnet50_improved_1/resnet50_1/conv4_block4_3_bn_1/batchnorm/mul_1", "op": "Mul", "input": ["StatefulPartitionedCall/asl_resnet50_improved_1/resnet50_1/conv4_block4_3_conv_1/BiasAdd", "StatefulPartitionedCall/asl_resnet50_improved_1/resnet50_1/conv4_block4_3_bn_1/batchnorm/mul"], "attr": {"T": {"type": "DT_FLOAT"}}}, {"name": "StatefulPartitionedCall/asl_resnet50_improved_1/resnet50_1/conv4_block4_3_bn_1/batchnorm/add_1", "op": "AddV2", "input": ["StatefulPartitionedCall/asl_resnet50_improved_1/resnet50_1/conv4_block4_3_bn_1/batchnorm/mul_1", "StatefulPartitionedCall/asl_resnet50_improved_1/resnet50_1/conv4_block4_3_bn_1/batchnorm/sub"], "attr": {"T": {"type": "DT_FLOAT"}}}, {"name": "StatefulPartitionedCall/asl_resnet50_improved_1/resnet50_1/conv4_block4_add_1/Add", "op": "AddV2", "input": ["StatefulPartitionedCall/asl_resnet50_improved_1/resnet50_1/conv4_block3_out_1/Relu", "StatefulPartitionedCall/asl_resnet50_improved_1/resnet50_1/conv4_block4_3_bn_1/batchnorm/add_1"], "attr": {"T": {"type": "DT_FLOAT"}}}, {"name": "StatefulPartitionedCall/asl_resnet50_improved_1/resnet50_1/conv4_block4_out_1/Relu", "op": "Relu", "input": ["StatefulPartitionedCall/asl_resnet50_improved_1/resnet50_1/conv4_block4_add_1/Add"], "attr": {"T": {"type": "DT_FLOAT"}}}, {"name": "StatefulPartitionedCall/asl_resnet50_improved_1/resnet50_1/conv4_block5_1_conv_1/BiasAdd", "op": "_FusedConv2D", "input": ["StatefulPartitionedCall/asl_resnet50_improved_1/resnet50_1/conv4_block4_out_1/Relu", "StatefulPartitionedCall/asl_resnet50_improved_1/resnet50_1/conv4_block5_1_conv_1/convolution/ReadVariableOp", "StatefulPartitionedCall/asl_resnet50_improved_1/resnet50_1/conv4_block5_1_conv_1/Squeeze"], "device": "/device:CPU:0", "attr": {"num_host_args": {"i": "0"}, "explicit_paddings": {"list": {}}, "leakyrelu_alpha": {"f": 0.2}, "epsilon": {"f": 0.0}, "use_cudnn_on_gpu": {"b": true}, "data_format": {"s": "TkhXQw=="}, "strides": {"list": {"i": ["1", "1", "1", "1"]}}, "num_args": {"i": "1"}, "T": {"type": "DT_FLOAT"}, "TArgs": {"list": {"type": ["DT_FLOAT"]}}, "padding": {"s": "VkFMSUQ="}, "dilations": {"list": {"i": ["1", "1", "1", "1"]}}, "fused_ops": {"list": {"s": ["Qmlhc0FkZA=="]}}, "filter_format": {"s": "SFdJTw=="}}}, {"name": "StatefulPartitionedCall/asl_resnet50_improved_1/resnet50_1/conv4_block5_1_bn_1/batchnorm/mul_1", "op": "Mul", "input": ["StatefulPartitionedCall/asl_resnet50_improved_1/resnet50_1/conv4_block5_1_conv_1/BiasAdd", "StatefulPartitionedCall/asl_resnet50_improved_1/resnet50_1/conv4_block5_1_bn_1/batchnorm/mul"], "attr": {"T": {"type": "DT_FLOAT"}}}, {"name": "StatefulPartitionedCall/asl_resnet50_improved_1/resnet50_1/conv4_block5_1_bn_1/batchnorm/add_1", "op": "AddV2", "input": ["StatefulPartitionedCall/asl_resnet50_improved_1/resnet50_1/conv4_block5_1_bn_1/batchnorm/mul_1", "StatefulPartitionedCall/asl_resnet50_improved_1/resnet50_1/conv4_block5_1_bn_1/batchnorm/sub"], "attr": {"T": {"type": "DT_FLOAT"}}}, {"name": "StatefulPartitionedCall/asl_resnet50_improved_1/resnet50_1/conv4_block5_1_relu_1/Relu", "op": "Relu", "input": ["StatefulPartitionedCall/asl_resnet50_improved_1/resnet50_1/conv4_block5_1_bn_1/batchnorm/add_1"], "attr": {"T": {"type": "DT_FLOAT"}}}, {"name": "StatefulPartitionedCall/asl_resnet50_improved_1/resnet50_1/conv4_block5_2_conv_1/BiasAdd", "op": "_FusedConv2D", "input": ["StatefulPartitionedCall/asl_resnet50_improved_1/resnet50_1/conv4_block5_1_relu_1/Relu", "StatefulPartitionedCall/asl_resnet50_improved_1/resnet50_1/conv4_block5_2_conv_1/convolution/ReadVariableOp", "StatefulPartitionedCall/asl_resnet50_improved_1/resnet50_1/conv4_block5_2_conv_1/Squeeze"], "device": "/device:CPU:0", "attr": {"num_host_args": {"i": "0"}, "explicit_paddings": {"list": {}}, "filter_format": {"s": "SFdJTw=="}, "epsilon": {"f": 0.0}, "use_cudnn_on_gpu": {"b": true}, "data_format": {"s": "TkhXQw=="}, "strides": {"list": {"i": ["1", "1", "1", "1"]}}, "T": {"type": "DT_FLOAT"}, "num_args": {"i": "1"}, "TArgs": {"list": {"type": ["DT_FLOAT"]}}, "padding": {"s": "U0FNRQ=="}, "dilations": {"list": {"i": ["1", "1", "1", "1"]}}, "fused_ops": {"list": {"s": ["Qmlhc0FkZA=="]}}, "leakyrelu_alpha": {"f": 0.2}}}, {"name": "StatefulPartitionedCall/asl_resnet50_improved_1/resnet50_1/conv4_block5_2_bn_1/batchnorm/mul_1", "op": "Mul", "input": ["StatefulPartitionedCall/asl_resnet50_improved_1/resnet50_1/conv4_block5_2_conv_1/BiasAdd", "StatefulPartitionedCall/asl_resnet50_improved_1/resnet50_1/conv4_block5_2_bn_1/batchnorm/mul"], "attr": {"T": {"type": "DT_FLOAT"}}}, {"name": "StatefulPartitionedCall/asl_resnet50_improved_1/resnet50_1/conv4_block5_2_bn_1/batchnorm/add_1", "op": "AddV2", "input": ["StatefulPartitionedCall/asl_resnet50_improved_1/resnet50_1/conv4_block5_2_bn_1/batchnorm/mul_1", "StatefulPartitionedCall/asl_resnet50_improved_1/resnet50_1/conv4_block5_2_bn_1/batchnorm/sub"], "attr": {"T": {"type": "DT_FLOAT"}}}, {"name": "StatefulPartitionedCall/asl_resnet50_improved_1/resnet50_1/conv4_block5_2_relu_1/Relu", "op": "Relu", "input": ["StatefulPartitionedCall/asl_resnet50_improved_1/resnet50_1/conv4_block5_2_bn_1/batchnorm/add_1"], "attr": {"T": {"type": "DT_FLOAT"}}}, {"name": "StatefulPartitionedCall/asl_resnet50_improved_1/resnet50_1/conv4_block5_3_conv_1/BiasAdd", "op": "_FusedConv2D", "input": ["StatefulPartitionedCall/asl_resnet50_improved_1/resnet50_1/conv4_block5_2_relu_1/Relu", "StatefulPartitionedCall/asl_resnet50_improved_1/resnet50_1/conv4_block5_3_conv_1/convolution/ReadVariableOp", "StatefulPartitionedCall/asl_resnet50_improved_1/resnet50_1/conv4_block5_3_conv_1/Squeeze"], "device": "/device:CPU:0", "attr": {"epsilon": {"f": 0.0}, "fused_ops": {"list": {"s": ["Qmlhc0FkZA=="]}}, "leakyrelu_alpha": {"f": 0.2}, "num_host_args": {"i": "0"}, "use_cudnn_on_gpu": {"b": true}, "data_format": {"s": "TkhXQw=="}, "strides": {"list": {"i": ["1", "1", "1", "1"]}}, "num_args": {"i": "1"}, "T": {"type": "DT_FLOAT"}, "TArgs": {"list": {"type": ["DT_FLOAT"]}}, "padding": {"s": "VkFMSUQ="}, "dilations": {"list": {"i": ["1", "1", "1", "1"]}}, "explicit_paddings": {"list": {}}, "filter_format": {"s": "SFdJTw=="}}}, {"name": "StatefulPartitionedCall/asl_resnet50_improved_1/resnet50_1/conv4_block5_3_bn_1/batchnorm/mul_1", "op": "Mul", "input": ["StatefulPartitionedCall/asl_resnet50_improved_1/resnet50_1/conv4_block5_3_conv_1/BiasAdd", "StatefulPartitionedCall/asl_resnet50_improved_1/resnet50_1/conv4_block5_3_bn_1/batchnorm/mul"], "attr": {"T": {"type": "DT_FLOAT"}}}, {"name": "StatefulPartitionedCall/asl_resnet50_improved_1/resnet50_1/conv4_block5_3_bn_1/batchnorm/add_1", "op": "AddV2", "input": ["StatefulPartitionedCall/asl_resnet50_improved_1/resnet50_1/conv4_block5_3_bn_1/batchnorm/mul_1", "StatefulPartitionedCall/asl_resnet50_improved_1/resnet50_1/conv4_block5_3_bn_1/batchnorm/sub"], "attr": {"T": {"type": "DT_FLOAT"}}}, {"name": "StatefulPartitionedCall/asl_resnet50_improved_1/resnet50_1/conv4_block5_add_1/Add", "op": "AddV2", "input": ["StatefulPartitionedCall/asl_resnet50_improved_1/resnet50_1/conv4_block4_out_1/Relu", "StatefulPartitionedCall/asl_resnet50_improved_1/resnet50_1/conv4_block5_3_bn_1/batchnorm/add_1"], "attr": {"T": {"type": "DT_FLOAT"}}}, {"name": "StatefulPartitionedCall/asl_resnet50_improved_1/resnet50_1/conv4_block5_out_1/Relu", "op": "Relu", "input": ["StatefulPartitionedCall/asl_resnet50_improved_1/resnet50_1/conv4_block5_add_1/Add"], "attr": {"T": {"type": "DT_FLOAT"}}}, {"name": "StatefulPartitionedCall/asl_resnet50_improved_1/resnet50_1/conv4_block6_1_conv_1/BiasAdd", "op": "_FusedConv2D", "input": ["StatefulPartitionedCall/asl_resnet50_improved_1/resnet50_1/conv4_block5_out_1/Relu", "StatefulPartitionedCall/asl_resnet50_improved_1/resnet50_1/conv4_block6_1_conv_1/convolution/ReadVariableOp", "StatefulPartitionedCall/asl_resnet50_improved_1/resnet50_1/conv4_block6_1_conv_1/Squeeze"], "device": "/device:CPU:0", "attr": {"num_host_args": {"i": "0"}, "explicit_paddings": {"list": {}}, "filter_format": {"s": "SFdJTw=="}, "epsilon": {"f": 0.0}, "use_cudnn_on_gpu": {"b": true}, "data_format": {"s": "TkhXQw=="}, "strides": {"list": {"i": ["1", "1", "1", "1"]}}, "num_args": {"i": "1"}, "T": {"type": "DT_FLOAT"}, "TArgs": {"list": {"type": ["DT_FLOAT"]}}, "padding": {"s": "VkFMSUQ="}, "dilations": {"list": {"i": ["1", "1", "1", "1"]}}, "fused_ops": {"list": {"s": ["Qmlhc0FkZA=="]}}, "leakyrelu_alpha": {"f": 0.2}}}, {"name": "StatefulPartitionedCall/asl_resnet50_improved_1/resnet50_1/conv4_block6_1_bn_1/batchnorm/mul_1", "op": "Mul", "input": ["StatefulPartitionedCall/asl_resnet50_improved_1/resnet50_1/conv4_block6_1_conv_1/BiasAdd", "StatefulPartitionedCall/asl_resnet50_improved_1/resnet50_1/conv4_block6_1_bn_1/batchnorm/mul"], "attr": {"T": {"type": "DT_FLOAT"}}}, {"name": "StatefulPartitionedCall/asl_resnet50_improved_1/resnet50_1/conv4_block6_1_bn_1/batchnorm/add_1", "op": "AddV2", "input": ["StatefulPartitionedCall/asl_resnet50_improved_1/resnet50_1/conv4_block6_1_bn_1/batchnorm/mul_1", "StatefulPartitionedCall/asl_resnet50_improved_1/resnet50_1/conv4_block6_1_bn_1/batchnorm/sub"], "attr": {"T": {"type": "DT_FLOAT"}}}, {"name": "StatefulPartitionedCall/asl_resnet50_improved_1/resnet50_1/conv4_block6_1_relu_1/Relu", "op": "Relu", "input": ["StatefulPartitionedCall/asl_resnet50_improved_1/resnet50_1/conv4_block6_1_bn_1/batchnorm/add_1"], "attr": {"T": {"type": "DT_FLOAT"}}}, {"name": "StatefulPartitionedCall/asl_resnet50_improved_1/resnet50_1/conv4_block6_2_conv_1/BiasAdd", "op": "_FusedConv2D", "input": ["StatefulPartitionedCall/asl_resnet50_improved_1/resnet50_1/conv4_block6_1_relu_1/Relu", "StatefulPartitionedCall/asl_resnet50_improved_1/resnet50_1/conv4_block6_2_conv_1/convolution/ReadVariableOp", "StatefulPartitionedCall/asl_resnet50_improved_1/resnet50_1/conv4_block6_2_conv_1/Squeeze"], "device": "/device:CPU:0", "attr": {"num_host_args": {"i": "0"}, "explicit_paddings": {"list": {}}, "filter_format": {"s": "SFdJTw=="}, "epsilon": {"f": 0.0}, "use_cudnn_on_gpu": {"b": true}, "data_format": {"s": "TkhXQw=="}, "strides": {"list": {"i": ["1", "1", "1", "1"]}}, "T": {"type": "DT_FLOAT"}, "num_args": {"i": "1"}, "TArgs": {"list": {"type": ["DT_FLOAT"]}}, "padding": {"s": "U0FNRQ=="}, "leakyrelu_alpha": {"f": 0.2}, "fused_ops": {"list": {"s": ["Qmlhc0FkZA=="]}}, "dilations": {"list": {"i": ["1", "1", "1", "1"]}}}}, {"name": "StatefulPartitionedCall/asl_resnet50_improved_1/resnet50_1/conv4_block6_2_bn_1/batchnorm/mul_1", "op": "Mul", "input": ["StatefulPartitionedCall/asl_resnet50_improved_1/resnet50_1/conv4_block6_2_conv_1/BiasAdd", "StatefulPartitionedCall/asl_resnet50_improved_1/resnet50_1/conv4_block6_2_bn_1/batchnorm/mul"], "attr": {"T": {"type": "DT_FLOAT"}}}, {"name": "StatefulPartitionedCall/asl_resnet50_improved_1/resnet50_1/conv4_block6_2_bn_1/batchnorm/add_1", "op": "AddV2", "input": ["StatefulPartitionedCall/asl_resnet50_improved_1/resnet50_1/conv4_block6_2_bn_1/batchnorm/mul_1", "StatefulPartitionedCall/asl_resnet50_improved_1/resnet50_1/conv4_block6_2_bn_1/batchnorm/sub"], "attr": {"T": {"type": "DT_FLOAT"}}}, {"name": "StatefulPartitionedCall/asl_resnet50_improved_1/resnet50_1/conv4_block6_2_relu_1/Relu", "op": "Relu", "input": ["StatefulPartitionedCall/asl_resnet50_improved_1/resnet50_1/conv4_block6_2_bn_1/batchnorm/add_1"], "attr": {"T": {"type": "DT_FLOAT"}}}, {"name": "StatefulPartitionedCall/asl_resnet50_improved_1/resnet50_1/conv4_block6_3_conv_1/BiasAdd", "op": "_FusedConv2D", "input": ["StatefulPartitionedCall/asl_resnet50_improved_1/resnet50_1/conv4_block6_2_relu_1/Relu", "StatefulPartitionedCall/asl_resnet50_improved_1/resnet50_1/conv4_block6_3_conv_1/convolution/ReadVariableOp", "StatefulPartitionedCall/asl_resnet50_improved_1/resnet50_1/conv4_block6_3_conv_1/Squeeze"], "device": "/device:CPU:0", "attr": {"epsilon": {"f": 0.0}, "fused_ops": {"list": {"s": ["Qmlhc0FkZA=="]}}, "dilations": {"list": {"i": ["1", "1", "1", "1"]}}, "num_host_args": {"i": "0"}, "use_cudnn_on_gpu": {"b": true}, "data_format": {"s": "TkhXQw=="}, "strides": {"list": {"i": ["1", "1", "1", "1"]}}, "num_args": {"i": "1"}, "T": {"type": "DT_FLOAT"}, "TArgs": {"list": {"type": ["DT_FLOAT"]}}, "padding": {"s": "VkFMSUQ="}, "filter_format": {"s": "SFdJTw=="}, "explicit_paddings": {"list": {}}, "leakyrelu_alpha": {"f": 0.2}}}, {"name": "StatefulPartitionedCall/asl_resnet50_improved_1/resnet50_1/conv4_block6_3_bn_1/batchnorm/mul_1", "op": "Mul", "input": ["StatefulPartitionedCall/asl_resnet50_improved_1/resnet50_1/conv4_block6_3_conv_1/BiasAdd", "StatefulPartitionedCall/asl_resnet50_improved_1/resnet50_1/conv4_block6_3_bn_1/batchnorm/mul"], "attr": {"T": {"type": "DT_FLOAT"}}}, {"name": "StatefulPartitionedCall/asl_resnet50_improved_1/resnet50_1/conv4_block6_3_bn_1/batchnorm/add_1", "op": "AddV2", "input": ["StatefulPartitionedCall/asl_resnet50_improved_1/resnet50_1/conv4_block6_3_bn_1/b…
zation": {"dtype": "uint8", "min": -2.96989730573168, "scale": 0.027756049586277382, "original_dtype": "float32"}}, {"name": "StatefulPartitionedCall/asl_resnet50_improved_1/resnet50_1/conv2_block2_2_conv_1/convolution/ReadVariableOp", "shape": [3, 3, 64, 64], "dtype": "float32", "quantization": {"dtype": "uint8", "min": -0.23840831360396214, "scale": 0.0021872322348987353, "original_dtype": "float32"}}, {"name": "StatefulPartitionedCall/asl_resnet50_improved_1/resnet50_1/conv2_block2_2_conv_1/Squeeze", "shape": [64], "dtype": "float32", "quantization": {"dtype": "uint8", "min": -0.0009578171925728813, "scale": 5.735432290855576e-06, "original_dtype": "float32"}}, {"name": "StatefulPartitionedCall/asl_resnet50_improved_1/resnet50_1/conv2_block2_2_bn_1/batchnorm/mul", "shape": [1, 1, 1, 64], "dtype": "float32", "quantization": {"dtype": "uint8", "min": 0.7062498331069946, "scale": 0.012747697736702713, "original_dtype": "float32"}}, {"name": "StatefulPartitionedCall/asl_resnet50_improved_1/resnet50_1/conv2_block2_2_bn_1/batchnorm/sub", "shape": [1, 1, 1, 64], "dtype": "float32", "quantization": {"dtype": "uint8", "min": -2.9511552876117184, "scale": 0.02063744956371831, "original_dtype": "float32"}}, {"name": "StatefulPartitionedCall/asl_resnet50_improved_1/resnet50_1/conv2_block2_3_conv_1/convolution/ReadVariableOp", "shape": [1, 1, 64, 256], "dtype": "float32", "quantization": {"dtype": "uint8", "min": -0.2382970659171834, "scale": 0.0020367270591212256, "original_dtype": "float32"}}, {"name": "StatefulPartitionedCall/asl_resnet50_improved_1/resnet50_1/conv2_block2_3_conv_1/Squeeze", "shape": [256], "dtype": "float32", "quantization": {"dtype": "uint8", "min": -0.0019089125229191839, "scale": 1.3349038621812475e-05, "original_dtype": "float32"}}, {"name": "StatefulPartitionedCall/asl_resnet50_improved_1/resnet50_1/conv2_block2_3_bn_1/batchnorm/mul", "shape": [1, 1, 1, 256], "dtype": "float32", "quantization": {"dtype": "uint8", "min": -0.4709187781109529, "scale": 0.03363705557935378, "original_dtype": "float32"}}, {"name": "StatefulPartitionedCall/asl_resnet50_improved_1/resnet50_1/conv2_block2_3_bn_1/batchnorm/sub", "shape": [1, 1, 1, 256], "dtype": "float32", "quantization": {"dtype": "uint8", "min": -5.236035722844741, "scale": 0.040589424208098766, "original_dtype": "float32"}}, {"name": "StatefulPartitionedCall/asl_resnet50_improved_1/resnet50_1/conv2_block3_1_conv_1/convolution/ReadVariableOp", "shape": [1, 1, 256, 64], "dtype": "float32", "quantization": {"dtype": "uint8", "min": -0.2101595880354152, "scale": 0.0018598193631452673, "original_dtype": "float32"}}, {"name": "StatefulPartitionedCall/asl_resnet50_improved_1/resnet50_1/conv2_block3_1_conv_1/Squeeze", "shape": [64], "dtype": "float32", "quantization": {"dtype": "uint8", "min": -0.0007846782773769661, "scale": 6.035986749053585e-06, "original_dtype": "float32"}}, {"name": "StatefulPartitionedCall/asl_resnet50_improved_1/resnet50_1/conv2_block3_1_bn_1/batchnorm/mul", "shape": [1, 1, 1, 64], "dtype": "float32", "quantization": {"dtype": "uint8", "min": 0.7869843244552612, "scale": 0.6419051343319463, "original_dtype": "float32"}}, {"name": "StatefulPartitionedCall/asl_resnet50_improved_1/resnet50_1/conv2_block3_1_bn_1/batchnorm/sub", "shape": [1, 1, 1, 64], "dtype": "float32", "quantization": {"dtype": "uint8", "min": -4.629558543597951, "scale": 0.025437134854933794, "original_dtype": "float32"}}, {"name": "StatefulPartitionedCall/asl_resnet50_improved_1/resnet50_1/conv2_block3_2_conv_1/convolution/ReadVariableOp", "shape": [3, 3, 64, 64], "dtype": "float32", "quantization": {"dtype": "uint8", "min": -0.21790971417053073, "scale": 0.001638418903537825, "original_dtype": "float32"}}, {"name": "StatefulPartitionedCall/asl_resnet50_improved_1/resnet50_1/conv2_block3_2_conv_1/Squeeze", "shape": [64], "dtype": "float32", "quantization": {"dtype": "uint8", "min": -0.0007029231062487644, "scale": 6.0078897969979864e-06, "original_dtype": "float32"}}, {"name": "StatefulPartitionedCall/asl_resnet50_improved_1/resnet50_1/conv2_block3_2_bn_1/batchnorm/mul", "shape": [1, 1, 1, 64], "dtype": "float32", "quantization": {"dtype": "uint8", "min": 1.160828709602356, "scale": 0.007553722811680214, "original_dtype": "float32"}}, {"name": "StatefulPartitionedCall/asl_resnet50_improved_1/resnet50_1/conv2_block3_2_bn_1/batchnorm/sub", "shape": [1, 1, 1, 64], "dtype": "float32", "quantization": {"dtype": "uint8", "min": -0.7906361187205595, "scale": 0.010541814916274126, "original_dtype": "float32"}}, {"name": "StatefulPartitionedCall/asl_resnet50_improved_1/resnet50_1/conv2_block3_3_conv_1/convolution/ReadVariableOp", "shape": [1, 1, 64, 256], "dtype": "float32", "quantization": {"dtype": "uint8", "min": -0.27453870586320467, "scale": 0.0024512384452071846, "original_dtype": "float32"}}, {"name": "StatefulPartitionedCall/asl_resnet50_improved_1/resnet50_1/conv2_block3_3_conv_1/Squeeze", "shape": [256], "dtype": "float32", "quantization": {"dtype": "uint8", "min": -0.0009196708106673231, "scale": 7.4167000860267994e-06, "original_dtype": "float32"}}, {"name": "StatefulPartitionedCall/asl_resnet50_improved_1/resnet50_1/conv2_block3_3_bn_1/batchnorm/mul", "shape": [1, 1, 1, 256], "dtype": "float32", "quantization": {"dtype": "uint8", "min": -0.6885722055154688, "scale": 0.020865824409559662, "original_dtype": "float32"}}, {"name": "StatefulPartitionedCall/asl_resnet50_improved_1/resnet50_1/conv2_block3_3_bn_1/batchnorm/sub", "shape": [1, 1, 1, 256], "dtype": "float32", "quantization": {"dtype": "uint8", "min": -3.6981868940241194, "scale": 0.02823043430552763, "original_dtype": "float32"}}, {"name": "StatefulPartitionedCall/asl_resnet50_improved_1/resnet50_1/conv3_block1_1_conv_1/convolution/ReadVariableOp", "shape": [1, 1, 256, 128], "dtype": "float32", "quantization": {"dtype": "uint8", "min": -0.3364050213028403, "scale": 0.002491889046687706, "original_dtype": "float32"}}, {"name": "StatefulPartitionedCall/asl_resnet50_improved_1/resnet50_1/conv3_block1_1_conv_1/Squeeze", "shape": [128], "dtype": "float32", "quantization": {"dtype": "uint8", "min": -0.000427156249882982, "scale": 4.029775942292283e-06, "original_dtype": "float32"}}, {"name": "StatefulPartitionedCall/asl_resnet50_improved_1/resnet50_1/conv3_block1_1_bn_1/batchnorm/mul", "shape": [1, 1, 1, 128], "dtype": "float32", "quantization": {"dtype": "uint8", "min": 0.630390465259552, "scale": 0.009666367839364445, "original_dtype": "float32"}}, {"name": "StatefulPartitionedCall/asl_resnet50_improved_1/resnet50_1/conv3_block1_1_bn_1/batchnorm/sub", "shape": [1, 1, 1, 128], "dtype": "float32", "quantization": {"dtype": "uint8", "min": -3.849718437942804, "scale": 0.02938716364841835, "original_dtype": "float32"}}, {"name": "StatefulPartitionedCall/asl_resnet50_improved_1/resnet50_1/conv3_block1_2_conv_1/convolution/ReadVariableOp", "shape": [3, 3, 128, 128], "dtype": "float32", "quantization": {"dtype": "uint8", "min": -0.3833385667380165, "scale": 0.0029716167964187325, "original_dtype": "float32"}}, {"name": "StatefulPartitionedCall/asl_resnet50_improved_1/resnet50_1/conv3_block1_2_conv_1/Squeeze", "shape": [128], "dtype": "float32", "quantization": {"dtype": "uint8", "min": -0.0005555795465696457, "scale": 3.83158307979066e-06, "original_dtype": "float32"}}, {"name": "StatefulPartitionedCall/asl_resnet50_improved_1/resnet50_1/conv3_block1_2_bn_1/batchnorm/mul", "shape": [1, 1, 1, 128], "dtype": "float32", "quantization": {"dtype": "uint8", "min": 0.6064826250076294, "scale": 0.009769880537893258, "original_dtype": "float32"}}, {"name": "StatefulPartitionedCall/asl_resnet50_improved_1/resnet50_1/conv3_block1_2_bn_1/batchnorm/sub", "shape": [1, 1, 1, 128], "dtype": "float32", "quantization": {"dtype": "uint8", "min": -2.8809840847464168, "scale": 0.02342263483533672, "original_dtype": "float32"}}, {"name": "StatefulPartitionedCall/asl_resnet50_improved_1/resnet50_1/conv3_block1_3_conv_1/convolution/ReadVariableOp", "shape": [1, 1, 128, 512], "dtype": "float32", "quantization": {"dtype": "uint8", "min": -0.37794801394144695, "scale": 0.0031760337306003944, "original_dtype": "float32"}}, {"name": "StatefulPartitionedCall/asl_resnet50_improved_1/resnet50_1/conv3_block1_3_conv_1/Squeeze", "shape": [512], "dtype": "float32", "quantization": {"dtype": "uint8", "min": -0.0007516845848466105, "scale": 6.111256787370817e-06, "original_dtype": "float32"}}, {"name": "StatefulPartitionedCall/asl_resnet50_improved_1/resnet50_1/conv3_block1_3_bn_1/batchnorm/mul", "shape": [1, 1, 1, 512], "dtype": "float32", "quantization": {"dtype": "uint8", "min": -0.24577229338533738, "scale": 0.04915445867706748, "original_dtype": "float32"}}, {"name": "StatefulPartitionedCall/asl_resnet50_improved_1/resnet50_1/conv3_block1_3_bn_1/batchnorm/sub", "shape": [1, 1, 1, 512], "dtype": "float32", "quantization": {"dtype": "uint8", "min": -5.10171506358128, "scale": 0.03723879608453489, "original_dtype": "float32"}}, {"name": "StatefulPartitionedCall/asl_resnet50_improved_1/resnet50_1/conv3_block2_1_conv_1/convolution/ReadVariableOp", "shape": [1, 1, 512, 128], "dtype": "float32", "quantization": {"dtype": "uint8", "min": -0.16092130424929602, "scale": 0.001399315689124313, "original_dtype": "float32"}}, {"name": "StatefulPartitionedCall/asl_resnet50_improved_1/resnet50_1/conv3_block2_1_conv_1/Squeeze", "shape": [128], "dtype": "float32", "quantization": {"dtype": "uint8", "min": -0.0005412360912362369, "scale": 3.7326626981809443e-06, "original_dtype": "float32"}}, {"name": "StatefulPartitionedCall/asl_resnet50_improved_1/resnet50_1/conv3_block2_1_bn_1/batchnorm/mul", "shape": [1, 1, 1, 128], "dtype": "float32", "quantization": {"dtype": "uint8", "min": 0.5705875158309937, "scale": 1.2148449453653074, "original_dtype": "float32"}}, {"name": "StatefulPartitionedCall/asl_resnet50_improved_1/resnet50_1/conv3_block2_1_bn_1/batchnorm/sub", "shape": [1, 1, 1, 128], "dtype": "float32", "quantization": {"dtype": "uint8", "min": -3.3347103642482385, "scale": 0.02084193977655149, "original_dtype": "float32"}}, {"name": "StatefulPartitionedCall/asl_resnet50_improved_1/resnet50_1/conv3_block2_2_conv_1/convolution/ReadVariableOp", "shape": [3, 3, 128, 128], "dtype": "float32", "quantization": {"dtype": "uint8", "min": -0.17497308832757613, "scale": 0.0013777408529730404, "original_dtype": "float32"}}, {"name": "StatefulPartitionedCall/asl_resnet50_improved_1/resnet50_1/conv3_block2_2_conv_1/Squeeze", "shape": [128], "dtype": "float32", "quantization": {"dtype": "uint8", "min": -0.0005166557407481413, "scale": 5.166557407481413e-06, "original_dtype": "float32"}}, {"name": "StatefulPartitionedCall/asl_resnet50_improved_1/resnet50_1/conv3_block2_2_bn_1/batchnorm/mul", "shape": [1, 1, 1, 128], "dtype": "float32", "quantization": {"dtype": "uint8", "min": 0.778281033039093, "scale": 0.01813613176345825, "original_dtype": "float32"}}, {"name": "StatefulPartitionedCall/asl_resnet50_improved_1/resnet50_1/conv3_block2_2_bn_1/batchnorm/sub", "shape": [1, 1, 1, 128], "dtype": "float32", "quantization": {"dtype": "uint8", "min": -2.1211505370981554, "scale": 0.015482850635752958, "original_dtype": "float32"}}, {"name": "StatefulPartitionedCall/asl_resnet50_improved_1/resnet50_1/conv3_block2_3_conv_1/convolution/ReadVariableOp", "shape": [1, 1, 128, 512], "dtype": "float32", "quantization": {"dtype": "uint8", "min": -0.34474619837368237, "scale": 0.002672451150183584, "original_dtype": "float32"}}, {"name": "StatefulPartitionedCall/asl_resnet50_improved_1/resnet50_1/conv3_block2_3_conv_1/Squeeze", "shape": [512], "dtype": "float32", "quantization": {"dtype": "uint8", "min": -0.0008788098115473985, "scale": 6.188801489770413e-06, "original_dtype": "float32"}}, {"name": "StatefulPartitionedCall/asl_resnet50_improved_1/resnet50_1/conv3_block2_3_bn_1/batchnorm/mul", "shape": [1, 1, 1, 512], "dtype": "float32", "quantization": {"dtype": "uint8", "min": -1.0164952472144482, "scale": 0.07819194209341909, "original_dtype": "float32"}}, {"name": "StatefulPartitionedCall/asl_resnet50_improved_1/resnet50_1/conv3_block2_3_bn_1/batchnorm/sub", "shape": [1, 1, 1, 512], "dtype": "float32", "quantization": {"dtype": "uint8", "min": -2.208636167937634, "scale": 0.02427072712019378, "original_dtype": "float32"}}, {"name": "StatefulPartitionedCall/asl_resnet50_improved_1/resnet50_1/conv3_block3_1_conv_1/convolution/ReadVariableOp", "shape": [1, 1, 512, 128], "dtype": "float32", "quantization": {"dtype": "uint8", "min": -0.3352339040999319, "scale": 0.0027478188860650156, "original_dtype": "float32"}}, {"name": "StatefulPartitionedCall/asl_resnet50_improved_1/resnet50_1/conv3_block3_1_conv_1/Squeeze", "shape": [128], "dtype": "float32", "quantization": {"dtype": "uint8", "min": -0.0002524067144430078, "scale": 2.549562772151594e-06, "original_dtype": "float32"}}, {"name": "StatefulPartitionedCall/asl_resnet50_improved_1/resnet50_1/conv3_block3_1_bn_1/batchnorm/mul", "shape": [1, 1, 1, 128], "dtype": "float32", "quantization": {"dtype": "uint8", "min": 0.2470332682132721, "scale": 0.01514325363963258, "original_dtype": "float32"}}, {"name": "StatefulPartitionedCall/asl_resnet50_improved_1/resnet50_1/conv3_block3_1_bn_1/batchnorm/sub", "shape": [1, 1, 1, 128], "dtype": "float32", "quantization": {"dtype": "uint8", "min": -3.354189250983444, "scale": 0.022213173847572477, "original_dtype": "float32"}}, {"name": "StatefulPartitionedCall/asl_resnet50_improved_1/resnet50_1/conv3_block3_2_conv_1/convolution/ReadVariableOp", "shape": [3, 3, 128, 128], "dtype": "float32", "quantization": {"dtype": "uint8", "min": -0.32297967368481206, "scale": 0.002737115878684848, "original_dtype": "float32"}}, {"name": "StatefulPartitionedCall/asl_resnet50_improved_1/resnet50_1/conv3_block3_2_conv_1/Squeeze", "shape": [128], "dtype": "float32", "quantization": {"dtype": "uint8", "min": -0.000416097945223252, "scale": 3.496621388430689e-06, "original_dtype": "float32"}}, {"name": "StatefulPartitionedCall/asl_resnet50_improved_1/resnet50_1/conv3_block3_2_bn_1/batchnorm/mul", "shape": [1, 1, 1, 128], "dtype": "float32", "quantization": {"dtype": "uint8", "min": 0.5284116864204407, "scale": 0.03436967134475708, "original_dtype": "float32"}}, {"name": "StatefulPartitionedCall/asl_resnet50_improved_1/resnet50_1/conv3_block3_2_bn_1/batchnorm/sub", "shape": [1, 1, 1, 128], "dtype": "float32", "quantization": {"dtype": "uint8", "min": -5.550128193462596, "scale": 0.02846219586391075, "original_dtype": "float32"}}, {"name": "StatefulPartitionedCall/asl_resnet50_improved_1/resnet50_1/conv3_block3_3_conv_1/convolution/ReadVariableOp", "shape": [1, 1, 128, 512], "dtype": "float32", "quantization": {"dtype": "uint8", "min": -0.2874102915034575, "scale": 0.0020383708617266487, "original_dtype": "float32"}}, {"name": "StatefulPartitionedCall/asl_resnet50_improved_1/resnet50_1/conv3_block3_3_conv_1/Squeeze", "shape": [512], "dtype": "float32", "quantization": {"dtype": "uint8", "min": -0.0008008794062405678, "scale": 6.4070352499245425e-06, "original_dtype": "float32"}}, {"name": "StatefulPartitionedCall/asl_resnet50_improved_1/resnet50_1/conv3_block3_3_bn_1/batchnorm/mul", "shape": [1, 1, 1, 512], "dtype": "float32", "quantization": {"dtype": "uint8", "min": -0.5453176610610064, "scale": 0.0340823538163129, "original_dtype": "float32"}}, {"name": "StatefulPartitionedCall/asl_resnet50_improved_1/resnet50_1/conv3_block3_3_bn_1/batchnorm/sub", "shape": [1, 1, 1, 512], "dtype": "float32", "quantization": {"dtype": "uint8", "min": -2.4695700645446776, "scale": 0.02421147122102625, "original_dtype": "float32"}}, {"name": "StatefulPartitionedCall/asl_resnet50_improved_1/resnet50_1/conv3_block4_1_conv_1/convolution/ReadVariableOp", "shape": [1, 1, 512, 128], "dtype": "float32", "quantization": {"dtype": "uint8", "min": -0.2980988876492369, "scale": 0.002526261759739296, "original_dtype": "float32"}}, {"name": "StatefulPartitionedCall/asl_resnet50_improved_1/resnet50_1/conv3_block4_1_conv_1/Squeeze", "shape": [128], "dtype": "float32", "quantization": {"dtype": "uint8", "min": -0.0002965422674748755, "scale": 2.62426785375996e-06, "original_dtype": "float32"}}, {"name": "StatefulPartitionedCall/asl_resnet50_improved_1/resnet50_1/conv3_block4_1_bn_1/batchnorm/mul", "shape": [1, 1, 1, 128], "dtype": "float32", "quantization": {"dtype": "uint8", "min": 0.5230535864830017, "scale": 0.006290566921234131, "original_dtype": "float32"}}, {"name": "StatefulPartitionedCall/asl_resnet50_improved_1/resnet50_1/conv3_block4_1_bn_1/batchnorm/sub", "shape": [1, 1, 1, 128], "dtype": "float32", "quantization": {"dtype": "uint8", "min": -3.353061580657959, "scale": 0.01793081059175379, "original_dtype": "float32"}}, {"name": "StatefulPartitionedCall/asl_resnet50_improved_1/resnet50_1/conv3_block4_2_conv_1/convolution/ReadVariableOp", "shape": [3, 3, 128, 128], "dtype": "float32", "quantization": {"dtype": "uint8", "min": -0.27422871689001715, "scale": 0.0018912325302759805, "original_dtype": "float32"}}, {"name": "StatefulPartitionedCall/asl_resnet50_improved_1/resnet50_1/conv3_block4_2_conv_1/Squeeze", "shape": [128], "dtype": "float32", "quantization": {"dtype": "uint8", "min": -0.0006981394472805893, "scale": 4.7171584275715494e-06, "original_dtype": "float32"}}, {"name": "StatefulPartitionedCall/asl_resnet50_improved_1/resnet50_1/conv3_block4_2_bn_1/batchnorm/mul", "shape": [1, 1, 1, 128], "dtype": "float32", "quantization": {"dtype": "uint8", "min": 0.7913081645965576, "scale": 0.006141044579300226, "original_dtype": "float32"}}, {"name": "StatefulPartitionedCall/asl_resnet50_improved_1/resnet50_1/conv3_block4_2_bn_1/batchnorm/sub", "shape": [1, 1, 1, 128], "dtype": "float32", "quantization": {"dtype": "uint8", "min": -1.3893080879660213, "scale": 0.013231505599676395, "original_dtype": "float32"}}, {"name": "StatefulPartitionedCall/asl_resnet50_improved_1/resnet50_1/conv3_block4_3_conv_1/convolution/ReadVariableOp", "shape": [1, 1, 128, 512], "dtype": "float32", "quantization": {"dtype": "uint8", "min": -0.2807966344496783, "scale": 0.0021937237066381116, "original_dtype": "float32"}}, {"name": "StatefulPartitionedCall/asl_resnet50_improved_1/resnet50_1/conv3_block4_3_conv_1/Squeeze", "shape": [512], "dtype": "float32", "quantization": {"dtype": "uint8", "min": -0.0006323332896036115, "scale": 4.979002280343397e-06, "original_dtype": "float32"}}, {"name": "StatefulPartitionedCall/asl_resnet50_improved_1/resnet50_1/conv3_block4_3_bn_1/batchnorm/mul", "shape": [1, 1, 1, 512], "dtype": "float32", "quantization": {"dtype": "uint8", "min": -0.46089057595122096, "scale": 0.023044528797561047, "original_dtype": "float32"}}, {"name": "StatefulPartitionedCall/asl_resnet50_improved_1/resnet50_1/conv3_block4_3_bn_1/batchnorm/sub", "shape": [1, 1, 1, 512], "dtype": "float32", "quantization": {"dtype": "uint8", "min": -3.2791638804417027, "scale": 0.02687839246263691, "original_dtype": "float32"}}, {"name": "StatefulPartitionedCall/asl_resnet50_improved_1/resnet50_1/conv4_block1_1_conv_1/convolution/ReadVariableOp", "shape": [1, 1, 512, 256], "dtype": "float32", "quantization": {"dtype": "uint8", "min": -0.22741712927818297, "scale": 0.0022295796988057153, "original_dtype": "float32"}}, {"name": "StatefulPartitionedCall/asl_resnet50_improved_1/resnet50_1/conv4_block1_1_conv_1/Squeeze", "shape": [256], "dtype": "float32", "quantization": {"dtype": "uint8", "min": -0.00027115931540417173, "scale": 2.278649709278754e-06, "original_dtype": "float32"}}, {"name": "StatefulPartitionedCall/asl_resnet50_improved_1/resnet50_1/conv4_block1_1_bn_1/batchnorm/mul", "shape": [1, 1, 1, 256], "dtype": "float32", "quantization": {"dtype": "uint8", "min": 0.5499244332313538, "scale": 0.005589070273380654, "original_dtype": "float32"}}, {"name": "StatefulPartitionedCall/asl_resnet50_improved_1/resnet50_1/conv4_block1_1_bn_1/batchnorm/sub", "shape": [1, 1, 1, 256], "dtype": "float32", "quantization": {"dtype": "uint8", "min": -2.526564628937665, "scale": 0.017918898077572094, "original_dtype": "float32"}}, {"name": "StatefulPartitionedCall/asl_resnet50_improved_1/resnet50_1/conv4_block1_2_conv_1/convolution/ReadVariableOp", "shape": [3, 3, 256, 256], "dtype": "float32", "quantization": {"dtype": "uint8", "min": -0.2677102446556091, "scale": 0.001749740161147772, "original_dtype": "float32"}}, {"name": "StatefulPartitionedCall/asl_resnet50_improved_1/resnet50_1/conv4_block1_2_conv_1/Squeeze", "shape": [256], "dtype": "float32", "quantization": {"dtype": "uint8", "min": -0.0003447230193106567, "scale": 2.4448441085862177e-06, "original_dtype": "float32"}}, {"name": "StatefulPartitionedCall/asl_resnet50_improved_1/resnet50_1/conv4_block1_2_bn_1/batchnorm/mul", "shape": [1, 1, 1, 256], "dtype": "float32", "quantization": {"dtype": "uint8", "min": 0.4910840094089508, "scale": 0.007233672399146884, "original_dtype": "float32"}}, {"name": "StatefulPartitionedCall/asl_resnet50_improved_1/resnet50_1/conv4_block1_2_bn_1/batchnorm/sub", "shape": [1, 1, 1, 256], "dtype": "float32", "quantization": {"dtype": "uint8", "min": -3.2119899525361904, "scale": 0.022780070585363053, "original_dtype": "float32"}}, {"name": "StatefulPartitionedCall/asl_resnet50_improved_1/resnet50_1/conv4_block1_3_conv_1/convolution/ReadVariableOp", "shape": [1, 1, 256, 1024], "dtype": "float32", "quantization": {"dtype": "uint8", "min": -0.3351295828819275, "scale": 0.0028162149822010714, "original_dtype": "float32"}}, {"name": "StatefulPartitionedCall/asl_resnet50_improved_1/resnet50_1/conv4_block1_3_conv_1/Squeeze", "shape": [1024], "dtype": "float32", "quantization": {"dtype": "uint8", "min": -0.0005037251916969669, "scale": 3.966340092102102e-06, "original_dtype": "float32"}}, {"name": "StatefulPartitionedCall/asl_resnet50_improved_1/resnet50_1/conv4_block1_3_bn_1/batchnorm/mul", "shape": [1, 1, 1, 1024], "dtype": "float32", "quantization": {"dtype": "uint8", "min": 0.9099634885787964, "scale": 0.03143890278012145, "original_dtype": "float32"}}, {"name": "StatefulPartitionedCall/asl_resnet50_improved_1/resnet50_1/conv4_block1_3_bn_1/batchnorm/sub", "shape": [1, 1, 1, 1024], "dtype": "float32", "quantization": {"dtype": "uint8", "min": -2.6044073207705627, "scale": 0.028619860667808382, "original_dtype": "float32"}}, {"name": "StatefulPartitionedCall/asl_resnet50_improved_1/resnet50_1/conv4_block2_1_conv_1/convolution/ReadVariableOp", "shape": [1, 1, 1024, 256], "dtype": "float32", "quantization": {"dtype": "uint8", "min": -0.19945312352741465, "scale": 0.0017047275515163645, "original_dtype": "float32"}}, {"name": "StatefulPartitionedCall/asl_resnet50_improved_1/resnet50_1/conv4_block2_1_conv_1/Squeeze", "shape": [256], "dtype": "float32", "quantization": {"dtype": "uint8", "min": -0.00036317784003639484, "scale": 3.1040841028751695e-06, "original_dtype": "float32"}}, {"name": "StatefulPartitionedCall/asl_resnet50_improved_1/resnet50_1/conv4_block2_1_bn_1/batchnorm/mul", "shape": [1, 1, 1, 256], "dtype": "float32", "quantization": {"dtype": "uint8", "min": 0.3995954990386963, "scale": 0.00960394821914972, "original_dtype": "float32"}}, {"name": "StatefulPartitionedCall/asl_resnet50_improved_1/resnet50_1/conv4_block2_1_bn_1/batchnorm/sub", "shape": [1, 1, 1, 256], "dtype": "float32", "quantization": {"dtype": "uint8", "min": -2.834611406513289, "scale": 0.02834611406513289, "original_dtype": "float32"}}, {"name": "StatefulPartitionedCall/asl_resnet50_improved_1/resnet50_1/conv4_block2_2_conv_1/convolution/ReadVariableOp", "shape": [3, 3, 256, 256], "dtype": "float32", "quantization": {"dtype": "uint8", "min": -0.4375553439645206, "scale": 0.0024861099088893217, "original_dtype": "float32"}}, {"name": "StatefulPartitionedCall/asl_resnet50_improved_1/resnet50_1/conv4_block2_2_conv_1/Squeeze", "shape": [256], "dtype": "float32", "quantization": {"dtype": "uint8", "min": -0.0004775632419349516, "scale": 3.226778661722646e-06, "original_dtype": "float32"}}, {"name": "StatefulPartitionedCall/asl_resnet50_improved_1/resnet50_1/conv4_block2_2_bn_1/batchnorm/mul", "shape": [1, 1, 1, 256], "dtype": "float32", "quantization": {"dtype": "uint8", "min": 0.7998055815696716, "scale": 0.0254994319934471, "original_dtype": "float32"}}, {"name": "StatefulPartitionedCall/asl_resnet50_improved_1/resnet50_1/conv4_block2_2_bn_1/batchnorm/sub", "shape": [1, 1, 1, 256], "dtype": "float32", "quantization": {"dtype": "uint8", "min": -2.311367834315581, "scale": 0.01687129806069767, "original_dtype": "float32"}}, {"name": "StatefulPartitionedCall/asl_resnet50_improved_1/resnet50_1/conv4_block2_3_conv_1/convolution/ReadVariableOp", "shape": [1, 1, 256, 1024], "dtype": "float32", "quantization": {"dtype": "uint8", "min": -0.4378357859218822, "scale": 0.00288049859159133, "original_dtype": "float32"}}, {"name": "StatefulPartitionedCall/asl_resnet50_improved_1/resnet50_1/conv4_block2_3_conv_1/Squeeze", "shape": [1024], "dtype": "float32", "quantization": {"dtype": "uint8", "min": -0.0008708591394893387, "scale": 5.924211833260807e-06, "original_dtype": "float32"}}, {"name": "StatefulPartitionedCall/asl_resnet50_improved_1/resnet50_1/conv4_block2_3_bn_1/batchnorm/mul", "shape": [1, 1, 1, 1024], "dtype": "float32", "quantization": {"dtype": "uint8", "min": 1.0710089206695557, "scale": 0.031073389801324583, "original_dtype": "float32"}}, {"name": "StatefulPartitionedCall/asl_resnet50_improved_1/resnet50_1/conv4_block2_3_bn_1/batchnorm/sub", "shape": [1, 1, 1, 1024], "dtype": "float32", "quantization": {"dtype": "uint8", "min": -2.4058640573538987, "scale": 0.019720197191425398, "original_dtype": "float32"}}, {"name": "StatefulPartitionedCall/asl_resnet50_improved_1/resnet50_1/conv4_block3_1_conv_1/convolution/ReadVariableOp", "shape": [1, 1, 1024, 256], "dtype": "float32", "quantization": {"dtype": "uint8", "min": -0.388928377160839, "scale": 0.00283889326394773, "original_dtype": "float32"}}, {"name": "StatefulPartitionedCall/asl_resnet50_improved_1/resnet50_1/conv4_block3_1_conv_1/Squeeze", "shape": [256], "dtype": "float32", "quantization": {"dtype": "uint8", "min": -0.0004190201871097088, "scale": 2.4648246300571106e-06, "original_dtype": "float32"}}, {"name": "StatefulPartitionedCall/asl_resnet50_improved_1/resnet50_1/conv4_block3_1_bn_1/batchnorm/mul", "shape": [1, 1, 1, 256], "dtype": "float32", "quantization": {"dtype": "uint8", "min": 0.41667553782463074, "scale": 0.007430513349233889, "original_dtype": "float32"}}, {"name": "StatefulPartitionedCall/asl_resnet50_improved_1/resnet50_1/conv4_block3_1_bn_1/batchnorm/sub", "shape": [1, 1, 1, 256], "dtype": "float32", "quantization": {"dtype": "uint8", "min": -3.4771979191723994, "scale": 0.019983896087197698, "original_dtype": "float32"}}, {"name": "StatefulPartitionedCall/asl_resnet50_improved_1/resnet50_1/conv4_block3_2_conv_1/convolution/ReadVariableOp", "shape": [3, 3, 256, 256], "dtype": "float32", "quantization": {"dtype": "uint8", "min": -0.1658363844834122, "scale": 0.001658363844834122, "original_dtype": "float32"}}, {"name": "StatefulPartitionedCall/asl_resnet50_improved_1/resnet50_1/conv4_block3_2_conv_1/Squeeze", "shape": [256], "dtype": "float32", "quantization": {"dtype": "uint8", "min": -0.0005037096481971151, "scale": 5.302206823127527e-06, "original_dtype": "float32"}}, {"name": "StatefulPartitionedCall/asl_resnet50_improved_1/resnet50_1/conv4_block3_2_bn_1/batchnorm/mul", "shape": [1, 1, 1, 256], "dtype": "float32", "quantization": {"dtype": "uint8", "min": 1.1889432668685913, "scale": 0.017180248802783443, "original_dtype": "float32"}}, {"name": "StatefulPartitionedCall/asl_resnet50_improved_1/resnet50_1/conv4_block3_2_bn_1/batchnorm/sub", "shape": [1, 1, 1, 256], "dtype": "float32", "quantization": {"dtype": "uint8", "min": -2.770555097916547, "scale": 0.017102191962447822, "original_dtype": "float32"}}, {"name": "StatefulPartitionedCall/asl_resnet50_improved_1/resnet50_1/conv4_block3_3_conv_1/convolution/ReadVariableOp", "shape": [1, 1, 256, 1024], "dtype": "float32", "quantization": {"dtype": "uint8", "min": -0.28786550503151087, "scale": 0.002148250037548589, "original_dtype": "float32"}}, {"name": "StatefulPartitionedCall/asl_resnet50_improved_1/resnet50_1/conv4_block3_3_conv_1/Squeeze", "shape": [1024], "dtype": "float32", "quantization": {"dtype": "uint8", "min": -0.0006430784706026316, "scale": 4.871806595474482e-06, "original_dtype": "float32"}}, {"name": "StatefulPartitionedCall/asl_resnet50_improved_1/resnet50_1/conv4_block3_3_bn_1/batchnorm/mul", "shape": [1, 1, 1, 1024], "dtype": "float32", "quantization": {"dtype": "uint8", "min": 0.814254879951477, "scale": 0.02529906244838939, "original_dtype": "float32"}}, {"name": "StatefulPartitionedCall/asl_resnet50_improved_1/resnet50_1/conv4_block3_3_bn_1/batchnorm/sub", "shape": [1, 1, 1, 1024], "dtype": "float32", "quantization": {"dtype": "uint8", "min": -2.1799791223862592, "scale": 0.015138743905460134, "original_dtype": "float32"}}, {"name": "StatefulPartitionedCall/asl_resnet50_improved_1/resnet50_1/conv4_block4_1_conv_1/convolution/ReadVariableOp", "shape": [1, 1, 1024, 256], "dtype": "float32", "quantization": {"dtype": "uint8", "min": -0.19425251548196754, "scale": 0.0019232922324947282, "original_dtype": "float32"}}, {"name": "StatefulPartitionedCall/asl_resnet50_improved_1/resnet50_1/conv4_block4_1_conv_1/Squeeze", "shape": [256], "dtype": "float32", "quantization": {"dtype": "uint8", "min": -0.0002608740378134683, "scale": 2.4610758284289464e-06, "original_dtype": "float32"}}, {"name": "StatefulPartitionedCall/asl_resnet50_improved_1/resnet50_1/conv4_block4_1_bn_1/batchnorm/mul", "shape": [1, 1, 1, 256], "dtype": "float32", "quantization": {"dtype": "uint8", "min": 0.413241446018219, "scale": 0.006843970569909787, "original_dtype": "float32"}}, {"name": "StatefulPartitionedCall/asl_resnet50_improved_1/resnet50_1/conv4_block4_1_bn_1/batchnorm/sub", "shape": [1, 1, 1, 256], "dtype": "float32", "quantization": {"dtype": "uint8", "min": -2.4433220966189513, "scale": 0.014989706114226696, "original_dtype": "float32"}}, {"name": "StatefulPartitionedCall/asl_resnet50_improved_1/resnet50_1/conv4_block4_2_conv_1/convolution/ReadVariableOp", "shape": [3, 3, 256, 256], "dtype": "float32", "quantization": {"dtype": "uint8", "min": -0.2019870978944442, "scale": 0.0014636746224235087, "original_dtype": "float32"}}, {"name": "StatefulPartitionedCall/asl_resnet50_improved_1/resnet50_1/conv4_block4_2_conv_1/Squeeze", "shape": [256], "dtype": "float32", "quantization": {"dtype": "uint8", "min": -0.0005789941505474203, "scale": 4.824951254561836e-06, "original_dtype": "float32"}}, {"name": "StatefulPartitionedCall/asl_resnet50_improved_1/resnet50_1/conv4_block4_2_bn_1/batchnorm/mul", "shape": [1, 1, 1, 256], "dtype": "float32", "quantization": {"dtype": "uint8", "min": 1.027006983757019, "scale": 0.017145632295047536, "original_dtype": "float32"}}, {"name": "StatefulPartitionedCall/asl_resnet50_improved_1/resnet50_1/conv4_block4_2_bn_1/batchnorm/sub", "shape": [1, 1, 1, 256], "dtype": "float32", "quantization": {"dtype": "uint8", "min": -3.3212397682900523, "scale": 0.017952647396162445, "original_dtype": "float32"}}, {"name": "StatefulPartitionedCall/asl_resnet50_improved_1/resnet50_1/conv4_block4_3_conv_1/convolution/ReadVariableOp", "shape": [1, 1, 256, 1024], "dtype": "float32", "quantization": {"dtype": "uint8", "min": -0.20363981040085063, "scale": 0.0017405112000072704, "original_dtype": "float32"}}, {"name": "StatefulPartitionedCall/asl_resnet50_improved_1/resnet50_1/conv4_block4_3_conv_1/Squeeze", "shape": [1024], "dtype": "float32", "quantization": {"dtype": "uint8", "min": -0.0006517664447207662, "scale": 5.172749561275922e-06, "original_dtype": "float32"}}, {"name": "StatefulPartitionedCall/asl_resnet50_improved_1/resnet50_1/conv4_block4_3_bn_1/batchnorm/mul", "shape": [1, 1, 1, 1024], "dtype": "float32", "quantization": {"dtype": "uint8", "min": -1.1233834191864613, "scale": 0.04493533676745845, "original_dtype": "float32"}}, {"name": "StatefulPartitionedCall/asl_resnet50_improved_1/resnet50_1/conv4_block4_3_bn_1/batchnorm/sub", "shape": [1, 1, 1, 1024], "dtype": "float32", "quantization": {"dtype": "uint8", "min": -2.590802769099965, "scale": 0.017624508633333095, "original_dtype": "float32"}}, {"name": "StatefulPartitionedCall/asl_resnet50_improved_1/resnet50_1/conv4_block5_1_conv_1/convolution/ReadVariableOp", "shape": [1, 1, 1024, 256], "dtype": "float32", "quantization": {"dtype": "uint8", "min": -0.2259440302848816, "scale": 0.0020920743544896444, "original_dtype": "float32"}}, {"name": "StatefulPartitionedCall/asl_resnet50_improved_1/resnet50_1/conv4_block5_1_conv_1/Squeeze", "shape": [256], "dtype": "float32", "quantization": {"dtype": "uint8", "min": -0.00045229732504059724, "scale": 2.844637264406272e-06, "original_dtype": "float32"}}, {"name": "StatefulPartitionedCall/asl_resnet50_improved_1/resnet50_1/conv4_block5_1_bn_1/batchnorm/mul", "shape": [1, 1, 1, 256], "dtype": "float32", "quantization": {"dtype": "uint8", "min": 0.3066105544567108, "scale": 0.0062735044488719865, "original_dtype": "float32"}}, {"name": "StatefulPartitionedCall/asl_resnet50_improved_1/resnet50_1/conv4_block5_1_bn_1/batchnorm/sub", "shape": [1, 1, 1, 256], "dtype": "float32", "quantization": {"dtype": "uint8", "min": -1.8931377074297737, "scale": 0.012454853338353774, "original_dtype": "float32"}}, {"name": "StatefulPartitionedCall/asl_resnet50_improved_1/resnet50_1/conv4_block5_2_conv_1/convolution/ReadVariableOp", "shape": [3, 3, 256, 256], "dtype": "float32", "quantization": {"dtype": "uint8", "min": -0.14595201950447234, "scale": 0.0014450695000442805, "original_dtype": "float32"}}, {"name": "StatefulPartitionedCall/asl_resnet50_improved_1/resnet50_1/conv4_block5_2_conv_1/Squeeze", "shape": [256], "dtype": "float32", "quantization": {"dtype": "uint8", "min": -0.0007288554436801111, "scale": 5.206110312000794e-06, "original_dtype": "float32"}}, {"name": "StatefulPartitionedCall/asl_resnet50_improved_1/resnet50_1/conv4_block5_2_bn_1/batchnorm/mul", "shape": [1, 1, 1, 256], "dtype": "float32", "quantization": {"dtype": "uint8", "min": 1.8236141204833984, "scale": 0.013889047211291743, "original_dtype": "float32"}}, {"name": "StatefulPartitionedCall/asl_resnet50_improved_1/resnet50_1/conv4_block5_2_bn_1/batchnorm/sub", "shape": [1, 1, 1, 256], "dtype": "float32", "quantization": {"dtype": "uint8", "min": -3.2260716709436155, "scale": 0.016979324583913765, "original_dtype": "float32"}}, {"name": "StatefulPartitionedCall/asl_resnet50_improved_1/resnet50_1/conv4_block5_3_conv_1/convolution/ReadVariableOp", "shape": [1, 1, 256, 1024], "dtype": "float32", "quantization": {"dtype": "uint8", "min": -0.17921329520496668, "scale": 0.0017399349049025891, "original_dtype": "float32"}}, {"name": "StatefulPartitionedCall/asl_resnet50_improved_1/resnet50_1/conv4_block5_3_conv_1/Squeeze", "shape": [1024], "dtype": "float32", "quantization": {"dtype": "uint8", "min": -0.0005846551509902758, "scale": 4.64012024595457e-06, "original_dtype": "float32"}}, {"name": "StatefulPartitionedCall/asl_resnet50_improved_1/resnet50_1/conv4_block5_3_bn_1/batchnorm/mul", "shape": [1, 1, 1, 1024], "dtype": "float32", "quantization": {"dtype": "uint8", "min": -0.4374971494955175, "scale": 0.0291664766330345, "original_dtype": "float32"}}, {"name": "StatefulPartitionedCall/asl_resnet50_improved_1/resnet50_1/conv4_block5_3_bn_1/batchnorm/sub", "shape": [1, 1, 1, 1024], "dtype": "float32", "quantization": {"dtype": "uint8", "min": -6.424881918290081, "scale": 0.032448898577222635, "original_dtype": "float32"}}, {"name": "StatefulPartitionedCall/asl_resnet50_improved_1/resnet50_1/conv4_block6_1_conv_1/convolution/ReadVariableOp", "shape": [1, 1, 1024, 256], "dtype": "float32", "quantization": {"dtype": "uint8", "min": -0.154934737144732, "scale": 0.0018894480139601464, "original_dtype": "float32"}}, {"name": "StatefulPartitionedCall/asl_resnet50_improved_1/resnet50_1/conv4_block6_1_conv_1/Squeeze", "shape": [256], "dtype": "float32", "quantization": {"dtype": "uint8", "min": -0.00027367834768751085, "scale": 2.0733208158144763e-06, "original_dtype": "float32"}}, {"name": "StatefulPartitionedCall/asl_resnet50_improved_1/resnet50_1/conv4_block6_1_bn_1/batchnorm/mul", "shape": [1, 1, 1, 256], "dtype": "float32", "quantization": {"dtype": "uint8", "min": 0.38963592052459717, "scale": 0.005167370684006635, "original_dtype": "float32"}}, {"name": "StatefulPartitionedCall/asl_resnet50_improved_1/resnet50_1/conv4_block6_1_bn_1/batchnorm/sub", "shape": [1, 1, 1, 256], "dtype": "float32", "quantization": {"dtype": "uint8", "min": -1.657143750143986, "scale": 0.010166526074502982, "original_dtype": "float32"}}, {"name": "StatefulPartitionedCall/asl_resnet50_improved_1/resnet50_1/conv4_block6_2_conv_1/convolution/ReadVariableOp", "shape": [3, 3, 256, 256], "dtype": "float32", "quantization": {"dtype": "uint8", "min": -0.2910548287279466, "scale": 0.002221792585709516, "original_dtype": "float32"}}, {"name": "StatefulPartitionedCall/asl_resnet50_improved_1/resnet50_1/conv4_block6_2_conv_1/Squeeze", "shape": [256], "dtype": "float32", "quantization": {"dtype": "uint8", "min": -0.0005834519291323993, "scale": 3.8639200604794654e-06, "original_dtype": "float32"}}, {"name": "StatefulPartitionedCall/asl_resnet50_improved_1/resnet50_1/conv4_block6_2_bn_1/batchnorm/mul", "shape": [1, 1, 1, 256], "dtype": "float32", "quantization": {"dtype": "uint8", "min": 1.468677282333374, "scale": 0.01966727294173895, "original_dtype": "float32"}}, {"name": "StatefulPartitionedCall/asl_resnet50_improved_1/resnet50_1/conv4_block6_2_bn_1/batchnorm/sub", "shape": [1, 1, 1, 256], "dtype": "float32", "quantization": {"dtype": "uint8", "min": -2.393138018776389, "scale": 0.01441649408901439, "original_dtype": "float32"}}, {"name": "StatefulPartitionedCall/asl_resnet50_improved_1/resnet50_1/conv4_block6_3_conv_1/convolution/ReadVariableOp", "shape": [1, 1, 256, 1024], "dtype": "float32", "quantization": {"dtype": "uint8", "min": -0.2314890346106361, "scale": 0.002048575527527753, "original_dtype": "float32"}}, {"name": "StatefulPartitionedCall/asl_resnet50_improved_1/resnet50_1/conv4_block6_3_conv_1/Squeeze", "shape": [1024], "dtype": "float32", "quantization": {"dtype": "uint8", "min": -0.0004612988787794522, "scale": 3.548452913688094e-06, "original_dtype": "float32"}}, {"name": "StatefulPartitionedCall/asl_resnet50_improved_1/resnet50_1/conv4_block6_3_bn_1/batchnorm/mul", "shape": [1, 1, 1, 1024], "dtype": "float32", "quantization": {"dtype": "uint8", "min": 0.519500195980072, "scale": 0.02992776445313996, "original_dtype": "float32"}}, {"name": "StatefulPartitionedCall/asl_resnet50_improved_1/resnet50_1/conv4_block6_3_bn_1/batchnorm/sub", "shape": [1, 1, 1, 1024], "dtype": "float32", "quantization": {"dtype": "uint8", "min": -2.94490288846633, "scale": 0.020033352982764152, "original_dtype": "float32"}}, {"name": "StatefulPartitionedCall/asl_resnet50_improved_1/resnet50_1/conv5_block1_1_conv_1/convolution/ReadVariableOp", "shape": [1, 1, 1024, 512], "dtype": "float32", "quantization": {"dtype": "uint8", "min": -0.1839284015052459, "scale": 0.0020211912253323724, "original_dtype": "float32"}}, {"name": "StatefulPartitionedCall/asl_resnet50_improved_1/resnet50_1/conv5_block1_1_conv_1/Squeeze", "shape": [512], "dtype": "float32", "quantization": {"dtype": "uint8", "min": -0.0002516086815911181, "scale": 2.096739013259317e-06, "original_dtype": "float32"}}, {"name": "StatefulPartitionedCall/asl_resnet50_improved_1/resnet50_1/conv5_block1_1_bn_1/batchnorm/mul", "shape": [1, 1, 1, 512], "dtype": "float32", "quantization": {"dtype": "uint8", "min": 0.4700622856616974, "scale": 0.005181536838120105, "original_dtype": "float32"}}, {"name": "StatefulPartitionedCall/asl_resnet50_improved_1/resnet50_1/conv5_block1_1_bn_1/batchnorm/sub", "shape": [1, 1, 1, 512], "dtype": "float32", "quantization": {"dtype": "uint8", "min": -2.481539821624756, "scale": 0.020340490341186523, "original_dtype": "float32"}}, {"name": "StatefulPartitionedCall/asl_resnet50_improved_1/resnet50_1/conv5_block1_2_conv_1/convolution/ReadVariableOp", "shape": [3, 3, 512, 512], "dtype": "float32", "quantization": {"dtype": "uint8", "min": -0.17123192005297716, "scale": 0.0017296153540704764, "original_dtype": "float32"}}, {"name": "StatefulPartitionedCall/asl_resnet50_improved_1/resnet50_1/conv5_block1_2_conv_1/Squeeze", "shape": [512], "dtype": "float32", "quantization": {"dtype": "uint8", "min": -0.006079349666833877, "scale": 3.576088039314045e-05, "original_dtype": "float32"}}, {"name": "StatefulPartitionedCall/asl_resnet50_improved_1/resnet50_1/conv5_block1_2_bn_1/batchnorm/mul", "shape": [1, 1, 1, 512], "dtype": "float32", "quantization": {"dtype": "uint8", "min": 0.8130163550376892, "scale": 0.009966572826983882, "original_dtype": "float32"}}, {"name": "StatefulPartitionedCall/asl_resnet50_improved_1/resnet50_1/conv5_block1_2_bn_1/batchnorm/sub", "shape": [1, 1, 1, 512], "dtype": "float32", "quantization": {"dtype": "uint8", "min": -2.184709080995298, "scale": 0.01446827205957151, "original_dtype": "float32"}}, {"name": "StatefulPartitionedCall/asl_resnet50_improved_1/resnet50_1/conv5_block1_3_conv_1/convolution/ReadVariableOp", "shape": [1, 1, 512, 2048], "dtype": "float32", "quantization": {"dtype": "uint8", "min": -0.33203621471629424, "scale": 0.003018511042875402, "original_dtype": "float32"}}, {"name": "StatefulPartitionedCall/asl_resnet50_improved_1/resnet50_1/conv5_block1_3_conv_1/Squeeze", "shape": [2048], "dtype": "float32", "quantization": {"dtype": "uint8", "min": -0.003209087668972857, "scale": 2.168302479035714e-05, "original_dtype": "float32"}}, {"name": "StatefulPartitionedCall/asl_resnet50_improved_1/resnet50_1/conv5_block1_3_bn_1/batchnorm/mul", "shape": [1, 1, 1, 2048], "dtype": "float32", "quantization": {"dtype": "uint8", "min": 6.117246150970459, "scale": 0.04525858000213025, "original_dtype": "float32"}}, {"name": "StatefulPartitionedCall/asl_resnet50_improved_1/resnet50_1/conv5_block1_3_bn_1/batchnorm/sub", "shape": [1, 1, 1, 2048], "dtype": "float32", "quantization": {"dtype": "uint8", "min": -6.361467804628259, "scale": 0.045116792940625955, "original_dtype": "float32"}}, {"name": "StatefulPartitionedCall/asl_resnet50_improved_1/resnet50_1/conv5_block2_1_conv_1/convolution/ReadVariableOp", "shape": [1, 1, 2048, 512], "dtype": "float32", "quantization": {"dtype": "uint8", "min": -0.3139869395424338, "scale": 0.003488743772693709, "original_dtype": "float32"}}, {"name": "StatefulPartitionedCall/asl_resnet50_improved_1/resnet50_1/conv5_block2_1_conv_1/Squeeze", "shape": [512], "dtype": "float32", "quantization": {"dtype": "uint8", "min": -0.0011794354657039922, "scale": 1.0167547118137864e-05, "original_dtype": "float32"}}, {"name": "StatefulPartitionedCall/asl_resnet50_improved_1/resnet50_1/conv5_block2_1_bn_1/batchnorm/mul", "shape": [1, 1, 1, 512], "dtype": "float32", "quantization": {"dtype": "uint8", "min": 0.18437498807907104, "scale": 0.0036055810311261347, "original_dtype": "float32"}}, {"name": "StatefulPartitionedCall/asl_resnet50_improved_1/resnet50_1/conv5_block2_1_bn_1/batchnorm/sub", "shape": [1, 1, 1, 512], "dtype": "float32", "quantization": {"dtype": "uint8", "min": -3.7911201551848768, "scale": 0.019953263974657246, "original_dtype": "float32"}}, {"name": "StatefulPartitionedCall/asl_resnet50_improved_1/resnet50_1/conv5_block2_2_conv_1/convolution/ReadVariableOp", "shape": [3, 3, 512, 512], "dtype": "float32", "quantization": {"dtype": "uint8", "min": -0.21644217792679282, "scale": 0.001985708054374246, "original_dtype": "float32"}}, {"name": "StatefulPartitionedCall/asl_resnet50_improved_1/resnet50_1/conv5_block2_2_conv_1/Squeeze", "shape": [512], "dtype": "float32", "quantization": {"dtype": "uint8", "min": -0.003378513066426796, "scale": 2.448197874222316e-05, "original_dtype": "float32"}}, {"name": "StatefulPartitionedCall/asl_resnet50_improved_1/resnet50_1/conv5_block2_2_bn_1/batchnorm/mul", "shape": [1, 1, 1, 512], "dtype": "float32", "quantization": {"dtype": "uint8", "min": 0.6312110424041748, "scale": 0.018259614121680166, "original_dtype": "float32"}}, {"name": "StatefulPartitionedCall/asl_resnet50_improved_1/resnet50_1/conv5_block2_2_bn_1/batchnorm/sub", "shape": [1, 1, 1, 512], "dtype": "float32", "quantization": {"dtype": "uint8", "min": -2.5169310289270737, "scale": 0.014893083011402804, "original_dtype": "float32"}}, {"name": "StatefulPartitionedCall/asl_resnet50_improved_1/resnet50_1/conv5_block2_3_conv_1/convolution/ReadVariableOp", "shape": [1, 1, 512, 2048], "dtype": "float32", "quantization": {"dtype": "uint8", "min": -0.2038912485627567, "scale": 0.0018878819311366362, "original_dtype": "float32"}}, {"name": "StatefulPartitionedCall/asl_resnet50_improved_1/resnet50_1/conv5_block2_3_conv_1/Squeeze", "shape": [2048], "dtype": "float32", "quantization": {"dtype": "uint8", "min": -0.0026458490183394333, "scale": 1.775737596200962e-05, "original_dtype": "float32"}}, {"name": "StatefulPartitionedCall/asl_resnet50_improved_1/resnet50_1/conv5_block2_3_bn_1/batchnorm/mul", "shape": [1, 1, 1, 2048], "dtype": "float32", "quantization": {"dtype": "uint8", "min": 5.9199066162109375, "scale": 0.06046568178663067, "original_dtype": "float32"}}, {"name": "StatefulPartitionedCall/asl_resnet50_improved_1/resnet50_1/conv5_block2_3_bn_1/batchnorm/sub", "shape": [1, 1, 1, 2048], "dtype": "float32", "quantization": {"dtype": "uint8", "min": -6.90411257276348, "scale": 0.04315070357977175, "original_dtype": "float32"}}, {"name": "StatefulPartitionedCall/asl_resnet50_improved_1/resnet50_1/conv5_block3_1_conv_1/convolution/ReadVariableOp", "shape": [1, 1, 2048, 512], "dtype": "float32", "quantization": {"dtype": "uint8", "min": -0.28664090913884777, "scale": 0.003115662055857041, "original_dtype": "float32"}}, {"name": "StatefulPartitionedCall/asl_resnet50_improved_1/resnet50_1/conv5_block3_1_conv_1/Squeeze", "shape": [512], "dtype": "float32", "quantization": {"dtype": "uint8", "min": -0.000710240620024064, "scale": 5.1466711595946666e-06, "original_dtype": "float32"}}, {"name": "StatefulPartitionedCall/asl_resnet50_improved_1/resnet50_1/conv5_block3_1_bn_1/batchnorm/mul", "shape": [1, 1, 1, 512], "dtype": "float32", "quantization": {"dtype": "uint8", "min": 0.09046205133199692, "scale": 0.002903949191757277, "original_dtype": "float32"}}, {"name": "StatefulPartitionedCall/asl_resnet50_improved_1/resnet50_1/conv5_block3_1_bn_1/batchnorm/sub", "shape": [1, 1, 1, 512], "dtype": "float32", "quantization": {"dtype": "uint8", "min": -2.4901313629804873, "scale": 0.0121469822584414, "original_dtype": "float32"}}, {"name": "StatefulPartitionedCall/asl_resnet50_improved_1/resnet50_1/conv5_block3_2_conv_1/convolution/ReadVariableOp", "shape": [3, 3, 512, 512], "dtype": "float32", "quantization": {"dtype": "uint8", "min": -0.1419342802435744, "scale": 0.0011175927578234205, "original_dtype": "float32"}}, {"name": "StatefulPartitionedCall/asl_resnet50_improved_1/resnet50_1/conv5_block3_2_conv_1/Squeeze", "shape": [512], "dtype": "float32", "quantization": {"dtype": "uint8", "min": -0.0015606398566388616, "scale": 1.3453791867576393e-05, "original_dtype": "float32"}}, {"name": "StatefulPartitionedCall/asl_resnet50_improved_1/resnet50_1/conv5_block3_2_bn_1/batchnorm/mul", "shape": [1, 1, 1, 512], "dtype": "float32", "quantization": {"dtype": "uint8", "min": 1.1743695735931396, "scale": 0.022321023193060185, "original_dtype": "float32"}}, {"name": "StatefulPartitionedCall/asl_resnet50_improved_1/resnet50_1/conv5_block3_2_bn_1/batchnorm/sub", "shape": [1, 1, 1, 512], "dtype": "float32", "quantization": {"dtype": "uint8", "min": -2.0632272117278156, "scale": 0.014229153184329763, "original_dtype": "float32"}}, {"name": "StatefulPartitionedCall/asl_resnet50_improved_1/resnet50_1/conv5_block3_3_conv_1/convolution/ReadVariableOp", "shape": [1, 1, 512, 2048], "dtype": "float32", "quantization": {"dtype": "uint8", "min": -0.12028130620133642, "scale": 0.0015826487658070583, "original_dtype": "float32"}}, {"name": "StatefulPartitionedCall/asl_resnet50_improved_1/resnet50_1/conv5_block3_3_conv_1/Squeeze", "shape": [2048], "dtype": "float32", "quantization": {"dtype": "uint8", "min": -0.00335149634629488, "scale": 2.1483950937787692e-05, "original_dtype": "float32"}}, {"name": "StatefulPartitionedCall/asl_resnet50_improved_1/resnet50_1/conv5_block3_3_bn_1/batchnorm/mul", "shape": [1, 1, 1, 2048], "dtype": "float32", "quantization": {"dtype": "uint8", "min": 3.556321859359741, "scale": 0.05775813775904039, "original_dtype": "float32"}}, {"name": "StatefulPartitionedCall/asl_resnet50_improved_1/resnet50_1/conv5_block3_3_bn_1/batchnorm/sub", "shape": [1, 1, 1, 2048], "dtype": "float32", "quantization": {"dtype": "uint8", "min": -4.41993787428912, "scale": 0.023763106851016774, "original_dtype": "float32"}}, {"name": "StatefulPartitionedCall/asl_resnet50_improved_1/global_average_pooling2d_1/Mean/reduction_indices", "shape": [2], "dtype": "int32"}, {"name": "StatefulPartitionedCall/asl_resnet50_improved_1/dense_1/Cast/ReadVariableOp", "shape": [2048, 128], "dtype": "float32", "quantization": {"dtype": "uint8", "min": -8.910190716911766, "scale": 0.06961086497587317, "original_dtype": "float32"}}, {"name": "StatefulPartitionedCall/asl_resnet50_improved_1/dense_1/BiasAdd/ReadVariableOp", "shape": [128], "dtype": "float32", "quantization": {"dtype": "uint8", "min": -0.35469010086620556, "scale": 0.002815000800525441, "original_dtype": "float32"}}, {"name": "StatefulPartitionedCall/asl_resnet50_improved_1/dense_1_2/Cast/ReadVariableOp", "shape": [128, 29], "dtype": "float32", "quantization": {"dtype": "uint8", "min": -1.133969133975459, "scale": 0.01030881030886781, "original_dtype": "float32"}}, {"name": "StatefulPartitionedCall/asl_resnet50_improved_1/dense_1_2/BiasAdd/ReadVariableOp", "shape": [29], "dtype": "float32", "quantization": {"dtype": "uint8", "min": -0.34016508869096346, "scale": 0.002788238431893143, "original_dtype": "float32"}}]}]}