{"format": "graph-model", "generatedBy": "2.21.0", "convertedBy": "TensorFlow.js Converter v4.22.0", "signature": {"inputs": {"inputs": {"name": "inputs:0", "dtype": "DT_FLOAT", "tensorShape": {"dim": [{"size": "-1"}, {"size": "96"}, {"size": "96"}, {"size": "3"}]}}}, "outputs": {"output_0": {"name": "Identity:0", "dtype": "DT_FLOAT", "tensorShape": {"dim": [{"size": "-1"}, {"size": "29"}]}}}}, "modelTopology": {"node": [{"name": "StatefulPartitionedCall/asl_resnet50_1/resnet50_1/conv5_block1_0_conv_1/convolution/ReadVariableOp", "op": "Const", "attr": {"dtype": {"type": "DT_FLOAT"}, "value": {"tensor": {"dtype": "DT_FLOAT", "tensorShape": {"dim": [{"size": "1"}, {"size": "1"}, {"size": "1024"}, {"size": "2048"}]}}}}}, {"name": "StatefulPartitionedCall/asl_resnet50_1/resnet50_1/conv5_block1_0_conv_1/Squeeze", "op": "Const", "attr": {"dtype": {"type": "DT_FLOAT"}, "value": {"tensor": {"dtype": "DT_FLOAT", "tensorShape": {"dim": [{"size": "2048"}]}}}}}, {"name": "StatefulPartitionedCall/asl_resnet50_1/resnet50_1/conv5_block1_0_bn_1/batchnorm/mul", "op": "Const", "attr": {"dtype": {"type": "DT_FLOAT"}, "value": {"tensor": {"dtype": "DT_FLOAT", "tensorShape": {"dim": [{"size": "1"}, {"size": "1"}, {"size": "1"}, {"size": "2048"}]}}}}}, {"name": "StatefulPartitionedCall/asl_resnet50_1/resnet50_1/conv5_block1_0_bn_1/batchnorm/sub", "op": "Const", "attr": {"dtype": {"type": "DT_FLOAT"}, "value": {"tensor": {"dtype": "DT_FLOAT", "tensorShape": {"dim": [{"size": "1"}, {"size": "1"}, {"size": "1"}, {"size": "2048"}]}}}}}, {"name": "StatefulPartitionedCall/asl_resnet50_1/resnet50_1/conv4_block1_0_conv_1/convolution/merged_input", "op": "Const", "attr": {"dtype": {"type": "DT_FLOAT"}, "value": {"tensor": {"dtype": "DT_FLOAT", "tensorShape": {"dim": [{"size": "1"}, {"size": "1"}, {"size": "512"}, {"size": "1024"}]}}}}}, {"name": "StatefulPartitionedCall/asl_resnet50_1/resnet50_1/conv4_block1_0_bn_1/batchnorm/sub", "op": "Const", "attr": {"dtype": {"type": "DT_FLOAT"}, "value": {"tensor": {"dtype": "DT_FLOAT", "tensorShape": {"dim": [{"size": "1"}, {"size": "1"}, {"size": "1"}, {"size": "1024"}]}}}}}, {"name": "StatefulPartitionedCall/asl_resnet50_1/resnet50_1/conv3_block1_0_conv_1/convolution/merged_input", "op": "Const", "attr": {"dtype": {"type": "DT_FLOAT"}, "value": {"tensor": {"dtype": "DT_FLOAT", "tensorShape": {"dim": [{"size": "1"}, {"size": "1"}, {"size": "256"}, {"size": "512"}]}}}}}, {"name": "StatefulPartitionedCall/asl_resnet50_1/resnet50_1/conv3_block1_0_bn_1/batchnorm/sub", "op": "Const", "attr": {"dtype": {"type": "DT_FLOAT"}, "value": {"tensor": {"dtype": "DT_FLOAT", "tensorShape": {"dim": [{"size": "1"}, {"size": "1"}, {"size": "1"}, {"size": "512"}]}}}}}, {"name": "StatefulPartitionedCall/asl_resnet50_1/resnet50_1/conv2_block1_0_conv_1/convolution/merged_input", "op": "Const", "attr": {"dtype": {"type": "DT_FLOAT"}, "value": {"tensor": {"dtype": "DT_FLOAT", "tensorShape": {"dim": [{"size": "1"}, {"size": "1"}, {"size": "64"}, {"size": "256"}]}}}}}, {"name": "StatefulPartitionedCall/asl_resnet50_1/resnet50_1/conv2_block1_0_bn_1/batchnorm/sub", "op": "Const", "attr": {"dtype": {"type": "DT_FLOAT"}, "value": {"tensor": {"dtype": "DT_FLOAT", "tensorShape": {"dim": [{"size": "1"}, {"size": "1"}, {"size": "1"}, {"size": "256"}]}}}}}, {"name": "StatefulPartitionedCall/asl_resnet50_1/resnet50_1/conv1_pad_1/Const", "op": "Const", "attr": {"dtype": {"type": "DT_INT32"}, "value": {"tensor": {"dtype": "DT_INT32", "tensorShape": {"dim": [{"size": "4"}, {"size": "2"}]}}}}}, {"name": "StatefulPartitionedCall/asl_resnet50_1/resnet50_1/conv1_conv_1/convolution/ReadVariableOp", "op": "Const", "attr": {"dtype": {"type": "DT_FLOAT"}, "value": {"tensor": {"dtype": "DT_FLOAT", "tensorShape": {"dim": [{"size": "7"}, {"size": "7"}, {"size": "3"}, {"size": "64"}]}}}}}, {"name": "StatefulPartitionedCall/asl_resnet50_1/resnet50_1/conv1_conv_1/Squeeze", "op": "Const", "attr": {"dtype": {"type": "DT_FLOAT"}, "value": {"tensor": {"dtype": "DT_FLOAT", "tensorShape": {"dim": [{"size": "64"}]}}}}}, {"name": "StatefulPartitionedCall/asl_resnet50_1/resnet50_1/conv1_bn_1/batchnorm/mul", "op": "Const", "attr": {"dtype": {"type": "DT_FLOAT"}, "value": {"tensor": {"dtype": "DT_FLOAT", "tensorShape": {"dim": [{"size": "1"}, {"size": "1"}, {"size": "1"}, {"size": "64"}]}}}}}, {"name": "StatefulPartitionedCall/asl_resnet50_1/resnet50_1/conv1_bn_1/batchnorm/sub", "op": "Const", "attr": {"dtype": {"type": "DT_FLOAT"}, "value": {"tensor": {"dtype": "DT_FLOAT", "tensorShape": {"dim": [{"size": "1"}, {"size": "1"}, {"size": "1"}, {"size": "64"}]}}}}}, {"name": "StatefulPartitionedCall/asl_resnet50_1/resnet50_1/pool1_pad_1/Const", "op": "Const", "attr": {"dtype": {"type": "DT_INT32"}, "value": {"tensor": {"dtype": "DT_INT32", "tensorShape": {"dim": [{"size": "4"}, {"size": "2"}]}}}}}, {"name": "StatefulPartitionedCall/asl_resnet50_1/resnet50_1/conv2_block1_1_conv_1/convolution/merged_input", "op": "Const", "attr": {"dtype": {"type": "DT_FLOAT"}, "value": {"tensor": {"dtype": "DT_FLOAT", "tensorShape": {"dim": [{"size": "1"}, {"size": "1"}, {"size": "64"}, {"size": "64"}]}}}}}, {"name": "StatefulPartitionedCall/asl_resnet50_1/resnet50_1/conv2_block1_1_bn_1/batchnorm/sub", "op": "Const", "attr": {"dtype": {"type": "DT_FLOAT"}, "value": {"tensor": {"dtype": "DT_FLOAT", "tensorShape": {"dim": [{"size": "1"}, {"size": "1"}, {"size": "1"}, {"size": "64"}]}}}}}, {"name": "StatefulPartitionedCall/asl_resnet50_1/resnet50_1/conv2_block1_2_conv_1/convolution/merged_input", "op": "Const", "attr": {"dtype": {"type": "DT_FLOAT"}, "value": {"tensor": {"dtype": "DT_FLOAT", "tensorShape": {"dim": [{"size": "3"}, {"size": "3"}, {"size": "64"}, {"size": "64"}]}}}}}, {"name": "StatefulPartitionedCall/asl_resnet50_1/resnet50_1/conv2_block1_2_bn_1/batchnorm/sub", "op": "Const", "attr": {"dtype": {"type": "DT_FLOAT"}, "value": {"tensor": {"dtype": "DT_FLOAT", "tensorShape": {"dim": [{"size": "1"}, {"size": "1"}, {"size": "1"}, {"size": "64"}]}}}}}, {"name": "StatefulPartitionedCall/asl_resnet50_1/resnet50_1/conv2_block1_3_conv_1/convolution/merged_input", "op": "Const", "attr": {"dtype": {"type": "DT_FLOAT"}, "value": {"tensor": {"dtype": "DT_FLOAT", "tensorShape": {"dim": [{"size": "1"}, {"size": "1"}, {"size": "64"}, {"size": "256"}]}}}}}, {"name": "StatefulPartitionedCall/asl_resnet50_1/resnet50_1/conv2_block1_3_bn_1/batchnorm/sub", "op": "Const", "attr": {"dtype": {"type": "DT_FLOAT"}, "value": {"tensor": {"dtype": "DT_FLOAT", "tensorShape": {"dim": [{"size": "1"}, {"size": "1"}, {"size": "1"}, {"size": "256"}]}}}}}, {"name": "StatefulPartitionedCall/asl_resnet50_1/resnet50_1/conv2_block2_1_conv_1/convolution/merged_input", "op": "Const", "attr": {"dtype": {"type": "DT_FLOAT"}, "value": {"tensor": {"dtype": "DT_FLOAT", "tensorShape": {"dim": [{"size": "1"}, {"size": "1"}, {"size": "256"}, {"size": "64"}]}}}}}, {"name": "StatefulPartitionedCall/asl_resnet50_1/resnet50_1/conv2_block2_1_bn_1/batchnorm/sub", "op": "Const", "attr": {"dtype": {"type": "DT_FLOAT"}, "value": {"tensor": {"dtype": "DT_FLOAT", "tensorShape": {"dim": [{"size": "1"}, {"size": "1"}, {"size": "1"}, {"size": "64"}]}}}}}, {"name": "StatefulPartitionedCall/asl_resnet50_1/resnet50_1/conv2_block2_2_conv_1/convolution/merged_input", "op": "Const", "attr": {"dtype": {"type": "DT_FLOAT"}, "value": {"tensor": {"dtype": "DT_FLOAT", "tensorShape": {"dim": [{"size": "3"}, {"size": "3"}, {"size": "64"}, {"size": "64"}]}}}}}, {"name": "StatefulPartitionedCall/asl_resnet50_1/resnet50_1/conv2_block2_2_bn_1/batchnorm/sub", "op": "Const", "attr": {"dtype": {"type": "DT_FLOAT"}, "value": {"tensor": {"dtype": "DT_FLOAT", "tensorShape": {"dim": [{"size": "1"}, {"size": "1"}, {"size": "1"}, {"size": "64"}]}}}}}, {"name": "StatefulPartitionedCall/asl_resnet50_1/resnet50_1/conv2_block2_3_conv_1/convolution/merged_input", "op": "Const", "attr": {"dtype": {"type": "DT_FLOAT"}, "value": {"tensor": {"dtype": "DT_FLOAT", "tensorShape": {"dim": [{"size": "1"}, {"size": "1"}, {"size": "64"}, {"size": "256"}]}}}}}, {"name": "StatefulPartitionedCall/asl_resnet50_1/resnet50_1/conv2_block2_3_bn_1/batchnorm/sub", "op": "Const", "attr": {"dtype": {"type": "DT_FLOAT"}, "value": {"tensor": {"dtype": "DT_FLOAT", "tensorShape": {"dim": [{"size": "1"}, {"size": "1"}, {"size": "1"}, {"size": "256"}]}}}}}, {"name": "StatefulPartitionedCall/asl_resnet50_1/resnet50_1/conv2_block3_1_conv_1/convolution/merged_input", "op": "Const", "attr": {"dtype": {"type": "DT_FLOAT"}, "value": {"tensor": {"dtype": "DT_FLOAT", "tensorShape": {"dim": [{"size": "1"}, {"size": "1"}, {"size": "256"}, {"size": "64"}]}}}}}, {"name": "StatefulPartitionedCall/asl_resnet50_1/resnet50_1/conv2_block3_1_bn_1/batchnorm/sub", "op": "Const", "attr": {"dtype": {"type": "DT_FLOAT"}, "value": {"tensor": {"dtype": "DT_FLOAT", "tensorShape": {"dim": [{"size": "1"}, {"size": "1"}, {"size": "1"}, {"size": "64"}]}}}}}, {"name": "StatefulPartitionedCall/asl_resnet50_1/resnet50_1/conv2_block3_2_conv_1/convolution/merged_input", "op": "Const", "attr": {"dtype": {"type": "DT_FLOAT"}, "value": {"tensor": {"dtype": "DT_FLOAT", "tensorShape": {"dim": [{"size": "3"}, {"size": "3"}, {"size": "64"}, {"size": "64"}]}}}}}, {"name": "StatefulPartitionedCall/asl_resnet50_1/resnet50_1/conv2_block3_2_bn_1/batchnorm/sub", "op": "Const", "attr": {"dtype": {"type": "DT_FLOAT"}, "value": {"tensor": {"dtype": "DT_FLOAT", "tensorShape": {"dim": [{"size": "1"}, {"size": "1"}, {"size": "1"}, {"size": "64"}]}}}}}, {"name": "StatefulPartitionedCall/asl_resnet50_1/resnet50_1/conv2_block3_3_conv_1/convolution/merged_input", "op": "Const", "attr": {"dtype": {"type": "DT_FLOAT"}, "value": {"tensor": {"dtype": "DT_FLOAT", "tensorShape": {"dim": [{"size": "1"}, {"size": "1"}, {"size": "64"}, {"size": "256"}]}}}}}, {"name": "StatefulPartitionedCall/asl_resnet50_1/resnet50_1/conv2_block3_3_bn_1/batchnorm/sub", "op": "Const", "attr": {"dtype": {"type": "DT_FLOAT"}, "value": {"tensor": {"dtype": "DT_FLOAT", "tensorShape": {"dim": [{"size": "1"}, {"size": "1"}, {"size": "1"}, {"size": "256"}]}}}}}, {"name": "StatefulPartitionedCall/asl_resnet50_1/resnet50_1/conv3_block1_1_conv_1/convolution/merged_input", "op": "Const", "attr": {"dtype": {"type": "DT_FLOAT"}, "value": {"tensor": {"dtype": "DT_FLOAT", "tensorShape": {"dim": [{"size": "1"}, {"size": "1"}, {"size": "256"}, {"size": "128"}]}}}}}, {"name": "StatefulPartitionedCall/asl_resnet50_1/resnet50_1/conv3_block1_1_bn_1/batchnorm/sub", "op": "Const", "attr": {"dtype": {"type": "DT_FLOAT"}, "value": {"tensor": {"dtype": "DT_FLOAT", "tensorShape": {"dim": [{"size": "1"}, {"size": "1"}, {"size": "1"}, {"size": "128"}]}}}}}, {"name": "StatefulPartitionedCall/asl_resnet50_1/resnet50_1/conv3_block1_2_conv_1/convolution/merged_input", "op": "Const", "attr": {"dtype": {"type": "DT_FLOAT"}, "value": {"tensor": {"dtype": "DT_FLOAT", "tensorShape": {"dim": [{"size": "3"}, {"size": "3"}, {"size": "128"}, {"size": "128"}]}}}}}, {"name": "StatefulPartitionedCall/asl_resnet50_1/resnet50_1/conv3_block1_2_bn_1/batchnorm/sub", "op": "Const", "attr": {"dtype": {"type": "DT_FLOAT"}, "value": {"tensor": {"dtype": "DT_FLOAT", "tensorShape": {"dim": [{"size": "1"}, {"size": "1"}, {"size": "1"}, {"size": "128"}]}}}}}, {"name": "StatefulPartitionedCall/asl_resnet50_1/resnet50_1/conv3_block1_3_conv_1/convolution/merged_input", "op": "Const", "attr": {"dtype": {"type": "DT_FLOAT"}, "value": {"tensor": {"dtype": "DT_FLOAT", "tensorShape": {"dim": [{"size": "1"}, {"size": "1"}, {"size": "128"}, {"size": "512"}]}}}}}, {"name": "StatefulPartitionedCall/asl_resnet50_1/resnet50_1/conv3_block1_3_bn_1/batchnorm/sub", "op": "Const", "attr": {"dtype": {"type": "DT_FLOAT"}, "value": {"tensor": {"dtype": "DT_FLOAT", "tensorShape": {"dim": [{"size": "1"}, {"size": "1"}, {"size": "1"}, {"size": "512"}]}}}}}, {"name": "StatefulPartitionedCall/asl_resnet50_1/resnet50_1/conv3_block2_1_conv_1/convolution/merged_input", "op": "Const", "attr": {"dtype": {"type": "DT_FLOAT"}, "value": {"tensor": {"dtype": "DT_FLOAT", "tensorShape": {"dim": [{"size": "1"}, {"size": "1"}, {"size": "512"}, {"size": "128"}]}}}}}, {"name": "StatefulPartitionedCall/asl_resnet50_1/resnet50_1/conv3_block2_1_bn_1/batchnorm/sub", "op": "Const", "attr": {"dtype": {"type": "DT_FLOAT"}, "value": {"tensor": {"dtype": "DT_FLOAT", "tensorShape": {"dim": [{"size": "1"}, {"size": "1"}, {"size": "1"}, {"size": "128"}]}}}}}, {"name": "StatefulPartitionedCall/asl_resnet50_1/resnet50_1/conv3_block2_2_conv_1/convolution/merged_input", "op": "Const", "attr": {"dtype": {"type": "DT_FLOAT"}, "value": {"tensor": {"dtype": "DT_FLOAT", "tensorShape": {"dim": [{"size": "3"}, {"size": "3"}, {"size": "128"}, {"size": "128"}]}}}}}, {"name": "StatefulPartitionedCall/asl_resnet50_1/resnet50_1/conv3_block2_2_bn_1/batchnorm/sub", "op": "Const", "attr": {"dtype": {"type": "DT_FLOAT"}, "value": {"tensor": {"dtype": "DT_FLOAT", "tensorShape": {"dim": [{"size": "1"}, {"size": "1"}, {"size": "1"}, {"size": "128"}]}}}}}, {"name": "StatefulPartitionedCall/asl_resnet50_1/resnet50_1/conv3_block2_3_conv_1/convolution/merged_input", "op": "Const", "attr": {"dtype": {"type": "DT_FLOAT"}, "value": {"tensor": {"dtype": "DT_FLOAT", "tensorShape": {"dim": [{"size": "1"}, {"size": "1"}, {"size": "128"}, {"size": "512"}]}}}}}, {"name": "StatefulPartitionedCall/asl_resnet50_1/resnet50_1/conv3_block2_3_bn_1/batchnorm/sub", "op": "Const", "attr": {"dtype": {"type": "DT_FLOAT"}, "value": {"tensor": {"dtype": "DT_FLOAT", "tensorShape": {"dim": [{"size": "1"}, {"size": "1"}, {"size": "1"}, {"size": "512"}]}}}}}, {"name": "StatefulPartitionedCall/asl_resnet50_1/resnet50_1/conv3_block3_1_conv_1/convolution/merged_input", "op": "Const", "attr": {"dtype": {"type": "DT_FLOAT"}, "value": {"tensor": {"dtype": "DT_FLOAT", "tensorShape": {"dim": [{"size": "1"}, {"size": "1"}, {"size": "512"}, {"size": "128"}]}}}}}, {"name": "StatefulPartitionedCall/asl_resnet50_1/resnet50_1/conv3_block3_1_bn_1/batchnorm/sub", "op": "Const", "attr": {"dtype": {"type": "DT_FLOAT"}, "value": {"tensor": {"dtype": "DT_FLOAT", "tensorShape": {"dim": [{"size": "1"}, {"size": "1"}, {"size": "1"}, {"size": "128"}]}}}}}, {"name": "StatefulPartitionedCall/asl_resnet50_1/resnet50_1/conv3_block3_2_conv_1/convolution/merged_input", "op": "Const", "attr": {"dtype": {"type": "DT_FLOAT"}, "value": {"tensor": {"dtype": "DT_FLOAT", "tensorShape": {"dim": [{"size": "3"}, {"size": "3"}, {"size": "128"}, {"size": "128"}]}}}}}, {"name": "StatefulPartitionedCall/asl_resnet50_1/resnet50_1/conv3_block3_2_bn_1/batchnorm/sub", "op": "Const", "attr": {"dtype": {"type": "DT_FLOAT"}, "value": {"tensor": {"dtype": "DT_FLOAT", "tensorShape": {"dim": [{"size": "1"}, {"size": "1"}, {"size": "1"}, {"size": "128"}]}}}}}, {"name": "StatefulPartitionedCall/asl_resnet50_1/resnet50_1/conv3_block3_3_conv_1/convolution/merged_input", "op": "Const", "attr": {"dtype": {"type": "DT_FLOAT"}, "value": {"tensor": {"dtype": "DT_FLOAT", "tensorShape": {"dim": [{"size": "1"}, {"size": "1"}, {"size": "128"}, {"size": "512"}]}}}}}, {"name": "StatefulPartitionedCall/asl_resnet50_1/resnet50_1/conv3_block3_3_bn_1/batchnorm/sub", "op": "Const", "attr": {"dtype": {"type": "DT_FLOAT"}, "value": {"tensor": {"dtype": "DT_FLOAT", "tensorShape": {"dim": [{"size": "1"}, {"size": "1"}, {"size": "1"}, {"size": "512"}]}}}}}, {"name": "StatefulPartitionedCall/asl_resnet50_1/resnet50_1/conv3_block4_1_conv_1/convolution/merged_input", "op": "Const", "attr": {"dtype": {"type": "DT_FLOAT"}, "value": {"tensor": {"dtype": "DT_FLOAT", "tensorShape": {"dim": [{"size": "1"}, {"size": "1"}, {"size": "512"}, {"size": "128"}]}}}}}, {"name": "StatefulPartitionedCall/asl_resnet50_1/resnet50_1/conv3_block4_1_bn_1/batchnorm/sub", "op": "Const", "attr": {"dtype": {"type": "DT_FLOAT"}, "value": {"tensor": {"dtype": "DT_FLOAT", "tensorShape": {"dim": [{"size": "1"}, {"size": "1"}, {"size": "1"}, {"size": "128"}]}}}}}, {"name": "StatefulPartitionedCall/asl_resnet50_1/resnet50_1/conv3_block4_2_conv_1/convolution/merged_input", "op": "Const", "attr": {"dtype": {"type": "DT_FLOAT"}, "value": {"tensor": {"dtype": "DT_FLOAT", "tensorShape": {"dim": [{"size": "3"}, {"size": "3"}, {"size": "128"}, {"size": "128"}]}}}}}, {"name": "StatefulPartitionedCall/asl_resnet50_1/resnet50_1/conv3_block4_2_bn_1/batchnorm/sub", "op": "Const", "attr": {"dtype": {"type": "DT_FLOAT"}, "value": {"tensor": {"dtype": "DT_FLOAT", "tensorShape": {"dim": [{"size": "1"}, {"size": "1"}, {"size": "1"}, {"size": "128"}]}}}}}, {"name": "StatefulPartitionedCall/asl_resnet50_1/resnet50_1/conv3_block4_3_conv_1/convolution/merged_input", "op": "Const", "attr": {"dtype": {"type": "DT_FLOAT"}, "value": {"tensor": {"dtype": "DT_FLOAT", "tensorShape": {"dim": [{"size": "1"}, {"size": "1"}, {"size": "128"}, {"size": "512"}]}}}}}, {"name": "StatefulPartitionedCall/asl_resnet50_1/resnet50_1/conv3_block4_3_bn_1/batchnorm/sub", "op": "Const", "attr": {"dtype": {"type": "DT_FLOAT"}, "value": {"tensor": {"dtype": "DT_FLOAT", "tensorShape": {"dim": [{"size": "1"}, {"size": "1"}, {"size": "1"}, {"size": "512"}]}}}}}, {"name": "StatefulPartitionedCall/asl_resnet50_1/resnet50_1/conv4_block1_1_conv_1/convolution/merged_input", "op": "Const", "attr": {"dtype": {"type": "DT_FLOAT"}, "value": {"tensor": {"dtype": "DT_FLOAT", "tensorShape": {"dim": [{"size": "1"}, {"size": "1"}, {"size": "512"}, {"size": "256"}]}}}}}, {"name": "StatefulPartitionedCall/asl_resnet50_1/resnet50_1/conv4_block1_1_bn_1/batchnorm/sub", "op": "Const", "attr": {"dtype": {"type": "DT_FLOAT"}, "value": {"tensor": {"dtype": "DT_FLOAT", "tensorShape": {"dim": [{"size": "1"}, {"size": "1"}, {"size": "1"}, {"size": "256"}]}}}}}, {"name": "StatefulPartitionedCall/asl_resnet50_1/resnet50_1/conv4_block1_2_conv_1/convolution/merged_input", "op": "Const", "attr": {"dtype": {"type": "DT_FLOAT"}, "value": {"tensor": {"dtype": "DT_FLOAT", "tensorShape": {"dim": [{"size": "3"}, {"size": "3"}, {"size": "256"}, {"size": "256"}]}}}}}, {"name": "StatefulPartitionedCall/asl_resnet50_1/resnet50_1/conv4_block1_2_bn_1/batchnorm/sub", "op": "Const", "attr": {"dtype": {"type": "DT_FLOAT"}, "value": {"tensor": {"dtype": "DT_FLOAT", "tensorShape": {"dim": [{"size": "1"}, {"size": "1"}, {"size": "1"}, {"size": "256"}]}}}}}, {"name": "StatefulPartitionedCall/asl_resnet50_1/resnet50_1/conv4_block1_3_conv_1/convolution/merged_input", "op": "Const", "attr": {"dtype": {"type": "DT_FLOAT"}, "value": {"tensor": {"dtype": "DT_FLOAT", "tensorShape": {"dim": [{"size": "1"}, {"size": "1"}, {"size": "256"}, {"size": "1024"}]}}}}}, {"name": "StatefulPartitionedCall/asl_resnet50_1/resnet50_1/conv4_block1_3_bn_1/batchnorm/sub", "op": "Const", "attr": {"dtype": {"type": "DT_FLOAT"}, "value": {"tensor": {"dtype": "DT_FLOAT", "tensorShape": {"dim": [{"size": "1"}, {"size": "1"}, {"size": "1"}, {"size": "1024"}]}}}}}, {"name": "StatefulPartitionedCall/asl_resnet50_1/resnet50_1/conv4_block2_1_conv_1/convolution/merged_input", "op": "Const", "attr": {"dtype": {"type": "DT_FLOAT"}, "value": {"tensor": {"dtype": "DT_FLOAT", "tensorShape": {"dim": [{"size": "1"}, {"size": "1"}, {"size": "1024"}, {"size": "256"}]}}}}}, {"name": "StatefulPartitionedCall/asl_resnet50_1/resnet50_1/conv4_block2_1_bn_1/batchnorm/sub", "op": "Const", "attr": {"dtype": {"type": "DT_FLOAT"}, "value": {"tensor": {"dtype": "DT_FLOAT", "tensorShape": {"dim": [{"size": "1"}, {"size": "1"}, {"size": "1"}, {"size": "256"}]}}}}}, {"name": "StatefulPartitionedCall/asl_resnet50_1/resnet50_1/conv4_block2_2_conv_1/convolution/merged_input", "op": "Const", "attr": {"dtype": {"type": "DT_FLOAT"}, "value": {"tensor": {"dtype": "DT_FLOAT", "tensorShape": {"dim": [{"size": "3"}, {"size": "3"}, {"size": "256"}, {"size": "256"}]}}}}}, {"name": "StatefulPartitionedCall/asl_resnet50_1/resnet50_1/conv4_block2_2_bn_1/batchnorm/sub", "op": "Const", "attr": {"dtype": {"type": "DT_FLOAT"}, "value": {"tensor": {"dtype": "DT_FLOAT", "tensorShape": {"dim": [{"size": "1"}, {"size": "1"}, {"size": "1"}, {"size": "256"}]}}}}}, {"name": "StatefulPartitionedCall/asl_resnet50_1/resnet50_1/conv4_block2_3_conv_1/convolution/merged_input", "op": "Const", "attr": {"dtype": {"type": "DT_FLOAT"}, "value": {"tensor": {"dtype": "DT_FLOAT", "tensorShape": {"dim": [{"size": "1"}, {"size": "1"}, {"size": "256"}, {"size": "1024"}]}}}}}, {"name": "StatefulPartitionedCall/asl_resnet50_1/resnet50_1/conv4_block2_3_bn_1/batchnorm/sub", "op": "Const", "attr": {"dtype": {"type": "DT_FLOAT"}, "value": {"tensor": {"dtype": "DT_FLOAT", "tensorShape": {"dim": [{"size": "1"}, {"size": "1"}, {"size": "1"}, {"size": "1024"}]}}}}}, {"name": "StatefulPartitionedCall/asl_resnet50_1/resnet50_1/conv4_block3_1_conv_1/convolution/merged_input", "op": "Const", "attr": {"dtype": {"type": "DT_FLOAT"}, "value": {"tensor": {"dtype": "DT_FLOAT", "tensorShape": {"dim": [{"size": "1"}, {"size": "1"}, {"size": "1024"}, {"size": "256"}]}}}}}, {"name": "StatefulPartitionedCall/asl_resnet50_1/resnet50_1/conv4_block3_1_bn_1/batchnorm/sub", "op": "Const", "attr": {"dtype": {"type": "DT_FLOAT"}, "value": {"tensor": {"dtype": "DT_FLOAT", "tensorShape": {"dim": [{"size": "1"}, {"size": "1"}, {"size": "1"}, {"size": "256"}]}}}}}, {"name": "StatefulPartitionedCall/asl_resnet50_1/resnet50_1/conv4_block3_2_conv_1/convolution/merged_input", "op": "Const", "attr": {"dtype": {"type": "DT_FLOAT"}, "value": {"tensor": {"dtype": "DT_FLOAT", "tensorShape": {"dim": [{"size": "3"}, {"size": "3"}, {"size": "256"}, {"size": "256"}]}}}}}, {"name": "StatefulPartitionedCall/asl_resnet50_1/resnet50_1/conv4_block3_2_bn_1/batchnorm/sub", "op": "Const", "attr": {"dtype": {"type": "DT_FLOAT"}, "value": {"tensor": {"dtype": "DT_FLOAT", "tensorShape": {"dim": [{"size": "1"}, {"size": "1"}, {"size": "1"}, {"size": "256"}]}}}}}, {"name": "StatefulPartitionedCall/asl_resnet50_1/resnet50_1/conv4_block3_3_conv_1/convolution/merged_input", "op": "Const", "attr": {"dtype": {"type": "DT_FLOAT"}, "value": {"tensor": {"dtype": "DT_FLOAT", "tensorShape": {"dim": [{"size": "1"}, {"size": "1"}, {"size": "256"}, {"size": "1024"}]}}}}}, {"name": "StatefulPartitionedCall/asl_resnet50_1/resnet50_1/conv4_block3_3_bn_1/batchnorm/sub", "op": "Const", "attr": {"dtype": {"type": "DT_FLOAT"}, "value": {"tensor": {"dtype": "DT_FLOAT", "tensorShape": {"dim": [{"size": "1"}, {"size": "1"}, {"size": "1"}, {"size": "1024"}]}}}}}, {"name": "StatefulPartitionedCall/asl_resnet50_1/resnet50_1/conv4_block4_1_conv_1/convolution/merged_input", "op": "Const", "attr": {"dtype": {"type": "DT_FLOAT"}, "value": {"tensor": {"dtype": "DT_FLOAT", "tensorShape": {"dim": [{"size": "1"}, {"size": "1"}, {"size": "1024"}, {"size": "256"}]}}}}}, {"name": "StatefulPartitionedCall/asl_resnet50_1/resnet50_1/conv4_block4_1_bn_1/batchnorm/sub", "op": "Const", "attr": {"dtype": {"type": "DT_FLOAT"}, "value": {"tensor": {"dtype": "DT_FLOAT", "tensorShape": {"dim": [{"size": "1"}, {"size": "1"}, {"size": "1"}, {"size": "256"}]}}}}}, {"name": "StatefulPartitionedCall/asl_resnet50_1/resnet50_1/conv4_block4_2_conv_1/convolution/merged_input", "op": "Const", "attr": {"dtype": {"type": "DT_FLOAT"}, "value": {"tensor": {"dtype": "DT_FLOAT", "tensorShape": {"dim": [{"size": "3"}, {"size": "3"}, {"size": "256"}, {"size": "256"}]}}}}}, {"name": "StatefulPartitionedCall/asl_resnet50_1/resnet50_1/conv4_block4_2_bn_1/batchnorm/sub", "op": "Const", "attr": {"dtype": {"type": "DT_FLOAT"}, "value": {"tensor": {"dtype": "DT_FLOAT", "tensorShape": {"dim": [{"size": "1"}, {"size": "1"}, {"size": "1"}, {"size": "256"}]}}}}}, {"name": "StatefulPartitionedCall/asl_resnet50_1/resnet50_1/conv4_block4_3_conv_1/convolution/merged_input", "op": "Const", "attr": {"dtype": {"type": "DT_FLOAT"}, "value": {"tensor": {"dtype": "DT_FLOAT", "tensorShape": {"dim": [{"size": "1"}, {"size": "1"}, {"size": "256"}, {"size": "1024"}]}}}}}, {"name": "StatefulPartitionedCall/asl_resnet50_1/resnet50_1/conv4_block4_3_bn_1/batchnorm/sub", "op": "Const", "attr": {"dtype": {"type": "DT_FLOAT"}, "value": {"tensor": {"dtype": "DT_FLOAT", "tensorShape": {"dim": [{"size": "1"}, {"size": "1"}, {"size": "1"}, {"size": "1024"}]}}}}}, {"name": "StatefulPartitionedCall/asl_resnet50_1/resnet50_1/conv4_block5_1_conv_1/convolution/merged_input", "op": "Const", "attr": {"dtype": {"type": "DT_FLOAT"}, "value": {"tensor": {"dtype": "DT_FLOAT", "tensorShape": {"dim": [{"size": "1"}, {"size": "1"}, {"size": "1024"}, {"size": "256"}]}}}}}, {"name": "StatefulPartitionedCall/asl_resnet50_1/resnet50_1/conv4_block5_1_bn_1/batchnorm/sub", "op": "Const", "attr": {"dtype": {"type": "DT_FLOAT"}, "value": {"tensor": {"dtype": "DT_FLOAT", "tensorShape": {"dim": [{"size": "1"}, {"size": "1"}, {"size": "1"}, {"size": "256"}]}}}}}, {"name": "StatefulPartitionedCall/asl_resnet50_1/resnet50_1/conv4_block5_2_conv_1/convolution/merged_input", "op": "Const", "attr": {"dtype": {"type": "DT_FLOAT"}, "value": {"tensor": {"dtype": "DT_FLOAT", "tensorShape": {"dim": [{"size": "3"}, {"size": "3"}, {"size": "256"}, {"size": "256"}]}}}}}, {"name": "StatefulPartitionedCall/asl_resnet50_1/resnet50_1/conv4_block5_2_bn_1/batchnorm/sub", "op": "Const", "attr": {"dtype": {"type": "DT_FLOAT"}, "value": {"tensor": {"dtype": "DT_FLOAT", "tensorShape": {"dim": [{"size": "1"}, {"size": "1"}, {"size": "1"}, {"size": "256"}]}}}}}, {"name": "StatefulPartitionedCall/asl_resnet50_1/resnet50_1/conv4_block5_3_conv_1/convolution/merged_input", "op": "Const", "attr": {"dtype": {"type": "DT_FLOAT"}, "value": {"tensor": {"dtype": "DT_FLOAT", "tensorShape": {"dim": [{"size": "1"}, {"size": "1"}, {"size": "256"}, {"size": "1024"}]}}}}}, {"name": "StatefulPartitionedCall/asl_resnet50_1/resnet50_1/conv4_block5_3_bn_1/batchnorm/sub", "op": "Const", "attr": {"dtype": {"type": "DT_FLOAT"}, "value": {"tensor": {"dtype": "DT_FLOAT", "tensorShape": {"dim": [{"size": "1"}, {"size": "1"}, {"size": "1"}, {"size": "1024"}]}}}}}, {"name": "StatefulPartitionedCall/asl_resnet50_1/resnet50_1/conv4_block6_1_conv_1/convolution/merged_input", "op": "Const", "attr": {"dtype": {"type": "DT_FLOAT"}, "value": {"tensor": {"dtype": "DT_FLOAT", "tensorShape": {"dim": [{"size": "1"}, {"size": "1"}, {"size": "1024"}, {"size": "256"}]}}}}}, {"name": "StatefulPartitionedCall/asl_resnet50_1/resnet50_1/conv4_block6_1_bn_1/batchnorm/sub", "op": "Const", "attr": {"dtype": {"type": "DT_FLOAT"}, "value": {"tensor": {"dtype": "DT_FLOAT", "tensorShape": {"dim": [{"size": "1"}, {"size": "1"}, {"size": "1"}, {"size": "256"}]}}}}}, {"name": "StatefulPartitionedCall/asl_resnet50_1/resnet50_1/conv4_block6_2_conv_1/convolution/merged_input", "op": "Const", "attr": {"dtype": {"type": "DT_FLOAT"}, "value": {"tensor": {"dtype": "DT_FLOAT", "tensorShape": {"dim": [{"size": "3"}, {"size": "3"}, {"size": "256"}, {"size": "256"}]}}}}}, {"name": "StatefulPartitionedCall/asl_resnet50_1/resnet50_1/conv4_block6_2_bn_1/batchnorm/sub", "op": "Const", "attr": {"dtype": {"type": "DT_FLOAT"}, "value": {"tensor": {"dtype": "DT_FLOAT", "tensorShape": {"dim": [{"size": "1"}, {"size": "1"}, {"size": "1"}, {"size": "256"}]}}}}}, {"name": "StatefulPartitionedCall/asl_resnet50_1/resnet50_1/conv4_block6_3_conv_1/convolution/merged_input", "op": "Const", "attr": {"dtype": {"type": "DT_FLOAT"}, "value": {"tensor": {"dtype": "DT_FLOAT", "tensorShape": {"dim": [{"size": "1"}, {"size": "1"}, {"size": "256"}, {"size": "1024"}]}}}}}, {"name": "StatefulPartitionedCall/asl_resnet50_1/resnet50_1/conv4_block6_3_bn_1/batchnorm/sub", "op": "Const", "attr": {"dtype": {"type": "DT_FLOAT"}, "value": {"tensor": {"dtype": "DT_FLOAT", "tensorShape": {"dim": [{"size": "1"}, {"size": "1"}, {"size": "1"}, {"size": "1024"}]}}}}}, {"name": "StatefulPartitionedCall/asl_resnet50_1/resnet50_1/conv5_block1_1_conv_1/convolution/ReadVariableOp", "op": "Const", "attr": {"dtype": {"type": "DT_FLOAT"}, "value": {"tensor": {"dtype": "DT_FLOAT", "tensorShape": {"dim": [{"size": "1"}, {"size": "1"}, {"size": "1024"}, {"size": "512"}]}}}}}, {"name": "StatefulPartitionedCall/asl_resnet50_1/resnet50_1/conv5_block1_1_conv_1/Squeeze", "op": "Const", "attr": {"dtype": {"type": "DT_FLOAT"}, "value": {"tensor": {"dtype": "DT_FLOAT", "tensorShape": {"dim": [{"size": "512"}]}}}}}, {"name": "StatefulPartitionedCall/asl_resnet50_1/resnet50_1/conv5_block1_1_bn_1/batchnorm/mul", "op": "Const", "attr": {"dtype": {"type": "DT_FLOAT"}, "value": {"tensor": {"dtype": "DT_FLOAT", "tensorShape": {"dim": [{"size": "1"}, {"size": "1"}, {"size": "1"}, {"size": "512"}]}}}}}, {"name": "StatefulPartitionedCall/asl_resnet50_1/resnet50_1/conv5_block1_1_bn_1/batchnorm/sub", "op": "Const", "attr": {"dtype": {"type": "DT_FLOAT"}, "value": {"tensor": {"dtype": "DT_FLOAT", "tensorShape": {"dim": [{"size": "1"}, {"size": "1"}, {"size": "1"}, {"size": "512"}]}}}}}, {"name": "StatefulPartitionedCall/asl_resnet50_1/resnet50_1/conv5_block1_2_conv_1/convolution/ReadVariableOp", "op": "Const", "attr": {"dtype": {"type": "DT_FLOAT"}, "value": {"tensor": {"dtype": "DT_FLOAT", "tensorShape": {"dim": [{"size": "3"}, {"size": "3"}, {"size": "512"}, {"size": "512"}]}}}}}, {"name": "StatefulPartitionedCall/asl_resnet50_1/resnet50_1/conv5_block1_2_conv_1/Squeeze", "op": "Const", "attr": {"dtype": {"type": "DT_FLOAT"}, "value": {"tensor": {"dtype": "DT_FLOAT", "tensorShape": {"dim": [{"size": "512"}]}}}}}, {"name": "StatefulPartitionedCall/asl_resnet50_1/resnet50_1/conv5_block1_2_bn_1/batchnorm/mul", "op": "Const", "attr": {"dtype": {"type": "DT_FLOAT"}, "value": {"tensor": {"dtype": "DT_FLOAT", "tensorShape": {"dim": [{"size": "1"}, {"size": "1"}, {"size": "1"}, {"size": "512"}]}}}}}, {"name": "StatefulPartitionedCall/asl_resnet50_1/resnet50_1/conv5_block1_2_bn_1/batchnorm/sub", "op": "Const", "attr": {"dtype": {"type": "DT_FLOAT"}, "value": {"tensor": {"dtype": "DT_FLOAT", "tensorShape": {"dim": [{"size": "1"}, {"size": "1"}, {"size": "1"}, {"size": "512"}]}}}}}, {"name": "StatefulPartitionedCall/asl_resnet50_1/resnet50_1/conv5_block1_3_conv_1/convolution/ReadVariableOp", "op": "Const", "attr": {"dtype": {"type": "DT_FLOAT"}, "value": {"tensor": {"dtype": "DT_FLOAT", "tensorShape": {"dim": [{"size": "1"}, {"size": "1"}, {"size": "512"}, {"size": "2048"}]}}}}}, {"name": "StatefulPartitionedCall/asl_resnet50_1/resnet50_1/conv5_block1_3_conv_1/Squeeze", "op": "Const", "attr": {"dtype": {"type": "DT_FLOAT"}, "value": {"tensor": {"dtype": "DT_FLOAT", "tensorShape": {"dim": [{"size": "2048"}]}}}}}, {"name": "StatefulPartitionedCall/asl_resnet50_1/resnet50_1/conv5_block1_3_bn_1/batchnorm/mul", "op": "Const", "attr": {"dtype": {"type": "DT_FLOAT"}, "value": {"tensor": {"dtype": "DT_FLOAT", "tensorShape": {"dim": [{"size": "1"}, {"size": "1"}, {"size": "1"}, {"size": "2048"}]}}}}}, {"name": "StatefulPartitionedCall/asl_resnet50_1/resnet50_1/conv5_block1_3_bn_1/batchnorm/sub", "op": "Const", "attr": {"dtype": {"type": "DT_FLOAT"}, "value": {"tensor": {"dtype": "DT_FLOAT", "tensorShape": {"dim": [{"size": "1"}, {"size": "1"}, {"size": "1"}, {"size": "2048"}]}}}}}, {"name": "StatefulPartitionedCall/asl_resnet50_1/resnet50_1/conv5_block2_1_conv_1/convolution/ReadVariableOp", "op": "Const", "attr": {"dtype": {"type": "DT_FLOAT"}, "value": {"tensor": {"dtype": "DT_FLOAT", "tensorShape": {"dim": [{"size": "1"}, {"size": "1"}, {"size": "2048"}, {"size": "512"}]}}}}}, {"name": "StatefulPartitionedCall/asl_resnet50_1/resnet50_1/conv5_block2_1_conv_1/Squeeze", "op": "Const", "attr": {"dtype": {"type": "DT_FLOAT"}, "value": {"tensor": {"dtype": "DT_FLOAT", "tensorShape": {"dim": [{"size": "512"}]}}}}}, {"name": "StatefulPartitionedCall/asl_resnet50_1/resnet50_1/conv5_block2_1_bn_1/batchnorm/mul", "op": "Const", "attr": {"dtype": {"type": "DT_FLOAT"}, "value": {"tensor": {"dtype": "DT_FLOAT", "tensorShape": {"dim": [{"size": "1"}, {"size": "1"}, {"size": "1"}, {"size": "512"}]}}}}}, {"name": "StatefulPartitionedCall/asl_resnet50_1/resnet50_1/conv5_block2_1_bn_1/batchnorm/sub", "op": "Const", "attr": {"dtype": {"type": "DT_FLOAT"}, "value": {"tensor": {"dtype": "DT_FLOAT", "tensorShape": {"dim": [{"size": "1"}, {"size": "1"}, {"size": "1"}, {"size": "512"}]}}}}}, {"name": "StatefulPartitionedCall/asl_resnet50_1/resnet50_1/conv5_block2_2_conv_1/convolution/ReadVariableOp", "op": "Const", "attr": {"dtype": {"type": "DT_FLOAT"}, "value": {"tensor": {"dtype": "DT_FLOAT", "tensorShape": {"dim": [{"size": "3"}, {"size": "3"}, {"size": "512"}, {"size": "512"}]}}}}}, {"name": "StatefulPartitionedCall/asl_resnet50_1/resnet50_1/conv5_block2_2_conv_1/Squeeze", "op": "Const", "attr": {"dtype": {"type": "DT_FLOAT"}, "value": {"tensor": {"dtype": "DT_FLOAT", "tensorShape": {"dim": [{"size": "512"}]}}}}}, {"name": "StatefulPartitionedCall/asl_resnet50_1/resnet50_1/conv5_block2_2_bn_1/batchnorm/mul", "op": "Const", "attr": {"dtype": {"type": "DT_FLOAT"}, "value": {"tensor": {"dtype": "DT_FLOAT", "tensorShape": {"dim": [{"size": "1"}, {"size": "1"}, {"size": "1"}, {"size": "512"}]}}}}}, {"name": "StatefulPartitionedCall/asl_resnet50_1/resnet50_1/conv5_block2_2_bn_1/batchnorm/sub", "op": "Const", "attr": {"dtype": {"type": "DT_FLOAT"}, "value": {"tensor": {"dtype": "DT_FLOAT", "tensorShape": {"dim": [{"size": "1"}, {"size": "1"}, {"size": "1"}, {"size": "512"}]}}}}}, {"name": "StatefulPartitionedCall/asl_resnet50_1/resnet50_1/conv5_block2_3_conv_1/convolution/ReadVariableOp", "op": "Const", "attr": {"dtype": {"type": "DT_FLOAT"}, "value": {"tensor": {"dtype": "DT_FLOAT", "tensorShape": {"dim": [{"size": "1"}, {"size": "1"}, {"size": "512"}, {"size": "2048"}]}}}}}, {"name": "StatefulPartitionedCall/asl_resnet50_1/resnet50_1/conv5_block2_3_conv_1/Squeeze", "op": "Const", "attr": {"dtype": {"type": "DT_FLOAT"}, "value": {"tensor": {"dtype": "DT_FLOAT", "tensorShape": {"dim": [{"size": "2048"}]}}}}}, {"name": "StatefulPartitionedCall/asl_resnet50_1/resnet50_1/conv5_block2_3_bn_1/batchnorm/mul", "op": "Const", "attr": {"dtype": {"type": "DT_FLOAT"}, "value": {"tensor": {"dtype": "DT_FLOAT", "tensorShape": {"dim": [{"size": "1"}, {"size": "1"}, {"size": "1"}, {"size": "2048"}]}}}}}, {"name": "StatefulPartitionedCall/asl_resnet50_1/resnet50_1/conv5_block2_3_bn_1/batchnorm/sub", "op": "Const", "attr": {"dtype": {"type": "DT_FLOAT"}, "value": {"tensor": {"dtype": "DT_FLOAT", "tensorShape": {"dim": [{"size": "1"}, {"size": "1"}, {"size": "1"}, {"size": "2048"}]}}}}}, {"name": "StatefulPartitionedCall/asl_resnet50_1/resnet50_1/conv5_block3_1_conv_1/convolution/ReadVariableOp", "op": "Const", "attr": {"dtype": {"type": "DT_FLOAT"}, "value": {"tensor": {"dtype": "DT_FLOAT", "tensorShape": {"dim": [{"size": "1"}, {"size": "1"}, {"size": "2048"}, {"size": "512"}]}}}}}, {"name": "StatefulPartitionedCall/asl_resnet50_1/resnet50_1/conv5_block3_1_conv_1/Squeeze", "op": "Const", "attr": {"dtype": {"type": "DT_FLOAT"}, "value": {"tensor": {"dtype": "DT_FLOAT", "tensorShape": {"dim": [{"size": "512"}]}}}}}, {"name": "StatefulPartitionedCall/asl_resnet50_1/resnet50_1/conv5_block3_1_bn_1/batchnorm/mul", "op": "Const", "attr": {"dtype": {"type": "DT_FLOAT"}, "value": {"tensor": {"dtype": "DT_FLOAT", "tensorShape": {"dim": [{"size": "1"}, {"size": "1"}, {"size": "1"}, {"size": "512"}]}}}}}, {"name": "StatefulPartitionedCall/asl_resnet50_1/resnet50_1/conv5_block3_1_bn_1/batchnorm/sub", "op": "Const", "attr": {"dtype": {"type": "DT_FLOAT"}, "value": {"tensor": {"dtype": "DT_FLOAT", "tensorShape": {"dim": [{"size": "1"}, {"size": "1"}, {"size": "1"}, {"size": "512"}]}}}}}, {"name": "StatefulPartitionedCall/asl_resnet50_1/resnet50_1/conv5_block3_2_conv_1/convolution/ReadVariableOp", "op": "Const", "attr": {"dtype": {"type": "DT_FLOAT"}, "value": {"tensor": {"dtype": "DT_FLOAT", "tensorShape": {"dim": [{"size": "3"}, {"size": "3"}, {"size": "512"}, {"size": "512"}]}}}}}, {"name": "StatefulPartitionedCall/asl_resnet50_1/resnet50_1/conv5_block3_2_conv_1/Squeeze", "op": "Const", "attr": {"dtype": {"type": "DT_FLOAT"}, "value": {"tensor": {"dtype": "DT_FLOAT", "tensorShape": {"dim": [{"size": "512"}]}}}}}, {"name": "StatefulPartitionedCall/asl_resnet50_1/resnet50_1/conv5_block3_2_bn_1/batchnorm/mul", "op": "Const", "attr": {"dtype": {"type": "DT_FLOAT"}, "value": {"tensor": {"dtype": "DT_FLOAT", "tensorShape": {"dim": [{"size": "1"}, {"size": "1"}, {"size": "1"}, {"size": "512"}]}}}}}, {"name": "StatefulPartitionedCall/asl_resnet50_1/resnet50_1/conv5_block3_2_bn_1/batchnorm/sub", "op": "Const", "attr": {"dtype": {"type": "DT_FLOAT"}, "value": {"tensor": {"dtype": "DT_FLOAT", "tensorShape": {"dim": [{"size": "1"}, {"size": "1"}, {"size": "1"}, {"size": "512"}]}}}}}, {"name": "StatefulPartitionedCall/asl_resnet50_1/resnet50_1/conv5_block3_3_conv_1/convolution/ReadVariableOp", "op": "Const", "attr": {"dtype": {"type": "DT_FLOAT"}, "value": {"tensor": {"dtype": "DT_FLOAT", "tensorShape": {"dim": [{"size": "1"}, {"size": "1"}, {"size": "512"}, {"size": "2048"}]}}}}}, {"name": "StatefulPartitionedCall/asl_resnet50_1/resnet50_1/conv5_block3_3_conv_1/Squeeze", "op": "Const", "attr": {"dtype": {"type": "DT_FLOAT"}, "value": {"tensor": {"dtype": "DT_FLOAT", "tensorShape": {"dim": [{"size": "2048"}]}}}}}, {"name": "StatefulPartitionedCall/asl_resnet50_1/resnet50_1/conv5_block3_3_bn_1/batchnorm/mul", "op": "Const", "attr": {"dtype": {"type": "DT_FLOAT"}, "value": {"tensor": {"dtype": "DT_FLOAT", "tensorShape": {"dim": [{"size": "1"}, {"size": "1"}, {"size": "1"}, {"size": "2048"}]}}}}}, {"name": "StatefulPartitionedCall/asl_resnet50_1/resnet50_1/conv5_block3_3_bn_1/batchnorm/sub", "op": "Const", "attr": {"dtype": {"type": "DT_FLOAT"}, "value": {"tensor": {"dtype": "DT_FLOAT", "tensorShape": {"dim": [{"size": "1"}, {"size": "1"}, {"size": "1"}, {"size": "2048"}]}}}}}, {"name": "StatefulPartitionedCall/asl_resnet50_1/global_average_pooling2d_1/Mean/reduction_indices", "op": "Const", "attr": {"dtype": {"type": "DT_INT32"}, "value": {"tensor": {"dtype": "DT_INT32", "tensorShape": {"dim": [{"size": "2"}]}}}}}, {"name": "StatefulPartitionedCall/asl_resnet50_1/dense_1/Cast/ReadVariableOp", "op": "Const", "attr": {"dtype": {"type": "DT_FLOAT"}, "value": {"tensor": {"dtype": "DT_FLOAT", "tensorShape": {"dim": [{"size": "2048"}, {"size": "128"}]}}}}}, {"name": "StatefulPartitionedCall/asl_resnet50_1/dense_1/BiasAdd/ReadVariableOp", "op": "Const", "attr": {"dtype": {"type": "DT_FLOAT"}, "value": {"tensor": {"dtype": "DT_FLOAT", "tensorShape": {"dim": [{"size": "128"}]}}}}}, {"name": "StatefulPartitionedCall/asl_resnet50_1/dense_1_2/Cast/ReadVariableOp", "op": "Const", "attr": {"dtype": {"type": "DT_FLOAT"}, "value": {"tensor": {"dtype": "DT_FLOAT", "tensorShape": {"dim": [{"size": "128"}, {"size": "29"}]}}}}}, {"name": "StatefulPartitionedCall/asl_resnet50_1/dense_1_2/BiasAdd/ReadVariableOp", "op": "Const", "attr": {"dtype": {"type": "DT_FLOAT"}, "value": {"tensor": {"dtype": "DT_FLOAT", "tensorShape": {"dim": [{"size": "29"}]}}}}}, {"name": "inputs", "op": "Placeholder", "attr": {"dtype": {"type": "DT_FLOAT"}, "shape": {"shape": {"dim": [{"size": "-1"}, {"size": "96"}, {"size": "96"}, {"size": "3"}]}}}}, {"name": "StatefulPartitionedCall/asl_resnet50_1/resnet50_1/conv1_pad_1/Pad", "op": "Pad", "input": ["inputs", "StatefulPartitionedCall/asl_resnet50_1/resnet50_1/conv1_pad_1/Const"], "attr": {"T": {"type": "DT_FLOAT"}, "Tpaddings": {"type": "DT_INT32"}}}, {"name": "StatefulPartitionedCall/asl_resnet50_1/resnet50_1/conv1_conv_1/BiasAdd", "op": "_FusedConv2D", "input": ["StatefulPartitionedCall/asl_resnet50_1/resnet50_1/conv1_pad_1/Pad", "StatefulPartitionedCall/asl_resnet50_1/resnet50_1/conv1_conv_1/convolution/ReadVariableOp", "StatefulPartitionedCall/asl_resnet50_1/resnet50_1/conv1_conv_1/Squeeze"], "device": "/device:CPU:0", "attr": {"num_host_args": {"i": "0"}, "use_cudnn_on_gpu": {"b": true}, "num_args": {"i": "1"}, "filter_format": {"s": "SFdJTw=="}, "padding": {"s": "VkFMSUQ="}, "data_format": {"s": "TkhXQw=="}, "strides": {"list": {"i": ["1", "2", "2", "1"]}}, "dilations": {"list": {"i": ["1", "1", "1", "1"]}}, "leakyrelu_alpha": {"f": 0.2}, "fused_ops": {"list": {"s": ["Qmlhc0FkZA=="]}}, "epsilon": {"f": 0.0}, "explicit_paddings": {"list": {}}, "T": {"type": "DT_FLOAT"}, "TArgs": {"list": {"type": ["DT_FLOAT"]}}}}, {"name": "StatefulPartitionedCall/asl_resnet50_1/resnet50_1/conv1_bn_1/batchnorm/mul_1", "op": "Mul", "input": ["StatefulPartitionedCall/asl_resnet50_1/resnet50_1/conv1_conv_1/BiasAdd", "StatefulPartitionedCall/asl_resnet50_1/resnet50_1/conv1_bn_1/batchnorm/mul"], "attr": {"T": {"type": "DT_FLOAT"}}}, {"name": "StatefulPartitionedCall/asl_resnet50_1/resnet50_1/conv1_bn_1/batchnorm/add_1", "op": "AddV2", "input": ["StatefulPartitionedCall/asl_resnet50_1/resnet50_1/conv1_bn_1/batchnorm/mul_1", "StatefulPartitionedCall/asl_resnet50_1/resnet50_1/conv1_bn_1/batchnorm/sub"], "attr": {"T": {"type": "DT_FLOAT"}}}, {"name": "StatefulPartitionedCall/asl_resnet50_1/resnet50_1/conv1_relu_1/Relu", "op": "Relu", "input": ["StatefulPartitionedCall/asl_resnet50_1/resnet50_1/conv1_bn_1/batchnorm/add_1"], "attr": {"T": {"type": "DT_FLOAT"}}}, {"name": "StatefulPartitionedCall/asl_resnet50_1/resnet50_1/pool1_pad_1/Pad", "op": "Pad", "input": ["StatefulPartitionedCall/asl_resnet50_1/resnet50_1/conv1_relu_1/Relu", "StatefulPartitionedCall/asl_resnet50_1/resnet50_1/pool1_pad_1/Const"], "attr": {"T": {"type": "DT_FLOAT"}, "Tpaddings": {"type": "DT_INT32"}}}, {"name": "StatefulPartitionedCall/asl_resnet50_1/resnet50_1/pool1_pool_1/MaxPool2d", "op": "MaxPool", "input": ["StatefulPartitionedCall/asl_resnet50_1/resnet50_1/pool1_pad_1/Pad"], "attr": {"padding": {"s": "VkFMSUQ="}, "explicit_paddings": {"list": {}}, "ksize": {"list": {"i": ["1", "3", "3", "1"]}}, "T": {"type": "DT_FLOAT"}, "data_format": {"s": "TkhXQw=="}, "strides": {"list": {"i": ["1", "2", "2", "1"]}}}}, {"name": "StatefulPartitionedCall/asl_resnet50_1/resnet50_1/conv2_block1_0_bn_1/batchnorm/add_1", "op": "_FusedConv2D", "input": ["StatefulPartitionedCall/asl_resnet50_1/resnet50_1/pool1_pool_1/MaxPool2d", "StatefulPartitionedCall/asl_resnet50_1/resnet50_1/conv2_block1_0_conv_1/convolution/merged_input", "StatefulPartitionedCall/asl_resnet50_1/resnet50_1/conv2_block1_0_bn_1/batchnorm/sub"], "device": "/device:CPU:0", "attr": {"num_host_args": {"i": "0"}, "use_cudnn_on_gpu": {"b": true}, "num_args": {"i": "1"}, "filter_format": {"s": "SFdJTw=="}, "padding": {"s": "VkFMSUQ="}, "data_format": {"s": "TkhXQw=="}, "strides": {"list": {"i": ["1", "1", "1", "1"]}}, "dilations": {"list": {"i": ["1", "1", "1", "1"]}}, "leakyrelu_alpha": {"f": 0.2}, "fused_ops": {"list": {"s": ["Qmlhc0FkZA=="]}}, "epsilon": {"f": 0.0}, "explicit_paddings": {"list": {}}, "T": {"type": "DT_FLOAT"}, "TArgs": {"list": {"type": ["DT_FLOAT"]}}}}, {"name": "StatefulPartitionedCall/asl_resnet50_1/resnet50_1/conv2_block1_1_relu_1/Relu", "op": "_FusedConv2D", "input": ["StatefulPartitionedCall/asl_resnet50_1/resnet50_1/pool1_pool_1/MaxPool2d", "StatefulPartitionedCall/asl_resnet50_1/resnet50_1/conv2_block1_1_conv_1/convolution/merged_input", "StatefulPartitionedCall/asl_resnet50_1/resnet50_1/conv2_block1_1_bn_1/batchnorm/sub"], "device": "/device:CPU:0", "attr": {"num_host_args": {"i": "0"}, "use_cudnn_on_gpu": {"b": true}, "num_args": {"i": "1"}, "filter_format": {"s": "SFdJTw=="}, "T": {"type": "DT_FLOAT"}, "data_format": {"s": "TkhXQw=="}, "strides": {"list": {"i": ["1", "1", "1", "1"]}}, "dilations": {"list": {"i": ["1", "1", "1", "1"]}}, "leakyrelu_alpha": {"f": 0.2}, "fused_ops": {"list": {"s": ["Qmlhc0FkZA==", "UmVsdQ=="]}}, "epsilon": {"f": 0.0}, "explicit_paddings": {"list": {}}, "TArgs": {"list": {"type": ["DT_FLOAT"]}}, "padding": {"s": "VkFMSUQ="}}}, {"name": "StatefulPartitionedCall/asl_resnet50_1/resnet50_1/conv2_block1_2_relu_1/Relu", "op": "_FusedConv2D", "input": ["StatefulPartitionedCall/asl_resnet50_1/resnet50_1/conv2_block1_1_relu_1/Relu", "StatefulPartitionedCall/asl_resnet50_1/resnet50_1/conv2_block1_2_conv_1/convolution/merged_input", "StatefulPartitionedCall/asl_resnet50_1/resnet50_1/conv2_block1_2_bn_1/batchnorm/sub"], "device": "/device:CPU:0", "attr": {"num_host_args": {"i": "0"}, "use_cudnn_on_gpu": {"b": true}, "num_args": {"i": "1"}, "filter_format": {"s": "SFdJTw=="}, "TArgs": {"list": {"type": ["DT_FLOAT"]}}, "data_format": {"s": "TkhXQw=="}, "strides": {"list": {"i": ["1", "1", "1", "1"]}}, "dilations": {"list": {"i": ["1", "1", "1", "1"]}}, "leakyrelu_alpha": {"f": 0.2}, "fused_ops": {"list": {"s": ["Qmlhc0FkZA==", "UmVsdQ=="]}}, "epsilon": {"f": 0.0}, "explicit_paddings": {"list": {}}, "T": {"type": "DT_FLOAT"}, "padding": {"s": "U0FNRQ=="}}}, {"name": "StatefulPartitionedCall/asl_resnet50_1/resnet50_1/conv2_block1_3_bn_1/batchnorm/add_1", "op": "_FusedConv2D", "input": ["StatefulPartitionedCall/asl_resnet50_1/resnet50_1/conv2_block1_2_relu_1/Relu", "StatefulPartitionedCall/asl_resnet50_1/resnet50_1/conv2_block1_3_conv_1/convolution/merged_input", "StatefulPartitionedCall/asl_resnet50_1/resnet50_1/conv2_block1_3_bn_1/batchnorm/sub"], "device": "/device:CPU:0", "attr": {"num_host_args": {"i": "0"}, "use_cudnn_on_gpu": {"b": true}, "num_args": {"i": "1"}, "filter_format": {"s": "SFdJTw=="}, "T": {"type": "DT_FLOAT"}, "data_format": {"s": "TkhXQw=="}, "strides": {"list": {"i": ["1", "1", "1", "1"]}}, "dilations": {"list": {"i": ["1", "1", "1", "1"]}}, "leakyrelu_alpha": {"f": 0.2}, "fused_ops": {"list": {"s": ["Qmlhc0FkZA=="]}}, "epsilon": {"f": 0.0}, "explicit_paddings": {"list": {}}, "padding": {"s": "VkFMSUQ="}, "TArgs": {"list": {"type": ["DT_FLOAT"]}}}}, {"name": "StatefulPartitionedCall/asl_resnet50_1/resnet50_1/conv2_block1_add_1/Add", "op": "AddV2", "input": ["StatefulPartitionedCall/asl_resnet50_1/resnet50_1/conv2_block1_0_bn_1/batchnorm/add_1", "StatefulPartitionedCall/asl_resnet50_1/resnet50_1/conv2_block1_3_bn_1/batchnorm/add_1"], "attr": {"T": {"type": "DT_FLOAT"}}}, {"name": "StatefulPartitionedCall/asl_resnet50_1/resnet50_1/conv2_block1_out_1/Relu", "op": "Relu", "input": ["StatefulPartitionedCall/asl_resnet50_1/resnet50_1/conv2_block1_add_1/Add"], "attr": {"T": {"type": "DT_FLOAT"}}}, {"name": "StatefulPartitionedCall/asl_resnet50_1/resnet50_1/conv2_block2_1_relu_1/Relu", "op": "_FusedConv2D", "input": ["StatefulPartitionedCall/asl_resnet50_1/resnet50_1/conv2_block1_out_1/Relu", "StatefulPartitionedCall/asl_resnet50_1/resnet50_1/conv2_block2_1_conv_1/convolution/merged_input", "StatefulPartitionedCall/asl_resnet50_1/resnet50_1/conv2_block2_1_bn_1/batchnorm/sub"], "device": "/device:CPU:0", "attr": {"num_host_args": {"i": "0"}, "use_cudnn_on_gpu": {"b": true}, "num_args": {"i": "1"}, "filter_format": {"s": "SFdJTw=="}, "T": {"type": "DT_FLOAT"}, "data_format": {"s": "TkhXQw=="}, "strides": {"list": {"i": ["1", "1", "1", "1"]}}, "dilations": {"list": {"i": ["1", "1", "1", "1"]}}, "leakyrelu_alpha": {"f": 0.2}, "fused_ops": {"list": {"s": ["Qmlhc0FkZA==", "UmVsdQ=="]}}, "epsilon": {"f": 0.0}, "explicit_paddings": {"list": {}}, "TArgs": {"list": {"type": ["DT_FLOAT"]}}, "padding": {"s": "VkFMSUQ="}}}, {"name": "StatefulPartitionedCall/asl_resnet50_1/resnet50_1/conv2_block2_2_relu_1/Relu", "op": "_FusedConv2D", "input": ["StatefulPartitionedCall/asl_resnet50_1/resnet50_1/conv2_block2_1_relu_1/Relu", "StatefulPartitionedCall/asl_resnet50_1/resnet50_1/conv2_block2_2_conv_1/convolution/merged_input", "StatefulPartitionedCall/asl_resnet50_1/resnet50_1/conv2_block2_2_bn_1/batchnorm/sub"], "device": "/device:CPU:0", "attr": {"num_host_args": {"i": "0"}, "use_cudnn_on_gpu": {"b": true}, "num_args": {"i": "1"}, "filter_format": {"s": "SFdJTw=="}, "TArgs": {"list": {"type": ["DT_FLOAT"]}}, "data_format": {"s": "TkhXQw=="}, "dilations": {"list": {"i": ["1", "1", "1", "1"]}}, "strides": {"list": {"i": ["1", "1", "1", "1"]}}, "leakyrelu_alpha": {"f": 0.2}, "fused_ops": {"list": {"s": ["Qmlhc0FkZA==", "UmVsdQ=="]}}, "epsilon": {"f": 0.0}, "explicit_paddings": {"list": {}}, "padding": {"s": "U0FNRQ=="}, "T": {"type": "DT_FLOAT"}}}, {"name": "StatefulPartitionedCall/asl_resnet50_1/resnet50_1/conv2_block2_3_bn_1/batchnorm/add_1", "op": "_FusedConv2D", "input": ["StatefulPartitionedCall/asl_resnet50_1/resnet50_1/conv2_block2_2_relu_1/Relu", "StatefulPartitionedCall/asl_resnet50_1/resnet50_1/conv2_block2_3_conv_1/convolution/merged_input", "StatefulPartitionedCall/asl_resnet50_1/resnet50_1/conv2_block2_3_bn_1/batchnorm/sub"], "device": "/device:CPU:0", "attr": {"num_host_args": {"i": "0"}, "use_cudnn_on_gpu": {"b": true}, "num_args": {"i": "1"}, "filter_format": {"s": "SFdJTw=="}, "T": {"type": "DT_FLOAT"}, "data_format": {"s": "TkhXQw=="}, "dilations": {"list": {"i": ["1", "1", "1", "1"]}}, "strides": {"list": {"i": ["1", "1", "1", "1"]}}, "leakyrelu_alpha": {"f": 0.2}, "fused_ops": {"list": {"s": ["Qmlhc0FkZA=="]}}, "epsilon": {"f": 0.0}, "explicit_paddings": {"list": {}}, "TArgs": {"list": {"type": ["DT_FLOAT"]}}, "padding": {"s": "VkFMSUQ="}}}, {"name": "StatefulPartitionedCall/asl_resnet50_1/resnet50_1/conv2_block2_add_1/Add", "op": "AddV2", "input": ["StatefulPartitionedCall/asl_resnet50_1/resnet50_1/conv2_block1_out_1/Relu", "StatefulPartitionedCall/asl_resnet50_1/resnet50_1/conv2_block2_3_bn_1/batchnorm/add_1"], "attr": {"T": {"type": "DT_FLOAT"}}}, {"name": "StatefulPartitionedCall/asl_resnet50_1/resnet50_1/conv2_block2_out_1/Relu", "op": "Relu", "input": ["StatefulPartitionedCall/asl_resnet50_1/resnet50_1/conv2_block2_add_1/Add"], "attr": {"T": {"type": "DT_FLOAT"}}}, {"name": "StatefulPartitionedCall/asl_resnet50_1/resnet50_1/conv2_block3_1_relu_1/Relu", "op": "_FusedConv2D", "input": ["StatefulPartitionedCall/asl_resnet50_1/resnet50_1/conv2_block2_out_1/Relu", "StatefulPartitionedCall/asl_resnet50_1/resnet50_1/conv2_block3_1_conv_1/convolution/merged_input", "StatefulPartitionedCall/asl_resnet50_1/resnet50_1/conv2_block3_1_bn_1/batchnorm/sub"], "device": "/device:CPU:0", "attr": {"num_host_args": {"i": "0"}, "use_cudnn_on_gpu": {"b": true}, "num_args": {"i": "1"}, "filter_format": {"s": "SFdJTw=="}, "T": {"type": "DT_FLOAT"}, "data_format": {"s": "TkhXQw=="}, "strides": {"list": {"i": ["1", "1", "1", "1"]}}, "dilations": {"list": {"i": ["1", "1", "1", "1"]}}, "leakyrelu_alpha": {"f": 0.2}, "fused_ops": {"list": {"s": ["Qmlhc0FkZA==", "UmVsdQ=="]}}, "epsilon": {"f": 0.0}, "explicit_paddings": {"list": {}}, "TArgs": {"list": {"type": ["DT_FLOAT"]}}, "padding": {"s": "VkFMSUQ="}}}, {"name": "StatefulPartitionedCall/asl_resnet50_1/resnet50_1/conv2_block3_2_relu_1/Relu", "op": "_FusedConv2D", "input": ["StatefulPartitionedCall/asl_resnet50_1/resnet50_1/conv2_block3_1_relu_1/Relu", "StatefulPartitionedCall/asl_resnet50_1/resnet50_1/conv2_block3_2_conv_1/convolution/merged_input", "StatefulPartitionedCall/asl_resnet50_1/resnet50_1/conv2_block3_2_bn_1/batchnorm/sub"], "device": "/device:CPU:0", "attr": {"num_host_args": {"i": "0"}, "use_cudnn_on_gpu": {"b": true}, "num_args": {"i": "1"}, "filter_format": {"s": "SFdJTw=="}, "T": {"type": "DT_FLOAT"}, "data_format": {"s": "TkhXQw=="}, "strides": {"list": {"i": ["1", "1", "1", "1"]}}, "dilations": {"list": {"i": ["1", "1", "1", "1"]}}, "leakyrelu_alpha": {"f": 0.2}, "fused_ops": {"list": {"s": ["Qmlhc0FkZA==", "UmVsdQ=="]}}, "epsilon": {"f": 0.0}, "explicit_paddings": {"list": {}}, "TArgs": {"list": {"type": ["DT_FLOAT"]}}, "padding": {"s": "U0FNRQ=="}}}, {"name": "StatefulPartitionedCall/asl_resnet50_1/resnet50_1/conv2_block3_3_bn_1/batchnorm/add_1", "op": "_FusedConv2D", "input": ["StatefulPartitionedCall/asl_resnet50_1/resnet50_1/conv2_block3_2_relu_1/Relu", "StatefulPartitionedCall/asl_resnet50_1/resnet50_1/conv2_block3_3_conv_1/convolution/merged_input", "StatefulPartitionedCall/asl_resnet50_1/resnet50_1/conv2_block3_3_bn_1/batchnorm/sub"], "device": "/device:CPU:0", "attr": {"num_host_args": {"i": "0"}, "use_cudnn_on_gpu": {"b": true}, "num_args": {"i": "1"}, "filter_format": {"s": "SFdJTw=="}, "TArgs": {"list": {"type": ["DT_FLOAT"]}}, "data_format": {"s": "TkhXQw=="}, "dilations": {"list": {"i": ["1", "1", "1", "1"]}}, "strides": {"list": {"i": ["1", "1", "1", "1"]}}, "leakyrelu_alpha": {"f": 0.2}, "fused_ops": {"list": {"s": ["Qmlhc0FkZA=="]}}, "epsilon": {"f": 0.0}, "explicit_paddings": {"list": {}}, "padding": {"s": "VkFMSUQ="}, "T": {"type": "DT_FLOAT"}}}, {"name": "StatefulPartitionedCall/asl_resnet50_1/resnet50_1/conv2_block3_add_1/Add", "op": "AddV2", "input": ["StatefulPartitionedCall/asl_resnet50_1/resnet50_1/conv2_block2_out_1/Relu", "StatefulPartitionedCall/asl_resnet50_1/resnet50_1/conv2_block3_3_bn_1/batchnorm/add_1"], "attr": {"T": {"type": "DT_FLOAT"}}}, {"name": "StatefulPartitionedCall/asl_resnet50_1/resnet50_1/conv2_block3_out_1/Relu", "op": "Relu", "input": ["StatefulPartitionedCall/asl_resnet50_1/resnet50_1/conv2_block3_add_1/Add"], "attr": {"T": {"type": "DT_FLOAT"}}}, {"name": "StatefulPartitionedCall/asl_resnet50_1/resnet50_1/conv3_block1_0_bn_1/batchnorm/add_1", "op": "_FusedConv2D", "input": ["StatefulPartitionedCall/asl_resnet50_1/resnet50_1/conv2_block3_out_1/Relu", "StatefulPartitionedCall/asl_resnet50_1/resnet50_1/conv3_block1_0_conv_1/convolution/merged_input", "StatefulPartitionedCall/asl_resnet50_1/resnet50_1/conv3_block1_0_bn_1/batchnorm/sub"], "device": "/device:CPU:0", "attr": {"num_host_args": {"i": "0"}, "use_cudnn_on_gpu": {"b": true}, "num_args": {"i": "1"}, "filter_format": {"s": "SFdJTw=="}, "padding": {"s": "VkFMSUQ="}, "data_format": {"s": "TkhXQw=="}, "dilations": {"list": {"i": ["1", "1", "1", "1"]}}, "strides": {"list": {"i": ["1", "2", "2", "1"]}}, "leakyrelu_alpha": {"f": 0.2}, "fused_ops": {"list": {"s": ["Qmlhc0FkZA=="]}}, "epsilon": {"f": 0.0}, "explicit_paddings": {"list": {}}, "TArgs": {"list": {"type": ["DT_FLOAT"]}}, "T": {"type": "DT_FLOAT"}}}, {"name": "StatefulPartitionedCall/asl_resnet50_1/resnet50_1/conv3_block1_1_relu_1/Relu", "op": "_FusedConv2D", "input": ["StatefulPartitionedCall/asl_resnet50_1/resnet50_1/conv2_block3_out_1/Relu", "StatefulPartitionedCall/asl_resnet50_1/resnet50_1/conv3_block1_1_conv_1/convolution/merged_input", "StatefulPartitionedCall/asl_resnet50_1/resnet50_1/conv3_block1_1_bn_1/batchnorm/sub"], "device": "/device:CPU:0", "attr": {"num_host_args": {"i": "0"}, "use_cudnn_on_gpu": {"b": true}, "num_args": {"i": "1"}, "filter_format": {"s": "SFdJTw=="}, "TArgs": {"list": {"type": ["DT_FLOAT"]}}, "data_format": {"s": "TkhXQw=="}, "dilations": {"list": {"i": ["1", "1", "1", "1"]}}, "strides": {"list": {"i": ["1", "2", "2", "1"]}}, "leakyrelu_alpha": {"f": 0.2}, "fused_ops": {"list": {"s": ["Qmlhc0FkZA==", "UmVsdQ=="]}}, "epsilon": {"f": 0.0}, "explicit_paddings": {"list": {}}, "T": {"type": "DT_FLOAT"}, "padding": {"s": "VkFMSUQ="}}}, {"name": "StatefulPartitionedCall/asl_resnet50_1/resnet50_1/conv3_block1_2_relu_1/Relu", "op": "_FusedConv2D", "input": ["StatefulPartitionedCall/asl_resnet50_1/resnet50_1/conv3_block1_1_relu_1/Relu", "StatefulPartitionedCall/asl_resnet50_1/resnet50_1/conv3_block1_2_conv_1/convolution/merged_input", "StatefulPartitionedCall/asl_resnet50_1/resnet50_1/conv3_block1_2_bn_1/batchnorm/sub"], "device": "/device:CPU:0", "attr": {"num_host_args": {"i": "0"}, "use_cudnn_on_gpu": {"b": true}, "num_args": {"i": "1"}, "filter_format": {"s": "SFdJTw=="}, "T": {"type": "DT_FLOAT"}, "data_format": {"s": "TkhXQw=="}, "strides": {"list": {"i": ["1", "1", "1", "1"]}}, "dilations": {"list": {"i": ["1", "1", "1", "1"]}}, "leakyrelu_alpha": {"f": 0.2}, "fused_ops": {"list": {"s": ["Qmlhc0FkZA==", "UmVsdQ=="]}}, "epsilon": {"f": 0.0}, "explicit_paddings": {"list": {}}, "TArgs": {"list": {"type": ["DT_FLOAT"]}}, "padding": {"s": "U0FNRQ=="}}}, {"name": "StatefulPartitionedCall/asl_resnet50_1/resnet50_1/conv3_block1_3_bn_1/batchnorm/add_1", "op": "_FusedConv2D", "input": ["StatefulPartitionedCall/asl_resnet50_1/resnet50_1/conv3_block1_2_relu_1/Relu", "StatefulPartitionedCall/asl_resnet50_1/resnet50_1/conv3_block1_3_conv_1/convolution/merged_input", "StatefulPartitionedCall/asl_resnet50_1/resnet50_1/conv3_block1_3_bn_1/batchnorm/sub"], "device": "/device:CPU:0", "attr": {"num_host_args": {"i": "0"}, "use_cudnn_on_gpu": {"b": true}, "num_args": {"i": "1"}, "filter_format": {"s": "SFdJTw=="}, "T": {"type": "DT_FLOAT"}, "data_format": {"s": "TkhXQw=="}, "dilations": {"list": {"i": ["1", "1", "1", "1"]}}, "strides": {"list": {"i": ["1", "1", "1", "1"]}}, "leakyrelu_alpha": {"f": 0.2}, "fused_ops": {"list": {"s": ["Qmlhc0FkZA=="]}}, "epsilon": {"f": 0.0}, "explicit_paddings": {"list": {}}, "padding": {"s": "VkFMSUQ="}, "TArgs": {"list": {"type": ["DT_FLOAT"]}}}}, {"name": "StatefulPartitionedCall/asl_resnet50_1/resnet50_1/conv3_block1_add_1/Add", "op": "AddV2", "input": ["StatefulPartitionedCall/asl_resnet50_1/resnet50_1/conv3_block1_0_bn_1/batchnorm/add_1", "StatefulPartitionedCall/asl_resnet50_1/resnet50_1/conv3_block1_3_bn_1/batchnorm/add_1"], "attr": {"T": {"type": "DT_FLOAT"}}}, {"name": "StatefulPartitionedCall/asl_resnet50_1/resnet50_1/conv3_block1_out_1/Relu", "op": "Relu", "input": ["StatefulPartitionedCall/asl_resnet50_1/resnet50_1/conv3_block1_add_1/Add"], "attr": {"T": {"type": "DT_FLOAT"}}}, {"name": "StatefulPartitionedCall/asl_resnet50_1/resnet50_1/conv3_block2_1_relu_1/Relu", "op": "_FusedConv2D", "input": ["StatefulPartitionedCall/asl_resnet50_1/resnet50_1/conv3_block1_out_1/Relu", "StatefulPartitionedCall/asl_resnet50_1/resnet50_1/conv3_block2_1_conv_1/convolution/merged_input", "StatefulPartitionedCall/asl_resnet50_1/resnet50_1/conv3_block2_1_bn_1/batchnorm/sub"], "device": "/device:CPU:0", "attr": {"num_host_args": {"i": "0"}, "use_cudnn_on_gpu": {"b": true}, "num_args": {"i": "1"}, "filter_format": {"s": "SFdJTw=="}, "padding": {"s": "VkFMSUQ="}, "data_format": {"s": "TkhXQw=="}, "strides": {"list": {"i": ["1", "1", "1", "1"]}}, "dilations": {"list": {"i": ["1", "1", "1", "1"]}}, "leakyrelu_alpha": {"f": 0.2}, "fused_ops": {"list": {"s": ["Qmlhc0FkZA==", "UmVsdQ=="]}}, "epsilon": {"f": 0.0}, "explicit_paddings": {"list": {}}, "T": {"type": "DT_FLOAT"}, "TArgs": {"list": {"type": ["DT_FLOAT"]}}}}, {"name": "StatefulPartitionedCall/asl_resnet50_1/resnet50_1/conv3_block2_2_relu_1/Relu", "op": "_FusedConv2D", "input": ["StatefulPartitionedCall/asl_resnet50_1/resnet50_1/conv3_block2_1_relu_1/Relu", "StatefulPartitionedCall/asl_resnet50_1/resnet50_1/conv3_block2_2_conv_1/convolution/merged_input", "StatefulPartitionedCall/asl_resnet50_1/resnet50_1/conv3_block2_2_bn_1/batchnorm/sub"], "device": "/device:CPU:0", "attr": {"num_host_args": {"i": "0"}, "use_cudnn_on_gpu": {"b": true}, "num_args": {"i": "1"}, "filter_format": {"s": "SFdJTw=="}, "padding": {"s": "U0FNRQ=="}, "data_format": {"s": "TkhXQw=="}, "dilations": {"list": {"i": ["1", "1", "1", "1"]}}, "strides": {"list": {"i": ["1", "1", "1", "1"]}}, "leakyrelu_alpha": {"f": 0.2}, "fused_ops": {"list": {"s": ["Qmlhc0FkZA==", "UmVsdQ=="]}}, "epsilon": {"f": 0.0}, "explicit_paddings": {"list": {}}, "T": {"type": "DT_FLOAT"}, "TArgs": {"list": {"type": ["DT_FLOAT"]}}}}, {"name": "StatefulPartitionedCall/asl_resnet50_1/resnet50_1/conv3_block2_3_bn_1/batchnorm/add_1", "op": "_FusedConv2D", "input": ["StatefulPartitionedCall/asl_resnet50_1/resnet50_1/conv3_block2_2_relu_1/Relu", "StatefulPartitionedCall/asl_resnet50_1/resnet50_1/conv3_block2_3_conv_1/convolution/merged_input", "StatefulPartitionedCall/asl_resnet50_1/resnet50_1/conv3_block2_3_bn_1/batchnorm/sub"], "device": "/device:CPU:0", "attr": {"num_host_args": {"i": "0"}, "use_cudnn_on_gpu": {"b": true}, "num_args": {"i": "1"}, "filter_format": {"s": "SFdJTw=="}, "padding": {"s": "VkFMSUQ="}, "data_format": {"s": "TkhXQw=="}, "dilations": {"list": {"i": ["1", "1", "1", "1"]}}, "strides": {"list": {"i": ["1", "1", "1", "1"]}}, "leakyrelu_alpha": {"f": 0.2}, "fused_ops": {"list": {"s": ["Qmlhc0FkZA=="]}}, "epsilon": {"f": 0.0}, "explicit_paddings": {"list": {}}, "TArgs": {"list": {"type": ["DT_FLOAT"]}}, "T": {"type": "DT_FLOAT"}}}, {"name": "StatefulPartitionedCall/asl_resnet50_1/resnet50_1/conv3_block2_add_1/Add", "op": "AddV2", "input": ["StatefulPartitionedCall/asl_resnet50_1/resnet50_1/conv3_block1_out_1/Relu", "StatefulPartitionedCall/asl_resnet50_1/resnet50_1/conv3_block2_3_bn_1/batchnorm/add_1"], "attr": {"T": {"type": "DT_FLOAT"}}}, {"name": "StatefulPartitionedCall/asl_resnet50_1/resnet50_1/conv3_block2_out_1/Relu", "op": "Relu", "input": ["StatefulPartitionedCall/asl_resnet50_1/resnet50_1/conv3_block2_add_1/Add"], "attr": {"T": {"type": "DT_FLOAT"}}}, {"name": "StatefulPartitionedCall/asl_resnet50_1/resnet50_1/conv3_block3_1_relu_1/Relu", "op": "_FusedConv2D", "input": ["StatefulPartitionedCall/asl_resnet50_1/resnet50_1/conv3_block2_out_1/Relu", "StatefulPartitionedCall/asl_resnet50_1/resnet50_1/conv3_block3_1_conv_1/convolution/merged_input", "StatefulPartitionedCall/asl_resnet50_1/resnet50_1/conv3_block3_1_bn_1/batchnorm/sub"], "device": "/device:CPU:0", "attr": {"num_host_args": {"i": "0"}, "use_cudnn_on_gpu": {"b": true}, "num_args": {"i": "1"}, "filter_format": {"s": "SFdJTw=="}, "TArgs": {"list": {"type": ["DT_FLOAT"]}}, "data_format": {"s": "TkhXQw=="}, "strides": {"list": {"i": ["1", "1", "1", "1"]}}, "dilations": {"list": {"i": ["1", "1", "1", "1"]}}, "leakyrelu_alpha": {"f": 0.2}, "fused_ops": {"list": {"s": ["Qmlhc0FkZA==", "UmVsdQ=="]}}, "epsilon": {"f": 0.0}, "explicit_paddings": {"list": {}}, "T": {"type": "DT_FLOAT"}, "padding": {"s": "VkFMSUQ="}}}, {"name": "StatefulPartitionedCall/asl_resnet50_1/resnet50_1/conv3_block3_2_relu_1/Relu", "op": "_FusedConv2D", "input": ["StatefulPartitionedCall/asl_resnet50_1/resnet50_1/conv3_block3_1_relu_1/Relu", "StatefulPartitionedCall/asl_resnet50_1/resnet50_1/conv3_block3_2_conv_1/convolution/merged_input", "StatefulPartitionedCall/asl_resnet50_1/resnet50_1/conv3_block3_2_bn_1/batchnorm/sub"], "device": "/device:CPU:0", "attr": {"num_host_args": {"i": "0"}, "use_cudnn_on_gpu": {"b": true}, "num_args": {"i": "1"}, "filter_format": {"s": "SFdJTw=="}, "T": {"type": "DT_FLOAT"}, "data_format": {"s": "TkhXQw=="}, "strides": {"list": {"i": ["1", "1", "1", "1"]}}, "dilations": {"list": {"i": ["1", "1", "1", "1"]}}, "leakyrelu_alpha": {"f": 0.2}, "fused_ops": {"list": {"s": ["Qmlhc0FkZA==", "UmVsdQ=="]}}, "epsilon": {"f": 0.0}, "explicit_paddings": {"list": {}}, "padding": {"s": "U0FNRQ=="}, "TArgs": {"list": {"type": ["DT_FLOAT"]}}}}, {"name": "StatefulPartitionedCall/asl_resnet50_1/resnet50_1/conv3_block3_3_bn_1/batchnorm/add_1", "op": "_FusedConv2D", "input": ["StatefulPartitionedCall/asl_resnet50_1/resnet50_1/conv3_block3_2_relu_1/Relu", "StatefulPartitionedCall/asl_resnet50_1/resnet50_1/conv3_block3_3_conv_1/convolution/merged_input", "StatefulPartitionedCall/asl_resnet50_1/resnet50_1/conv3_block3_3_bn_1/batchnorm/sub"], "device": "/device:CPU:0", "attr": {"num_host_args": {"i": "0"}, "use_cudnn_on_gpu": {"b": true}, "num_args": {"i": "1"}, "filter_format": {"s": "SFdJTw=="}, "T": {"type": "DT_FLOAT"}, "data_format": {"s": "TkhXQw=="}, "dilations": {"list": {"i": ["1", "1", "1", "1"]}}, "strides": {"list": {"i": ["1", "1", "1", "1"]}}, "leakyrelu_alpha": {"f": 0.2}, "fused_ops": {"list": {"s": ["Qmlhc0FkZA=="]}}, "epsilon": {"f": 0.0}, "explicit_paddings": {"list": {}}, "padding": {"s": "VkFMSUQ="}, "TArgs": {"list": {"type": ["DT_FLOAT"]}}}}, {"name": "StatefulPartitionedCall/asl_resnet50_1/resnet50_1/conv3_block3_add_1/Add", "op": "AddV2", "input": ["StatefulPartitionedCall/asl_resnet50_1/resnet50_1/conv3_block2_out_1/Relu", "StatefulPartitionedCall/asl_resnet50_1/resnet50_1/conv3_block3_3_bn_1/batchnorm/add_1"], "attr": {"T": {"type": "DT_FLOAT"}}}, {"name": "StatefulPartitionedCall/asl_resnet50_1/resnet50_1/conv3_block3_out_1/Relu", "op": "Relu", "input": ["StatefulPartitionedCall/asl_resnet50_1/resnet50_1/conv3_block3_add_1/Add"], "attr": {"T": {"type": "DT_FLOAT"}}}, {"name": "StatefulPartitionedCall/asl_resnet50_1/resnet50_1/conv3_block4_1_relu_1/Relu", "op": "_FusedConv2D", "input": ["StatefulPartitionedCall/asl_resnet50_1/resnet50_1/conv3_block3_out_1/Relu", "StatefulPartitionedCall/asl_resnet50_1/resnet50_1/conv3_block4_1_conv_1/convolution/merged_input", "StatefulPartitionedCall/asl_resnet50_1/resnet50_1/conv3_block4_1_bn_1/batchnorm/sub"], "device": "/device:CPU:0", "attr": {"num_host_args": {"i": "0"}, "use_cudnn_on_gpu": {"b": true}, "num_args": {"i": "1"}, "filter_format": {"s": "SFdJTw=="}, "padding": {"s": "VkFMSUQ="}, "data_format": {"s": "TkhXQw=="}, "strides": {"list": {"i": ["1", "1", "1", "1"]}}, "dilations": {"list": {"i": ["1", "1", "1", "1"]}}, "leakyrelu_alpha": {"f": 0.2}, "fused_ops": {"list": {"s": ["Qmlhc0FkZA==", "UmVsdQ=="]}}, "epsilon": {"f": 0.0}, "explicit_paddings": {"list": {}}, "T": {"type": "DT_FLOAT"}, "TArgs": {"list": {"type": ["DT_FLOAT"]}}}}, {"name": "StatefulPartitionedCall/asl_resnet50_1/resnet50_1/conv3_block4_2_relu_1/Relu", "op": "_FusedConv2D", "input": ["StatefulPartitionedCall/asl_resnet50_1/resnet50_1/conv3_block4_1_relu_1/Relu", "StatefulPartitionedCall/asl_resnet50_1/resnet50_1/conv3_block4_2_conv_1/convolution/merged_input", "StatefulPartitionedCall/asl_resnet50_1/resnet50_1/conv3_block4_2_bn_1/batchnorm/sub"], "device": "/device:CPU:0", "attr": {"num_host_args": {"i": "0"}, "use_cudnn_on_gpu": {"b": true}, "num_args": {"i": "1"}, "filter_format": {"s": "SFdJTw=="}, "TArgs": {"list": {"type": ["DT_FLOAT"]}}, "data_format": {"s": "TkhXQw=="}, "strides": {"list": {"i": ["1", "1", "1", "1"]}}, "dilations": {"list": {"i": ["1", "1", "1", "1"]}}, "leakyrelu_alpha": {"f": 0.2}, "fused_ops": {"list": {"s": ["Qmlhc0FkZA==", "UmVsdQ=="]}}, "epsilon": {"f": 0.0}, "explicit_paddings": {"list": {}}, "T": {"type": "DT_FLOAT"}, "padding": {"s": "U0FNRQ=="}}}, {"name": "StatefulPartitionedCall/asl_resnet50_1/resnet50_1/conv3_block4_3_bn_1/batchnorm/add_1", "op": "_FusedConv2D", "input": ["StatefulPartitionedCall/asl_resnet50_1/resnet50_1/conv3_block4_2_relu_1/Relu", "StatefulPartitionedCall/asl_resnet50_1/resnet50_1/conv3_block4_3_conv_1/convolution/merged_input", "StatefulPartitionedCall/asl_resnet50_1/resnet50_1/conv3_block4_3_bn_1/batchnorm/sub"], "device": "/device:CPU:0", "attr": {"num_host_args": {"i": "0"}, "use_cudnn_on_gpu": {"b": true}, "num_args": {"i": "1"}, "filter_format": {"s": "SFdJTw=="}, "TArgs": {"list": {"type": ["DT_FLOAT"]}}, "data_format": {"s": "TkhXQw=="}, "strides": {"list": {"i": ["1", "1", "1", "1"]}}, "dilations": {"list": {"i": ["1", "1", "1", "1"]}}, "leakyrelu_alpha": {"f": 0.2}, "fused_ops": {"list": {"s": ["Qmlhc0FkZA=="]}}, "epsilon": {"f": 0.0}, "explicit_paddings": {"list": {}}, "T": {"type": "DT_FLOAT"}, "padding": {"s": "VkFMSUQ="}}}, {"name": "StatefulPartitionedCall/asl_resnet50_1/resnet50_1/conv3_block4_add_1/Add", "op": "AddV2", "input": ["StatefulPartitionedCall/asl_resnet50_1/resnet50_1/conv3_block3_out_1/Relu", "StatefulPartitionedCall/asl_resnet50_1/resnet50_1/conv3_block4_3_bn_1/batchnorm/add_1"], "attr": {"T": {"type": "DT_FLOAT"}}}, {"name": "StatefulPartitionedCall/asl_resnet50_1/resnet50_1/conv3_block4_out_1/Relu", "op": "Relu", "input": ["StatefulPartitionedCall/asl_resnet50_1/resnet50_1/conv3_block4_add_1/Add"], "attr": {"T": {"type": "DT_FLOAT"}}}, {"name": "StatefulPartitionedCall/asl_resnet50_1/resnet50_1/conv4_block1_0_bn_1/batchnorm/add_1", "op": "_FusedConv2D", "input": ["StatefulPartitionedCall/asl_resnet50_1/resnet50_1/conv3_block4_out_1/Relu", "StatefulPartitionedCall/asl_resnet50_1/resnet50_1/conv4_block1_0_conv_1/convolution/merged_input", "StatefulPartitionedCall/asl_resnet50_1/resnet50_1/conv4_block1_0_bn_1/batchnorm/sub"], "device": "/device:CPU:0", "attr": {"num_host_args": {"i": "0"}, "use_cudnn_on_gpu": {"b": true}, "num_args": {"i": "1"}, "filter_format": {"s": "SFdJTw=="}, "TArgs": {"list": {"type": ["DT_FLOAT"]}}, "data_format": {"s": "TkhXQw=="}, "strides": {"list": {"i": ["1", "2", "2", "1"]}}, "dilations": {"list": {"i": ["1", "1", "1", "1"]}}, "leakyrelu_alpha": {"f": 0.2}, "fused_ops": {"list": {"s": ["Qmlhc0FkZA=="]}}, "epsilon": {"f": 0.0}, "explicit_paddings": {"list": {}}, "T": {"type": "DT_FLOAT"}, "padding": {"s": "VkFMSUQ="}}}, {"name": "StatefulPartitionedCall/asl_resnet50_1/resnet50_1/conv4_block1_1_relu_1/Relu", "op": "_FusedConv2D", "input": ["StatefulPartitionedCall/asl_resnet50_1/resnet50_1/conv3_block4_out_1/Relu", "StatefulPartitionedCall/asl_resnet50_1/resnet50_1/conv4_block1_1_conv_1/convolution/merged_input", "StatefulPartitionedCall/asl_resnet50_1/resnet50_1/conv4_block1_1_bn_1/batchnorm/sub"], "device": "/device:CPU:0", "attr": {"num_host_args": {"i": "0"}, "use_cudnn_on_gpu": {"b": true}, "num_args": {"i": "1"}, "filter_format": {"s": "SFdJTw=="}, "T": {"type": "DT_FLOAT"}, "data_format": {"s": "TkhXQw=="}, "strides": {"list": {"i": ["1", "2", "2", "1"]}}, "dilations": {"list": {"i": ["1", "1", "1", "1"]}}, "leakyrelu_alpha": {"f": 0.2}, "fused_ops": {"list": {"s": ["Qmlhc0FkZA==", "UmVsdQ=="]}}, "epsilon": {"f": 0.0}, "explicit_paddings": {"list": {}}, "padding": {"s": "VkFMSUQ="}, "TArgs": {"list": {"type": ["DT_FLOAT"]}}}}, {"name": "StatefulPartitionedCall/asl_resnet50_1/resnet50_1/conv4_block1_2_relu_1/Relu", "op": "_FusedConv2D", "input": ["StatefulPartitionedCall/asl_resnet50_1/resnet50_1/conv4_block1_1_relu_1/Relu", "StatefulPartitionedCall/asl_resnet50_1/resnet50_1/conv4_block1_2_conv_1/convolution/merged_input", "StatefulPartitionedCall/asl_resnet50_1/resnet50_1/conv4_block1_2_bn_1/batchnorm/sub"], "device": "/device:CPU:0", "attr": {"num_host_args": {"i": "0"}, "use_cudnn_on_gpu": {"b": true}, "num_args": {"i": "1"}, "filter_format": {"s": "SFdJTw=="}, "TArgs": {"list": {"type": ["DT_FLOAT"]}}, "data_format": {"s": "TkhXQw=="}, "dilations": {"list": {"i": ["1", "1", "1", "1"]}}, "strides": {"list": {"i": ["1", "1", "1", "1"]}}, "leakyrelu_alpha": {"f": 0.2}, "fused_ops": {"list": {"s": ["Qmlhc0FkZA==", "UmVsdQ=="]}}, "epsilon": {"f": 0.0}, "explicit_paddings": {"list": {}}, "padding": {"s": "U0FNRQ=="}, "T": {"type": "DT_FLOAT"}}}, {"name": "StatefulPartitionedCall/asl_resnet50_1/resnet50_1/conv4_block1_3_bn_1/batchnorm/add_1", "op": "_FusedConv2D", "input": ["StatefulPartitionedCall/asl_resnet50_1/resnet50_1/conv4_block1_2_relu_1/Relu", "StatefulPartitionedCall/asl_resnet50_1/resnet50_1/conv4_block1_3_conv_1/convolution/merged_input", "StatefulPartitionedCall/asl_resnet50_1/resnet50_1/conv4_block1_3_bn_1/batchnorm/sub"], "device": "/device:CPU:0", "attr": {"num_host_args": {"i": "0"}, "use_cudnn_on_gpu": {"b": true}, "num_args": {"i": "1"}, "filter_format": {"s": "SFdJTw=="}, "padding": {"s": "VkFMSUQ="}, "data_format": {"s": "TkhXQw=="}, "dilations": {"list": {"i": ["1", "1", "1", "1"]}}, "strides": {"list": {"i": ["1", "1", "1", "1"]}}, "leakyrelu_alpha": {"f": 0.2}, "fused_ops": {"list": {"s": ["Qmlhc0FkZA=="]}}, "epsilon": {"f": 0.0}, "explicit_paddings": {"list": {}}, "TArgs": {"list": {"type": ["DT_FLOAT"]}}, "T": {"type": "DT_FLOAT"}}}, {"name": "StatefulPartitionedCall/asl_resnet50_1/resnet50_1/conv4_block1_add_1/Add", "op": "AddV2", "input": ["StatefulPartitionedCall/asl_resnet50_1/resnet50_1/conv4_block1_0_bn_1/batchnorm/add_1", "StatefulPartitionedCall/asl_resnet50_1/resnet50_1/conv4_block1_3_bn_1/batchnorm/add_1"], "attr": {"T": {"type": "DT_FLOAT"}}}, {"name": "StatefulPartitionedCall/asl_resnet50_1/resnet50_1/conv4_block1_out_1/Relu", "op": "Relu", "input": ["StatefulPartitionedCall/asl_resnet50_1/resnet50_1/conv4_block1_add_1/Add"], "attr": {"T": {"type": "DT_FLOAT"}}}, {"name": "StatefulPartitionedCall/asl_resnet50_1/resnet50_1/conv4_block2_1_relu_1/Relu", "op": "_FusedConv2D", "input": ["StatefulPartitionedCall/asl_resnet50_1/resnet50_1/conv4_block1_out_1/Relu", "StatefulPartitionedCall/asl_resnet50_1/resnet50_1/conv4_block2_1_conv_1/convolution/merged_input", "StatefulPartitionedCall/asl_resnet50_1/resnet50_1/conv4_block2_1_bn_1/batchnorm/sub"], "device": "/device:CPU:0", "attr": {"num_host_args": {"i": "0"}, "use_cudnn_on_gpu": {"b": true}, "num_args": {"i": "1"}, "filter_format": {"s": "SFdJTw=="}, "TArgs": {"list": {"type": ["DT_FLOAT"]}}, "data_format": {"s": "TkhXQw=="}, "dilations": {"list": {"i": ["1", "1", "1", "1"]}}, "strides": {"list": {"i": ["1", "1", "1", "1"]}}, "leakyrelu_alpha": {"f": 0.2}, "fused_ops": {"list": {"s": ["Qmlhc0FkZA==", "UmVsdQ=="]}}, "epsilon": {"f": 0.0}, "explicit_paddings": {"list": {}}, "T": {"type": "DT_FLOAT"}, "padding": {"s": "VkFMSUQ="}}}, {"name": "StatefulPartitionedCall/asl_resnet50_1/resnet50_1/conv4_block2_2_relu_1/Relu", "op": "_FusedConv2D", "input": ["StatefulPartitionedCall/asl_resnet50_1/resnet50_1/conv4_block2_1_relu_1/Relu", "StatefulPartitionedCall/asl_resnet50_1/resnet50_1/conv4_block2_2_conv_1/convolution/merged_input", "StatefulPartitionedCall/asl_resnet50_1/resnet50_1/conv4_block2_2_bn_1/batchnorm/sub"], "device": "/device:CPU:0", "attr": {"num_host_args": {"i": "0"}, "use_cudnn_on_gpu": {"b": true}, "num_args": {"i": "1"}, "filter_format": {"s": "SFdJTw=="}, "T": {"type": "DT_FLOAT"}, "data_format": {"s": "TkhXQw=="}, "strides": {"list": {"i": ["1", "1", "1", "1"]}}, "dilations": {"list": {"i": ["1", "1", "1", "1"]}}, "leakyrelu_alpha": {"f": 0.2}, "fused_ops": {"list": {"s": ["Qmlhc0FkZA==", "UmVsdQ=="]}}, "epsilon": {"f": 0.0}, "explicit_paddings": {"list": {}}, "TArgs": {"list": {"type": ["DT_FLOAT"]}}, "padding": {"s": "U0FNRQ=="}}}, {"name": "StatefulPartitionedCall/asl_resnet50_1/resnet50_1/conv4_block2_3_bn_1/batchnorm/add_1", "op": "_FusedConv2D", "input": ["StatefulPartitionedCall/asl_resnet50_1/resnet50_1/conv4_block2_2_relu_1/Relu", "StatefulPartitionedCall/asl_resnet50_1/resnet50_1/conv4_block2_3_conv_1/convolution/merged_input", "StatefulPartitionedCall/asl_resnet50_1/resnet50_1/conv4_block2_3_bn_1/batchnorm/sub"], "device": "/device:CPU:0", "attr": {"num_host_args": {"i": "0"}, "use_cudnn_on_gpu": {"b": true}, "num_args": {"i": "1"}, "filter_format": {"s": "SFdJTw=="}, "T": {"type": "DT_FLOAT"}, "data_format": {"s": "TkhXQw=="}, "dilations": {"list": {"i": ["1", "1", "1", "1"]}}, "strides": {"list": {"i": ["1", "1", "1", "1"]}}, "leakyrelu_alpha": {"f": 0.2}, "fused_ops": {"list": {"s": ["Qmlhc0FkZA=="]}}, "epsilon": {"f": 0.0}, "explicit_paddings": {"list": {}}, "padding": {"s": "VkFMSUQ="}, "TArgs": {"list": {"type": ["DT_FLOAT"]}}}}, {"name": "StatefulPartitionedCall/asl_resnet50_1/resnet50_1/conv4_block2_add_1/Add", "op": "AddV2", "input": ["StatefulPartitionedCall/asl_resnet50_1/resnet50_1/conv4_block1_out_1/Relu", "StatefulPartitionedCall/asl_resnet50_1/resnet50_1/conv4_block2_3_bn_1/batchnorm/add_1"], "attr": {"T": {"type": "DT_FLOAT"}}}, {"name": "StatefulPartitionedCall/asl_resnet50_1/resnet50_1/conv4_block2_out_1/Relu", "op": "Relu", "input": ["StatefulPartitionedCall/asl_resnet50_1/resnet50_1/conv4_block2_add_1/Add"], "attr": {"T": {"type": "DT_FLOAT"}}}, {"name": "StatefulPartitionedCall/asl_resnet50_1/resnet50_1/conv4_block3_1_relu_1/Relu", "op": "_FusedConv2D", "input": ["StatefulPartitionedCall/asl_resnet50_1/resnet50_1/conv4_block2_out_1/Relu", "StatefulPartitionedCall/asl_resnet50_1/resnet50_1/conv4_block3_1_conv_1/convolution/merged_input", "StatefulPartitionedCall/asl_resnet50_1/resnet50_1/conv4_block3_1_bn_1/batchnorm/sub"], "device": "/device:CPU:0", "attr": {"num_host_args": {"i": "0"}, "use_cudnn_on_gpu": {"b": true}, "num_args": {"i": "1"}, "filter_format": {"s": "SFdJTw=="}, "padding": {"s": "VkFMSUQ="}, "data_format": {"s": "TkhXQw=="}, "strides": {"list": {"i": ["1", "1", "1", "1"]}}, "dilations": {"list": {"i": ["1", "1", "1", "1"]}}, "leakyrelu_alpha": {"f": 0.2}, "fused_ops": {"list": {"s": ["Qmlhc0FkZA==", "UmVsdQ=="]}}, "epsilon": {"f": 0.0}, "explicit_paddings": {"list": {}}, "TArgs": {"list": {"type": ["DT_FLOAT"]}}, "T": {"type": "DT_FLOAT"}}}, {"name": "StatefulPartitionedCall/asl_resnet50_1/resnet50_1/conv4_block3_2_relu_1/Relu", "op": "_FusedConv2D", "input": ["StatefulPartitionedCall/asl_resnet50_1/resnet50_1/conv4_block3_1_relu_1/Relu", "StatefulPartitionedCall/asl_resnet50_1/resnet50_1/conv4_block3_2_conv_1/convolution/merged_input", "StatefulPartitionedCall/asl_resnet50_1/resnet50_1/conv4_block3_2_bn_1/batchnorm/sub"], "device": "/device:CPU:0", "attr": {"num_host_args": {"i": "0"}, "use_cudnn_on_gpu": {"b": true}, "num_args": {"i": "1"}, "filter_format": {"s": "SFdJTw=="}, "padding": {"s": "U0FNRQ=="}, "data_format": {"s": "TkhXQw=="}, "dilations": {"list": {"i": ["1", "1", "1", "1"]}}, "strides": {"list": {"i": ["1", "1", "1", "1"]}}, "leakyrelu_alpha": {"f": 0.2}, "fused_ops": {"list": {"s": ["Qmlhc0FkZA==", "UmVsdQ=="]}}, "epsilon": {"f": 0.0}, "explicit_paddings": {"list": {}}, "T": {"type": "DT_FLOAT"}, "TArgs": {"list": {"type": ["DT_FLOAT"]}}}}, {"name": "StatefulPartitionedCall/asl_resnet50_1/resnet50_1/conv4_block3_3_bn_1/batchnorm/add_1", "op": "_FusedConv2D", "input": ["StatefulPartitionedCall/asl_resnet50_1/resnet50_1/conv4_block3_2_relu_1/Relu", "StatefulPartitionedCall/asl_resnet50_1/resnet50_1/conv4_block3_3_conv_1/convolution/merged_input", "StatefulPartitionedCall/asl_resnet50_1/resnet50_1/conv4_block3_3_bn_1/batchnorm/sub"], "device": "/device:CPU:0", "attr": {"num_host_args": {"i": "0"}, "use_cudnn_on_gpu": {"b": true}, "num_args": {"i": "1"}, "filter_format": {"s": "SFdJTw=="}, "TArgs": {"list": {"type": ["DT_FLOAT"]}}, "data_format": {"s": "TkhXQw=="}, "strides": {"list": {"i": ["1", "1", "1", "1"]}}, "dilations": {"list": {"i": ["1", "1", "1", "1"]}}, "leakyrelu_alpha": {"f": 0.2}, "fused_ops": {"list": {"s": ["Qmlhc0FkZA=="]}}, "epsilon": {"f": 0.0}, "explicit_paddings": {"list": {}}, "padding": {"s": "VkFMSUQ="}, "T": {"type": "DT_FLOAT"}}}, {"name": "StatefulPartitionedCall/asl_resnet50_1/resnet50_1/conv4_block3_add_1/Add", "op": "AddV2", "input": ["StatefulPartitionedCall/asl_resnet50_1/resnet50_1/conv4_block2_out_1/Relu", "StatefulPartitionedCall/asl_resnet50_1/resnet50_1/conv4_block3_3_bn_1/batchnorm/add_1"], "attr": {"T": {"type": "DT_FLOAT"}}}, {"name": "StatefulPartitionedCall/asl_resnet50_1/resnet50_1/conv4_block3_out_1/Relu", "op": "Relu", "input": ["StatefulPartitionedCall/asl_resnet50_1/resnet50_1/conv4_block3_add_1/Add"], "attr": {"T": {"type": "DT_FLOAT"}}}, {"name": "StatefulPartitionedCall/asl_resnet50_1/resnet50_1/conv4_block4_1_relu_1/Relu", "op": "_FusedConv2D", "input": ["StatefulPartitionedCall/asl_resnet50_1/resnet50_1/conv4_block3_out_1/Relu", "StatefulPartitionedCall/asl_resnet50_1/resnet50_1/conv4_block4_1_conv_1/convolution/merged_input", "StatefulPartitionedCall/asl_resnet50_1/resnet50_1/conv4_block4_1_bn_1/batchnorm/sub"], "device": "/device:CPU:0", "attr": {"num_host_args": {"i": "0"}, "use_cudnn_on_gpu": {"b": true}, "num_args": {"i": "1"}, "filter_format": {"s": "SFdJTw=="}, "T": {"type": "DT_FLOAT"}, "data_format": {"s": "TkhXQw=="}, "strides": {"list": {"i": ["1", "1", "1", "1"]}}, "dilations": {"list": {"i": ["1", "1", "1", "1"]}}, "leakyrelu_alpha": {"f": 0.2}, "fused_ops": {"list": {"s": ["Qmlhc0FkZA==", "UmVsdQ=="]}}, "epsilon": {"f": 0.0}, "explicit_paddings": {"list": {}}, "padding": {"s": "VkFMSUQ="}, "TArgs": {"list": {"type": ["DT_FLOAT"]}}}}, {"name": "StatefulPartitionedCall/asl_resnet50_1/resnet50_1/conv4_block4_2_relu_1/Relu", "op": "_FusedConv2D", "input": ["StatefulPartitionedCall/asl_resnet50_1/resnet50_1/conv4_block4_1_relu_1/Relu", "StatefulPartitionedCall/asl_resnet50_1/resnet50_1/conv4_block4_2_conv_1/convolution/merged_input", "StatefulPartitionedCall/asl_resnet50_1/resnet50_1/conv4_block4_2_bn_1/batchnorm/sub"], "device": "/device:CPU:0", "attr": {"num_host_args": {"i": "0"}, "use_cudnn_on_gpu": {"b": true}, "num_args": {"i": "1"}, "filter_format": {"s": "SFdJTw=="}, "T": {"type": "DT_FLOAT"}, "data_format": {"s": "TkhXQw=="}, "strides": {"list": {"i": ["1", "1", "1", "1"]}}, "dilations": {"list": {"i": ["1", "1", "1", "1"]}}, "leakyrelu_alpha": {"f": 0.2}, "fused_ops": {"list": {"s": ["Qmlhc0FkZA==", "UmVsdQ=="]}}, "epsilon": {"f": 0.0}, "explicit_paddings": {"list": {}}, "TArgs": {"list": {"type": ["DT_FLOAT"]}}, "padding": {"s": "U0FNRQ=="}}}, {"name": "StatefulPartitionedCall/asl_resnet50_1/resnet50_1/conv4_block4_3_bn_1/batchnorm/add_1", "op": "_FusedConv2D", "input": ["StatefulPartitionedCall/asl_resnet50_1/resnet50_1/conv4_block4_2_relu_1/Relu", "StatefulPartitionedCall/asl_resnet50_1/resnet50_1/conv4_block4_3_conv_1/convolution/merged_input", "StatefulPartitionedCall/asl_resnet50_1/resnet50_1/conv4_block4_3_bn_1/batchnorm/sub"], "device": "/device:CPU:0", "attr": {"num_host_args": {"i": "0"}, "use_cudnn_on_gpu": {"b": true}, "num_args": {"i": "1"}, "filter_format": {"s": "SFdJTw=="}, "T": {"type": "DT_FLOAT"}, "data_format": {"s": "TkhXQw=="}, "strides": {"list": {"i": ["1", "1", "1", "1"]}}, "dilations": {"list": {"i": ["1", "1", "1", "1"]}}, "leakyrelu_alpha": {"f": 0.2}, "fused_ops": {"list": {"s": ["Qmlhc0FkZA=="]}}, "epsilon": {"f": 0.0}, "explicit_paddings": {"list": {}}, "padding": {"s": "VkFMSUQ="}, "TArgs": {"list": {"type": ["DT_FLOAT"]}}}}, {"name": "StatefulPartitionedCall/asl_resnet50_1/resnet50_1/conv4_block4_add_1/Add", "op": "AddV2", "input": ["StatefulPartitionedCall/asl_resnet50_1/resnet50_1/conv4_block3_out_1/Relu", "StatefulPartitionedCall/asl_resnet50_1/resnet50_1/conv4_block4_3_bn_1/batchnorm/add_1"], "attr": {"T": {"type": "DT_FLOAT"}}}, {"name": "StatefulPartitionedCall/asl_resnet50_1/resnet50_1/conv4_block4_out_1/Relu", "op": "Relu", "input": ["StatefulPartitionedCall/asl_resnet50_1/resnet50_1/conv4_block4_add_1/Add"], "attr": {"T": {"type": "DT_FLOAT"}}}, {"name": "StatefulPartitionedCall/asl_resnet50_1/resnet50_1/conv4_block5_1_relu_1/Relu", "op": "_FusedConv2D", "input": ["StatefulPartitionedCall/asl_resnet50_1/resnet50_1/conv4_block4_out_1/Relu", "StatefulPartitionedCall/asl_resnet50_1/resnet50_1/conv4_block5_1_conv_1/convolution/merged_input", "StatefulPartitionedCall/asl_resnet50_1/resnet50_1/conv4_block5_1_bn_1/batchnorm/sub"], "device": "/device:CPU:0", "attr": {"num_host_args": {"i": "0"}, "use_cudnn_on_gpu": {"b": true}, "num_args": {"i": "1"}, "filter_format": {"s": "SFdJTw=="}, "padding": {"s": "VkFMSUQ="}, "data_format": {"s": "TkhXQw=="}, "dilations": {"list": {"i": ["1", "1", "1", "1"]}}, "strides": {"list": {"i": ["1", "1", "1", "1"]}}, "leakyrelu_alpha": {"f": 0.2}, "fused_ops": {"list": {"s": ["Qmlhc0FkZA==", "UmVsdQ=="]}}, "epsilon": {"f": 0.0}, "explicit_paddings": {"list": {}}, "T": {"type": "DT_FLOAT"}, "TArgs": {"list": {"type": ["DT_FLOAT"]}}}}, {"name": "StatefulPartitionedCall/asl_resnet50_1/resnet50_1/conv4_block5_2_relu_1/Relu", "op": "_FusedConv2D", "input": ["StatefulPartitionedCall/asl_resnet50_1/resnet50_1/conv4_block5_1_relu_1/Relu", "StatefulPartitionedCall/asl_resnet50_1/resnet50_1/conv4_block5_2_conv_1/convolution/merged_input", "StatefulPartitionedCall/asl_resnet50_1/resnet50_1/conv4_block5_2_bn_1/batchnorm/sub"], "device": "/device:CPU:0", "attr": {"num_host_args": {"i": "0"}, "use_cudnn_on_gpu": {"b": true}, "num_args": {"i": "1"}, "filter_format": {"s": "SFdJTw=="}, "padding": {"s": "U0FNRQ=="}, "data_format": {"s": "TkhXQw=="}, "strides": {"list": {"i": ["1", "1", "1", "1"]}}, "dilations": {"list": {"i": ["1", "1", "1", "1"]}}, "leakyrelu_alpha": {"f": 0.2}, "fused_ops": {"list": {"s": ["Qmlhc0FkZA==", "UmVsdQ=="]}}, "epsilon": {"f": 0.0}, "explicit_paddings": {"list": {}}, "TArgs": {"list": {"type": ["DT_FLOAT"]}}, "T": {"type": "DT_FLOAT"}}}, {"name": "StatefulPartitionedCall/asl_resnet50_1/resnet50_1/conv4_block5_3_bn_1/batchnorm/add_1", "op": "_FusedConv2D", "input": ["StatefulPartitionedCall/asl_resnet50_1/resnet50_1/conv4_block5_2_relu_1/Relu", "StatefulPartitionedCall/asl_resnet50_1/resnet50_1/conv4_block5_3_conv_1/convolution/merged_input", "StatefulPartitionedCall/asl_resnet50_1/resnet50_1/conv4_block5_3_bn_1/batchnorm/sub"], "device": "/device:CPU:0", "attr": {"num_host_args": {"i": "0"}, "use_cudnn_on_gpu": {"b": true}, "num_args": {"i": "1"}, "filter_format": {"s": "SFdJTw=="}, "TArgs": {"list": {"type": ["DT_FLOAT"]}}, "data_format": {"s": "TkhXQw=="}, "strides": {"list": {"i": ["1", "1", "1", "1"]}}, "dilations": {"list": {"i": ["1", "1", "1", "1"]}}, "leakyrelu_alpha": {"f": 0.2}, "fused_ops": {"list": {"s": ["Qmlhc0FkZA=="]}}, "epsilon": {"f": 0.0}, "explicit_paddings": {"list": {}}, "T": {"type": "DT_FLOAT"}, "padding": {"s": "VkFMSUQ="}}}, {"name": "StatefulPartitionedCall/asl_resnet50_1/resnet50_1/conv4_block5_add_1/Add", "op": "AddV2", "input": ["StatefulPartitionedCall/asl_resnet50_1/resnet50_1/conv4_block4_out_1/Relu", "StatefulPartitionedCall/asl_resnet50_1/resnet50_1/conv4_block5_3_bn_1/batchnorm/add_1"], "attr": {"T": {"type": "DT_FLOAT"}}}, {"name": "StatefulPartitionedCall/asl_resnet50_1/resnet50_1/conv4_block5_out_1/Relu", "op": "Relu", "input": ["StatefulPartitionedCall/asl_resnet50_1/resnet50_1/conv4_block5_add_1/Add"], "attr": {"T": {"type": "DT_FLOAT"}}}, {"name": "StatefulPartitionedCall/asl_resnet50_1/resnet50_1/conv4_block6_1_relu_1/Relu", "op": "_FusedConv2D", "input": ["StatefulPartitionedCall/asl_resnet50_1/resnet50_1/conv4_block5_out_1/Relu", "StatefulPartitionedCall/asl_resnet50_1/resnet50_1/conv4_block6_1_conv_1/convolution/merged_input", "StatefulPartitionedCall/asl_resnet50_1/resnet50_1/conv4_block6_1_bn_1/batchnorm/sub"], "device": "/device:CPU:0", "attr": {"num_host_args": {"i": "0"}, "use_cudnn_on_gpu": {"b": true}, "num_args": {"i": "1"}, "filter_format": {"s": "SFdJTw=="}, "TArgs": {"list": {"type": ["DT_FLOAT"]}}, "data_format": {"s": "TkhXQw=="}, "dilations": {"list": {"i": ["1", "1", "1", "1"]}}, "strides": {"list": {"i": ["1", "1", "1", "1"]}}, "leakyrelu_alpha": {"f": 0.2}, "fused_ops": {"list": {"s": ["Qmlhc0FkZA==", "UmVsdQ=="]}}, "epsilon": {"f": 0.0}, "explicit_paddings": {"list": {}}, "padding": {"s": "VkFMSUQ="}, "T": {"type": "DT_FLOAT"}}}, {"name": "StatefulPartitionedCall/asl_resnet50_1/resnet50_1/conv4_block6_2_relu_1/Relu", "op": "_FusedConv2D", "input": ["StatefulPartitionedCall/asl_resnet50_1/resnet50_1/conv4_block6_1_relu_1/Relu", "StatefulPartitionedCall/asl_resnet50_1/resnet50_1/conv4_block6_2_conv_1/convolution/merged_input", "StatefulPartitionedCall/asl_resnet50_1/resnet50_1/conv4_block6_2_bn_1/batchnorm/sub"], "device": "/device:CPU:0", "attr": {"num_host_args": {"i": "0"}, "use_cudnn_on_gpu": {"b": true}, "num_args": {"i": "1"}, "filter_format": {"s": "SFdJTw=="}, "padding": {"s": "U0FNRQ=="}, "data_format": {"s": "TkhXQw=="}, "strides": {"list": {"i": ["1", "1", "1", "1"]}}, "dilations": {"list": {"i": ["1", "1", "1", "1"]}}, "leakyrelu_alpha": {"f": 0.2}, "fused_ops": {"list": {"s": ["Qmlhc0FkZA==", "UmVsdQ=="]}}, "epsilon": {"f": 0.0}, "explicit_paddings": {"list": {}}, "TArgs": {"list": {"type": ["DT_FLOAT"]}}, "T": {"type": "DT_FLOAT"}}}, {"name": "StatefulPartitionedCall/asl_resnet50_1/resnet50_1/conv4_block6_3_bn_1/batchnorm/add_1", "op": "_FusedConv2D", "input": ["StatefulPartitionedCall/asl_resnet50_1/resnet50_1/conv4_block6_2_relu_1/Relu", "StatefulPartitionedCall/asl_resnet50_1/resnet50_1/conv4_block6_3_conv_1/convolution/merged_input", "StatefulPartitionedCall/asl_resnet50_1/resnet50_1/conv4_block6_3_bn_1/batchnorm/sub"], "device": "/device:CPU:0", "attr": {"num_host_args": {"i": "0"}, "use_cudnn_on_gpu": {"b": true}, "num_args": {"i": "1"}, "filter_format": {"s": "SFdJTw=="}, "padding": {"s": "VkFMSUQ="}, "data_format": {"s": "TkhXQw=="}, "dilations": {"list": {"i": ["1", "1", "1", "1"]}}, "strides": {"list": {"i": ["1", "1", "1", "1"]}}, "leakyrelu_alpha": {"f": 0.2}, "fused_ops": {"list": {"s": ["Qmlhc0FkZA=="]}}, "epsilon": {"f": 0.0}, "explicit_paddings": {"list": {}}, "T": {"type": "DT_FLOAT"}, "TArgs": {"list": {"type": ["DT_FLOAT"]}}}}, {"name": "StatefulPartitionedCall/asl_resnet50_1/resnet50_1/conv4_block6_add_1/Add", "op": "AddV2", "input": ["StatefulPartitionedCall/asl_resnet50_1/resnet50_1/conv4_block5_out_1/Relu", "StatefulPartitionedCall/asl_resnet50_1/resnet50_1/conv4_block6_3_bn_1/batchnorm/add_1"], "attr": {"T": {"type": "DT_FLOAT"}}}, {"name": "StatefulPartitionedCall/asl_resnet50_1/resnet50_1/conv4_block6_out_1/Relu", "op": "Relu", "input": ["StatefulPartitionedCall/asl_resnet50_1/resnet50_1/conv4_block6_add_1/Add"], "attr": {"T": {"type": "DT_FLOAT"}}}, {"name": "StatefulPartitionedCall/asl_resnet50_1/resnet50_1/conv5_block1_0_conv_1/BiasAdd", "op": "_FusedConv2D", "input": ["StatefulPartitionedCall/asl_resnet50_1/resnet50_1/conv4_block6_out_1/Relu", "StatefulPartitionedCall/asl_resnet50_1/resnet50_1/conv5_block1_0_conv_1/convolution/ReadVariableOp", "StatefulPartitionedCall/asl_resnet50_1/resnet50_1/conv5_block1_0_conv_1/Squeeze"], "device": "/device:CPU:0", "attr": {"num_host_args": {"i": "0"}, "use_cudnn_on_gpu": {"b": true}, "num_args": {"i": "1"}, "filter_format": {"s": "SFdJTw=="}, "T": {"type": "DT_FLOAT"}, "data_format": {"s": "TkhXQw=="}, "dilations": {"list": {"i": ["1", "1", "1", "1"]}}, "strides": {"list": {"i": ["1", "2", "2", "1"]}}, "leakyrelu_alpha": {"f": 0.2}, "fused_ops": {"list": {"s": ["Qmlhc0FkZA=="]}}, "epsilon": {"f": 0.0}, "explicit_paddings": {"list": {}}, "TArgs": {"list": {"type": ["DT_FLOAT"]}}, "padding": {"s": "VkFMSUQ="}}}, {"name": "StatefulPartitionedCall/asl_resnet50_1/resnet50_1/conv5_block1_1_conv_1/BiasAdd", "op": "_FusedConv2D", "input": ["StatefulPartitionedCall/asl_resnet50_1/resnet50_1/conv4_block6_out_1/Relu", "StatefulPartitionedCall/asl_resnet50_1/resnet50_1/conv5_block1_1_conv_1/convolution/ReadVariableOp", "StatefulPartitionedCall/asl_resnet50_1/resnet50_1/conv5_block1_1_conv_1/Squeeze"], "device": "/device:CPU:0", "attr": {"num_host_args": {"i": "0"}, "use_cudnn_on_gpu": {"b": true}, "num_args": {"i": "1"}, "filter_format": {"s": "SFdJTw=="}, "padding": {"s": "VkFMSUQ="}, "data_format": {"s": "TkhXQw=="}, "dilations": {"list": {"i": ["1", "1", "1", "1"]}}, "strides": {"list": {"i": ["1", "2", "2", "1"]}}, "leakyrelu_alpha": {"f": 0.2}, "fused_ops": {"list": {"s": ["Qmlhc0FkZA=="]}}, "epsilon": {"f": 0.0}, "explicit_paddings": {"list": {}}, "TArgs": {"list": {"type": ["DT_FLOAT"]}}, "T": {"type": "DT_FLOAT"}}}, {"name": "StatefulPartitionedCall/asl_resnet50_1/resnet50_1/conv5_block1_0_bn_1/batchnorm/mul_1", "op": "Mul", "input": ["StatefulPartitionedCall/asl_resnet50_1/resnet50_1/conv5_block1_0_conv_1/BiasAdd", "StatefulPartitionedCall/asl_resnet50_1/resnet50_1/conv5_block1_0_bn_1/batchnorm/mul"], "attr": {"T": {"type": "DT_FLOAT"}}}, {"name": "StatefulPartitionedCall/asl_resnet50_1/resnet50_1/conv5_block1_1_bn_1/batchnorm/mul_1", "op": "Mul", "input": ["StatefulPartitionedCall/asl_resnet50_1/resnet50_1/conv5_block1_1_conv_1/BiasAdd", "StatefulPartitionedCall/asl_resnet50_1/resnet50_1/conv5_block1_1_bn_1/batchnorm/mul"], "attr": {"T": {"type": "DT_FLOAT"}}}, {"name": "StatefulPartitionedCall/asl_resnet50_1/resnet50_1/conv5_block1_0_bn_1/batchnorm/add_1", "op": "AddV2", "input": ["StatefulPartitionedCall/asl_resnet50_1/resnet50_1/conv5_block1_0_bn_1/batchnorm/mul_1", "StatefulPartitionedCall/asl_resnet50_1/resnet50_1/conv5_block1_0_bn_1/batchnorm/sub"], "attr": {"T": {"type": "DT_FLOAT"}}}, {"name": "StatefulPartitionedCall/asl_resnet50_1/resnet50_1/conv5_block1_1_bn_1/batchnorm/add_1", "op": "AddV2", "input": ["StatefulPartitionedCall/asl_resnet50_1/resnet50_1/conv5_block1_1_bn_1/batchnorm/mul_1", "StatefulPartitionedCall/asl_resnet50_1/resnet50_1/conv5_block1_1_bn_1/batchnorm/sub"], "attr": {"T": {"type": "DT_FLOAT"}}}, {"name": "StatefulPartitionedCall/asl_resnet50_1/resnet50_1/conv5_block1_1_relu_1/Relu", "op": "Relu", "input": ["StatefulPartitionedCall/asl_resnet50_1/resnet50_1/conv5_block1_1_bn_1/batchnorm/add_1"], "attr": {"T": {"type": "DT_FLOAT"}}}, {"name": "StatefulPartitionedCall/asl_resnet50_1/resnet50_1/conv5_block1_2_conv_1/BiasAdd", "op": "_FusedConv2D", "input": ["StatefulPartitionedCall/asl_resnet50_1/resnet50_1/conv5_block1_1_relu_1/Relu", "StatefulPartitionedCall/asl_resnet50_1/resnet50_1/conv5_block1_2_conv_1/convolution/ReadVariableOp", "StatefulPartitionedCall/asl_resnet50_1/resnet50_1/conv5_block1_2_conv_1/Squeeze"], "device": "/device:CPU:0", "attr": {"num_host_args": {"i": "0"}, "use_cudnn_on_gpu": {"b": true}, "num_args": {"i": "1"}, "filter_format": {"s": "SFdJTw=="}, "TArgs": {"list": {"type": ["DT_FLOAT"]}}, "data_format": {"s": "TkhXQw=="}, "dilations": {"list": {"i": ["1", "1", "1", "1"]}}, "strides": {"list": {"i": ["1", "1", "1", "1"]}}, "leakyrelu_alpha": {"f": 0.2}, "fused_ops": {"list": {"s": ["Qmlhc0FkZA=="]}}, "epsilon": {"f": 0.0}, "explicit_paddings": {"list": {}}, "padding": {"s": "U0FNRQ=="}, "T": {"type": "DT_FLOAT"}}}, {"name": "StatefulPartitionedCall/asl_resnet50_1/resnet50_1/conv5_block1_2_bn_1/batchnorm/mul_1", "op": "Mul", "input": ["StatefulPartitionedCall/asl_resnet50_1/resnet50_1/conv5_block1_2_conv_1/BiasAdd", "StatefulPartitionedCall/asl_resnet50_1/resnet50_1/conv5_block1_2_bn_1/batchnorm/mul"], "attr": {"T": {"type": "DT_FLOAT"}}}, {"name": "StatefulPartitionedCall/asl_resnet50_1/resnet50_1/conv5_block1_2_bn_1/batchnorm/add_1", "op": "AddV2", "input": ["StatefulPartitionedCall/asl_resnet50_1/resnet50_1/conv5_block1_2_bn_1/batchnorm/mul_1", "StatefulPartitionedCall/asl_resnet50_1/resnet50_1/conv5_block1_2_bn_1/batchnorm/sub"], "attr": {"T": {"type": "DT_FLOAT"}}}, {"name": "StatefulPartitionedCall/asl_resnet50_1/resnet50_1/conv5_block1_2_relu_1/Relu", "op": "Relu", "input": ["StatefulPartitionedCall/asl_resnet50_1/resnet50_1/conv5_block1_2_bn_1/batchnorm/add_1"], "attr": {"T": {"type": "DT_FLOAT"}}}, {"name": "StatefulPartitionedCall/asl_resnet50_1/resnet50_1/conv5_block1_3_conv_1/BiasAdd", "op": "_FusedConv2D", "input": ["StatefulPartitionedCall/asl_resnet50_1/resnet50_1/conv5_block1_2_relu_1/Relu", "StatefulPartitionedCall/asl_resnet50_1/resnet50_1/conv5_block1_3_conv_1/convolution/ReadVariableOp", "StatefulPartitionedCall/asl_resnet50_1/resnet50_1/conv5_block1_3_conv_1/Squeeze"], "device": "/device:CPU:0", "attr": {"num_host_args": {"i": "0"}, "use_cudnn_on_gpu": {"b": true}, "num_args": {"i": "1"}, "filter_format": {"s": "SFdJTw=="}, "TArgs": {"list": {"type": ["DT_FLOAT"]}}, "data_format": {"s": "TkhXQw=="}, "dilations": {"list": {"i": ["1", "1", "1", "1"]}}, "strides": {"list": {"i": ["1", "1", "1", "1"]}}, "leakyrelu_alpha": {"f": 0.2}, "fused_ops": {"list": {"s": ["Qmlhc0FkZA=="]}}, "epsilon": {"f": 0.0}, "explicit_paddings": {"list": {}}, "T": {"type": "DT_FLOAT"}, "padding": {"s": "VkFMSUQ="}}}, {"name": "StatefulPartitionedCall/asl_resnet50_1/resnet50_1/conv5_block1_3_bn_1/batchnorm/mul_1", "op": "Mul", "input": ["StatefulPartitionedCall/asl_resnet50_1/resnet50_1/conv5_block1_3_conv_1/BiasAdd", "StatefulPartitionedCall/asl_resnet50_1/resnet50_1/conv5_block1_3_bn_1/batchnorm/mul"], "attr": {"T": {"type": "DT_FLOAT"}}}, {"name": "StatefulPartitionedCall/asl_resnet50_1/resnet50_1/conv5_block1_3_bn_1/batchnorm/add_1", "op": "AddV2", "input": ["StatefulPartitionedCall/asl_resnet50_1/resnet50_1/conv5_block1_3_bn_1/batchnorm/mul_1", "StatefulPartitionedCall/asl_resnet50_1/resnet50_1/conv5_block1_3_bn_1/batchnorm/sub"], "attr": {"T": {"type": "DT_FLOAT"}}}, {"name": "StatefulPartitionedCall/asl_resnet50_1/resnet50_1/conv5_block1_add_1/Add", "op": "AddV2", "input": ["StatefulPartitionedCall/asl_resnet50_1/resnet50_1/conv5_block1_0_bn_1/batchnorm/add_1", "StatefulPartitionedCall/asl_resnet50_1/resnet50_1/conv5_block1_3_bn_1/batchnorm/add_1"], "attr": {"T": {"type": "DT_FLOAT"}}}, {"name": "StatefulPartitionedCall/asl_resnet50_1/resnet50_1/conv5_block1_out_1/Relu", "op": "Relu", "input": ["StatefulPartitionedCall/asl_resnet50_1/resnet50_1/conv5_block1_add_1/Add"], "attr": {"T": {"type": "DT_FLOAT"}}}, {"name": "StatefulPartitionedCall/asl_resnet50_1/resnet50_1/conv5_block2_1_conv_1/BiasAdd", "op": "_FusedConv2D", "input": ["StatefulPartitionedCall/asl_resnet50_1/resnet50_1/conv5_block1_out_1/Relu", "StatefulPartitionedCall/asl_resnet50_1/resnet50_1/conv5_block2_1_conv_1/convolution/ReadVariableOp", "StatefulPartitionedCall/asl_resnet50_1/resnet50_1/conv5_block2_1_conv_1/Squeeze"], "device": "/device:CPU:0", "attr": {"num_host_args": {"i": "0"}, "use_cudnn_on_gpu": {"b": true}, "num_args": {"i": "1"}, "filter_format": {"s": "SFdJTw=="}, "TArgs": {"list": {"type": ["DT_FLOAT"]}}, "data_format": {"s": "TkhXQw=="}, "dilations": {"list": {"i": ["1", "1", "1", "1"]}}, "strides": {"list": {"i": ["1", "1", "1", "1"]}}, "leakyrelu_alpha": {"f": 0.2}, "fused_ops": {"list": {"s": ["Qmlhc0FkZA=="]}}, "epsilon": {"f": 0.0}, "explicit_paddings": {"list": {}}, "T": {"type": "DT_FLOAT"}, "padding": {"s": "VkFMSUQ="}}}, {"name": "StatefulPartitionedCall/asl_resnet50_1/resnet50_1/conv5_block2_1_bn_1/batchnorm/mul_1", "op": "Mul", "input": ["StatefulPartitionedCall/asl_resnet50_1/resnet50_1/conv5_block2_1_conv_1/BiasAdd", "StatefulPartitionedCall/asl_resnet50_1/resnet50_1/conv5_block2_1_bn_1/batchnorm/mul"], "attr": {"T": {"type": "DT_FLOAT"}}}, {"name": "StatefulPartitionedCall/asl_resnet50_1/resnet50_1/conv5_block2_1_bn_1/batchnorm/add_1", "op": "AddV2", "input": ["StatefulPartitionedCall/asl_resnet50_1/resnet50_1/conv5_block2_1_bn_1/batchnorm/mul_1", "StatefulPartitionedCall/asl_resnet50_1/resnet50_1/conv5_block2_1_bn_1/batchnorm/sub"], "attr": {"T": {"type": "DT_FLOAT"}}}, {"name": "StatefulPartitionedCall/asl_resnet50_1/resnet50_1/conv5_block2_1_relu_1/Relu", "op": "Relu", "input": ["StatefulPartitionedCall/asl_resnet50_1/resnet50_1/conv5_block2_1_bn_1/batchnorm/add_1"], "attr": {"T": {"type": "DT_FLOAT"}}}, {"name": "StatefulPartitionedCall/asl_resnet50_1/resnet50_1/conv5_block2_2_conv_1/BiasAdd", "op": "_FusedConv2D", "input": ["StatefulPartitionedCall/asl_resnet50_1/resnet50_1/conv5_block2_1_relu_1/Relu", "StatefulPartitionedCall/asl_resnet50_1/resnet50_1/conv5_block2_2_conv_1/convolution/ReadVariableOp", "StatefulPartitionedCall/asl_resnet50_1/resnet50_1/conv5_block2_2_conv_1/Squeeze"], "device": "/device:CPU:0", "attr": {"num_host_args": {"i": "0"}, "use_cudnn_on_gpu": {"b": true}, "num_args": {"i": "1"}, "filter_format": {"s": "SFdJTw=="}, "TArgs": {"list": {"type": ["DT_FLOAT"]}}, "data_format": {"s": "TkhXQw=="}, "strides": {"list": {"i": ["1", "1", "1", "1"]}}, "dilations": {"list": {"i": ["1", "1", "1", "1"]}}, "leakyrelu_alpha": {"f": 0.2}, "fused_ops": {"list": {"s": ["Qmlhc0FkZA=="]}}, "epsilon": {"f": 0.0}, "explicit_paddings": {"list": {}}, "T": {"type": "DT_FLOAT"}, "padding": {"s": "U0FNRQ=="}}}, {"name": "StatefulPartitionedCall/asl_resnet50_1/resnet50_1/conv5_block2_2_bn_1/batchnorm/mul_1", "op": "Mul", "input": ["StatefulPartitionedCall/asl_resnet50_1/resnet50_1/conv5_block2_2_conv_1/BiasAdd", "StatefulPartitionedCall/asl_resnet50_1/resnet50_1/conv5_block2_2_bn_1/batchnorm/mul"], "attr": {"T": {"type": "DT_FLOAT"}}}, {"name": "StatefulPartitionedCall/asl_resnet50_1/resnet50_1/conv5_block2_2_bn_1/batchnorm/add_1", "op": "AddV2", "input": ["StatefulPartitionedCall/asl_resnet50_1/resnet50_1/conv5_block2_2_bn_1/batchnorm/mul_1", "StatefulPartitionedCall/asl_resnet50_1/resnet50_1/conv5_block2_2_bn_1/batchnorm/sub"], "attr": {"T": {"type": "DT_FLOAT"}}}, {"name": "StatefulPartitionedCall/asl_resnet50_1/resnet50_1/conv5_block2_2_relu_1/Relu", "op": "Relu", "input": ["StatefulPartitionedCall/asl_resnet50_1/resnet50_1/conv5_block2_2_bn_1/batchnorm/add_1"], "attr": {"T": {"type": "DT_FLOAT"}}}, {"name": "StatefulPartitionedCall/asl_resnet50_1/resnet50_1/conv5_block2_3_conv_1/BiasAdd", "op": "_FusedConv2D", "input": ["StatefulPartitionedCall/asl_resnet50_1/resnet50_1/conv5_block2_2_relu_1/Relu", "StatefulPartitionedCall/asl_resnet50_1/resnet50_1/conv5_block2_3_conv_1/convolution/ReadVariableOp", "StatefulPartitionedCall/asl_resnet50_1/resnet50_1/conv5_block2_3_conv_1/Squeeze"], "device": "/device:CPU:0", "attr": {"num_host_args": {"i": "0"}, "use_cudnn_on_gpu": {"b": true}, "num_args": {"i": "1"}, "filter_format": {"s": "SFdJTw=="}, "T": {"type": "DT_FLOAT"}, "data_format": {"s": "TkhXQw=="}, "dilations": {"list": {"i": ["1", "1", "1", "1"]}}, "strides": {"list": {"i": ["1", "1", "1", "1"]}}, "leakyrelu_alpha": {"f": 0.2}, "fused_ops": {"list": {"s": ["Qmlhc0FkZA=="]}}, "epsilon": {"f": 0.0}, "explicit_paddings": {"list": {}}, "TArgs": {"list": {"type": ["DT_FLOAT"]}}, "padding": {"s": "VkFMSUQ="}}}, {"name": "StatefulPartitionedCall/asl_resnet50_1/resnet50_1/conv5_block2_3_bn_1/batchnorm/mul_1", "op": "Mul", "input": ["StatefulPartitionedCall/asl_resnet50_1/resnet50_1/conv5_block2_3_conv_1/BiasAdd", "StatefulPartitionedCall/asl_resnet50_1/resnet50_1/conv5_block2_3_bn_1/batchnorm/mul"], "attr": {"T": {"type": "DT_FLOAT"}}}, {"name": "StatefulPartitionedCall/asl_resnet50_1/resnet50_1/conv5_block2_3_bn_1/batchnorm/add_1", "op": "AddV2", "input": ["StatefulPartitionedCall/asl_resnet50_1/resnet50_1/conv5_block2_3_bn_1/batchnorm/mul_1", "StatefulPartitionedCall/asl_resnet50_1/resnet50_1/conv5_block2_3_bn_1/batchnorm/sub"], "attr": {"T": {"type": "DT_FLOAT"}}}, {"name": "StatefulPartitionedCall/asl_resnet50_1/resnet50_1/conv5_block2_add_1/Add", "op": "AddV2", "input": ["StatefulPartitionedCall/asl_resnet50_1/resnet50_1/conv5_block1_out_1/Relu", "StatefulPartitionedCall/asl_resnet50_1/resnet50_1/conv5_block2_3_bn_1/batchnorm/add_1"], "attr": {"T": {"type": "DT_FLOAT"}}}, {"name": "StatefulPartitionedCall/asl_resnet50_1/resnet50_1/conv5_block2_out_1/Relu", "op": "Relu", "input": ["StatefulPartitionedCall/asl_resnet50_1/resnet50_1/conv5_block2_add_1/Add"], "attr": {"T": {"type": "DT_FLOAT"}}}, {"name": "StatefulPartitionedCall/asl_resnet50_1/resnet50_1/conv5_block3_1_conv_1/BiasAdd", "op": "_FusedConv2D", "input": ["StatefulPartitionedCall/asl_resnet50_1/resnet50_1/conv5_block2_out_1/Relu", "StatefulPartitionedCall/asl_resnet50_1/resnet50_1/conv5_block3_1_conv_1/convolution/ReadVariableOp", "StatefulPartitionedCall/asl_resnet50_1/resnet50_1/conv5_block3_1_conv_1/Squeeze"], "device": "/device:CPU:0", "attr": {"num_host_args": {"i": "0"}, "use_cudnn_on_gpu": {"b": true}, "num_args": {"i": "1"}, "filter_format": {"s": "SFdJTw=="}, "TArgs": {"list": {"type": ["DT_FLOAT"]}}, "data_format": {"s": "TkhXQw=="}, "strides": {"list": {"i": ["1", "1", "1", "1"]}}, "dilations": {"list": {"i": ["1", "1", "1", "1"]}}, "leakyrelu_alpha": {"f": 0.2}, "fused_ops": {"list": {"s": ["Qmlhc0FkZA=="]}}, "epsilon": {"f": 0.0}, "explicit_paddings": {"list": {}}, "padding": {"s": "VkFMSUQ="}, "T": {"type": "DT_FLOAT"}}}, {"name": "StatefulPartitionedCall/asl_resnet50_1/resnet50_1/conv5_block3_1_bn_1/batchnorm/mul_1", "op": "Mul", "input": ["StatefulPartitionedCall/asl_resnet50_1/resnet50_1/conv5_block3_1_conv_1/BiasAdd", "StatefulPartitionedCall/asl_resnet50_1/resnet50_1/conv5_block3_1_bn_1/batchnorm/mul"], "attr": {"T": {"type": "DT_FLOAT"}}}, {"name": "StatefulPartitionedCall/asl_resnet50_1/resnet50_1/conv5_block3_1_bn_1/batchnorm/add_1", "op": "AddV2", "input": ["StatefulPartitionedCall/asl_resnet50_1/resnet50_1/conv5_block3_1_bn_1/batchnorm/mul_1", "StatefulPartitionedCall/asl_resnet50_1/resnet50_1/conv5_block3_1_bn_1/batchnorm/sub"], "attr": {"T": {"type": "DT_FLOAT"}}}, {"name": "StatefulPartitionedCall/asl_resnet50_1/resnet50_1/conv5_block3_1_relu_1/Relu", "op": "Relu", "input": ["StatefulPartitionedCall/asl_resnet50_1/resnet50_1/conv5_block3_1_bn_1/batchnorm/add_1"], "attr": {"T": {"type": "DT_FLOAT"}}}, {"name": "StatefulPartitionedCall/asl_resnet50_1/resnet50_1/conv5_block3_2_conv_1/BiasAdd", "op": "_FusedConv2D", "input": ["StatefulPartitionedCall/asl_resnet50_1/resnet50_1/conv5_block3_1_relu_1/Relu", "StatefulPartitionedCall/asl_resnet50_1/resnet50_1/conv5_block3_2_conv_1/convolution/ReadVariableOp", "StatefulPartitionedCall/asl_resnet50_1/resnet50_1/conv5_block3_2_conv_1/Squeeze"], "device": "/device:CPU:0", "attr": {"num_host_args": {"i": "0"}, "use_cudnn_on_gpu": {"b": true}, "num_args": {"i": "1"}, "filter_format": {"s": "SFdJTw=="}, "padding": {"s": "U0FNRQ=="}, "data_format": {"s": "TkhXQw=="}, "strides": {"list": {"i": ["1", "1", "1", "1"]}}, "dilations": {"list": {"i": ["1", "1", "1", "1"]}}, "leakyrelu_alpha": {"f": 0.2}, "fused_ops": {"list": {"s": ["Qmlhc0FkZA=="]}}, "epsilon": {"f": 0.0}, "explicit_paddings": {"list": {}}, "T": {"type": "DT_FLOAT"}, "TArgs": {"list": {"type": ["DT_FLOAT"]}}}}, {"name": "StatefulPartitionedCall/asl_resnet50_1/resnet50_1/conv5_block3_2_bn_1/batchnorm/mul_1", "op": "Mul", "input": ["StatefulPartitionedCall/asl_resnet50_1/resnet50_1/conv5_block3_2_conv_1/BiasAdd", "StatefulPartitionedCall/asl_resnet50_1/resnet50_1/conv5_block3_2_bn_1/batchnorm/mul"], "attr": {"T": {"type": "DT_FLOAT"}}}, {"name": "StatefulPartitionedCall/asl_resnet50_1/resnet50_1/conv5_block3_2_bn_1/batchnorm/add_1", "op": "AddV2", "input": ["StatefulPartitionedCall/asl_resnet50_1/resnet50_1/conv5_block3_2_bn_1/batchnorm/mul_1", "StatefulPartitionedCall/asl_resnet50_1/resnet50_1/conv5_block3_2_bn_1/batchnorm/sub"], "attr": {"T": {"type": "DT_FLOAT"}}}, {"name": "StatefulPartitionedCall/asl_resnet50_1/resnet50_1/conv5_block3_2_relu_1/Relu", "op": "Relu", "input": ["StatefulPartitionedCall/asl_resnet50_1/resnet50_1/conv5_block3_2_bn_1/batchnorm/add_1"], "attr": {"T": {"type": "DT_FLOAT"}}}, {"name": "StatefulPartitionedCall/asl_resnet50_1/resnet50_1/conv5_block3_3_conv_1/BiasAdd", "op": "_FusedConv2D", "input": ["StatefulPartitionedCall/asl_resnet50_1/resnet50_1/conv5_block3_2_relu_1/Relu", "StatefulPartitionedCall/asl_resnet50_1/resnet50_1/conv5_block3_3_conv_1/convolution/ReadVariableOp", "StatefulPartitionedCall/asl_resnet50_1/resnet50_1/conv5_block3_3_conv_1/Squeeze"], "device": "/device:CPU:0", "attr": {"num_host_args": {"i": "0"}, "use_cudnn_on_gpu": {"b": true}, "num_args": {"i": "1"}, "filter_format": {"s": "SFdJTw=="}, "T": {"type": "DT_FLOAT"}, "data_format": {"s": "TkhXQw=="}, "strides": {"list": {"i": ["1", "1", "1", "1"]}}, "dilations": {"list": {"i": ["1", "1", "1", "1"]}}, "leakyrelu_alpha": {"f": 0.2}, "fused_ops": {"list": {"s": ["Qmlhc0FkZA=="]}}, "epsilon": {"f": 0.0}, "explicit_paddings": {"list": {}}, "TArgs": {"list": {"type": ["DT_FLOAT"]}}, "padding": {"s": "VkFMSUQ="}}}, {"name": "StatefulPartitionedCall/asl_resnet50_1/resnet50_1/conv5_block3_3_bn_1/batchnorm/mul_1", "op": "Mul", "input": ["StatefulPartitionedCall/asl_resnet50_1/resnet50_1/conv5_block3_3_conv_1/BiasAdd", "StatefulPartitionedCall/asl_resnet50_1/resnet50_1/conv5_block3_3_bn_1/batchnorm/mul"], "attr": {"T": {"type": "DT_FLOAT"}}}, {"name": "StatefulPartitionedCall/asl_resnet50_1/resnet50_1/conv5_block3_3_bn_1/batchnorm/add_1", "op": "AddV2", "input": ["StatefulPartitionedCall/asl_resnet50_1/resnet50_1/conv5_block3_3_bn_1/batchnorm/mul_1", "StatefulPartitionedCall/asl_resnet50_1/resnet50_1/conv5_block3_3_bn_1/batchnorm/sub"], "attr": {"T": {"type": "DT_FLOAT"}}}, {"name": "StatefulPartitionedCall/asl_resnet50_1/resnet50_1/conv5_block3_add_1/Add", "op": "AddV2", "input": ["StatefulPartitionedCall/asl_resnet50_1/resnet50_1/conv5_block2_out_1/Relu", "StatefulPartitionedCall/asl_resnet50_1/resnet50_1/conv5_block3_3_bn_1/batchnorm/add_1"], "attr": {"T": {"type": "DT_FLOAT"}}}, {"name": "StatefulPartitionedCall/asl_resnet50_1/resnet50_1/conv5_block3_out_1/Relu", "op": "Relu", "input": ["StatefulPartitionedCall/asl_resnet50_1/resnet50_1/conv5_block3_add_1/Add"], "attr": {"T": {"type": "DT_FLOAT"}}}, {"name": "StatefulPartitionedCall/asl_resnet50_1/global_average_pooling2d_1/Mean", "op": "Mean", "input": ["StatefulPartitionedCall/asl_resnet50_1/resnet50_1/conv5_block3_out_1/Relu", "StatefulPartitionedCall/asl_resnet50_1/global_average_pooling2d_1/Mean/reduction_indices"], "attr": {"Tidx": {"type": "DT_INT32"}, "T": {"type": "DT_FLOAT"}, "keep_dims": {"b": false}}}, {"name": "StatefulPartitionedCall/asl_resnet50_1/dense_1/Relu", "op": "_FusedMatMul", "input": ["StatefulPartitionedCall/asl_resnet50_1/global_average_pooling2d_1/Mean", "StatefulPartitionedCall/asl_resnet50_1/dense_1/Cast/ReadVariableOp", "StatefulPartitionedCall/asl_resnet50_1/dense_1/BiasAdd/ReadVariableOp"], "device": "/device:CPU:0", "attr": {"leakyrelu_alpha": {"f": 0.2}, "fused_ops": {"list": {"s": ["Qmlhc0FkZA==", "UmVsdQ=="]}}, "num_args": {"i": "1"}, "transpose_b": {"b": false}, "T": {"type": "DT_FLOAT"}, "transpose_a": {"b": false}, "epsilon": {"f": 0.0}}}, {"name": "StatefulPartitionedCall/asl_resnet50_1/dense_1_2/BiasAdd", "op": "_FusedMatMul", "input": ["StatefulPartitionedCall/asl_resnet50_1/dense_1/Relu", "StatefulPartitionedCall/asl_resnet50_1/dense_1_2/Cast/ReadVariableOp", "StatefulPartitionedCall/asl_resnet50_1/dense_1_2/BiasAdd/ReadVariableOp"], "device": "/device:CPU:0", "attr": {"leakyrelu_alpha": {"f": 0.2}, "fused_ops": {"list": {"s": ["Qmlhc0FkZA=="]}}, "epsilon": {"f": 0.0}, "transpose_a": {"b": false}, "T": {"type": "DT_FLOAT"}, "transpose_b": {"b": false}, "num_args": {"i": "1"}}}, {"name": "StatefulPartitionedCall/asl_resnet50_1/dense_1_2/Softmax", "op": "Softmax", "input": ["StatefulPartitionedCall/asl_resnet50_1/dense_1_2/BiasAdd"], "attr": {"T": {"type": "DT_FLOAT"}}}, {"name": "Identity", "op": "Identity", "input": ["StatefulPartitionedCall/asl_resnet50_1/dense_1_2/Softmax"], "attr": {"T": {"type": "DT_FLOAT"}}}], "library": {}, "versions": {"producer": 2474}}, "weightsManifest": [{"paths": ["group1-shard1of6.bin", "group1-shard2of6.bin", "group1-shard3of6.bin", "group1-shard4of6.bin", "group1-shard5of6.bin", "group1-shard6of6.bin"], "weights": [{"name": "StatefulPartitionedCall/asl_resnet50_1/resnet50_1/conv5_block1_0_conv_1/convolution/ReadVariableOp", "shape": [1, 1, 1024, 2048], "dtype": "float32", "quantization": {"dtype": "uint8", "min": -0.6688259078007118, "scale": 0.004519093971626431, "original_dtype": "float32"}}, {"name": "StatefulPartitionedCall/asl_resnet50_1/resnet50_1/conv5_block1_0_conv_1/Squeeze", "shape": [2048], "dtype": "float32", "quantization": {"dtype": "uint8", "min": -0.007131108104744378, "scale": 5.845170577659326e-05, "original_dtype": "float32"}}, {"name": "StatefulPartitionedCall/asl_resnet50_1/resnet50_1/conv5_block1_0_bn_1/batchnorm/mul", "shape": [1, 1, 1, 2048], "dtype": "float32", "quantization": {"dtype": "uint8", "min": 0.27018845081329346, "scale": 0.09197838306427002, "original_dtype": "float32"}}, {"name": "StatefulPartitionedCall/asl_resnet50_1/resnet50_1/conv5_block1_0_bn_1/batchnorm/sub", "shape": [1, 1, 1, 2048], "dtype": "float32", "quantization": {"dtype": "uint8", "min": -24.34684033861347, "scale": 0.1580963658351524, "original_dtype": "float32"}}, {"name": "StatefulPartitionedCall/asl_resnet50_1/resnet50_1/conv4_block1_0_conv_1/convolution/merged_input", "shape": [1, 1, 512, 1024], "dtype": "float32", "quantization": {"dtype": "uint8", "min": -0.4966628846000223, "scale": 0.004281576591379502, "original_dtype": "float32"}}, {"name": "StatefulPartitionedCall/asl_resnet50_1/resnet50_1/conv4_block1_0_bn_1/batchnorm/sub", "shape": [1, 1, 1, 1024], "dtype": "float32", "quantization": {"dtype": "uint8", "min": -3.2973830746669397, "scale": 0.027943924361584233, "original_dtype": "float32"}}, {"name": "StatefulPartitionedCall/asl_resnet50_1/resnet50_1/conv3_block1_0_conv_1/convolution/merged_input", "shape": [1, 1, 256, 512], "dtype": "float32", "quantization": {"dtype": "uint8", "min": -0.9417599755174973, "scale": 0.006406530445697261, "original_dtype": "float32"}}, {"name": "StatefulPartitionedCall/asl_resnet50_1/resnet50_1/conv3_block1_0_bn_1/batchnorm/sub", "shape": [1, 1, 1, 512], "dtype": "float32", "quantization": {"dtype": "uint8", "min": -4.06717472076416, "scale": 0.041082572937011716, "original_dtype": "float32"}}, {"name": "StatefulPartitionedCall/asl_resnet50_1/resnet50_1/conv2_block1_0_conv_1/convolution/merged_input", "shape": [1, 1, 64, 256], "dtype": "float32", "quantization": {"dtype": "uint8", "min": -1.6714399183497708, "scale": 0.011370339580610686, "original_dtype": "float32"}}, {"name": "StatefulPartitionedCall/asl_resnet50_1/resnet50_1/conv2_block1_0_bn_1/batchnorm/sub", "shape": [1, 1, 1, 256], "dtype": "float32", "quantization": {"dtype": "uint8", "min": -5.8615824942495305, "scale": 0.0837368927749933, "original_dtype": "float32"}}, {"name": "StatefulPartitionedCall/asl_resnet50_1/resnet50_1/conv1_pad_1/Const", "shape": [4, 2], "dtype": "int32"}, {"name": "StatefulPartitionedCall/asl_resnet50_1/resnet50_1/conv1_conv_1/convolution/ReadVariableOp", "shape": [7, 7, 3, 64], "dtype": "float32", "quantization": {"dtype": "uint8", "min": -0.6687967478060255, "scale": 0.005393522159726012, "original_dtype": "float32"}}, {"name": "StatefulPartitionedCall/asl_resnet50_1/resnet50_1/conv1_conv_1/Squeeze", "shape": [64], "dtype": "float32", "quantization": {"dtype": "uint8", "min": -4.4504184006878035e-09, "scale": 4.7344876603061743e-11, "original_dtype": "float32"}}, {"name": "StatefulPartitionedCall/asl_resnet50_1/resnet50_1/conv1_bn_1/batchnorm/mul", "shape": [1, 1, 1, 64], "dtype": "float32", "quantization": {"dtype": "uint8", "min": 0.00824530515819788, "scale": 0.00019163763625364678, "original_dtype": "float32"}}, {"name": "StatefulPartitionedCall/asl_resnet50_1/resnet50_1/conv1_bn_1/batchnorm/sub", "shape": [1, 1, 1, 64], "dtype": "float32", "quantization": {"dtype": "uint8", "min": -2.683772113276463, "scale": 0.03531279096416399, "original_dtype": "float32"}}, {"name": "StatefulPartitionedCall/asl_resnet50_1/resnet50_1/pool1_pad_1/Const", "shape": [4, 2], "dtype": "int32"}, {"name": "StatefulPartitionedCall/asl_resnet50_1/resnet50_1/conv2_block1_1_conv_1/convolution/merged_input", "shape": [1, 1, 64, 64], "dtype": "float32", "quantization": {"dtype": "uint8", "min": -0.8405866663829953, "scale": 0.004803352379331402, "original_dtype": "float32"}}, {"name": "StatefulPartitionedCall/asl_resnet50_1/resnet50_1/conv2_block1_1_bn_1/batchnorm/sub", "shape": [1, 1, 1, 64], "dtype": "float32", "quantization": {"dtype": "uint8", "min": -4.399525687273811, "scale": 0.03963536655201631, "original_dtype": "float32"}}, {"name": "StatefulPartitionedCall/asl_resnet50_1/resnet50_1/conv2_block1_2_conv_1/convolution/merged_input", "shape": [3, 3, 64, 64], "dtype": "float32", "quantization": {"dtype": "uint8", "min": -0.2626020487617044, "scale": 0.002225441091200885, "original_dtype": "float32"}}, {"name": "StatefulPartitionedCall/asl_resnet50_1/resnet50_1/conv2_block1_2_bn_1/batchnorm/sub", "shape": [1, 1, 1, 64], "dtype": "float32", "quantization": {"dtype": "uint8", "min": -2.525892498913933, "scale": 0.031183858011283126, "original_dtype": "float32"}}, {"name": "StatefulPartitionedCall/asl_resnet50_1/resnet50_1/conv2_block1_3_conv_1/convolution/merged_input", "shape": [1, 1, 64, 256], "dtype": "float32", "quantization": {"dtype": "uint8", "min": -1.7535503911037071, "scale": 0.013699612430497712, "original_dtype": "float32"}}, {"name": "StatefulPartitionedCall/asl_resnet50_1/resnet50_1/conv2_block1_3_bn_1/batchnorm/sub", "shape": [1, 1, 1, 256], "dtype": "float32", "quantization": {"dtype": "uint8", "min": -5.542488872303682, "scale": 0.04737169976327933, "original_dtype": "float32"}}, {"name": "StatefulPartitionedCall/asl_resnet50_1/resnet50_1/conv2_block2_1_conv_1/convolution/merged_input", "shape": [1, 1, 256, 64], "dtype": "float32", "quantization": {"dtype": "uint8", "min": -0.6599585662869847, "scale": 0.004489514056374045, "original_dtype": "float32"}}, {"name": "StatefulPartitionedCall/asl_resnet50_1/resnet50_1/conv2_block2_1_bn_1/batchnorm/sub", "shape": [1, 1, 1, 64], "dtype": "float32", "quantization": {"dtype": "uint8", "min": -3.0702430276309745, "scale": 0.03198169820448932, "original_dtype": "float32"}}, {"name": "StatefulPartitionedCall/asl_resnet50_1/resnet50_1/conv2_block2_2_conv_1/convolution/merged_input", "shape": [3, 3, 64, 64], "dtype": "float32", "quantization": {"dtype": "uint8", "min": -0.4438599628560683, "scale": 0.004109814470889522, "original_dtype": "float32"}}, {"name": "StatefulPartitionedCall/asl_resnet50_1/resnet50_1/conv2_block2_2_bn_1/batchnorm/sub", "shape": [1, 1, 1, 64], "dtype": "float32", "quantization": {"dtype": "uint8", "min": -2.767108642353731, "scale": 0.019624883988324335, "original_dtype": "float32"}}, {"name": "StatefulPartitionedCall/asl_resnet50_1/resnet50_1/conv2_block2_3_conv_1/convolution/merged_input", "shape": [1, 1, 64, 256], "dtype": "float32", "quantization": {"dtype": "uint8", "min": -1.1103364930433386, "scale": 0.010003031468858906, "original_dtype": "float32"}}, {"name": "StatefulPartitionedCall/asl_resnet50_1/resnet50_1/conv2_block2_3_bn_1/batchnorm/sub", "shape": [1, 1, 1, 256], "dtype": "float32", "quantization": {"dtype": "uint8", "min": -5.031495576746323, "scale": 0.03930855919333065, "original_dtype": "float32"}}, {"name": "StatefulPartitionedCall/asl_resnet50_1/resnet50_1/conv2_block3_1_conv_1/convolution/merged_input", "shape": [1, 1, 256, 64], "dtype": "float32", "quantization": {"dtype": "uint8", "min": -0.28490168136708877, "scale": 0.0024991375558516557, "original_dtype": "float32"}}, {"name": "StatefulPartitionedCall/asl_resnet50_1/resnet50_1/conv2_block3_1_bn_1/batchnorm/sub", "shape": [1, 1, 1, 64], "dtype": "float32", "quantization": {"dtype": "uint8", "min": -4.695629496667899, "scale": 0.02623256702049106, "original_dtype": "float32"}}, {"name": "StatefulPartitionedCall/asl_resnet50_1/resnet50_1/conv2_block3_2_conv_1/convolution/merged_input", "shape": [3, 3, 64, 64], "dtype": "float32", "quantization": {"dtype": "uint8", "min": -0.411858008889591, "scale": 0.0032176406944499298, "original_dtype": "float32"}}, {"name": "StatefulPartitionedCall/asl_resnet50_1/resnet50_1/conv2_block3_2_bn_1/batchnorm/sub", "shape": [1, 1, 1, 64], "dtype": "float32", "quantization": {"dtype": "uint8", "min": -0.7522704030953201, "scale": 0.011754225048364377, "original_dtype": "float32"}}, {"name": "StatefulPartitionedCall/asl_resnet50_1/resnet50_1/conv2_block3_3_conv_1/convolution/merged_input", "shape": [1, 1, 64, 256], "dtype": "float32", "quantization": {"dtype": "uint8", "min": -0.8996300444883458, "scale": 0.008329907819336535, "original_dtype": "float32"}}, {"name": "StatefulPartitionedCall/asl_resnet50_1/resnet50_1/conv2_block3_3_bn_1/batchnorm/sub", "shape": [1, 1, 1, 256], "dtype": "float32", "quantization": {"dtype": "uint8", "min": -3.4123420864928002, "scale": 0.02820117426853554, "original_dtype": "float32"}}, {"name": "StatefulPartitionedCall/asl_resnet50_1/resnet50_1/conv3_block1_1_conv_1/convolution/merged_input", "shape": [1, 1, 256, 128], "dtype": "float32", "quantization": {"dtype": "uint8", "min": -0.45661121536703675, "scale": 0.003004021153730505, "original_dtype": "float32"}}, {"name": "StatefulPartitionedCall/asl_resnet50_1/resnet50_1/conv3_block1_1_bn_1/batchnorm/sub", "shape": [1, 1, 1, 128], "dtype": "float32", "quantization": {"dtype": "uint8", "min": -3.2323649088541666, "scale": 0.025252850850423177, "original_dtype": "float32"}}, {"name": "StatefulPartitionedCall/asl_resnet50_1/resnet50_1/conv3_block1_2_conv_1/convolution/merged_input", "shape": [3, 3, 128, 128], "dtype": "float32", "quantization": {"dtype": "uint8", "min": -0.3974541369606467, "scale": 0.003081039821400362, "original_dtype": "float32"}}, {"name": "StatefulPartitionedCall/asl_resnet50_1/resnet50_1/conv3_block1_2_bn_1/batchnorm/sub", "shape": [1, 1, 1, 128], "dtype": "float32", "quantization": {"dtype": "uint8", "min": -2.9993494520000383, "scale": 0.028839898576923446, "original_dtype": "float32"}}, {"name": "StatefulPartitionedCall/asl_resnet50_1/resnet50_1/conv3_block1_3_conv_1/convolution/merged_input", "shape": [1, 1, 128, 512], "dtype": "float32", "quantization": {"dtype": "uint8", "min": -1.7474302665860044, "scale": 0.014441572451124004, "original_dtype": "float32"}}, {"name": "StatefulPartitionedCall/asl_resnet50_1/resnet50_1/conv3_block1_3_bn_1/batchnorm/sub", "shape": [1, 1, 1, 512], "dtype": "float32", "quantization": {"dtype": "uint8", "min": -4.754061541837805, "scale": 0.03444972131766525, "original_dtype": "float32"}}, {"name": "StatefulPartitionedCall/asl_resnet50_1/resnet50_1/conv3_block2_1_conv_1/convolution/merged_input", "shape": [1, 1, 512, 128], "dtype": "float32", "quantization": {"dtype": "uint8", "min": -0.17100234627723693, "scale": 0.0016764935909533033, "original_dtype": "float32"}}, {"name": "StatefulPartitionedCall/asl_resnet50_1/resnet50_1/conv3_block2_1_bn_1/batchnorm/sub", "shape": [1, 1, 1, 128], "dtype": "float32", "quantization": {"dtype": "uint8", "min": -3.346440646227668, "scale": 0.020159281001371494, "original_dtype": "float32"}}, {"name": "StatefulPartitionedCall/asl_resnet50_1/resnet50_1/conv3_block2_2_conv_1/convolution/merged_input", "shape": [3, 3, 128, 128], "dtype": "float32", "quantization": {"dtype": "uint8", "min": -0.32136153987809724, "scale": 0.0028692994631972966, "original_dtype": "float32"}}, {"name": "StatefulPartitionedCall/asl_resnet50_1/resnet50_1/conv3_block2_2_bn_1/batchnorm/sub", "shape": [1, 1, 1, 128], "dtype": "float32", "quantization": {"dtype": "uint8", "min": -2.28101645637961, "scale": 0.016529104756373984, "original_dtype": "float32"}}, {"name": "StatefulPartitionedCall/asl_resnet50_1/resnet50_1/conv3_block2_3_conv_1/convolution/merged_input", "shape": [1, 1, 128, 512], "dtype": "float32", "quantization": {"dtype": "uint8", "min": -1.4261652235891304, "scale": 0.014552706363154392, "original_dtype": "float32"}}, {"name": "StatefulPartitionedCall/asl_resnet50_1/resnet50_1/conv3_block2_3_bn_1/batchnorm/sub", "shape": [1, 1, 1, 512], "dtype": "float32", "quantization": {"dtype": "uint8", "min": -2.17259126551011, "scale": 0.022631159015730314, "original_dtype": "float32"}}, {"name": "StatefulPartitionedCall/asl_resnet50_1/resnet50_1/conv3_block3_1_conv_1/convolution/merged_input", "shape": [1, 1, 512, 128], "dtype": "float32", "quantization": {"dtype": "uint8", "min": -0.16053244261180652, "scale": 0.004116216477225808, "original_dtype": "float32"}}, {"name": "StatefulPartitionedCall/asl_resnet50_1/resnet50_1/conv3_block3_1_bn_1/batchnorm/sub", "shape": [1, 1, 1, 128], "dtype": "float32", "quantization": {"dtype": "uint8", "min": -3.2588612836949964, "scale": 0.022019332997939164, "original_dtype": "float32"}}, {"name": "StatefulPartitionedCall/asl_resnet50_1/resnet50_1/conv3_block3_2_conv_1/convolution/merged_input", "shape": [3, 3, 128, 128], "dtype": "float32", "quantization": {"dtype": "uint8", "min": -0.7471583506640265, "scale": 0.008588027019126742, "original_dtype": "float32"}}, {"name": "StatefulPartitionedCall/asl_resnet50_1/resnet50_1/conv3_block3_2_bn_1/batchnorm/sub", "shape": [1, 1, 1, 128], "dtype": "float32", "quantization": {"dtype": "uint8", "min": -6.109449287021862, "scale": 0.029514247763390636, "original_dtype": "float32"}}, {"name": "StatefulPartitionedCall/asl_resnet50_1/resnet50_1/conv3_block3_3_conv_1/convolution/merged_input", "shape": [1, 1, 128, 512], "dtype": "float32", "quantization": {"dtype": "uint8", "min": -1.9203493922364478, "scale": 0.013716781373117484, "original_dtype": "float32"}}, {"name": "StatefulPartitionedCall/asl_resnet50_1/resnet50_1/conv3_block3_3_bn_1/batchnorm/sub", "shape": [1, 1, 1, 512], "dtype": "float32", "quantization": {"dtype": "uint8", "min": -2.3761504229377297, "scale": 0.022207013298483454, "original_dtype": "float32"}}, {"name": "StatefulPartitionedCall/asl_resnet50_1/resnet50_1/conv3_block4_1_conv_1/convolution/merged_input", "shape": [1, 1, 512, 128], "dtype": "float32", "quantization": {"dtype": "uint8", "min": -0.44082873288322894, "scale": 0.003800247697269215, "original_dtype": "float32"}}, {"name": "StatefulPartitionedCall/asl_resnet50_1/resnet50_1/conv3_block4_1_bn_1/batchnorm/sub", "shape": [1, 1, 1, 128], "dtype": "float32", "quantization": {"dtype": "uint8", "min": -3.4889200771556177, "scale": 0.017620808470482918, "original_dtype": "float32"}}, {"name": "StatefulPartitionedCall/asl_resnet50_1/resnet50_1/conv3_block4_2_conv_1/convolution/merged_input", "shape": [3, 3, 128, 128], "dtype": "float32", "quantization": {"dtype": "uint8", "min": -0.30237457892474007, "scale": 0.00277407870573156, "original_dtype": "float32"}}, {"name": "StatefulPartitionedCall/asl_resnet50_1/resnet50_1/conv3_block4_2_bn_1/batchnorm/sub", "shape": [1, 1, 1, 128], "dtype": "float32", "quantization": {"dtype": "uint8", "min": -1.267991304397583, "scale": 0.01243128729801552, "original_dtype": "float32"}}, {"name": "StatefulPartitionedCall/asl_resnet50_1/resnet50_1/conv3_block4_3_conv_1/convolution/merged_input", "shape": [1, 1, 128, 512], "dtype": "float32", "quantization": {"dtype": "uint8", "min": -0.9784837325414021, "scale": 0.008222552374297497, "original_dtype": "float32"}}, {"name": "StatefulPartitionedCall/asl_resnet50_1/resnet50_1/conv3_block4_3_bn_1/batchnorm/sub", "shape": [1, 1, 1, 512], "dtype": "float32", "quantization": {"dtype": "uint8", "min": -3.150738547830021, "scale": 0.026256154565250173, "original_dtype": "float32"}}, {"name": "StatefulPartitionedCall/asl_resnet50_1/resnet50_1/conv4_block1_1_conv_1/convolution/merged_input", "shape": [1, 1, 512, 256], "dtype": "float32", "quantization": {"dtype": "uint8", "min": -0.25335390988518214, "scale": 0.002945975696339327, "original_dtype": "float32"}}, {"name": "StatefulPartitionedCall/asl_resnet50_1/resnet50_1/conv4_block1_1_bn_1/batchnorm/sub", "shape": [1, 1, 1, 256], "dtype": "float32", "quantization": {"dtype": "uint8", "min": -2.5044677369734822, "scale": 0.01751376039841596, "original_dtype": "float32"}}, {"name": "StatefulPartitionedCall/asl_resnet50_1/resnet50_1/conv4_block1_2_conv_1/convolution/merged_input", "shape": [3, 3, 256, 256], "dtype": "float32", "quantization": {"dtype": "uint8", "min": -0.2127749344881843, "scale": 0.0018829640220193301, "original_dtype": "float32"}}, {"name": "StatefulPartitionedCall/asl_resnet50_1/resnet50_1/conv4_block1_2_bn_1/batchnorm/sub", "shape": [1, 1, 1, 256], "dtype": "float32", "quantization": {"dtype": "uint8", "min": -3.5179637235753676, "scale": 0.02748409159043256, "original_dtype": "float32"}}, {"name": "StatefulPartitionedCall/asl_resnet50_1/resnet50_1/conv4_block1_3_conv_1/convolution/merged_input", "shape": [1, 1, 256, 1024], "dtype": "float32", "quantization": {"dtype": "uint8", "min": -1.6778353373209633, "scale": 0.012337024539124731, "original_dtype": "float32"}}, {"name": "StatefulPartitionedCall/asl_resnet50_1/resnet50_1/conv4_block1_3_bn_1/batchnorm/sub", "shape": [1, 1, 1, 1024], "dtype": "float32", "quantization": {"dtype": "uint8", "min": -2.5698471695769065, "scale": 0.026493269789452645, "original_dtype": "float32"}}, {"name": "StatefulPartitionedCall/asl_resnet50_1/resnet50_1/conv4_block2_1_conv_1/convolution/merged_input", "shape": [1, 1, 1024, 256], "dtype": "float32", "quantization": {"dtype": "uint8", "min": -0.1599059653048422, "scale": 0.002160891423038408, "original_dtype": "float32"}}, {"name": "StatefulPartitionedCall/asl_resnet50_1/resnet50_1/conv4_block2_1_bn_1/batchnorm/sub", "shape": [1, 1, 1, 256], "dtype": "float32", "quantization": {"dtype": "uint8", "min": -2.6286039913401886, "scale": 0.021905033261168237, "original_dtype": "float32"}}, {"name": "StatefulPartitionedCall/asl_resnet50_1/resnet50_1/conv4_block2_2_conv_1/convolution/merged_input", "shape": [3, 3, 256, 256], "dtype": "float32", "quantization": {"dtype": "uint8", "min": -0.6218116657406676, "scale": 0.006218116657406676, "original_dtype": "float32"}}, {"name": "StatefulPartitionedCall/asl_resnet50_1/resnet50_1/conv4_block2_2_bn_1/batchnorm/sub", "shape": [1, 1, 1, 256], "dtype": "float32", "quantization": {"dtype": "uint8", "min": -2.3745500153186274, "scale": 0.021201339422487746, "original_dtype": "float32"}}, {"name": "StatefulPartitionedCall/asl_resnet50_1/resnet50_1/conv4_block2_3_conv_1/convolution/merged_input", "shape": [1, 1, 256, 1024], "dtype": "float32", "quantization": {"dtype": "uint8", "min": -1.8814942303825828, "scale": 0.01334393071193321, "original_dtype": "float32"}}, {"name": "StatefulPartitionedCall/asl_resnet50_1/resnet50_1/conv4_block2_3_bn_1/batchnorm/sub", "shape": [1, 1, 1, 1024], "dtype": "float32", "quantization": {"dtype": "uint8", "min": -2.4657425095053283, "scale": 0.019114283019421148, "original_dtype": "float32"}}, {"name": "StatefulPartitionedCall/asl_resnet50_1/resnet50_1/conv4_block3_1_conv_1/convolution/merged_input", "shape": [1, 1, 1024, 256], "dtype": "float32", "quantization": {"dtype": "uint8", "min": -0.3437905423781451, "scale": 0.0026044738058950386, "original_dtype": "float32"}}, {"name": "StatefulPartitionedCall/asl_resnet50_1/resnet50_1/conv4_block3_1_bn_1/batchnorm/sub", "shape": [1, 1, 1, 256], "dtype": "float32", "quantization": {"dtype": "uint8", "min": -3.1071817594416, "scale": 0.017554699205884747, "original_dtype": "float32"}}, {"name": "StatefulPartitionedCall/asl_resnet50_1/resnet50_1/conv4_block3_2_conv_1/convolution/merged_input", "shape": [3, 3, 256, 256], "dtype": "float32", "quantization": {"dtype": "uint8", "min": -0.5060865638302822, "scale": 0.005561390811321782, "original_dtype": "float32"}}, {"name": "StatefulPartitionedCall/asl_resnet50_1/resnet50_1/conv4_block3_2_bn_1/batchnorm/sub", "shape": [1, 1, 1, 256], "dtype": "float32", "quantization": {"dtype": "uint8", "min": -2.5506780437394685, "scale": 0.016780776603549135, "original_dtype": "float32"}}, {"name": "StatefulPartitionedCall/asl_resnet50_1/resnet50_1/conv4_block3_3_conv_1/convolution/merged_input", "shape": [1, 1, 256, 1024], "dtype": "float32", "quantization": {"dtype": "uint8", "min": -0.8400657158271938, "scale": 0.009768205997990626, "original_dtype": "float32"}}, {"name": "StatefulPartitionedCall/asl_resnet50_1/resnet50_1/conv4_block3_3_bn_1/batchnorm/sub", "shape": [1, 1, 1, 1024], "dtype": "float32", "quantization": {"dtype": "uint8", "min": -2.2886982679367067, "scale": 0.014958812208736644, "original_dtype": "float32"}}, {"name": "StatefulPartitionedCall/asl_resnet50_1/resnet50_1/conv4_block4_1_conv_1/convolution/merged_input", "shape": [1, 1, 1024, 256], "dtype": "float32", "quantization": {"dtype": "uint8", "min": -0.16041227228501265, "scale": 0.0022279482261807313, "original_dtype": "float32"}}, {"name": "StatefulPartitionedCall/asl_resnet50_1/resnet50_1/conv4_block4_1_bn_1/batchnorm/sub", "shape": [1, 1, 1, 256], "dtype": "float32", "quantization": {"dtype": "uint8", "min": -2.4445814291636148, "scale": 0.01437989075978597, "original_dtype": "float32"}}, {"name": "StatefulPartitionedCall/asl_resnet50_1/resnet50_1/conv4_block4_2_conv_1/convolution/merged_input", "shape": [3, 3, 256, 256], "dtype": "float32", "quantization": {"dtype": "uint8", "min": -0.5866168576128342, "scale": 0.004769242744819791, "original_dtype": "float32"}}, {"name": "StatefulPartitionedCall/asl_resnet50_1/resnet50_1/conv4_block4_2_bn_1/batchnorm/sub", "shape": [1, 1, 1, 256], "dtype": "float32", "quantization": {"dtype": "uint8", "min": -3.3588459865719664, "scale": 0.018869921272876216, "original_dtype": "float32"}}, {"name": "StatefulPartitionedCall/asl_resnet50_1/resnet50_1/conv4_block4_3_conv_1/convolution/merged_input", "shape": [1, 1, 256, 1024], "dtype": "float32", "quantization": {"dtype": "uint8", "min": -1.2903479183421416, "scale": 0.011520963556626265, "original_dtype": "float32"}}, {"name": "StatefulPartitionedCall/asl_resnet50_1/resnet50_1/conv4_block4_3_bn_1/batchnorm/sub", "shape": [1, 1, 1, 1024], "dtype": "float32", "quantization": {"dtype": "uint8", "min": -2.3274133415783154, "scale": 0.015413333387935864, "original_dtype": "float32"}}, {"name": "StatefulPartitionedCall/asl_resnet50_1/resnet50_1/conv4_block5_1_conv_1/convolution/merged_input", "shape": [1, 1, 1024, 256], "dtype": "float32", "quantization": {"dtype": "uint8", "min": -0.19395552277565004, "scale": 0.0024551331996917726, "original_dtype": "float32"}}, {"name": "StatefulPartitionedCall/asl_resnet50_1/resnet50_1/conv4_block5_1_bn_1/batchnorm/sub", "shape": [1, 1, 1, 256], "dtype": "float32", "quantization": {"dtype": "uint8", "min": -1.865778014239143, "scale": 0.012956791765549603, "original_dtype": "float32"}}, {"name": "StatefulPartitionedCall/asl_resnet50_1/resnet50_1/conv4_block5_2_conv_1/convolution/merged_input", "shape": [3, 3, 256, 256], "dtype": "float32", "quantization": {"dtype": "uint8", "min": -0.6095152181737563, "scale": 0.005079293484781302, "original_dtype": "float32"}}, {"name": "StatefulPartitionedCall/asl_resnet50_1/resnet50_1/conv4_block5_2_bn_1/batchnorm/sub", "shape": [1, 1, 1, 256], "dtype": "float32", "quantization": {"dtype": "uint8", "min": -2.7376252132303573, "scale": 0.015125001178068273, "original_dtype": "float32"}}, {"name": "StatefulPartitionedCall/asl_resnet50_1/resnet50_1/conv4_block5_3_conv_1/convolution/merged_input", "shape": [1, 1, 256, 1024], "dtype": "float32", "quantization": {"dtype": "uint8", "min": -0.8421109477678934, "scale": 0.008337732156117756, "original_dtype": "float32"}}, {"name": "StatefulPartitionedCall/asl_resnet50_1/resnet50_1/conv4_block5_3_bn_1/batchnorm/sub", "shape": [1, 1, 1, 1024], "dtype": "float32", "quantization": {"dtype": "uint8", "min": -5.686091750275855, "scale": 0.029010672195284973, "original_dtype": "float32"}}, {"name": "StatefulPartitionedCall/asl_resnet50_1/resnet50_1/conv4_block6_1_conv_1/convolution/merged_input", "shape": [1, 1, 1024, 256], "dtype": "float32", "quantization": {"dtype": "uint8", "min": -0.19391742874594298, "scale": 0.002423967859324287, "original_dtype": "float32"}}, {"name": "StatefulPartitionedCall/asl_resnet50_1/resnet50_1/conv4_block6_1_bn_1/batchnorm/sub", "shape": [1, 1, 1, 256], "dtype": "float32", "quantization": {"dtype": "uint8", "min": -1.621886724584243, "scale": 0.00965408764633478, "original_dtype": "float32"}}, {"name": "StatefulPartitionedCall/asl_resnet50_1/resnet50_1/conv4_block6_2_conv_1/convolution/merged_input", "shape": [3, 3, 256, 256], "dtype": "float32", "quantization": {"dtype": "uint8", "min": -0.5074823603910559, "scale": 0.004059858883128447, "original_dtype": "float32"}}, {"name": "StatefulPartitionedCall/asl_resnet50_1/resnet50_1/conv4_block6_2_bn_1/batchnorm/sub", "shape": [1, 1, 1, 256], "dtype": "float32", "quantization": {"dtype": "uint8", "min": -2.450225809508679, "scale": 0.01591055720460181, "original_dtype": "float32"}}, {"name": "StatefulPartitionedCall/asl_resnet50_1/resnet50_1/conv4_block6_3_conv_1/convolution/merged_input", "shape": [1, 1, 256, 1024], "dtype": "float32", "quantization": {"dtype": "uint8", "min": -0.5985852059196023, "scale": 0.007674169306661568, "original_dtype": "float32"}}, {"name": "StatefulPartitionedCall/asl_resnet50_1/resnet50_1/conv4_block6_3_bn_1/batchnorm/sub", "shape": [1, 1, 1, 1024], "dtype": "float32", "quantization": {"dtype": "uint8", "min": -2.986920431548474, "scale": 0.02059945125205844, "original_dtype": "float32"}}, {"name": "StatefulPartitionedCall/asl_resnet50_1/resnet50_1/conv5_block1_1_conv_1/convolution/ReadVariableOp", "shape": [1, 1, 1024, 512], "dtype": "float32", "quantization": {"dtype": "uint8", "min": -0.18743314509298287, "scale": 0.002037316794488944, "original_dtype": "float32"}}, {"name": "StatefulPartitionedCall/asl_resnet50_1/resnet50_1/conv5_block1_1_conv_1/Squeeze", "shape": [512], "dtype": "float32", "quantization": {"dtype": "uint8", "min": -0.0076196713409587445, "scale": 6.095737072766996e-05, "original_dtype": "float32"}}, {"name": "StatefulPartitionedCall/asl_resnet50_1/resnet50_1/conv5_block1_1_bn_1/batchnorm/mul", "shape": [1, 1, 1, 512], "dtype": "float32", "quantization": {"dtype": "uint8", "min": 0.5783044695854187, "scale": 0.020819261261061126, "original_dtype": "float32"}}, {"name": "StatefulPartitionedCall/asl_resnet50_1/resnet50_1/conv5_block1_1_bn_1/batchnorm/sub", "shape": [1, 1, 1, 512], "dtype": "float32", "quantization": {"dtype": "uint8", "min": -8.993473561604818, "scale": 0.07252801259358724, "original_dtype": "float32"}}, {"name": "StatefulPartitionedCall/asl_resnet50_1/resnet50_1/conv5_block1_2_conv_1/convolution/ReadVariableOp", "shape": [3, 3, 512, 512], "dtype": "float32", "quantization": {"dtype": "uint8", "min": -0.1582296429311528, "scale": 0.0016655751887489768, "original_dtype": "float32"}}, {"name": "StatefulPartitionedCall/asl_resnet50_1/resnet50_1/conv5_block1_2_conv_1/Squeeze", "shape": [512], "dtype": "float32", "quantization": {"dtype": "uint8", "min": -0.0020400227102286674, "scale": 1.94287877164635e-05, "original_dtype": "float32"}}, {"name": "StatefulPartitionedCall/asl_resnet50_1/resnet50_1/conv5_block1_2_bn_1/batchnorm/mul", "shape": [1, 1, 1, 512], "dtype": "float32", "quantization": {"dtype": "uint8", "min": 0.7530445456504822, "scale": 0.015700802382300882, "original_dtype": "float32"}}, {"name": "StatefulPartitionedCall/asl_resnet50_1/resnet50_1/conv5_block1_2_bn_1/batchnorm/sub", "shape": [1, 1, 1, 512], "dtype": "float32", "quantization": {"dtype": "uint8", "min": -2.7402189292159735, "scale": 0.017453623752967985, "original_dtype": "float32"}}, {"name": "StatefulPartitionedCall/asl_resnet50_1/resnet50_1/conv5_block1_3_conv_1/convolution/ReadVariableOp", "shape": [1, 1, 512, 2048], "dtype": "float32", "quantization": {"dtype": "uint8", "min": -0.3339149045009239, "scale": 0.0029813830759011064, "original_dtype": "float32"}}, {"name": "StatefulPartitionedCall/asl_resnet50_1/resnet50_1/conv5_block1_3_conv_1/Squeeze", "shape": [2048], "dtype": "float32", "quantization": {"dtype": "uint8", "min": -0.0025942786980201215, "scale": 1.893634086146074e-05, "original_dtype": "float32"}}, {"name": "StatefulPartitionedCall/asl_resnet50_1/resnet50_1/conv5_block1_3_bn_1/batchnorm/mul", "shape": [1, 1, 1, 2048], "dtype": "float32", "quantization": {"dtype": "uint8", "min": 1.3616799116134644, "scale": 0.044171629232518814, "original_dtype": "float32"}}, {"name": "StatefulPartitionedCall/asl_resnet50_1/resnet50_1/conv5_block1_3_bn_1/batchnorm/sub", "shape": [1, 1, 1, 2048], "dtype": "float32", "quantization": {"dtype": "uint8", "min": -3.2659144289353317, "scale": 0.026552149828742534, "original_dtype": "float32"}}, {"name": "StatefulPartitionedCall/asl_resnet50_1/resnet50_1/conv5_block2_1_conv_1/convolution/ReadVariableOp", "shape": [1, 1, 2048, 512], "dtype": "float32", "quantization": {"dtype": "uint8", "min": -0.30481678387698, "scale": 0.0035036411939882764, "original_dtype": "float32"}}, {"name": "StatefulPartitionedCall/asl_resnet50_1/resnet50_1/conv5_block2_1_conv_1/Squeeze", "shape": [512], "dtype": "float32", "quantization": {"dtype": "uint8", "min": -0.0007343053836010251, "scale": 5.245038454293036e-06, "original_dtype": "float32"}}, {"name": "StatefulPartitionedCall/asl_resnet50_1/resnet50_1/conv5_block2_1_bn_1/batchnorm/mul", "shape": [1, 1, 1, 512], "dtype": "float32", "quantization": {"dtype": "uint8", "min": 0.228829488158226, "scale": 0.005732792089967167, "original_dtype": "float32"}}, {"name": "StatefulPartitionedCall/asl_resnet50_1/resnet50_1/conv5_block2_1_bn_1/batchnorm/sub", "shape": [1, 1, 1, 512], "dtype": "float32", "quantization": {"dtype": "uint8", "min": -3.2398941797368668, "scale": 0.01917097147773294, "original_dtype": "float32"}}, {"name": "StatefulPartitionedCall/asl_resnet50_1/resnet50_1/conv5_block2_2_conv_1/convolution/ReadVariableOp", "shape": [3, 3, 512, 512], "dtype": "float32", "quantization": {"dtype": "uint8", "min": -0.21214254954281975, "scale": 0.0020013448070077336, "original_dtype": "float32"}}, {"name": "StatefulPartitionedCall/asl_resnet50_1/resnet50_1/conv5_block2_2_conv_1/Squeeze", "shape": [512], "dtype": "float32", "quantization": {"dtype": "uint8", "min": -0.0016086475923657417, "scale": 1.3632606714963913e-05, "original_dtype": "float32"}}, {"name": "StatefulPartitionedCall/asl_resnet50_1/resnet50_1/conv5_block2_2_bn_1/batchnorm/mul", "shape": [1, 1, 1, 512], "dtype": "float32", "quantization": {"dtype": "uint8", "min": 0.41702550649642944, "scale": 0.00841301212123796, "original_dtype": "float32"}}, {"name": "StatefulPartitionedCall/asl_resnet50_1/resnet50_1/conv5_block2_2_bn_1/batchnorm/sub", "shape": [1, 1, 1, 512], "dtype": "float32", "quantization": {"dtype": "uint8", "min": -2.223931787528244, "scale": 0.012929835974001417, "original_dtype": "float32"}}, {"name": "StatefulPartitionedCall/asl_resnet50_1/resnet50_1/conv5_block2_3_conv_1/convolution/ReadVariableOp", "shape": [1, 1, 512, 2048], "dtype": "float32", "quantization": {"dtype": "uint8", "min": -0.20755366373295878, "scale": 0.0019397538666631662, "original_dtype": "float32"}}, {"name": "StatefulPartitionedCall/asl_resnet50_1/resnet50_1/conv5_block2_3_conv_1/Squeeze", "shape": [2048], "dtype": "float32", "quantization": {"dtype": "uint8", "min": -0.001954724053925305, "scale": 1.3669398978498637e-05, "original_dtype": "float32"}}, {"name": "StatefulPartitionedCall/asl_resnet50_1/resnet50_1/conv5_block2_3_bn_1/batchnorm/mul", "shape": [1, 1, 1, 2048], "dtype": "float32", "quantization": {"dtype": "uint8", "min": 1.4870436191558838, "scale": 0.053221638062421014, "original_dtype": "float32"}}, {"name": "StatefulPartitionedCall/asl_resnet50_1/resnet50_1/conv5_block2_3_bn_1/batchnorm/sub", "shape": [1, 1, 1, 2048], "dtype": "float32", "quantization": {"dtype": "uint8", "min": -4.896140975578159, "scale": 0.02705050262750364, "original_dtype": "float32"}}, {"name": "StatefulPartitionedCall/asl_resnet50_1/resnet50_1/conv5_block3_1_conv_1/convolution/ReadVariableOp", "shape": [1, 1, 2048, 512], "dtype": "float32", "quantization": {"dtype": "uint8", "min": -0.28433939849629125, "scale": 0.0030906456358292525, "original_dtype": "float32"}}, {"name": "StatefulPartitionedCall/asl_resnet50_1/resnet50_1/conv5_block3_1_conv_1/Squeeze", "shape": [512], "dtype": "float32", "quantization": {"dtype": "uint8", "min": -0.0004793800203604441, "scale": 3.774645829609796e-06, "original_dtype": "float32"}}, {"name": "StatefulPartitionedCall/asl_resnet50_1/resnet50_1/conv5_block3_1_bn_1/batchnorm/mul", "shape": [1, 1, 1, 512], "dtype": "float32", "quantization": {"dtype": "uint8", "min": 0.22618426382541656, "scale": 0.006418545982416938, "original_dtype": "float32"}}, {"name": "StatefulPartitionedCall/asl_resnet50_1/resnet50_1/conv5_block3_1_bn_1/batchnorm/sub", "shape": [1, 1, 1, 512], "dtype": "float32", "quantization": {"dtype": "uint8", "min": -3.580967378616333, "scale": 0.017553761659883985, "original_dtype": "float32"}}, {"name": "StatefulPartitionedCall/asl_resnet50_1/resnet50_1/conv5_block3_2_conv_1/convolution/ReadVariableOp", "shape": [3, 3, 512, 512], "dtype": "float32", "quantization": {"dtype": "uint8", "min": -0.14921441872914631, "scale": 0.0010971648435966642, "original_dtype": "float32"}}, {"name": "StatefulPartitionedCall/asl_resnet50_1/resnet50_1/conv5_block3_2_conv_1/Squeeze", "shape": [512], "dtype": "float32", "quantization": {"dtype": "uint8", "min": -0.0012184344670351814, "scale": 1.1281800620696124e-05, "original_dtype": "float32"}}, {"name": "StatefulPartitionedCall/asl_resnet50_1/resnet50_1/conv5_block3_2_bn_1/batchnorm/mul", "shape": [1, 1, 1, 512], "dtype": "float32", "quantization": {"dtype": "uint8", "min": 0.4807019531726837, "scale": 0.008114468700745527, "original_dtype": "float32"}}, {"name": "StatefulPartitionedCall/asl_resnet50_1/resnet50_1/conv5_block3_2_bn_1/batchnorm/sub", "shape": [1, 1, 1, 512], "dtype": "float32", "quantization": {"dtype": "uint8", "min": -2.8434410193387203, "scale": 0.0155379290674247, "original_dtype": "float32"}}, {"name": "StatefulPartitionedCall/asl_resnet50_1/resnet50_1/conv5_block3_3_conv_1/convolution/ReadVariableOp", "shape": [1, 1, 512, 2048], "dtype": "float32", "quantization": {"dtype": "uint8", "min": -0.14781909339568194, "scale": 0.0017597511118533564, "original_dtype": "float32"}}, {"name": "StatefulPartitionedCall/asl_resnet50_1/resnet50_1/conv5_block3_3_conv_1/Squeeze", "shape": [2048], "dtype": "float32", "quantization": {"dtype": "uint8", "min": -0.0030550588360604117, "scale": 1.958371048756674e-05, "original_dtype": "float32"}}, {"name": "StatefulPartitionedCall/asl_resnet50_1/resnet50_1/conv5_block3_3_bn_1/batchnorm/mul", "shape": [1, 1, 1, 2048], "dtype": "float32", "quantization": {"dtype": "uint8", "min": 1.464548110961914, "scale": 0.05590901842304304, "original_dtype": "float32"}}, {"name": "StatefulPartitionedCall/asl_resnet50_1/resnet50_1/conv5_block3_3_bn_1/batchnorm/sub", "shape": [1, 1, 1, 2048], "dtype": "float32", "quantization": {"dtype": "uint8", "min": -4.639031226962221, "scale": 0.023668526668174594, "original_dtype": "float32"}}, {"name": "StatefulPartitionedCall/asl_resnet50_1/global_average_pooling2d_1/Mean/reduction_indices", "shape": [2], "dtype": "int32"}, {"name": "StatefulPartitionedCall/asl_resnet50_1/dense_1/Cast/ReadVariableOp", "shape": [2048, 128], "dtype": "float32", "quantization": {"dtype": "uint8", "min": -5.1509217206169575, "scale": 0.046404700185738355, "original_dtype": "float32"}}, {"name": "StatefulPartitionedCall/asl_resnet50_1/dense_1/BiasAdd/ReadVariableOp", "shape": [128], "dtype": "float32", "quantization": {"dtype": "uint8", "min": -0.24471466547133874, "scale": 0.0018680508814606011, "original_dtype": "float32"}}, {"name": "StatefulPartitionedCall/asl_resnet50_1/dense_1_2/Cast/ReadVariableOp", "shape": [128, 29], "dtype": "float32", "quantization": {"dtype": "uint8", "min": -2.3011844429315307, "scale": 0.012928002488379385, "original_dtype": "float32"}}, {"name": "StatefulPartitionedCall/asl_resnet50_1/dense_1_2/BiasAdd/ReadVariableOp", "shape": [29], "dtype": "float32", "quantization": {"dtype": "uint8", "min": -0.48390549187566717, "scale": 0.003121970915326885, "original_dtype": "float32"}}]}]}