{"format": "graph-model", "generatedBy": "2.19.0", "convertedBy": "TensorFlow.js Converter v4.22.0", "signature": {"inputs": {"inputs": {"name": "inputs:0", "dtype": "DT_FLOAT", "tensorShape": {"dim": [{"size": "-1"}, {"size": "96"}, {"size": "96"}, {"size": "3"}]}}}, "outputs": {"output_0": {"name": "Identity:0", "dtype": "DT_FLOAT", "tensorShape": {"dim": [{"size": "-1"}, {"size": "29"}]}}}}, "modelTopology": {"node": [{"name": "StatefulPartitionedCall/asl_resnet50_improved_1/resnet50_1/conv5_block1_0_conv_1/convolution/ReadVariableOp", "op": "Const", "attr": {"value": {"tensor": {"dtype": "DT_FLOAT", "tensorShape": {"dim": [{"size": "1"}, {"size": "1"}, {"size": "1024"}, {"size": "2048"}]}}}, "dtype": {"type": "DT_FLOAT"}}}, {"name": "StatefulPartitionedCall/asl_resnet50_improved_1/resnet50_1/conv5_block1_0_conv_1/Squeeze", "op": "Const", "attr": {"value": {"tensor": {"dtype": "DT_FLOAT", "tensorShape": {"dim": [{"size": "2048"}]}}}, "dtype": {"type": "DT_FLOAT"}}}, {"name": "StatefulPartitionedCall/asl_resnet50_improved_1/resnet50_1/conv5_block1_0_bn_1/batchnorm/mul", "op": "Const", "attr": {"value": {"tensor": {"dtype": "DT_FLOAT", "tensorShape": {"dim": [{"size": "1"}, {"size": "1"}, {"size": "1"}, {"size": "2048"}]}}}, "dtype": {"type": "DT_FLOAT"}}}, {"name": "StatefulPartitionedCall/asl_resnet50_improved_1/resnet50_1/conv5_block1_0_bn_1/batchnorm/sub", "op": "Const", "attr": {"value": {"tensor": {"dtype": "DT_FLOAT", "tensorShape": {"dim": [{"size": "1"}, {"size": "1"}, {"size": "1"}, {"size": "2048"}]}}}, "dtype": {"type": "DT_FLOAT"}}}, {"name": "StatefulPartitionedCall/asl_resnet50_improved_1/resnet50_1/conv4_block1_0_conv_1/convolution/ReadVariableOp", "op": "Const", "attr": {"value": {"tensor": {"dtype": "DT_FLOAT", "tensorShape": {"dim": [{"size": "1"}, {"size": "1"}, {"size": "512"}, {"size": "1024"}]}}}, "dtype": {"type": "DT_FLOAT"}}}, {"name": "StatefulPartitionedCall/asl_resnet50_improved_1/resnet50_1/conv4_block1_0_conv_1/Squeeze", "op": "Const", "attr": {"value": {"tensor": {"dtype": "DT_FLOAT", "tensorShape": {"dim": [{"size": "1024"}]}}}, "dtype": {"type": "DT_FLOAT"}}}, {"name": "StatefulPartitionedCall/asl_resnet50_improved_1/resnet50_1/conv4_block1_0_bn_1/batchnorm/mul", "op": "Const", "attr": {"value": {"tensor": {"dtype": "DT_FLOAT", "tensorShape": {"dim": [{"size": "1"}, {"size": "1"}, {"size": "1"}, {"size": "1024"}]}}}, "dtype": {"type": "DT_FLOAT"}}}, {"name": "StatefulPartitionedCall/asl_resnet50_improved_1/resnet50_1/conv4_block1_0_bn_1/batchnorm/sub", "op": "Const", "attr": {"value": {"tensor": {"dtype": "DT_FLOAT", "tensorShape": {"dim": [{"size": "1"}, {"size": "1"}, {"size": "1"}, {"size": "1024"}]}}}, "dtype": {"type": "DT_FLOAT"}}}, {"name": "StatefulPartitionedCall/asl_resnet50_improved_1/resnet50_1/conv3_block1_0_conv_1/convolution/ReadVariableOp", "op": "Const", "attr": {"value": {"tensor": {"dtype": "DT_FLOAT", "tensorShape": {"dim": [{"size": "1"}, {"size": "1"}, {"size": "256"}, {"size": "512"}]}}}, "dtype": {"type": "DT_FLOAT"}}}, {"name": "StatefulPartitionedCall/asl_resnet50_improved_1/resnet50_1/conv3_block1_0_conv_1/Squeeze", "op": "Const", "attr": {"value": {"tensor": {"dtype": "DT_FLOAT", "tensorShape": {"dim": [{"size": "512"}]}}}, "dtype": {"type": "DT_FLOAT"}}}, {"name": "StatefulPartitionedCall/asl_resnet50_improved_1/resnet50_1/conv3_block1_0_bn_1/batchnorm/mul", "op": "Const", "attr": {"value": {"tensor": {"dtype": "DT_FLOAT", "tensorShape": {"dim": [{"size": "1"}, {"size": "1"}, {"size": "1"}, {"size": "512"}]}}}, "dtype": {"type": "DT_FLOAT"}}}, {"name": "StatefulPartitionedCall/asl_resnet50_improved_1/resnet50_1/conv3_block1_0_bn_1/batchnorm/sub", "op": "Const", "attr": {"value": {"tensor": {"dtype": "DT_FLOAT", "tensorShape": {"dim": [{"size": "1"}, {"size": "1"}, {"size": "1"}, {"size": "512"}]}}}, "dtype": {"type": "DT_FLOAT"}}}, {"name": "StatefulPartitionedCall/asl_resnet50_improved_1/resnet50_1/conv2_block1_0_conv_1/convolution/ReadVariableOp", "op": "Const", "attr": {"value": {"tensor": {"dtype": "DT_FLOAT", "tensorShape": {"dim": [{"size": "1"}, {"size": "1"}, {"size": "64"}, {"size": "256"}]}}}, "dtype": {"type": "DT_FLOAT"}}}, {"name": "StatefulPartitionedCall/asl_resnet50_improved_1/resnet50_1/conv2_block1_0_conv_1/Squeeze", "op": "Const", "attr": {"value": {"tensor": {"dtype": "DT_FLOAT", "tensorShape": {"dim": [{"size": "256"}]}}}, "dtype": {"type": "DT_FLOAT"}}}, {"name": "StatefulPartitionedCall/asl_resnet50_improved_1/resnet50_1/conv2_block1_0_bn_1/batchnorm/mul", "op": "Const", "attr": {"value": {"tensor": {"dtype": "DT_FLOAT", "tensorShape": {"dim": [{"size": "1"}, {"size": "1"}, {"size": "1"}, {"size": "256"}]}}}, "dtype": {"type": "DT_FLOAT"}}}, {"name": "StatefulPartitionedCall/asl_resnet50_improved_1/resnet50_1/conv2_block1_0_bn_1/batchnorm/sub", "op": "Const", "attr": {"value": {"tensor": {"dtype": "DT_FLOAT", "tensorShape": {"dim": [{"size": "1"}, {"size": "1"}, {"size": "1"}, {"size": "256"}]}}}, "dtype": {"type": "DT_FLOAT"}}}, {"name": "StatefulPartitionedCall/asl_resnet50_improved_1/resnet50_1/conv1_pad_1/Const", "op": "Const", "attr": {"value": {"tensor": {"dtype": "DT_INT32", "tensorShape": {"dim": [{"size": "4"}, {"size": "2"}]}}}, "dtype": {"type": "DT_INT32"}}}, {"name": "StatefulPartitionedCall/asl_resnet50_improved_1/resnet50_1/conv1_conv_1/convolution/ReadVariableOp", "op": "Const", "attr": {"value": {"tensor": {"dtype": "DT_FLOAT", "tensorShape": {"dim": [{"size": "7"}, {"size": "7"}, {"size": "3"}, {"size": "64"}]}}}, "dtype": {"type": "DT_FLOAT"}}}, {"name": "StatefulPartitionedCall/asl_resnet50_improved_1/resnet50_1/conv1_conv_1/Squeeze", "op": "Const", "attr": {"value": {"tensor": {"dtype": "DT_FLOAT", "tensorShape": {"dim": [{"size": "64"}]}}}, "dtype": {"type": "DT_FLOAT"}}}, {"name": "StatefulPartitionedCall/asl_resnet50_improved_1/resnet50_1/conv1_bn_1/batchnorm/mul", "op": "Const", "attr": {"value": {"tensor": {"dtype": "DT_FLOAT", "tensorShape": {"dim": [{"size": "1"}, {"size": "1"}, {"size": "1"}, {"size": "64"}]}}}, "dtype": {"type": "DT_FLOAT"}}}, {"name": "StatefulPartitionedCall/asl_resnet50_improved_1/resnet50_1/conv1_bn_1/batchnorm/sub", "op": "Const", "attr": {"value": {"tensor": {"dtype": "DT_FLOAT", "tensorShape": {"dim": [{"size": "1"}, {"size": "1"}, {"size": "1"}, {"size": "64"}]}}}, "dtype": {"type": "DT_FLOAT"}}}, {"name": "StatefulPartitionedCall/asl_resnet50_improved_1/resnet50_1/pool1_pad_1/Const", "op": "Const", "attr": {"value": {"tensor": {"dtype": "DT_INT32", "tensorShape": {"dim": [{"size": "4"}, {"size": "2"}]}}}, "dtype": {"type": "DT_INT32"}}}, {"name": "StatefulPartitionedCall/asl_resnet50_improved_1/resnet50_1/conv2_block1_1_conv_1/convolution/ReadVariableOp", "op": "Const", "attr": {"value": {"tensor": {"dtype": "DT_FLOAT", "tensorShape": {"dim": [{"size": "1"}, {"size": "1"}, {"size": "64"}, {"size": "64"}]}}}, "dtype": {"type": "DT_FLOAT"}}}, {"name": "StatefulPartitionedCall/asl_resnet50_improved_1/resnet50_1/conv2_block1_1_conv_1/Squeeze", "op": "Const", "attr": {"value": {"tensor": {"dtype": "DT_FLOAT", "tensorShape": {"dim": [{"size": "64"}]}}}, "dtype": {"type": "DT_FLOAT"}}}, {"name": "StatefulPartitionedCall/asl_resnet50_improved_1/resnet50_1/conv2_block1_1_bn_1/batchnorm/mul", "op": "Const", "attr": {"value": {"tensor": {"dtype": "DT_FLOAT", "tensorShape": {"dim": [{"size": "1"}, {"size": "1"}, {"size": "1"}, {"size": "64"}]}}}, "dtype": {"type": "DT_FLOAT"}}}, {"name": "StatefulPartitionedCall/asl_resnet50_improved_1/resnet50_1/conv2_block1_1_bn_1/batchnorm/sub", "op": "Const", "attr": {"value": {"tensor": {"dtype": "DT_FLOAT", "tensorShape": {"dim": [{"size": "1"}, {"size": "1"}, {"size": "1"}, {"size": "64"}]}}}, "dtype": {"type": "DT_FLOAT"}}}, {"name": "StatefulPartitionedCall/asl_resnet50_improved_1/resnet50_1/conv2_block1_2_conv_1/convolution/ReadVariableOp", "op": "Const", "attr": {"value": {"tensor": {"dtype": "DT_FLOAT", "tensorShape": {"dim": [{"size": "3"}, {"size": "3"}, {"size": "64"}, {"size": "64"}]}}}, "dtype": {"type": "DT_FLOAT"}}}, {"name": "StatefulPartitionedCall/asl_resnet50_improved_1/resnet50_1/conv2_block1_2_conv_1/Squeeze", "op": "Const", "attr": {"value": {"tensor": {"dtype": "DT_FLOAT", "tensorShape": {"dim": [{"size": "64"}]}}}, "dtype": {"type": "DT_FLOAT"}}}, {"name": "StatefulPartitionedCall/asl_resnet50_improved_1/resnet50_1/conv2_block1_2_bn_1/batchnorm/mul", "op": "Const", "attr": {"value": {"tensor": {"dtype": "DT_FLOAT", "tensorShape": {"dim": [{"size": "1"}, {"size": "1"}, {"size": "1"}, {"size": "64"}]}}}, "dtype": {"type": "DT_FLOAT"}}}, {"name": "StatefulPartitionedCall/asl_resnet50_improved_1/resnet50_1/conv2_block1_2_bn_1/batchnorm/sub", "op": "Const", "attr": {"value": {"tensor": {"dtype": "DT_FLOAT", "tensorShape": {"dim": [{"size": "1"}, {"size": "1"}, {"size": "1"}, {"size": "64"}]}}}, "dtype": {"type": "DT_FLOAT"}}}, {"name": "StatefulPartitionedCall/asl_resnet50_improved_1/resnet50_1/conv2_block1_3_conv_1/convolution/ReadVariableOp", "op": "Const", "attr": {"value": {"tensor": {"dtype": "DT_FLOAT", "tensorShape": {"dim": [{"size": "1"}, {"size": "1"}, {"size": "64"}, {"size": "256"}]}}}, "dtype": {"type": "DT_FLOAT"}}}, {"name": "StatefulPartitionedCall/asl_resnet50_improved_1/resnet50_1/conv2_block1_3_conv_1/Squeeze", "op": "Const", "attr": {"value": {"tensor": {"dtype": "DT_FLOAT", "tensorShape": {"dim": [{"size": "256"}]}}}, "dtype": {"type": "DT_FLOAT"}}}, {"name": "StatefulPartitionedCall/asl_resnet50_improved_1/resnet50_1/conv2_block1_3_bn_1/batchnorm/mul", "op": "Const", "attr": {"value": {"tensor": {"dtype": "DT_FLOAT", "tensorShape": {"dim": [{"size": "1"}, {"size": "1"}, {"size": "1"}, {"size": "256"}]}}}, "dtype": {"type": "DT_FLOAT"}}}, {"name": "StatefulPartitionedCall/asl_resnet50_improved_1/resnet50_1/conv2_block1_3_bn_1/batchnorm/sub", "op": "Const", "attr": {"value": {"tensor": {"dtype": "DT_FLOAT", "tensorShape": {"dim": [{"size": "1"}, {"size": "1"}, {"size": "1"}, {"size": "256"}]}}}, "dtype": {"type": "DT_FLOAT"}}}, {"name": "StatefulPartitionedCall/asl_resnet50_improved_1/resnet50_1/conv2_block2_1_conv_1/convolution/ReadVariableOp", "op": "Const", "attr": {"value": {"tensor": {"dtype": "DT_FLOAT", "tensorShape": {"dim": [{"size": "1"}, {"size": "1"}, {"size": "256"}, {"size": "64"}]}}}, "dtype": {"type": "DT_FLOAT"}}}, {"name": "StatefulPartitionedCall/asl_resnet50_improved_1/resnet50_1/conv2_block2_1_conv_1/Squeeze", "op": "Const", "attr": {"value": {"tensor": {"dtype": "DT_FLOAT", "tensorShape": {"dim": [{"size": "64"}]}}}, "dtype": {"type": "DT_FLOAT"}}}, {"name": "StatefulPartitionedCall/asl_resnet50_improved_1/resnet50_1/conv2_block2_1_bn_1/batchnorm/mul", "op": "Const", "attr": {"value": {"tensor": {"dtype": "DT_FLOAT", "tensorShape": {"dim": [{"size": "1"}, {"size": "1"}, {"size": "1"}, {"size": "64"}]}}}, "dtype": {"type": "DT_FLOAT"}}}, {"name": "StatefulPartitionedCall/asl_resnet50_improved_1/resnet50_1/conv2_block2_1_bn_1/batchnorm/sub", "op": "Const", "attr": {"value": {"tensor": {"dtype": "DT_FLOAT", "tensorShape": {"dim": [{"size": "1"}, {"size": "1"}, {"size": "1"}, {"size": "64"}]}}}, "dtype": {"type": "DT_FLOAT"}}}, {"name": "StatefulPartitionedCall/asl_resnet50_improved_1/resnet50_1/conv2_block2_2_conv_1/convolution/ReadVariableOp", "op": "Const", "attr": {"value": {"tensor": {"dtype": "DT_FLOAT", "tensorShape": {"dim": [{"size": "3"}, {"size": "3"}, {"size": "64"}, {"size": "64"}]}}}, "dtype": {"type": "DT_FLOAT"}}}, {"name": "StatefulPartitionedCall/asl_resnet50_improved_1/resnet50_1/conv2_block2_2_conv_1/Squeeze", "op": "Const", "attr": {"value": {"tensor": {"dtype": "DT_FLOAT", "tensorShape": {"dim": [{"size": "64"}]}}}, "dtype": {"type": "DT_FLOAT"}}}, {"name": "StatefulPartitionedCall/asl_resnet50_improved_1/resnet50_1/conv2_block2_2_bn_1/batchnorm/mul", "op": "Const", "attr": {"value": {"tensor": {"dtype": "DT_FLOAT", "tensorShape": {"dim": [{"size": "1"}, {"size": "1"}, {"size": "1"}, {"size": "64"}]}}}, "dtype": {"type": "DT_FLOAT"}}}, {"name": "StatefulPartitionedCall/asl_resnet50_improved_1/resnet50_1/conv2_block2_2_bn_1/batchnorm/sub", "op": "Const", "attr": {"value": {"tensor": {"dtype": "DT_FLOAT", "tensorShape": {"dim": [{"size": "1"}, {"size": "1"}, {"size": "1"}, {"size": "64"}]}}}, "dtype": {"type": "DT_FLOAT"}}}, {"name": "StatefulPartitionedCall/asl_resnet50_improved_1/resnet50_1/conv2_block2_3_conv_1/convolution/ReadVariableOp", "op": "Const", "attr": {"value": {"tensor": {"dtype": "DT_FLOAT", "tensorShape": {"dim": [{"size": "1"}, {"size": "1"}, {"size": "64"}, {"size": "256"}]}}}, "dtype": {"type": "DT_FLOAT"}}}, {"name": "StatefulPartitionedCall/asl_resnet50_improved_1/resnet50_1/conv2_block2_3_conv_1/Squeeze", "op": "Const", "attr": {"value": {"tensor": {"dtype": "DT_FLOAT", "tensorShape": {"dim": [{"size": "256"}]}}}, "dtype": {"type": "DT_FLOAT"}}}, {"name": "StatefulPartitionedCall/asl_resnet50_improved_1/resnet50_1/conv2_block2_3_bn_1/batchnorm/mul", "op": "Const", "attr": {"value": {"tensor": {"dtype": "DT_FLOAT", "tensorShape": {"dim": [{"size": "1"}, {"size": "1"}, {"size": "1"}, {"size": "256"}]}}}, "dtype": {"type": "DT_FLOAT"}}}, {"name": "StatefulPartitionedCall/asl_resnet50_improved_1/resnet50_1/conv2_block2_3_bn_1/batchnorm/sub", "op": "Const", "attr": {"value": {"tensor": {"dtype": "DT_FLOAT", "tensorShape": {"dim": [{"size": "1"}, {"size": "1"}, {"size": "1"}, {"size": "256"}]}}}, "dtype": {"type": "DT_FLOAT"}}}, {"name": "StatefulPartitionedCall/asl_resnet50_improved_1/resnet50_1/conv2_block3_1_conv_1/convolution/ReadVariableOp", "op": "Const", "attr": {"value": {"tensor": {"dtype": "DT_FLOAT", "tensorShape": {"dim": [{"size": "1"}, {"size": "1"}, {"size": "256"}, {"size": "64"}]}}}, "dtype": {"type": "DT_FLOAT"}}}, {"name": "StatefulPartitionedCall/asl_resnet50_improved_1/resnet50_1/conv2_block3_1_conv_1/Squeeze", "op": "Const", "attr": {"value": {"tensor": {"dtype": "DT_FLOAT", "tensorShape": {"dim": [{"size": "64"}]}}}, "dtype": {"type": "DT_FLOAT"}}}, {"name": "StatefulPartitionedCall/asl_resnet50_improved_1/resnet50_1/conv2_block3_1_bn_1/batchnorm/mul", "op": "Const", "attr": {"value": {"tensor": {"dtype": "DT_FLOAT", "tensorShape": {"dim": [{"size": "1"}, {"size": "1"}, {"size": "1"}, {"size": "64"}]}}}, "dtype": {"type": "DT_FLOAT"}}}, {"name": "StatefulPartitionedCall/asl_resnet50_improved_1/resnet50_1/conv2_block3_1_bn_1/batchnorm/sub", "op": "Const", "attr": {"value": {"tensor": {"dtype": "DT_FLOAT", "tensorShape": {"dim": [{"size": "1"}, {"size": "1"}, {"size": "1"}, {"size": "64"}]}}}, "dtype": {"type": "DT_FLOAT"}}}, {"name": "StatefulPartitionedCall/asl_resnet50_improved_1/resnet50_1/conv2_block3_2_conv_1/convolution/ReadVariableOp", "op": "Const", "attr": {"value": {"tensor": {"dtype": "DT_FLOAT", "tensorShape": {"dim": [{"size": "3"}, {"size": "3"}, {"size": "64"}, {"size": "64"}]}}}, "dtype": {"type": "DT_FLOAT"}}}, {"name": "StatefulPartitionedCall/asl_resnet50_improved_1/resnet50_1/conv2_block3_2_conv_1/Squeeze", "op": "Const", "attr": {"value": {"tensor": {"dtype": "DT_FLOAT", "tensorShape": {"dim": [{"size": "64"}]}}}, "dtype": {"type": "DT_FLOAT"}}}, {"name": "StatefulPartitionedCall/asl_resnet50_improved_1/resnet50_1/conv2_block3_2_bn_1/batchnorm/mul", "op": "Const", "attr": {"value": {"tensor": {"dtype": "DT_FLOAT", "tensorShape": {"dim": [{"size": "1"}, {"size": "1"}, {"size": "1"}, {"size": "64"}]}}}, "dtype": {"type": "DT_FLOAT"}}}, {"name": "StatefulPartitionedCall/asl_resnet50_improved_1/resnet50_1/conv2_block3_2_bn_1/batchnorm/sub", "op": "Const", "attr": {"value": {"tensor": {"dtype": "DT_FLOAT", "tensorShape": {"dim": [{"size": "1"}, {"size": "1"}, {"size": "1"}, {"size": "64"}]}}}, "dtype": {"type": "DT_FLOAT"}}}, {"name": "StatefulPartitionedCall/asl_resnet50_improved_1/resnet50_1/conv2_block3_3_conv_1/convolution/ReadVariableOp", "op": "Const", "attr": {"value": {"tensor": {"dtype": "DT_FLOAT", "tensorShape": {"dim": [{"size": "1"}, {"size": "1"}, {"size": "64"}, {"size": "256"}]}}}, "dtype": {"type": "DT_FLOAT"}}}, {"name": "StatefulPartitionedCall/asl_resnet50_improved_1/resnet50_1/conv2_block3_3_conv_1/Squeeze", "op": "Const", "attr": {"value": {"tensor": {"dtype": "DT_FLOAT", "tensorShape": {"dim": [{"size": "256"}]}}}, "dtype": {"type": "DT_FLOAT"}}}, {"name": "StatefulPartitionedCall/asl_resnet50_improved_1/resnet50_1/conv2_block3_3_bn_1/batchnorm/mul", "op": "Const", "attr": {"value": {"tensor": {"dtype": "DT_FLOAT", "tensorShape": {"dim": [{"size": "1"}, {"size": "1"}, {"size": "1"}, {"size": "256"}]}}}, "dtype": {"type": "DT_FLOAT"}}}, {"name": "StatefulPartitionedCall/asl_resnet50_improved_1/resnet50_1/conv2_block3_3_bn_1/batchnorm/sub", "op": "Const", "attr": {"value": {"tensor": {"dtype": "DT_FLOAT", "tensorShape": {"dim": [{"size": "1"}, {"size": "1"}, {"size": "1"}, {"size": "256"}]}}}, "dtype": {"type": "DT_FLOAT"}}}, {"name": "StatefulPartitionedCall/asl_resnet50_improved_1/resnet50_1/conv3_block1_1_conv_1/convolution/ReadVariableOp", "op": "Const", "attr": {"value": {"tensor": {"dtype": "DT_FLOAT", "tensorShape": {"dim": [{"size": "1"}, {"size": "1"}, {"size": "256"}, {"size": "128"}]}}}, "dtype": {"type": "DT_FLOAT"}}}, {"name": "StatefulPartitionedCall/asl_resnet50_improved_1/resnet50_1/conv3_block1_1_conv_1/Squeeze", "op": "Const", "attr": {"value": {"tensor": {"dtype": "DT_FLOAT", "tensorShape": {"dim": [{"size": "128"}]}}}, "dtype": {"type": "DT_FLOAT"}}}, {"name": "StatefulPartitionedCall/asl_resnet50_improved_1/resnet50_1/conv3_block1_1_bn_1/batchnorm/mul", "op": "Const", "attr": {"value": {"tensor": {"dtype": "DT_FLOAT", "tensorShape": {"dim": [{"size": "1"}, {"size": "1"}, {"size": "1"}, {"size": "128"}]}}}, "dtype": {"type": "DT_FLOAT"}}}, {"name": "StatefulPartitionedCall/asl_resnet50_improved_1/resnet50_1/conv3_block1_1_bn_1/batchnorm/sub", "op": "Const", "attr": {"value": {"tensor": {"dtype": "DT_FLOAT", "tensorShape": {"dim": [{"size": "1"}, {"size": "1"}, {"size": "1"}, {"size": "128"}]}}}, "dtype": {"type": "DT_FLOAT"}}}, {"name": "StatefulPartitionedCall/asl_resnet50_improved_1/resnet50_1/conv3_block1_2_conv_1/convolution/ReadVariableOp", "op": "Const", "attr": {"value": {"tensor": {"dtype": "DT_FLOAT", "tensorShape": {"dim": [{"size": "3"}, {"size": "3"}, {"size": "128"}, {"size": "128"}]}}}, "dtype": {"type": "DT_FLOAT"}}}, {"name": "StatefulPartitionedCall/asl_resnet50_improved_1/resnet50_1/conv3_block1_2_conv_1/Squeeze", "op": "Const", "attr": {"value": {"tensor": {"dtype": "DT_FLOAT", "tensorShape": {"dim": [{"size": "128"}]}}}, "dtype": {"type": "DT_FLOAT"}}}, {"name": "StatefulPartitionedCall/asl_resnet50_improved_1/resnet50_1/conv3_block1_2_bn_1/batchnorm/mul", "op": "Const", "attr": {"value": {"tensor": {"dtype": "DT_FLOAT", "tensorShape": {"dim": [{"size": "1"}, {"size": "1"}, {"size": "1"}, {"size": "128"}]}}}, "dtype": {"type": "DT_FLOAT"}}}, {"name": "StatefulPartitionedCall/asl_resnet50_improved_1/resnet50_1/conv3_block1_2_bn_1/batchnorm/sub", "op": "Const", "attr": {"value": {"tensor": {"dtype": "DT_FLOAT", "tensorShape": {"dim": [{"size": "1"}, {"size": "1"}, {"size": "1"}, {"size": "128"}]}}}, "dtype": {"type": "DT_FLOAT"}}}, {"name": "StatefulPartitionedCall/asl_resnet50_improved_1/resnet50_1/conv3_block1_3_conv_1/convolution/ReadVariableOp", "op": "Const", "attr": {"value": {"tensor": {"dtype": "DT_FLOAT", "tensorShape": {"dim": [{"size": "1"}, {"size": "1"}, {"size": "128"}, {"size": "512"}]}}}, "dtype": {"type": "DT_FLOAT"}}}, {"name": "StatefulPartitionedCall/asl_resnet50_improved_1/resnet50_1/conv3_block1_3_conv_1/Squeeze", "op": "Const", "attr": {"value": {"tensor": {"dtype": "DT_FLOAT", "tensorShape": {"dim": [{"size": "512"}]}}}, "dtype": {"type": "DT_FLOAT"}}}, {"name": "StatefulPartitionedCall/asl_resnet50_improved_1/resnet50_1/conv3_block1_3_bn_1/batchnorm/mul", "op": "Const", "attr": {"value": {"tensor": {"dtype": "DT_FLOAT", "tensorShape": {"dim": [{"size": "1"}, {"size": "1"}, {"size": "1"}, {"size": "512"}]}}}, "dtype": {"type": "DT_FLOAT"}}}, {"name": "StatefulPartitionedCall/asl_resnet50_improved_1/resnet50_1/conv3_block1_3_bn_1/batchnorm/sub", "op": "Const", "attr": {"value": {"tensor": {"dtype": "DT_FLOAT", "tensorShape": {"dim": [{"size": "1"}, {"size": "1"}, {"size": "1"}, {"size": "512"}]}}}, "dtype": {"type": "DT_FLOAT"}}}, {"name": "StatefulPartitionedCall/asl_resnet50_improved_1/resnet50_1/conv3_block2_1_conv_1/convolution/ReadVariableOp", "op": "Const", "attr": {"value": {"tensor": {"dtype": "DT_FLOAT", "tensorShape": {"dim": [{"size": "1"}, {"size": "1"}, {"size": "512"}, {"size": "128"}]}}}, "dtype": {"type": "DT_FLOAT"}}}, {"name": "StatefulPartitionedCall/asl_resnet50_improved_1/resnet50_1/conv3_block2_1_conv_1/Squeeze", "op": "Const", "attr": {"value": {"tensor": {"dtype": "DT_FLOAT", "tensorShape": {"dim": [{"size": "128"}]}}}, "dtype": {"type": "DT_FLOAT"}}}, {"name": "StatefulPartitionedCall/asl_resnet50_improved_1/resnet50_1/conv3_block2_1_bn_1/batchnorm/mul", "op": "Const", "attr": {"value": {"tensor": {"dtype": "DT_FLOAT", "tensorShape": {"dim": [{"size": "1"}, {"size": "1"}, {"size": "1"}, {"size": "128"}]}}}, "dtype": {"type": "DT_FLOAT"}}}, {"name": "StatefulPartitionedCall/asl_resnet50_improved_1/resnet50_1/conv3_block2_1_bn_1/batchnorm/sub", "op": "Const", "attr": {"value": {"tensor": {"dtype": "DT_FLOAT", "tensorShape": {"dim": [{"size": "1"}, {"size": "1"}, {"size": "1"}, {"size": "128"}]}}}, "dtype": {"type": "DT_FLOAT"}}}, {"name": "StatefulPartitionedCall/asl_resnet50_improved_1/resnet50_1/conv3_block2_2_conv_1/convolution/ReadVariableOp", "op": "Const", "attr": {"value": {"tensor": {"dtype": "DT_FLOAT", "tensorShape": {"dim": [{"size": "3"}, {"size": "3"}, {"size": "128"}, {"size": "128"}]}}}, "dtype": {"type": "DT_FLOAT"}}}, {"name": "StatefulPartitionedCall/asl_resnet50_improved_1/resnet50_1/conv3_block2_2_conv_1/Squeeze", "op": "Const", "attr": {"value": {"tensor": {"dtype": "DT_FLOAT", "tensorShape": {"dim": [{"size": "128"}]}}}, "dtype": {"type": "DT_FLOAT"}}}, {"name": "StatefulPartitionedCall/asl_resnet50_improved_1/resnet50_1/conv3_block2_2_bn_1/batchnorm/mul", "op": "Const", "attr": {"value": {"tensor": {"dtype": "DT_FLOAT", "tensorShape": {"dim": [{"size": "1"}, {"size": "1"}, {"size": "1"}, {"size": "128"}]}}}, "dtype": {"type": "DT_FLOAT"}}}, {"name": "StatefulPartitionedCall/asl_resnet50_improved_1/resnet50_1/conv3_block2_2_bn_1/batchnorm/sub", "op": "Const", "attr": {"value": {"tensor": {"dtype": "DT_FLOAT", "tensorShape": {"dim": [{"size": "1"}, {"size": "1"}, {"size": "1"}, {"size": "128"}]}}}, "dtype": {"type": "DT_FLOAT"}}}, {"name": "StatefulPartitionedCall/asl_resnet50_improved_1/resnet50_1/conv3_block2_3_conv_1/convolution/ReadVariableOp", "op": "Const", "attr": {"value": {"tensor": {"dtype": "DT_FLOAT", "tensorShape": {"dim": [{"size": "1"}, {"size": "1"}, {"size": "128"}, {"size": "512"}]}}}, "dtype": {"type": "DT_FLOAT"}}}, {"name": "StatefulPartitionedCall/asl_resnet50_improved_1/resnet50_1/conv3_block2_3_conv_1/Squeeze", "op": "Const", "attr": {"value": {"tensor": {"dtype": "DT_FLOAT", "tensorShape": {"dim": [{"size": "512"}]}}}, "dtype": {"type": "DT_FLOAT"}}}, {"name": "StatefulPartitionedCall/asl_resnet50_improved_1/resnet50_1/conv3_block2_3_bn_1/batchnorm/mul", "op": "Const", "attr": {"value": {"tensor": {"dtype": "DT_FLOAT", "tensorShape": {"dim": [{"size": "1"}, {"size": "1"}, {"size": "1"}, {"size": "512"}]}}}, "dtype": {"type": "DT_FLOAT"}}}, {"name": "StatefulPartitionedCall/asl_resnet50_improved_1/resnet50_1/conv3_block2_3_bn_1/batchnorm/sub", "op": "Const", "attr": {"value": {"tensor": {"dtype": "DT_FLOAT", "tensorShape": {"dim": [{"size": "1"}, {"size": "1"}, {"size": "1"}, {"size": "512"}]}}}, "dtype": {"type": "DT_FLOAT"}}}, {"name": "StatefulPartitionedCall/asl_resnet50_improved_1/resnet50_1/conv3_block3_1_conv_1/convolution/ReadVariableOp", "op": "Const", "attr": {"value": {"tensor": {"dtype": "DT_FLOAT", "tensorShape": {"dim": [{"size": "1"}, {"size": "1"}, {"size": "512"}, {"size": "128"}]}}}, "dtype": {"type": "DT_FLOAT"}}}, {"name": "StatefulPartitionedCall/asl_resnet50_improved_1/resnet50_1/conv3_block3_1_conv_1/Squeeze", "op": "Const", "attr": {"value": {"tensor": {"dtype": "DT_FLOAT", "tensorShape": {"dim": [{"size": "128"}]}}}, "dtype": {"type": "DT_FLOAT"}}}, {"name": "StatefulPartitionedCall/asl_resnet50_improved_1/resnet50_1/conv3_block3_1_bn_1/batchnorm/mul", "op": "Const", "attr": {"value": {"tensor": {"dtype": "DT_FLOAT", "tensorShape": {"dim": [{"size": "1"}, {"size": "1"}, {"size": "1"}, {"size": "128"}]}}}, "dtype": {"type": "DT_FLOAT"}}}, {"name": "StatefulPartitionedCall/asl_resnet50_improved_1/resnet50_1/conv3_block3_1_bn_1/batchnorm/sub", "op": "Const", "attr": {"value": {"tensor": {"dtype": "DT_FLOAT", "tensorShape": {"dim": [{"size": "1"}, {"size": "1"}, {"size": "1"}, {"size": "128"}]}}}, "dtype": {"type": "DT_FLOAT"}}}, {"name": "StatefulPartitionedCall/asl_resnet50_improved_1/resnet50_1/conv3_block3_2_conv_1/convolution/ReadVariableOp", "op": "Const", "attr": {"value": {"tensor": {"dtype": "DT_FLOAT", "tensorShape": {"dim": [{"size": "3"}, {"size": "3"}, {"size": "128"}, {"size": "128"}]}}}, "dtype": {"type": "DT_FLOAT"}}}, {"name": "StatefulPartitionedCall/asl_resnet50_improved_1/resnet50_1/conv3_block3_2_conv_1/Squeeze", "op": "Const", "attr": {"value": {"tensor": {"dtype": "DT_FLOAT", "tensorShape": {"dim": [{"size": "128"}]}}}, "dtype": {"type": "DT_FLOAT"}}}, {"name": "StatefulPartitionedCall/asl_resnet50_improved_1/resnet50_1/conv3_block3_2_bn_1/batchnorm/mul", "op": "Const", "attr": {"value": {"tensor": {"dtype": "DT_FLOAT", "tensorShape": {"dim": [{"size": "1"}, {"size": "1"}, {"size": "1"}, {"size": "128"}]}}}, "dtype": {"type": "DT_FLOAT"}}}, {"name": "StatefulPartitionedCall/asl_resnet50_improved_1/resnet50_1/conv3_block3_2_bn_1/batchnorm/sub", "op": "Const", "attr": {"value": {"tensor": {"dtype": "DT_FLOAT", "tensorShape": {"dim": [{"size": "1"}, {"size": "1"}, {"size": "1"}, {"size": "128"}]}}}, "dtype": {"type": "DT_FLOAT"}}}, {"name": "StatefulPartitionedCall/asl_resnet50_improved_1/resnet50_1/conv3_block3_3_conv_1/convolution/ReadVariableOp", "op": "Const", "attr": {"value": {"tensor": {"dtype": "DT_FLOAT", "tensorShape": {"dim": [{"size": "1"}, {"size": "1"}, {"size": "128"}, {"size": "512"}]}}}, "dtype": {"type": "DT_FLOAT"}}}, {"name": "StatefulPartitionedCall/asl_resnet50_improved_1/resnet50_1/conv3_block3_3_conv_1/Squeeze", "op": "Const", "attr": {"value": {"tensor": {"dtype": "DT_FLOAT", "tensorShape": {"dim": [{"size": "512"}]}}}, "dtype": {"type": "DT_FLOAT"}}}, {"name": "StatefulPartitionedCall/asl_resnet50_improved_1/resnet50_1/conv3_block3_3_bn_1/batchnorm/mul", "op": "Const", "attr": {"value": {"tensor": {"dtype": "DT_FLOAT", "tensorShape": {"dim": [{"size": "1"}, {"size": "1"}, {"size": "1"}, {"size": "512"}]}}}, "dtype": {"type": "DT_FLOAT"}}}, {"name": "StatefulPartitionedCall/asl_resnet50_improved_1/resnet50_1/conv3_block3_3_bn_1/batchnorm/sub", "op": "Const", "attr": {"value": {"tensor": {"dtype": "DT_FLOAT", "tensorShape": {"dim": [{"size": "1"}, {"size": "1"}, {"size": "1"}, {"size": "512"}]}}}, "dtype": {"type": "DT_FLOAT"}}}, {"name": "StatefulPartitionedCall/asl_resnet50_improved_1/resnet50_1/conv3_block4_1_conv_1/convolution/ReadVariableOp", "op": "Const", "attr": {"value": {"tensor": {"dtype": "DT_FLOAT", "tensorShape": {"dim": [{"size": "1"}, {"size": "1"}, {"size": "512"}, {"size": "128"}]}}}, "dtype": {"type": "DT_FLOAT"}}}, {"name": "StatefulPartitionedCall/asl_resnet50_improved_1/resnet50_1/conv3_block4_1_conv_1/Squeeze", "op": "Const", "attr": {"value": {"tensor": {"dtype": "DT_FLOAT", "tensorShape": {"dim": [{"size": "128"}]}}}, "dtype": {"type": "DT_FLOAT"}}}, {"name": "StatefulPartitionedCall/asl_resnet50_improved_1/resnet50_1/conv3_block4_1_bn_1/batchnorm/mul", "op": "Const", "attr": {"value": {"tensor": {"dtype": "DT_FLOAT", "tensorShape": {"dim": [{"size": "1"}, {"size": "1"}, {"size": "1"}, {"size": "128"}]}}}, "dtype": {"type": "DT_FLOAT"}}}, {"name": "StatefulPartitionedCall/asl_resnet50_improved_1/resnet50_1/conv3_block4_1_bn_1/batchnorm/sub", "op": "Const", "attr": {"value": {"tensor": {"dtype": "DT_FLOAT", "tensorShape": {"dim": [{"size": "1"}, {"size": "1"}, {"size": "1"}, {"size": "128"}]}}}, "dtype": {"type": "DT_FLOAT"}}}, {"name": "StatefulPartitionedCall/asl_resnet50_improved_1/resnet50_1/conv3_block4_2_conv_1/convolution/ReadVariableOp", "op": "Const", "attr": {"value": {"tensor": {"dtype": "DT_FLOAT", "tensorShape": {"dim": [{"size": "3"}, {"size": "3"}, {"size": "128"}, {"size": "128"}]}}}, "dtype": {"type": "DT_FLOAT"}}}, {"name": "StatefulPartitionedCall/asl_resnet50_improved_1/resnet50_1/conv3_block4_2_conv_1/Squeeze", "op": "Const", "attr": {"value": {"tensor": {"dtype": "DT_FLOAT", "tensorShape": {"dim": [{"size": "128"}]}}}, "dtype": {"type": "DT_FLOAT"}}}, {"name": "StatefulPartitionedCall/asl_resnet50_improved_1/resnet50_1/conv3_block4_2_bn_1/batchnorm/mul", "op": "Const", "attr": {"value": {"tensor": {"dtype": "DT_FLOAT", "tensorShape": {"dim": [{"size": "1"}, {"size": "1"}, {"size": "1"}, {"size": "128"}]}}}, "dtype": {"type": "DT_FLOAT"}}}, {"name": "StatefulPartitionedCall/asl_resnet50_improved_1/resnet50_1/conv3_block4_2_bn_1/batchnorm/sub", "op": "Const", "attr": {"value": {"tensor": {"dtype": "DT_FLOAT", "tensorShape": {"dim": [{"size": "1"}, {"size": "1"}, {"size": "1"}, {"size": "128"}]}}}, "dtype": {"type": "DT_FLOAT"}}}, {"name": "StatefulPartitionedCall/asl_resnet50_improved_1/resnet50_1/conv3_block4_3_conv_1/convolution/ReadVariableOp", "op": "Const", "attr": {"value": {"tensor": {"dtype": "DT_FLOAT", "tensorShape": {"dim": [{"size": "1"}, {"size": "1"}, {"size": "128"}, {"size": "512"}]}}}, "dtype": {"type": "DT_FLOAT"}}}, {"name": "StatefulPartitionedCall/asl_resnet50_improved_1/resnet50_1/conv3_block4_3_conv_1/Squeeze", "op": "Const", "attr": {"value": {"tensor": {"dtype": "DT_FLOAT", "tensorShape": {"dim": [{"size": "512"}]}}}, "dtype": {"type": "DT_FLOAT"}}}, {"name": "StatefulPartitionedCall/asl_resnet50_improved_1/resnet50_1/conv3_block4_3_bn_1/batchnorm/mul", "op": "Const", "attr": {"value": {"tensor": {"dtype": "DT_FLOAT", "tensorShape": {"dim": [{"size": "1"}, {"size": "1"}, {"size": "1"}, {"size": "512"}]}}}, "dtype": {"type": "DT_FLOAT"}}}, {"name": "StatefulPartitionedCall/asl_resnet50_improved_1/resnet50_1/conv3_block4_3_bn_1/batchnorm/sub", "op": "Const", "attr": {"value": {"tensor": {"dtype": "DT_FLOAT", "tensorShape": {"dim": [{"size": "1"}, {"size": "1"}, {"size": "1"}, {"size": "512"}]}}}, "dtype": {"type": "DT_FLOAT"}}}, {"name": "StatefulPartitionedCall/asl_resnet50_improved_1/resnet50_1/conv4_block1_1_conv_1/convolution/ReadVariableOp", "op": "Const", "attr": {"value": {"tensor": {"dtype": "DT_FLOAT", "tensorShape": {"dim": [{"size": "1"}, {"size": "1"}, {"size": "512"}, {"size": "256"}]}}}, "dtype": {"type": "DT_FLOAT"}}}, {"name": "StatefulPartitionedCall/asl_resnet50_improved_1/resnet50_1/conv4_block1_1_conv_1/Squeeze", "op": "Const", "attr": {"value": {"tensor": {"dtype": "DT_FLOAT", "tensorShape": {"dim": [{"size": "256"}]}}}, "dtype": {"type": "DT_FLOAT"}}}, {"name": "StatefulPartitionedCall/asl_resnet50_improved_1/resnet50_1/conv4_block1_1_bn_1/batchnorm/mul", "op": "Const", "attr": {"value": {"tensor": {"dtype": "DT_FLOAT", "tensorShape": {"dim": [{"size": "1"}, {"size": "1"}, {"size": "1"}, {"size": "256"}]}}}, "dtype": {"type": "DT_FLOAT"}}}, {"name": "StatefulPartitionedCall/asl_resnet50_improved_1/resnet50_1/conv4_block1_1_bn_1/batchnorm/sub", "op": "Const", "attr": {"value": {"tensor": {"dtype": "DT_FLOAT", "tensorShape": {"dim": [{"size": "1"}, {"size": "1"}, {"size": "1"}, {"size": "256"}]}}}, "dtype": {"type": "DT_FLOAT"}}}, {"name": "StatefulPartitionedCall/asl_resnet50_improved_1/resnet50_1/conv4_block1_2_conv_1/convolution/ReadVariableOp", "op": "Const", "attr": {"value": {"tensor": {"dtype": "DT_FLOAT", "tensorShape": {"dim": [{"size": "3"}, {"size": "3"}, {"size": "256"}, {"size": "256"}]}}}, "dtype": {"type": "DT_FLOAT"}}}, {"name": "StatefulPartitionedCall/asl_resnet50_improved_1/resnet50_1/conv4_block1_2_conv_1/Squeeze", "op": "Const", "attr": {"value": {"tensor": {"dtype": "DT_FLOAT", "tensorShape": {"dim": [{"size": "256"}]}}}, "dtype": {"type": "DT_FLOAT"}}}, {"name": "StatefulPartitionedCall/asl_resnet50_improved_1/resnet50_1/conv4_block1_2_bn_1/batchnorm/mul", "op": "Const", "attr": {"value": {"tensor": {"dtype": "DT_FLOAT", "tensorShape": {"dim": [{"size": "1"}, {"size": "1"}, {"size": "1"}, {"size": "256"}]}}}, "dtype": {"type": "DT_FLOAT"}}}, {"name": "StatefulPartitionedCall/asl_resnet50_improved_1/resnet50_1/conv4_block1_2_bn_1/batchnorm/sub", "op": "Const", "attr": {"value": {"tensor": {"dtype": "DT_FLOAT", "tensorShape": {"dim": [{"size": "1"}, {"size": "1"}, {"size": "1"}, {"size": "256"}]}}}, "dtype": {"type": "DT_FLOAT"}}}, {"name": "StatefulPartitionedCall/asl_resnet50_improved_1/resnet50_1/conv4_block1_3_conv_1/convolution/ReadVariableOp", "op": "Const", "attr": {"value": {"tensor": {"dtype": "DT_FLOAT", "tensorShape": {"dim": [{"size": "1"}, {"size": "1"}, {"size": "256"}, {"size": "1024"}]}}}, "dtype": {"type": "DT_FLOAT"}}}, {"name": "StatefulPartitionedCall/asl_resnet50_improved_1/resnet50_1/conv4_block1_3_conv_1/Squeeze", "op": "Const", "attr": {"value": {"tensor": {"dtype": "DT_FLOAT", "tensorShape": {"dim": [{"size": "1024"}]}}}, "dtype": {"type": "DT_FLOAT"}}}, {"name": "StatefulPartitionedCall/asl_resnet50_improved_1/resnet50_1/conv4_block1_3_bn_1/batchnorm/mul", "op": "Const", "attr": {"value": {"tensor": {"dtype": "DT_FLOAT", "tensorShape": {"dim": [{"size": "1"}, {"size": "1"}, {"size": "1"}, {"size": "1024"}]}}}, "dtype": {"type": "DT_FLOAT"}}}, {"name": "StatefulPartitionedCall/asl_resnet50_improved_1/resnet50_1/conv4_block1_3_bn_1/batchnorm/sub", "op": "Const", "attr": {"value": {"tensor": {"dtype": "DT_FLOAT", "tensorShape": {"dim": [{"size": "1"}, {"size": "1"}, {"size": "1"}, {"size": "1024"}]}}}, "dtype": {"type": "DT_FLOAT"}}}, {"name": "StatefulPartitionedCall/asl_resnet50_improved_1/resnet50_1/conv4_block2_1_conv_1/convolution/ReadVariableOp", "op": "Const", "attr": {"value": {"tensor": {"dtype": "DT_FLOAT", "tensorShape": {"dim": [{"size": "1"}, {"size": "1"}, {"size": "1024"}, {"size": "256"}]}}}, "dtype": {"type": "DT_FLOAT"}}}, {"name": "StatefulPartitionedCall/asl_resnet50_improved_1/resnet50_1/conv4_block2_1_conv_1/Squeeze", "op": "Const", "attr": {"value": {"tensor": {"dtype": "DT_FLOAT", "tensorShape": {"dim": [{"size": "256"}]}}}, "dtype": {"type": "DT_FLOAT"}}}, {"name": "StatefulPartitionedCall/asl_resnet50_improved_1/resnet50_1/conv4_block2_1_bn_1/batchnorm/mul", "op": "Const", "attr": {"value": {"tensor": {"dtype": "DT_FLOAT", "tensorShape": {"dim": [{"size": "1"}, {"size": "1"}, {"size": "1"}, {"size": "256"}]}}}, "dtype": {"type": "DT_FLOAT"}}}, {"name": "StatefulPartitionedCall/asl_resnet50_improved_1/resnet50_1/conv4_block2_1_bn_1/batchnorm/sub", "op": "Const", "attr": {"value": {"tensor": {"dtype": "DT_FLOAT", "tensorShape": {"dim": [{"size": "1"}, {"size": "1"}, {"size": "1"}, {"size": "256"}]}}}, "dtype": {"type": "DT_FLOAT"}}}, {"name": "StatefulPartitionedCall/asl_resnet50_improved_1/resnet50_1/conv4_block2_2_conv_1/convolution/ReadVariableOp", "op": "Const", "attr": {"value": {"tensor": {"dtype": "DT_FLOAT", "tensorShape": {"dim": [{"size": "3"}, {"size": "3"}, {"size": "256"}, {"size": "256"}]}}}, "dtype": {"type": "DT_FLOAT"}}}, {"name": "StatefulPartitionedCall/asl_resnet50_improved_1/resnet50_1/conv4_block2_2_conv_1/Squeeze", "op": "Const", "attr": {"value": {"tensor": {"dtype": "DT_FLOAT", "tensorShape": {"dim": [{"size": "256"}]}}}, "dtype": {"type": "DT_FLOAT"}}}, {"name": "StatefulPartitionedCall/asl_resnet50_improved_1/resnet50_1/conv4_block2_2_bn_1/batchnorm/mul", "op": "Const", "attr": {"value": {"tensor": {"dtype": "DT_FLOAT", "tensorShape": {"dim": [{"size": "1"}, {"size": "1"}, {"size": "1"}, {"size": "256"}]}}}, "dtype": {"type": "DT_FLOAT"}}}, {"name": "StatefulPartitionedCall/asl_resnet50_improved_1/resnet50_1/conv4_block2_2_bn_1/batchnorm/sub", "op": "Const", "attr": {"value": {"tensor": {"dtype": "DT_FLOAT", "tensorShape": {"dim": [{"size": "1"}, {"size": "1"}, {"size": "1"}, {"size": "256"}]}}}, "dtype": {"type": "DT_FLOAT"}}}, {"name": "StatefulPartitionedCall/asl_resnet50_improved_1/resnet50_1/conv4_block2_3_conv_1/convolution/ReadVariableOp", "op": "Const", "attr": {"value": {"tensor": {"dtype": "DT_FLOAT", "tensorShape": {"dim": [{"size": "1"}, {"size": "1"}, {"size": "256"}, {"size": "1024"}]}}}, "dtype": {"type": "DT_FLOAT"}}}, {"name": "StatefulPartitionedCall/asl_resnet50_improved_1/resnet50_1/conv4_block2_3_conv_1/Squeeze", "op": "Const", "attr": {"value": {"tensor": {"dtype": "DT_FLOAT", "tensorShape": {"dim": [{"size": "1024"}]}}}, "dtype": {"type": "DT_FLOAT"}}}, {"name": "StatefulPartitionedCall/asl_resnet50_improved_1/resnet50_1/conv4_block2_3_bn_1/batchnorm/mul", "op": "Const", "attr": {"value": {"tensor": {"dtype": "DT_FLOAT", "tensorShape": {"dim": [{"size": "1"}, {"size": "1"}, {"size": "1"}, {"size": "1024"}]}}}, "dtype": {"type": "DT_FLOAT"}}}, {"name": "StatefulPartitionedCall/asl_resnet50_improved_1/resnet50_1/conv4_block2_3_bn_1/batchnorm/sub", "op": "Const", "attr": {"value": {"tensor": {"dtype": "DT_FLOAT", "tensorShape": {"dim": [{"size": "1"}, {"size": "1"}, {"size": "1"}, {"size": "1024"}]}}}, "dtype": {"type": "DT_FLOAT"}}}, {"name": "StatefulPartitionedCall/asl_resnet50_improved_1/resnet50_1/conv4_block3_1_conv_1/convolution/ReadVariableOp", "op": "Const", "attr": {"value": {"tensor": {"dtype": "DT_FLOAT", "tensorShape": {"dim": [{"size": "1"}, {"size": "1"}, {"size": "1024"}, {"size": "256"}]}}}, "dtype": {"type": "DT_FLOAT"}}}, {"name": "StatefulPartitionedCall/asl_resnet50_improved_1/resnet50_1/conv4_block3_1_conv_1/Squeeze", "op": "Const", "attr": {"value": {"tensor": {"dtype": "DT_FLOAT", "tensorShape": {"dim": [{"size": "256"}]}}}, "dtype": {"type": "DT_FLOAT"}}}, {"name": "StatefulPartitionedCall/asl_resnet50_improved_1/resnet50_1/conv4_block3_1_bn_1/batchnorm/mul", "op": "Const", "attr": {"value": {"tensor": {"dtype": "DT_FLOAT", "tensorShape": {"dim": [{"size": "1"}, {"size": "1"}, {"size": "1"}, {"size": "256"}]}}}, "dtype": {"type": "DT_FLOAT"}}}, {"name": "StatefulPartitionedCall/asl_resnet50_improved_1/resnet50_1/conv4_block3_1_bn_1/batchnorm/sub", "op": "Const", "attr": {"value": {"tensor": {"dtype": "DT_FLOAT", "tensorShape": {"dim": [{"size": "1"}, {"size": "1"}, {"size": "1"}, {"size": "256"}]}}}, "dtype": {"type": "DT_FLOAT"}}}, {"name": "StatefulPartitionedCall/asl_resnet50_improved_1/resnet50_1/conv4_block3_2_conv_1/convolution/ReadVariableOp", "op": "Const", "attr": {"value": {"tensor": {"dtype": "DT_FLOAT", "tensorShape": {"dim": [{"size": "3"}, {"size": "3"}, {"size": "256"}, {"size": "256"}]}}}, "dtype": {"type": "DT_FLOAT"}}}, {"name": "StatefulPartitionedCall/asl_resnet50_improved_1/resnet50_1/conv4_block3_2_conv_1/Squeeze", "op": "Const", "attr": {"value": {"tensor": {"dtype": "DT_FLOAT", "tensorShape": {"dim": [{"size": "256"}]}}}, "dtype": {"type": "DT_FLOAT"}}}, {"name": "StatefulPartitionedCall/asl_resnet50_improved_1/resnet50_1/conv4_block3_2_bn_1/batchnorm/mul", "op": "Const", "attr": {"value": {"tensor": {"dtype": "DT_FLOAT", "tensorShape": {"dim": [{"size": "1"}, {"size": "1"}, {"size": "1"}, {"size": "256"}]}}}, "dtype": {"type": "DT_FLOAT"}}}, {"name": "StatefulPartitionedCall/asl_resnet50_improved_1/resnet50_1/conv4_block3_2_bn_1/batchnorm/sub", "op": "Const", "attr": {"value": {"tensor": {"dtype": "DT_FLOAT", "tensorShape": {"dim": [{"size": "1"}, {"size": "1"}, {"size": "1"}, {"size": "256"}]}}}, "dtype": {"type": "DT_FLOAT"}}}, {"name": "StatefulPartitionedCall/asl_resnet50_improved_1/resnet50_1/conv4_block3_3_conv_1/convolution/ReadVariableOp", "op": "Const", "attr": {"value": {"tensor": {"dtype": "DT_FLOAT", "tensorShape": {"dim": [{"size": "1"}, {"size": "1"}, {"size": "256"}, {"size": "1024"}]}}}, "dtype": {"type": "DT_FLOAT"}}}, {"name": "StatefulPartitionedCall/asl_resnet50_improved_1/resnet50_1/conv4_block3_3_conv_1/Squeeze", "op": "Const", "attr": {"value": {"tensor": {"dtype": "DT_FLOAT", "tensorShape": {"dim": [{"size": "1024"}]}}}, "dtype": {"type": "DT_FLOAT"}}}, {"name": "StatefulPartitionedCall/asl_resnet50_improved_1/resnet50_1/conv4_block3_3_bn_1/batchnorm/mul", "op": "Const", "attr": {"value": {"tensor": {"dtype": "DT_FLOAT", "tensorShape": {"dim": [{"size": "1"}, {"size": "1"}, {"size": "1"}, {"size": "1024"}]}}}, "dtype": {"type": "DT_FLOAT"}}}, {"name": "StatefulPartitionedCall/asl_resnet50_improved_1/resnet50_1/conv4_block3_3_bn_1/batchnorm/sub", "op": "Const", "attr": {"value": {"tensor": {"dtype": "DT_FLOAT", "tensorShape": {"dim": [{"size": "1"}, {"size": "1"}, {"size": "1"}, {"size": "1024"}]}}}, "dtype": {"type": "DT_FLOAT"}}}, {"name": "StatefulPartitionedCall/asl_resnet50_improved_1/resnet50_1/conv4_block4_1_conv_1/convolution/ReadVariableOp", "op": "Const", "attr": {"value": {"tensor": {"dtype": "DT_FLOAT", "tensorShape": {"dim": [{"size": "1"}, {"size": "1"}, {"size": "1024"}, {"size": "256"}]}}}, "dtype": {"type": "DT_FLOAT"}}}, {"name": "StatefulPartitionedCall/asl_resnet50_improved_1/resnet50_1/conv4_block4_1_conv_1/Squeeze", "op": "Const", "attr": {"value": {"tensor": {"dtype": "DT_FLOAT", "tensorShape": {"dim": [{"size": "256"}]}}}, "dtype": {"type": "DT_FLOAT"}}}, {"name": "StatefulPartitionedCall/asl_resnet50_improved_1/resnet50_1/conv4_block4_1_bn_1/batchnorm/mul", "op": "Const", "attr": {"value": {"tensor": {"dtype": "DT_FLOAT", "tensorShape": {"dim": [{"size": "1"}, {"size": "1"}, {"size": "1"}, {"size": "256"}]}}}, "dtype": {"type": "DT_FLOAT"}}}, {"name": "StatefulPartitionedCall/asl_resnet50_improved_1/resnet50_1/conv4_block4_1_bn_1/batchnorm/sub", "op": "Const", "attr": {"value": {"tensor": {"dtype": "DT_FLOAT", "tensorShape": {"dim": [{"size": "1"}, {"size": "1"}, {"size": "1"}, {"size": "256"}]}}}, "dtype": {"type": "DT_FLOAT"}}}, {"name": "StatefulPartitionedCall/asl_resnet50_improved_1/resnet50_1/conv4_block4_2_conv_1/convolution/ReadVariableOp", "op": "Const", "attr": {"value": {"tensor": {"dtype": "DT_FLOAT", "tensorShape": {"dim": [{"size": "3"}, {"size": "3"}, {"size": "256"}, {"size": "256"}]}}}, "dtype": {"type": "DT_FLOAT"}}}, {"name": "StatefulPartitionedCall/asl_resnet50_improved_1/resnet50_1/conv4_block4_2_conv_1/Squeeze", "op": "Const", "attr": {"value": {"tensor": {"dtype": "DT_FLOAT", "tensorShape": {"dim": [{"size": "256"}]}}}, "dtype": {"type": "DT_FLOAT"}}}, {"name": "StatefulPartitionedCall/asl_resnet50_improved_1/resnet50_1/conv4_block4_2_bn_1/batchnorm/mul", "op": "Const", "attr": {"value": {"tensor": {"dtype": "DT_FLOAT", "tensorShape": {"dim": [{"size": "1"}, {"size": "1"}, {"size": "1"}, {"size": "256"}]}}}, "dtype": {"type": "DT_FLOAT"}}}, {"name": "StatefulPartitionedCall/asl_resnet50_improved_1/resnet50_1/conv4_block4_2_bn_1/batchnorm/sub", "op": "Const", "attr": {"value": {"tensor": {"dtype": "DT_FLOAT", "tensorShape": {"dim": [{"size": "1"}, {"size": "1"}, {"size": "1"}, {"size": "256"}]}}}, "dtype": {"type": "DT_FLOAT"}}}, {"name": "StatefulPartitionedCall/asl_resnet50_improved_1/resnet50_1/conv4_block4_3_conv_1/convolution/ReadVariableOp", "op": "Const", "attr": {"value": {"tensor": {"dtype": "DT_FLOAT", "tensorShape": {"dim": [{"size": "1"}, {"size": "1"}, {"size": "256"}, {"size": "1024"}]}}}, "dtype": {"type": "DT_FLOAT"}}}, {"name": "StatefulPartitionedCall/asl_resnet50_improved_1/resnet50_1/conv4_block4_3_conv_1/Squeeze", "op": "Const", "attr": {"value": {"tensor": {"dtype": "DT_FLOAT", "tensorShape": {"dim": [{"size": "1024"}]}}}, "dtype": {"type": "DT_FLOAT"}}}, {"name": "StatefulPartitionedCall/asl_resnet50_improved_1/resnet50_1/conv4_block4_3_bn_1/batchnorm/mul", "op": "Const", "attr": {"value": {"tensor": {"dtype": "DT_FLOAT", "tensorShape": {"dim": [{"size": "1"}, {"size": "1"}, {"size": "1"}, {"size": "1024"}]}}}, "dtype": {"type": "DT_FLOAT"}}}, {"name": "StatefulPartitionedCall/asl_resnet50_improved_1/resnet50_1/conv4_block4_3_bn_1/batchnorm/sub", "op": "Const", "attr": {"value": {"tensor": {"dtype": "DT_FLOAT", "tensorShape": {"dim": [{"size": "1"}, {"size": "1"}, {"size": "1"}, {"size": "1024"}]}}}, "dtype": {"type": "DT_FLOAT"}}}, {"name": "StatefulPartitionedCall/asl_resnet50_improved_1/resnet50_1/conv4_block5_1_conv_1/convolution/ReadVariableOp", "op": "Const", "attr": {"value": {"tensor": {"dtype": "DT_FLOAT", "tensorShape": {"dim": [{"size": "1"}, {"size": "1"}, {"size": "1024"}, {"size": "256"}]}}}, "dtype": {"type": "DT_FLOAT"}}}, {"name": "StatefulPartitionedCall/asl_resnet50_improved_1/resnet50_1/conv4_block5_1_conv_1/Squeeze", "op": "Const", "attr": {"value": {"tensor": {"dtype": "DT_FLOAT", "tensorShape": {"dim": [{"size": "256"}]}}}, "dtype": {"type": "DT_FLOAT"}}}, {"name": "StatefulPartitionedCall/asl_resnet50_improved_1/resnet50_1/conv4_block5_1_bn_1/batchnorm/mul", "op": "Const", "attr": {"value": {"tensor": {"dtype": "DT_FLOAT", "tensorShape": {"dim": [{"size": "1"}, {"size": "1"}, {"size": "1"}, {"size": "256"}]}}}, "dtype": {"type": "DT_FLOAT"}}}, {"name": "StatefulPartitionedCall/asl_resnet50_improved_1/resnet50_1/conv4_block5_1_bn_1/batchnorm/sub", "op": "Const", "attr": {"value": {"tensor": {"dtype": "DT_FLOAT", "tensorShape": {"dim": [{"size": "1"}, {"size": "1"}, {"size": "1"}, {"size": "256"}]}}}, "dtype": {"type": "DT_FLOAT"}}}, {"name": "StatefulPartitionedCall/asl_resnet50_improved_1/resnet50_1/conv4_block5_2_conv_1/convolution/ReadVariableOp", "op": "Const", "attr": {"value": {"tensor": {"dtype": "DT_FLOAT", "tensorShape": {"dim": [{"size": "3"}, {"size": "3"}, {"size": "256"}, {"size": "256"}]}}}, "dtype": {"type": "DT_FLOAT"}}}, {"name": "StatefulPartitionedCall/asl_resnet50_improved_1/resnet50_1/conv4_block5_2_conv_1/Squeeze", "op": "Const", "attr": {"value": {"tensor": {"dtype": "DT_FLOAT", "tensorShape": {"dim": [{"size": "256"}]}}}, "dtype": {"type": "DT_FLOAT"}}}, {"name": "StatefulPartitionedCall/asl_resnet50_improved_1/resnet50_1/conv4_block5_2_bn_1/batchnorm/mul", "op": "Const", "attr": {"value": {"tensor": {"dtype": "DT_FLOAT", "tensorShape": {"dim": [{"size": "1"}, {"size": "1"}, {"size": "1"}, {"size": "256"}]}}}, "dtype": {"type": "DT_FLOAT"}}}, {"name": "StatefulPartitionedCall/asl_resnet50_improved_1/resnet50_1/conv4_block5_2_bn_1/batchnorm/sub", "op": "Const", "attr": {"value": {"tensor": {"dtype": "DT_FLOAT", "tensorShape": {"dim": [{"size": "1"}, {"size": "1"}, {"size": "1"}, {"size": "256"}]}}}, "dtype": {"type": "DT_FLOAT"}}}, {"name": "StatefulPartitionedCall/asl_resnet50_improved_1/resnet50_1/conv4_block5_3_conv_1/convolution/ReadVariableOp", "op": "Const", "attr": {"value": {"tensor": {"dtype": "DT_FLOAT", "tensorShape": {"dim": [{"size": "1"}, {"size": "1"}, {"size": "256"}, {"size": "1024"}]}}}, "dtype": {"type": "DT_FLOAT"}}}, {"name": "StatefulPartitionedCall/asl_resnet50_improved_1/resnet50_1/conv4_block5_3_conv_1/Squeeze", "op": "Const", "attr": {"value": {"tensor": {"dtype": "DT_FLOAT", "tensorShape": {"dim": [{"size": "1024"}]}}}, "dtype": {"type": "DT_FLOAT"}}}, {"name": "StatefulPartitionedCall/asl_resnet50_improved_1/resnet50_1/conv4_block5_3_bn_1/batchnorm/mul", "op": "Const", "attr": {"value": {"tensor": {"dtype": "DT_FLOAT", "tensorShape": {"dim": [{"size": "1"}, {"size": "1"}, {"size": "1"}, {"size": "1024"}]}}}, "dtype": {"type": "DT_FLOAT"}}}, {"name": "StatefulPartitionedCall/asl_resnet50_improved_1/resnet50_1/conv4_block5_3_bn_1/batchnorm/sub", "op": "Const", "attr": {"value": {"tensor": {"dtype": "DT_FLOAT", "tensorShape": {"dim": [{"size": "1"}, {"size": "1"}, {"size": "1"}, {"size": "1024"}]}}}, "dtype": {"type": "DT_FLOAT"}}}, {"name": "StatefulPartitionedCall/asl_resnet50_improved_1/resnet50_1/conv4_block6_1_conv_1/convolution/ReadVariableOp", "op": "Const", "attr": {"value": {"tensor": {"dtype": "DT_FLOAT", "tensorShape": {"dim": [{"size": "1"}, {"size": "1"}, {"size": "1024"}, {"size": "256"}]}}}, "dtype": {"type": "DT_FLOAT"}}}, {"name": "StatefulPartitionedCall/asl_resnet50_improved_1/resnet50_1/conv4_block6_1_conv_1/Squeeze", "op": "Const", "attr": {"value": {"tensor": {"dtype": "DT_FLOAT", "tensorShape": {"dim": [{"size": "256"}]}}}, "dtype": {"type": "DT_FLOAT"}}}, {"name": "StatefulPartitionedCall/asl_resnet50_improved_1/resnet50_1/conv4_block6_1_bn_1/batchnorm/mul", "op": "Const", "attr": {"value": {"tensor": {"dtype": "DT_FLOAT", "tensorShape": {"dim": [{"size": "1"}, {"size": "1"}, {"size": "1"}, {"size": "256"}]}}}, "dtype": {"type": "DT_FLOAT"}}}, {"name": "StatefulPartitionedCall/asl_resnet50_improved_1/resnet50_1/conv4_block6_1_bn_1/batchnorm/sub", "op": "Const", "attr": {"value": {"tensor": {"dtype": "DT_FLOAT", "tensorShape": {"dim": [{"size": "1"}, {"size": "1"}, {"size": "1"}, {"size": "256"}]}}}, "dtype": {"type": "DT_FLOAT"}}}, {"name": "StatefulPartitionedCall/asl_resnet50_improved_1/resnet50_1/conv4_block6_2_conv_1/convolution/ReadVariableOp", "op": "Const", "attr": {"value": {"tensor": {"dtype": "DT_FLOAT", "tensorShape": {"dim": [{"size": "3"}, {"size": "3"}, {"size": "256"}, {"size": "256"}]}}}, "dtype": {"type": "DT_FLOAT"}}}, {"name": "StatefulPartitionedCall/asl_resnet50_improved_1/resnet50_1/conv4_block6_2_conv_1/Squeeze", "op": "Const", "attr": {"value": {"tensor": {"dtype": "DT_FLOAT", "tensorShape": {"dim": [{"size": "256"}]}}}, "dtype": {"type": "DT_FLOAT"}}}, {"name": "StatefulPartitionedCall/asl_resnet50_improved_1/resnet50_1/conv4_block6_2_bn_1/batchnorm/mul", "op": "Const", "attr": {"value": {"tensor": {"dtype": "DT_FLOAT", "tensorShape": {"dim": [{"size": "1"}, {"size": "1"}, {"size": "1"}, {"size": "256"}]}}}, "dtype": {"type": "DT_FLOAT"}}}, {"name": "StatefulPartitionedCall/asl_resnet50_improved_1/resnet50_1/conv4_block6_2_bn_1/batchnorm/sub", "op": "Const", "attr": {"value": {"tensor": {"dtype": "DT_FLOAT", "tensorShape": {"dim": [{"size": "1"}, {"size": "1"}, {"size": "1"}, {"size": "256"}]}}}, "dtype": {"type": "DT_FLOAT"}}}, {"name": "StatefulPartitionedCall/asl_resnet50_improved_1/resnet50_1/conv4_block6_3_conv_1/convolution/ReadVariableOp", "op": "Const", "attr": {"value": {"tensor": {"dtype": "DT_FLOAT", "tensorShape": {"dim": [{"size": "1"}, {"size": "1"}, {"size": "256"}, {"size": "1024"}]}}}, "dtype": {"type": "DT_FLOAT"}}}, {"name": "StatefulPartitionedCall/asl_resnet50_improved_1/resnet50_1/conv4_block6_3_conv_1/Squeeze", "op": "Const", "attr": {"value": {"tensor": {"dtype": "DT_FLOAT", "tensorShape": {"dim": [{"size": "1024"}]}}}, "dtype": {"type": "DT_FLOAT"}}}, {"name": "StatefulPartitionedCall/asl_resnet50_improved_1/resnet50_1/conv4_block6_3_bn_1/batchnorm/mul", "op": "Const", "attr": {"value": {"tensor": {"dtype": "DT_FLOAT", "tensorShape": {"dim": [{"size": "1"}, {"size": "1"}, {"size": "1"}, {"size": "1024"}]}}}, "dtype": {"type": "DT_FLOAT"}}}, {"name": "StatefulPartitionedCall/asl_resnet50_improved_1/resnet50_1/conv4_block6_3_bn_1/batchnorm/sub", "op": "Const", "attr": {"value": {"tensor": {"dtype": "DT_FLOAT", "tensorShape": {"dim": [{"size": "1"}, {"size": "1"}, {"size": "1"}, {"size": "1024"}]}}}, "dtype": {"type": "DT_FLOAT"}}}, {"name": "StatefulPartitionedCall/asl_resnet50_improved_1/resnet50_1/conv5_block1_1_conv_1/convolution/ReadVariableOp", "op": "Const", "attr": {"value": {"tensor": {"dtype": "DT_FLOAT", "tensorShape": {"dim": [{"size": "1"}, {"size": "1"}, {"size": "1024"}, {"size": "512"}]}}}, "dtype": {"type": "DT_FLOAT"}}}, {"name": "StatefulPartitionedCall/asl_resnet50_improved_1/resnet50_1/conv5_block1_1_conv_1/Squeeze", "op": "Const", "attr": {"value": {"tensor": {"dtype": "DT_FLOAT", "tensorShape": {"dim": [{"size": "512"}]}}}, "dtype": {"type": "DT_FLOAT"}}}, {"name": "StatefulPartitionedCall/asl_resnet50_improved_1/resnet50_1/conv5_block1_1_bn_1/batchnorm/mul", "op": "Const", "attr": {"value": {"tensor": {"dtype": "DT_FLOAT", "tensorShape": {"dim": [{"size": "1"}, {"size": "1"}, {"size": "1"}, {"size": "512"}]}}}, "dtype": {"type": "DT_FLOAT"}}}, {"name": "StatefulPartitionedCall/asl_resnet50_improved_1/resnet50_1/conv5_block1_1_bn_1/batchnorm/sub", "op": "Const", "attr": {"value": {"tensor": {"dtype": "DT_FLOAT", "tensorShape": {"dim": [{"size": "1"}, {"size": "1"}, {"size": "1"}, {"size": "512"}]}}}, "dtype": {"type": "DT_FLOAT"}}}, {"name": "StatefulPartitionedCall/asl_resnet50_improved_1/resnet50_1/conv5_block1_2_conv_1/convolution/ReadVariableOp", "op": "Const", "attr": {"value": {"tensor": {"dtype": "DT_FLOAT", "tensorShape": {"dim": [{"size": "3"}, {"size": "3"}, {"size": "512"}, {"size": "512"}]}}}, "dtype": {"type": "DT_FLOAT"}}}, {"name": "StatefulPartitionedCall/asl_resnet50_improved_1/resnet50_1/conv5_block1_2_conv_1/Squeeze", "op": "Const", "attr": {"value": {"tensor": {"dtype": "DT_FLOAT", "tensorShape": {"dim": [{"size": "512"}]}}}, "dtype": {"type": "DT_FLOAT"}}}, {"name": "StatefulPartitionedCall/asl_resnet50_improved_1/resnet50_1/conv5_block1_2_bn_1/batchnorm/mul", "op": "Const", "attr": {"value": {"tensor": {"dtype": "DT_FLOAT", "tensorShape": {"dim": [{"size": "1"}, {"size": "1"}, {"size": "1"}, {"size": "512"}]}}}, "dtype": {"type": "DT_FLOAT"}}}, {"name": "StatefulPartitionedCall/asl_resnet50_improved_1/resnet50_1/conv5_block1_2_bn_1/batchnorm/sub", "op": "Const", "attr": {"value": {"tensor": {"dtype": "DT_FLOAT", "tensorShape": {"dim": [{"size": "1"}, {"size": "1"}, {"size": "1"}, {"size": "512"}]}}}, "dtype": {"type": "DT_FLOAT"}}}, {"name": "StatefulPartitionedCall/asl_resnet50_improved_1/resnet50_1/conv5_block1_3_conv_1/convolution/ReadVariableOp", "op": "Const", "attr": {"value": {"tensor": {"dtype": "DT_FLOAT", "tensorShape": {"dim": [{"size": "1"}, {"size": "1"}, {"size": "512"}, {"size": "2048"}]}}}, "dtype": {"type": "DT_FLOAT"}}}, {"name": "StatefulPartitionedCall/asl_resnet50_improved_1/resnet50_1/conv5_block1_3_conv_1/Squeeze", "op": "Const", "attr": {"value": {"tensor": {"dtype": "DT_FLOAT", "tensorShape": {"dim": [{"size": "2048"}]}}}, "dtype": {"type": "DT_FLOAT"}}}, {"name": "StatefulPartitionedCall/asl_resnet50_improved_1/resnet50_1/conv5_block1_3_bn_1/batchnorm/mul", "op": "Const", "attr": {"value": {"tensor": {"dtype": "DT_FLOAT", "tensorShape": {"dim": [{"size": "1"}, {"size": "1"}, {"size": "1"}, {"size": "2048"}]}}}, "dtype": {"type": "DT_FLOAT"}}}, {"name": "StatefulPartitionedCall/asl_resnet50_improved_1/resnet50_1/conv5_block1_3_bn_1/batchnorm/sub", "op": "Const", "attr": {"value": {"tensor": {"dtype": "DT_FLOAT", "tensorShape": {"dim": [{"size": "1"}, {"size": "1"}, {"size": "1"}, {"size": "2048"}]}}}, "dtype": {"type": "DT_FLOAT"}}}, {"name": "StatefulPartitionedCall/asl_resnet50_improved_1/resnet50_1/conv5_block2_1_conv_1/convolution/ReadVariableOp", "op": "Const", "attr": {"value": {"tensor": {"dtype": "DT_FLOAT", "tensorShape": {"dim": [{"size": "1"}, {"size": "1"}, {"size": "2048"}, {"size": "512"}]}}}, "dtype": {"type": "DT_FLOAT"}}}, {"name": "StatefulPartitionedCall/asl_resnet50_improved_1/resnet50_1/conv5_block2_1_conv_1/Squeeze", "op": "Const", "attr": {"value": {"tensor": {"dtype": "DT_FLOAT", "tensorShape": {"dim": [{"size": "512"}]}}}, "dtype": {"type": "DT_FLOAT"}}}, {"name": "StatefulPartitionedCall/asl_resnet50_improved_1/resnet50_1/conv5_block2_1_bn_1/batchnorm/mul", "op": "Const", "attr": {"value": {"tensor": {"dtype": "DT_FLOAT", "tensorShape": {"dim": [{"size": "1"}, {"size": "1"}, {"size": "1"}, {"size": "512"}]}}}, "dtype": {"type": "DT_FLOAT"}}}, {"name": "StatefulPartitionedCall/asl_resnet50_improved_1/resnet50_1/conv5_block2_1_bn_1/batchnorm/sub", "op": "Const", "attr": {"value": {"tensor": {"dtype": "DT_FLOAT", "tensorShape": {"dim": [{"size": "1"}, {"size": "1"}, {"size": "1"}, {"size": "512"}]}}}, "dtype": {"type": "DT_FLOAT"}}}, {"name": "StatefulPartitionedCall/asl_resnet50_improved_1/resnet50_1/conv5_block2_2_conv_1/convolution/ReadVariableOp", "op": "Const", "attr": {"value": {"tensor": {"dtype": "DT_FLOAT", "tensorShape": {"dim": [{"size": "3"}, {"size": "3"}, {"size": "512"}, {"size": "512"}]}}}, "dtype": {"type": "DT_FLOAT"}}}, {"name": "StatefulPartitionedCall/asl_resnet50_improved_1/resnet50_1/conv5_block2_2_conv_1/Squeeze", "op": "Const", "attr": {"value": {"tensor": {"dtype": "DT_FLOAT", "tensorShape": {"dim": [{"size": "512"}]}}}, "dtype": {"type": "DT_FLOAT"}}}, {"name": "StatefulPartitionedCall/asl_resnet50_improved_1/resnet50_1/conv5_block2_2_bn_1/batchnorm/mul", "op": "Const", "attr": {"value": {"tensor": {"dtype": "DT_FLOAT", "tensorShape": {"dim": [{"size": "1"}, {"size": "1"}, {"size": "1"}, {"size": "512"}]}}}, "dtype": {"type": "DT_FLOAT"}}}, {"name": "StatefulPartitionedCall/asl_resnet50_improved_1/resnet50_1/conv5_block2_2_bn_1/batchnorm/sub", "op": "Const", "attr": {"value": {"tensor": {"dtype": "DT_FLOAT", "tensorShape": {"dim": [{"size": "1"}, {"size": "1"}, {"size": "1"}, {"size": "512"}]}}}, "dtype": {"type": "DT_FLOAT"}}}, {"name": "StatefulPartitionedCall/asl_resnet50_improved_1/resnet50_1/conv5_block2_3_conv_1/convolution/ReadVariableOp", "op": "Const", "attr": {"value": {"tensor": {"dtype": "DT_FLOAT", "tensorShape": {"dim": [{"size": "1"}, {"size": "1"}, {"size": "512"}, {"size": "2048"}]}}}, "dtype": {"type": "DT_FLOAT"}}}, {"name": "StatefulPartitionedCall/asl_resnet50_improved_1/resnet50_1/conv5_block2_3_conv_1/Squeeze", "op": "Const", "attr": {"value": {"tensor": {"dtype": "DT_FLOAT", "tensorShape": {"dim": [{"size": "2048"}]}}}, "dtype": {"type": "DT_FLOAT"}}}, {"name": "StatefulPartitionedCall/asl_resnet50_improved_1/resnet50_1/conv5_block2_3_bn_1/batchnorm/mul", "op": "Const", "attr": {"value": {"tensor": {"dtype": "DT_FLOAT", "tensorShape": {"dim": [{"size": "1"}, {"size": "1"}, {"size": "1"}, {"size": "2048"}]}}}, "dtype": {"type": "DT_FLOAT"}}}, {"name": "StatefulPartitionedCall/asl_resnet50_improved_1/resnet50_1/conv5_block2_3_bn_1/batchnorm/sub", "op": "Const", "attr": {"value": {"tensor": {"dtype": "DT_FLOAT", "tensorShape": {"dim": [{"size": "1"}, {"size": "1"}, {"size": "1"}, {"size": "2048"}]}}}, "dtype": {"type": "DT_FLOAT"}}}, {"name": "StatefulPartitionedCall/asl_resnet50_improved_1/resnet50_1/conv5_block3_1_conv_1/convolution/ReadVariableOp", "op": "Const", "attr": {"value": {"tensor": {"dtype": "DT_FLOAT", "tensorShape": {"dim": [{"size": "1"}, {"size": "1"}, {"size": "2048"}, {"size": "512"}]}}}, "dtype": {"type": "DT_FLOAT"}}}, {"name": "StatefulPartitionedCall/asl_resnet50_improved_1/resnet50_1/conv5_block3_1_conv_1/Squeeze", "op": "Const", "attr": {"value": {"tensor": {"dtype": "DT_FLOAT", "tensorShape": {"dim": [{"size": "512"}]}}}, "dtype": {"type": "DT_FLOAT"}}}, {"name": "StatefulPartitionedCall/asl_resnet50_improved_1/resnet50_1/conv5_block3_1_bn_1/batchnorm/mul", "op": "Const", "attr": {"value": {"tensor": {"dtype": "DT_FLOAT", "tensorShape": {"dim": [{"size": "1"}, {"size": "1"}, {"size": "1"}, {"size": "512"}]}}}, "dtype": {"type": "DT_FLOAT"}}}, {"name": "StatefulPartitionedCall/asl_resnet50_improved_1/resnet50_1/conv5_block3_1_bn_1/batchnorm/sub", "op": "Const", "attr": {"value": {"tensor": {"dtype": "DT_FLOAT", "tensorShape": {"dim": [{"size": "1"}, {"size": "1"}, {"size": "1"}, {"size": "512"}]}}}, "dtype": {"type": "DT_FLOAT"}}}, {"name": "StatefulPartitionedCall/asl_resnet50_improved_1/resnet50_1/conv5_block3_2_conv_1/convolution/ReadVariableOp", "op": "Const", "attr": {"value": {"tensor": {"dtype": "DT_FLOAT", "tensorShape": {"dim": [{"size": "3"}, {"size": "3"}, {"size": "512"}, {"size": "512"}]}}}, "dtype": {"type": "DT_FLOAT"}}}, {"name": "StatefulPartitionedCall/asl_resnet50_improved_1/resnet50_1/conv5_block3_2_conv_1/Squeeze", "op": "Const", "attr": {"value": {"tensor": {"dtype": "DT_FLOAT", "tensorShape": {"dim": [{"size": "512"}]}}}, "dtype": {"type": "DT_FLOAT"}}}, {"name": "StatefulPartitionedCall/asl_resnet50_improved_1/resnet50_1/conv5_block3_2_bn_1/batchnorm/mul", "op": "Const", "attr": {"value": {"tensor": {"dtype": "DT_FLOAT", "tensorShape": {"dim": [{"size": "1"}, {"size": "1"}, {"size": "1"}, {"size": "512"}]}}}, "dtype": {"type": "DT_FLOAT"}}}, {"name": "StatefulPartitionedCall/asl_resnet50_improved_1/resnet50_1/conv5_block3_2_bn_1/batchnorm/sub", "op": "Const", "attr": {"value": {"tensor": {"dtype": "DT_FLOAT", "tensorShape": {"dim": [{"size": "1"}, {"size": "1"}, {"size": "1"}, {"size": "512"}]}}}, "dtype": {"type": "DT_FLOAT"}}}, {"name": "StatefulPartitionedCall/asl_resnet50_improved_1/resnet50_1/conv5_block3_3_conv_1/convolution/ReadVariableOp", "op": "Const", "attr": {"value": {"tensor": {"dtype": "DT_FLOAT", "tensorShape": {"dim": [{"size": "1"}, {"size": "1"}, {"size": "512"}, {"size": "2048"}]}}}, "dtype": {"type": "DT_FLOAT"}}}, {"name": "StatefulPartitionedCall/asl_resnet50_improved_1/resnet50_1/conv5_block3_3_conv_1/Squeeze", "op": "Const", "attr": {"value": {"tensor": {"dtype": "DT_FLOAT", "tensorShape": {"dim": [{"size": "2048"}]}}}, "dtype": {"type": "DT_FLOAT"}}}, {"name": "StatefulPartitionedCall/asl_resnet50_improved_1/resnet50_1/conv5_block3_3_bn_1/batchnorm/mul", "op": "Const", "attr": {"value": {"tensor": {"dtype": "DT_FLOAT", "tensorShape": {"dim": [{"size": "1"}, {"size": "1"}, {"size": "1"}, {"size": "2048"}]}}}, "dtype": {"type": "DT_FLOAT"}}}, {"name": "StatefulPartitionedCall/asl_resnet50_improved_1/resnet50_1/conv5_block3_3_bn_1/batchnorm/sub", "op": "Const", "attr": {"value": {"tensor": {"dtype": "DT_FLOAT", "tensorShape": {"dim": [{"size": "1"}, {"size": "1"}, {"size": "1"}, {"size": "2048"}]}}}, "dtype": {"type": "DT_FLOAT"}}}, {"name": "StatefulPartitionedCall/asl_resnet50_improved_1/global_average_pooling2d_1/Mean/reduction_indices", "op": "Const", "attr": {"value": {"tensor": {"dtype": "DT_INT32", "tensorShape": {"dim": [{"size": "2"}]}}}, "dtype": {"type": "DT_INT32"}}}, {"name": "StatefulPartitionedCall/asl_resnet50_improved_1/dense_1/Cast/ReadVariableOp", "op": "Const", "attr": {"value": {"tensor": {"dtype": "DT_FLOAT", "tensorShape": {"dim": [{"size": "2048"}, {"size": "128"}]}}}, "dtype": {"type": "DT_FLOAT"}}}, {"name": "StatefulPartitionedCall/asl_resnet50_improved_1/dense_1/BiasAdd/ReadVariableOp", "op": "Const", "attr": {"value": {"tensor": {"dtype": "DT_FLOAT", "tensorShape": {"dim": [{"size": "128"}]}}}, "dtype": {"type": "DT_FLOAT"}}}, {"name": "StatefulPartitionedCall/asl_resnet50_improved_1/dense_1_2/Cast/ReadVariableOp", "op": "Const", "attr": {"value": {"tensor": {"dtype": "DT_FLOAT", "tensorShape": {"dim": [{"size": "128"}, {"size": "29"}]}}}, "dtype": {"type": "DT_FLOAT"}}}, {"name": "StatefulPartitionedCall/asl_resnet50_improved_1/dense_1_2/BiasAdd/ReadVariableOp", "op": "Const", "attr": {"value": {"tensor": {"dtype": "DT_FLOAT", "tensorShape": {"dim": [{"size": "29"}]}}}, "dtype": {"type": "DT_FLOAT"}}}, {"name": "inputs", "op": "Placeholder", "attr": {"shape": {"shape": {"dim": [{"size": "-1"}, {"size": "96"}, {"size": "96"}, {"size": "3"}]}}, "dtype": {"type": "DT_FLOAT"}}}, {"name": "StatefulPartitionedCall/asl_resnet50_improved_1/resnet50_1/conv1_pad_1/Pad", "op": "Pad", "input": ["inputs", "StatefulPartitionedCall/asl_resnet50_improved_1/resnet50_1/conv1_pad_1/Const"], "attr": {"T": {"type": "DT_FLOAT"}, "Tpaddings": {"type": "DT_INT32"}}}, {"name": "StatefulPartitionedCall/asl_resnet50_improved_1/resnet50_1/conv1_conv_1/BiasAdd", "op": "_FusedConv2D", "input": ["StatefulPartitionedCall/asl_resnet50_improved_1/resnet50_1/conv1_pad_1/Pad", "StatefulPartitionedCall/asl_resnet50_improved_1/resnet50_1/conv1_conv_1/convolution/ReadVariableOp", "StatefulPartitionedCall/asl_resnet50_improved_1/resnet50_1/conv1_conv_1/Squeeze"], "device": "/device:CPU:0", "attr": {"explicit_paddings": {"list": {}}, "padding": {"s": "VkFMSUQ="}, "leakyrelu_alpha": {"f": 0.2}, "strides": {"list": {"i": ["1", "2", "2", "1"]}}, "num_host_args": {"i": "0"}, "epsilon": {"f": 0.0}, "fused_ops": {"list": {"s": ["Qmlhc0FkZA=="]}}, "TArgs": {"list": {"type": ["DT_FLOAT"]}}, "num_args": {"i": "1"}, "use_cudnn_on_gpu": {"b": true}, "dilations": {"list": {"i": ["1", "1", "1", "1"]}}, "T": {"type": "DT_FLOAT"}, "filter_format": {"s": "SFdJTw=="}, "data_format": {"s": "TkhXQw=="}}}, {"name": "StatefulPartitionedCall/asl_resnet50_improved_1/resnet50_1/conv1_bn_1/batchnorm/mul_1", "op": "Mul", "input": ["StatefulPartitionedCall/asl_resnet50_improved_1/resnet50_1/conv1_conv_1/BiasAdd", "StatefulPartitionedCall/asl_resnet50_improved_1/resnet50_1/conv1_bn_1/batchnorm/mul"], "attr": {"T": {"type": "DT_FLOAT"}}}, {"name": "StatefulPartitionedCall/asl_resnet50_improved_1/resnet50_1/conv1_bn_1/batchnorm/add_1", "op": "AddV2", "input": ["StatefulPartitionedCall/asl_resnet50_improved_1/resnet50_1/conv1_bn_1/batchnorm/mul_1", "StatefulPartitionedCall/asl_resnet50_improved_1/resnet50_1/conv1_bn_1/batchnorm/sub"], "attr": {"T": {"type": "DT_FLOAT"}}}, {"name": "StatefulPartitionedCall/asl_resnet50_improved_1/resnet50_1/conv1_relu_1/Relu", "op": "Relu", "input": ["StatefulPartitionedCall/asl_resnet50_improved_1/resnet50_1/conv1_bn_1/batchnorm/add_1"], "attr": {"T": {"type": "DT_FLOAT"}}}, {"name": "StatefulPartitionedCall/asl_resnet50_improved_1/resnet50_1/pool1_pad_1/Pad", "op": "Pad", "input": ["StatefulPartitionedCall/asl_resnet50_improved_1/resnet50_1/conv1_relu_1/Relu", "StatefulPartitionedCall/asl_resnet50_improved_1/resnet50_1/pool1_pad_1/Const"], "attr": {"T": {"type": "DT_FLOAT"}, "Tpaddings": {"type": "DT_INT32"}}}, {"name": "StatefulPartitionedCall/asl_resnet50_improved_1/resnet50_1/pool1_pool_1/MaxPool2d", "op": "MaxPool", "input": ["StatefulPartitionedCall/asl_resnet50_improved_1/resnet50_1/pool1_pad_1/Pad"], "attr": {"explicit_paddings": {"list": {}}, "padding": {"s": "VkFMSUQ="}, "ksize": {"list": {"i": ["1", "3", "3", "1"]}}, "strides": {"list": {"i": ["1", "2", "2", "1"]}}, "T": {"type": "DT_FLOAT"}, "data_format": {"s": "TkhXQw=="}}}, {"name": "StatefulPartitionedCall/asl_resnet50_improved_1/resnet50_1/conv2_block1_0_conv_1/BiasAdd", "op": "_FusedConv2D", "input": ["StatefulPartitionedCall/asl_resnet50_improved_1/resnet50_1/pool1_pool_1/MaxPool2d", "StatefulPartitionedCall/asl_resnet50_improved_1/resnet50_1/conv2_block1_0_conv_1/convolution/ReadVariableOp", "StatefulPartitionedCall/asl_resnet50_improved_1/resnet50_1/conv2_block1_0_conv_1/Squeeze"], "device": "/device:CPU:0", "attr": {"explicit_paddings": {"list": {}}, "padding": {"s": "VkFMSUQ="}, "epsilon": {"f": 0.0}, "strides": {"list": {"i": ["1", "1", "1", "1"]}}, "num_host_args": {"i": "0"}, "leakyrelu_alpha": {"f": 0.2}, "fused_ops": {"list": {"s": ["Qmlhc0FkZA=="]}}, "TArgs": {"list": {"type": ["DT_FLOAT"]}}, "num_args": {"i": "1"}, "use_cudnn_on_gpu": {"b": true}, "dilations": {"list": {"i": ["1", "1", "1", "1"]}}, "T": {"type": "DT_FLOAT"}, "filter_format": {"s": "SFdJTw=="}, "data_format": {"s": "TkhXQw=="}}}, {"name": "StatefulPartitionedCall/asl_resnet50_improved_1/resnet50_1/conv2_block1_1_conv_1/BiasAdd", "op": "_FusedConv2D", "input": ["StatefulPartitionedCall/asl_resnet50_improved_1/resnet50_1/pool1_pool_1/MaxPool2d", "StatefulPartitionedCall/asl_resnet50_improved_1/resnet50_1/conv2_block1_1_conv_1/convolution/ReadVariableOp", "StatefulPartitionedCall/asl_resnet50_improved_1/resnet50_1/conv2_block1_1_conv_1/Squeeze"], "device": "/device:CPU:0", "attr": {"explicit_paddings": {"list": {}}, "padding": {"s": "VkFMSUQ="}, "leakyrelu_alpha": {"f": 0.2}, "num_host_args": {"i": "0"}, "strides": {"list": {"i": ["1", "1", "1", "1"]}}, "epsilon": {"f": 0.0}, "fused_ops": {"list": {"s": ["Qmlhc0FkZA=="]}}, "TArgs": {"list": {"type": ["DT_FLOAT"]}}, "num_args": {"i": "1"}, "use_cudnn_on_gpu": {"b": true}, "filter_format": {"s": "SFdJTw=="}, "T": {"type": "DT_FLOAT"}, "dilations": {"list": {"i": ["1", "1", "1", "1"]}}, "data_format": {"s": "TkhXQw=="}}}, {"name": "StatefulPartitionedCall/asl_resnet50_improved_1/resnet50_1/conv2_block1_0_bn_1/batchnorm/mul_1", "op": "Mul", "input": ["StatefulPartitionedCall/asl_resnet50_improved_1/resnet50_1/conv2_block1_0_conv_1/BiasAdd", "StatefulPartitionedCall/asl_resnet50_improved_1/resnet50_1/conv2_block1_0_bn_1/batchnorm/mul"], "attr": {"T": {"type": "DT_FLOAT"}}}, {"name": "StatefulPartitionedCall/asl_resnet50_improved_1/resnet50_1/conv2_block1_1_bn_1/batchnorm/mul_1", "op": "Mul", "input": ["StatefulPartitionedCall/asl_resnet50_improved_1/resnet50_1/conv2_block1_1_conv_1/BiasAdd", "StatefulPartitionedCall/asl_resnet50_improved_1/resnet50_1/conv2_block1_1_bn_1/batchnorm/mul"], "attr": {"T": {"type": "DT_FLOAT"}}}, {"name": "StatefulPartitionedCall/asl_resnet50_improved_1/resnet50_1/conv2_block1_0_bn_1/batchnorm/add_1", "op": "AddV2", "input": ["StatefulPartitionedCall/asl_resnet50_improved_1/resnet50_1/conv2_block1_0_bn_1/batchnorm/mul_1", "StatefulPartitionedCall/asl_resnet50_improved_1/resnet50_1/conv2_block1_0_bn_1/batchnorm/sub"], "attr": {"T": {"type": "DT_FLOAT"}}}, {"name": "StatefulPartitionedCall/asl_resnet50_improved_1/resnet50_1/conv2_block1_1_bn_1/batchnorm/add_1", "op": "AddV2", "input": ["StatefulPartitionedCall/asl_resnet50_improved_1/resnet50_1/conv2_block1_1_bn_1/batchnorm/mul_1", "StatefulPartitionedCall/asl_resnet50_improved_1/resnet50_1/conv2_block1_1_bn_1/batchnorm/sub"], "attr": {"T": {"type": "DT_FLOAT"}}}, {"name": "StatefulPartitionedCall/asl_resnet50_improved_1/resnet50_1/conv2_block1_1_relu_1/Relu", "op": "Relu", "input": ["StatefulPartitionedCall/asl_resnet50_improved_1/resnet50_1/conv2_block1_1_bn_1/batchnorm/add_1"], "attr": {"T": {"type": "DT_FLOAT"}}}, {"name": "StatefulPartitionedCall/asl_resnet50_improved_1/resnet50_1/conv2_block1_2_conv_1/BiasAdd", "op": "_FusedConv2D", "input": ["StatefulPartitionedCall/asl_resnet50_improved_1/resnet50_1/conv2_block1_1_relu_1/Relu", "StatefulPartitionedCall/asl_resnet50_improved_1/resnet50_1/conv2_block1_2_conv_1/convolution/ReadVariableOp", "StatefulPartitionedCall/asl_resnet50_improved_1/resnet50_1/conv2_block1_2_conv_1/Squeeze"], "device": "/device:CPU:0", "attr": {"explicit_paddings": {"list": {}}, "padding": {"s": "U0FNRQ=="}, "epsilon": {"f": 0.0}, "num_host_args": {"i": "0"}, "strides": {"list": {"i": ["1", "1", "1", "1"]}}, "leakyrelu_alpha": {"f": 0.2}, "fused_ops": {"list": {"s": ["Qmlhc0FkZA=="]}}, "TArgs": {"list": {"type": ["DT_FLOAT"]}}, "num_args": {"i": "1"}, "use_cudnn_on_gpu": {"b": true}, "filter_format": {"s": "SFdJTw=="}, "T": {"type": "DT_FLOAT"}, "dilations": {"list": {"i": ["1", "1", "1", "1"]}}, "data_format": {"s": "TkhXQw=="}}}, {"name": "StatefulPartitionedCall/asl_resnet50_improved_1/resnet50_1/conv2_block1_2_bn_1/batchnorm/mul_1", "op": "Mul", "input": ["StatefulPartitionedCall/asl_resnet50_improved_1/resnet50_1/conv2_block1_2_conv_1/BiasAdd", "StatefulPartitionedCall/asl_resnet50_improved_1/resnet50_1/conv2_block1_2_bn_1/batchnorm/mul"], "attr": {"T": {"type": "DT_FLOAT"}}}, {"name": "StatefulPartitionedCall/asl_resnet50_improved_1/resnet50_1/conv2_block1_2_bn_1/batchnorm/add_1", "op": "AddV2", "input": ["StatefulPartitionedCall/asl_resnet50_improved_1/resnet50_1/conv2_block1_2_bn_1/batchnorm/mul_1", "StatefulPartitionedCall/asl_resnet50_improved_1/resnet50_1/conv2_block1_2_bn_1/batchnorm/sub"], "attr": {"T": {"type": "DT_FLOAT"}}}, {"name": "StatefulPartitionedCall/asl_resnet50_improved_1/resnet50_1/conv2_block1_2_relu_1/Relu", "op": "Relu", "input": ["StatefulPartitionedCall/asl_resnet50_improved_1/resnet50_1/conv2_block1_2_bn_1/batchnorm/add_1"], "attr": {"T": {"type": "DT_FLOAT"}}}, {"name": "StatefulPartitionedCall/asl_resnet50_improved_1/resnet50_1/conv2_block1_3_conv_1/BiasAdd", "op": "_FusedConv2D", "input": ["StatefulPartitionedCall/asl_resnet50_improved_1/resnet50_1/conv2_block1_2_relu_1/Relu", "StatefulPartitionedCall/asl_resnet50_improved_1/resnet50_1/conv2_block1_3_conv_1/convolution/ReadVariableOp", "StatefulPartitionedCall/asl_resnet50_improved_1/resnet50_1/conv2_block1_3_conv_1/Squeeze"], "device": "/device:CPU:0", "attr": {"explicit_paddings": {"list": {}}, "padding": {"s": "VkFMSUQ="}, "epsilon": {"f": 0.0}, "num_host_args": {"i": "0"}, "strides": {"list": {"i": ["1", "1", "1", "1"]}}, "leakyrelu_alpha": {"f": 0.2}, "fused_ops": {"list": {"s": ["Qmlhc0FkZA=="]}}, "TArgs": {"list": {"type": ["DT_FLOAT"]}}, "num_args": {"i": "1"}, "use_cudnn_on_gpu": {"b": true}, "dilations": {"list": {"i": ["1", "1", "1", "1"]}}, "T": {"type": "DT_FLOAT"}, "filter_format": {"s": "SFdJTw=="}, "data_format": {"s": "TkhXQw=="}}}, {"name": "StatefulPartitionedCall/asl_resnet50_improved_1/resnet50_1/conv2_block1_3_bn_1/batchnorm/mul_1", "op": "Mul", "input": ["StatefulPartitionedCall/asl_resnet50_improved_1/resnet50_1/conv2_block1_3_conv_1/BiasAdd", "StatefulPartitionedCall/asl_resnet50_improved_1/resnet50_1/conv2_block1_3_bn_1/batchnorm/mul"], "attr": {"T": {"type": "DT_FLOAT"}}}, {"name": "StatefulPartitionedCall/asl_resnet50_improved_1/resnet50_1/conv2_block1_3_bn_1/batchnorm/add_1", "op": "AddV2", "input": ["StatefulPartitionedCall/asl_resnet50_improved_1/resnet50_1/conv2_block1_3_bn_1/batchnorm/mul_1", "StatefulPartitionedCall/asl_resnet50_improved_1/resnet50_1/conv2_block1_3_bn_1/batchnorm/sub"], "attr": {"T": {"type": "DT_FLOAT"}}}, {"name": "StatefulPartitionedCall/asl_resnet50_improved_1/resnet50_1/conv2_block1_add_1/Add", "op": "AddV2", "input": ["StatefulPartitionedCall/asl_resnet50_improved_1/resnet50_1/conv2_block1_0_bn_1/batchnorm/add_1", "StatefulPartitionedCall/asl_resnet50_improved_1/resnet50_1/conv2_block1_3_bn_1/batchnorm/add_1"], "attr": {"T": {"type": "DT_FLOAT"}}}, {"name": "StatefulPartitionedCall/asl_resnet50_improved_1/resnet50_1/conv2_block1_out_1/Relu", "op": "Relu", "input": ["StatefulPartitionedCall/asl_resnet50_improved_1/resnet50_1/conv2_block1_add_1/Add"], "attr": {"T": {"type": "DT_FLOAT"}}}, {"name": "StatefulPartitionedCall/asl_resnet50_improved_1/resnet50_1/conv2_block2_1_conv_1/BiasAdd", "op": "_FusedConv2D", "input": ["StatefulPartitionedCall/asl_resnet50_improved_1/resnet50_1/conv2_block1_out_1/Relu", "StatefulPartitionedCall/asl_resnet50_improved_1/resnet50_1/conv2_block2_1_conv_1/convolution/ReadVariableOp", "StatefulPartitionedCall/asl_resnet50_improved_1/resnet50_1/conv2_block2_1_conv_1/Squeeze"], "device": "/device:CPU:0", "attr": {"explicit_paddings": {"list": {}}, "padding": {"s": "VkFMSUQ="}, "epsilon": {"f": 0.0}, "strides": {"list": {"i": ["1", "1", "1", "1"]}}, "num_host_args": {"i": "0"}, "leakyrelu_alpha": {"f": 0.2}, "fused_ops": {"list": {"s": ["Qmlhc0FkZA=="]}}, "TArgs": {"list": {"type": ["DT_FLOAT"]}}, "num_args": {"i": "1"}, "use_cudnn_on_gpu": {"b": true}, "filter_format": {"s": "SFdJTw=="}, "T": {"type": "DT_FLOAT"}, "dilations": {"list": {"i": ["1", "1", "1", "1"]}}, "data_format": {"s": "TkhXQw=="}}}, {"name": "StatefulPartitionedCall/asl_resnet50_improved_1/resnet50_1/conv2_block2_1_bn_1/batchnorm/mul_1", "op": "Mul", "input": ["StatefulPartitionedCall/asl_resnet50_improved_1/resnet50_1/conv2_block2_1_conv_1/BiasAdd", "StatefulPartitionedCall/asl_resnet50_improved_1/resnet50_1/conv2_block2_1_bn_1/batchnorm/mul"], "attr": {"T": {"type": "DT_FLOAT"}}}, {"name": "StatefulPartitionedCall/asl_resnet50_improved_1/resnet50_1/conv2_block2_1_bn_1/batchnorm/add_1", "op": "AddV2", "input": ["StatefulPartitionedCall/asl_resnet50_improved_1/resnet50_1/conv2_block2_1_bn_1/batchnorm/mul_1", "StatefulPartitionedCall/asl_resnet50_improved_1/resnet50_1/conv2_block2_1_bn_1/batchnorm/sub"], "attr": {"T": {"type": "DT_FLOAT"}}}, {"name": "StatefulPartitionedCall/asl_resnet50_improved_1/resnet50_1/conv2_block2_1_relu_1/Relu", "op": "Relu", "input": ["StatefulPartitionedCall/asl_resnet50_improved_1/resnet50_1/conv2_block2_1_bn_1/batchnorm/add_1"], "attr": {"T": {"type": "DT_FLOAT"}}}, {"name": "StatefulPartitionedCall/asl_resnet50_improved_1/resnet50_1/conv2_block2_2_conv_1/BiasAdd", "op": "_FusedConv2D", "input": ["StatefulPartitionedCall/asl_resnet50_improved_1/resnet50_1/conv2_block2_1_relu_1/Relu", "StatefulPartitionedCall/asl_resnet50_improved_1/resnet50_1/conv2_block2_2_conv_1/convolution/ReadVariableOp", "StatefulPartitionedCall/asl_resnet50_improved_1/resnet50_1/conv2_block2_2_conv_1/Squeeze"], "device": "/device:CPU:0", "attr": {"explicit_paddings": {"list": {}}, "padding": {"s": "U0FNRQ=="}, "leakyrelu_alpha": {"f": 0.2}, "num_host_args": {"i": "0"}, "strides": {"list": {"i": ["1", "1", "1", "1"]}}, "epsilon": {"f": 0.0}, "fused_ops": {"list": {"s": ["Qmlhc0FkZA=="]}}, "TArgs": {"list": {"type": ["DT_FLOAT"]}}, "num_args": {"i": "1"}, "use_cudnn_on_gpu": {"b": true}, "filter_format": {"s": "SFdJTw=="}, "T": {"type": "DT_FLOAT"}, "dilations": {"list": {"i": ["1", "1", "1", "1"]}}, "data_format": {"s": "TkhXQw=="}}}, {"name": "StatefulPartitionedCall/asl_resnet50_improved_1/resnet50_1/conv2_block2_2_bn_1/batchnorm/mul_1", "op": "Mul", "input": ["StatefulPartitionedCall/asl_resnet50_improved_1/resnet50_1/conv2_block2_2_conv_1/BiasAdd", "StatefulPartitionedCall/asl_resnet50_improved_1/resnet50_1/conv2_block2_2_bn_1/batchnorm/mul"], "attr": {"T": {"type": "DT_FLOAT"}}}, {"name": "StatefulPartitionedCall/asl_resnet50_improved_1/resnet50_1/conv2_block2_2_bn_1/batchnorm/add_1", "op": "AddV2", "input": ["StatefulPartitionedCall/asl_resnet50_improved_1/resnet50_1/conv2_block2_2_bn_1/batchnorm/mul_1", "StatefulPartitionedCall/asl_resnet50_improved_1/resnet50_1/conv2_block2_2_bn_1/batchnorm/sub"], "attr": {"T": {"type": "DT_FLOAT"}}}, {"name": "StatefulPartitionedCall/asl_resnet50_improved_1/resnet50_1/conv2_block2_2_relu_1/Relu", "op": "Relu", "input": ["StatefulPartitionedCall/asl_resnet50_improved_1/resnet50_1/conv2_block2_2_bn_1/batchnorm/add_1"], "attr": {"T": {"type": "DT_FLOAT"}}}, {"name": "StatefulPartitionedCall/asl_resnet50_improved_1/resnet50_1/conv2_block2_3_conv_1/BiasAdd", "op": "_FusedConv2D", "input": ["StatefulPartitionedCall/asl_resnet50_improved_1/resnet50_1/conv2_block2_2_relu_1/Relu", "StatefulPartitionedCall/asl_resnet50_improved_1/resnet50_1/conv2_block2_3_conv_1/convolution/ReadVariableOp", "StatefulPartitionedCall/asl_resnet50_improved_1/resnet50_1/conv2_block2_3_conv_1/Squeeze"], "device": "/device:CPU:0", "attr": {"explicit_paddings": {"list": {}}, "padding": {"s": "VkFMSUQ="}, "leakyrelu_alpha": {"f": 0.2}, "strides": {"list": {"i": ["1", "1", "1", "1"]}}, "num_host_args": {"i": "0"}, "epsilon": {"f": 0.0}, "fused_ops": {"list": {"s": ["Qmlhc0FkZA=="]}}, "TArgs": {"list": {"type": ["DT_FLOAT"]}}, "num_args": {"i": "1"}, "use_cudnn_on_gpu": {"b": true}, "filter_format": {"s": "SFdJTw=="}, "T": {"type": "DT_FLOAT"}, "dilations": {"list": {"i": ["1", "1", "1", "1"]}}, "data_format": {"s": "TkhXQw=="}}}, {"name": "StatefulPartitionedCall/asl_resnet50_improved_1/resnet50_1/conv2_block2_3_bn_1/batchnorm/mul_1", "op": "Mul", "input": ["StatefulPartitionedCall/asl_resnet50_improved_1/resnet50_1/conv2_block2_3_conv_1/BiasAdd", "StatefulPartitionedCall/asl_resnet50_improved_1/resnet50_1/conv2_block2_3_bn_1/batchnorm/mul"], "attr": {"T": {"type": "DT_FLOAT"}}}, {"name": "StatefulPartitionedCall/asl_resnet50_improved_1/resnet50_1/conv2_block2_3_bn_1/batchnorm/add_1", "op": "AddV2", "input": ["StatefulPartitionedCall/asl_resnet50_improved_1/resnet50_1/conv2_block2_3_bn_1/batchnorm/mul_1", "StatefulPartitionedCall/asl_resnet50_improved_1/resnet50_1/conv2_block2_3_bn_1/batchnorm/sub"], "attr": {"T": {"type": "DT_FLOAT"}}}, {"name": "StatefulPartitionedCall/asl_resnet50_improved_1/resnet50_1/conv2_block2_add_1/Add", "op": "AddV2", "input": ["StatefulPartitionedCall/asl_resnet50_improved_1/resnet50_1/conv2_block1_out_1/Relu", "StatefulPartitionedCall/asl_resnet50_improved_1/resnet50_1/conv2_block2_3_bn_1/batchnorm/add_1"], "attr": {"T": {"type": "DT_FLOAT"}}}, {"name": "StatefulPartitionedCall/asl_resnet50_improved_1/resnet50_1/conv2_block2_out_1/Relu", "op": "Relu", "input": ["StatefulPartitionedCall/asl_resnet50_improved_1/resnet50_1/conv2_block2_add_1/Add"], "attr": {"T": {"type": "DT_FLOAT"}}}, {"name": "StatefulPartitionedCall/asl_resnet50_improved_1/resnet50_1/conv2_block3_1_conv_1/BiasAdd", "op": "_FusedConv2D", "input": ["StatefulPartitionedCall/asl_resnet50_improved_1/resnet50_1/conv2_block2_out_1/Relu", "StatefulPartitionedCall/asl_resnet50_improved_1/resnet50_1/conv2_block3_1_conv_1/convolution/ReadVariableOp", "StatefulPartitionedCall/asl_resnet50_improved_1/resnet50_1/conv2_block3_1_conv_1/Squeeze"], "device": "/device:CPU:0", "attr": {"explicit_paddings": {"list": {}}, "padding": {"s": "VkFMSUQ="}, "leakyrelu_alpha": {"f": 0.2}, "strides": {"list": {"i": ["1", "1", "1", "1"]}}, "num_host_args": {"i": "0"}, "epsilon": {"f": 0.0}, "fused_ops": {"list": {"s": ["Qmlhc0FkZA=="]}}, "TArgs": {"list": {"type": ["DT_FLOAT"]}}, "num_args": {"i": "1"}, "use_cudnn_on_gpu": {"b": true}, "dilations": {"list": {"i": ["1", "1", "1", "1"]}}, "T": {"type": "DT_FLOAT"}, "filter_format": {"s": "SFdJTw=="}, "data_format": {"s": "TkhXQw=="}}}, {"name": "StatefulPartitionedCall/asl_resnet50_improved_1/resnet50_1/conv2_block3_1_bn_1/batchnorm/mul_1", "op": "Mul", "input": ["StatefulPartitionedCall/asl_resnet50_improved_1/resnet50_1/conv2_block3_1_conv_1/BiasAdd", "StatefulPartitionedCall/asl_resnet50_improved_1/resnet50_1/conv2_block3_1_bn_1/batchnorm/mul"], "attr": {"T": {"type": "DT_FLOAT"}}}, {"name": "StatefulPartitionedCall/asl_resnet50_improved_1/resnet50_1/conv2_block3_1_bn_1/batchnorm/add_1", "op": "AddV2", "input": ["StatefulPartitionedCall/asl_resnet50_improved_1/resnet50_1/conv2_block3_1_bn_1/batchnorm/mul_1", "StatefulPartitionedCall/asl_resnet50_improved_1/resnet50_1/conv2_block3_1_bn_1/batchnorm/sub"], "attr": {"T": {"type": "DT_FLOAT"}}}, {"name": "StatefulPartitionedCall/asl_resnet50_improved_1/resnet50_1/conv2_block3_1_relu_1/Relu", "op": "Relu", "input": ["StatefulPartitionedCall/asl_resnet50_improved_1/resnet50_1/conv2_block3_1_bn_1/batchnorm/add_1"], "attr": {"T": {"type": "DT_FLOAT"}}}, {"name": "StatefulPartitionedCall/asl_resnet50_improved_1/resnet50_1/conv2_block3_2_conv_1/BiasAdd", "op": "_FusedConv2D", "input": ["StatefulPartitionedCall/asl_resnet50_improved_1/resnet50_1/conv2_block3_1_relu_1/Relu", "StatefulPartitionedCall/asl_resnet50_improved_1/resnet50_1/conv2_block3_2_conv_1/convolution/ReadVariableOp", "StatefulPartitionedCall/asl_resnet50_improved_1/resnet50_1/conv2_block3_2_conv_1/Squeeze"], "device": "/device:CPU:0", "attr": {"explicit_paddings": {"list": {}}, "padding": {"s": "U0FNRQ=="}, "epsilon": {"f": 0.0}, "strides": {"list": {"i": ["1", "1", "1", "1"]}}, "num_host_args": {"i": "0"}, "leakyrelu_alpha": {"f": 0.2}, "fused_ops": {"list": {"s": ["Qmlhc0FkZA=="]}}, "TArgs": {"list": {"type": ["DT_FLOAT"]}}, "num_args": {"i": "1"}, "use_cudnn_on_gpu": {"b": true}, "filter_format": {"s": "SFdJTw=="}, "T": {"type": "DT_FLOAT"}, "dilations": {"list": {"i": ["1", "1", "1", "1"]}}, "data_format": {"s": "TkhXQw=="}}}, {"name": "StatefulPartitionedCall/asl_resnet50_improved_1/resnet50_1/conv2_block3_2_bn_1/batchnorm/mul_1", "op": "Mul", "input": ["StatefulPartitionedCall/asl_resnet50_improved_1/resnet50_1/conv2_block3_2_conv_1/BiasAdd", "StatefulPartitionedCall/asl_resnet50_improved_1/resnet50_1/conv2_block3_2_bn_1/batchnorm/mul"], "attr": {"T": {"type": "DT_FLOAT"}}}, {"name": "StatefulPartitionedCall/asl_resnet50_improved_1/resnet50_1/conv2_block3_2_bn_1/batchnorm/add_1", "op": "AddV2", "input": ["StatefulPartitionedCall/asl_resnet50_improved_1/resnet50_1/conv2_block3_2_bn_1/batchnorm/mul_1", "StatefulPartitionedCall/asl_resnet50_improved_1/resnet50_1/conv2_block3_2_bn_1/batchnorm/sub"], "attr": {"T": {"type": "DT_FLOAT"}}}, {"name": "StatefulPartitionedCall/asl_resnet50_improved_1/resnet50_1/conv2_block3_2_relu_1/Relu", "op": "Relu", "input": ["StatefulPartitionedCall/asl_resnet50_improved_1/resnet50_1/conv2_block3_2_bn_1/batchnorm/add_1"], "attr": {"T": {"type": "DT_FLOAT"}}}, {"name": "StatefulPartitionedCall/asl_resnet50_improved_1/resnet50_1/conv2_block3_3_conv_1/BiasAdd", "op": "_FusedConv2D", "input": ["StatefulPartitionedCall/asl_resnet50_improved_1/resnet50_1/conv2_block3_2_relu_1/Relu", "StatefulPartitionedCall/asl_resnet50_improved_1/resnet50_1/conv2_block3_3_conv_1/convolution/ReadVariableOp", "StatefulPartitionedCall/asl_resnet50_improved_1/resnet50_1/conv2_block3_3_conv_1/Squeeze"], "device": "/device:CPU:0", "attr": {"explicit_paddings": {"list": {}}, "padding": {"s": "VkFMSUQ="}, "epsilon": {"f": 0.0}, "strides": {"list": {"i": ["1", "1", "1", "1"]}}, "num_host_args": {"i": "0"}, "leakyrelu_alpha": {"f": 0.2}, "fused_ops": {"list": {"s": ["Qmlhc0FkZA=="]}}, "TArgs": {"list": {"type": ["DT_FLOAT"]}}, "num_args": {"i": "1"}, "use_cudnn_on_gpu": {"b": true}, "dilations": {"list": {"i": ["1", "1", "1", "1"]}}, "T": {"type": "DT_FLOAT"}, "filter_format": {"s": "SFdJTw=="}, "data_format": {"s": "TkhXQw=="}}}, {"name": "StatefulPartitionedCall/asl_resnet50_improved_1/resnet50_1/conv2_block3_3_bn_1/batchnorm/mul_1", "op": "Mul", "input": ["StatefulPartitionedCall/asl_resnet50_improved_1/resnet50_1/conv2_block3_3_conv_1/BiasAdd", "StatefulPartitionedCall/asl_resnet50_improved_1/resnet50_1/conv2_block3_3_bn_1/batchnorm/mul"], "attr": {"T": {"type": "DT_FLOAT"}}}, {"name": "StatefulPartitionedCall/asl_resnet50_improved_1/resnet50_1/conv2_block3_3_bn_1/batchnorm/add_1", "op": "AddV2", "input": ["StatefulPartitionedCall/asl_resnet50_improved_1/resnet50_1/conv2_block3_3_bn_1/batchnorm/mul_1", "StatefulPartitionedCall/asl_resnet50_improved_1/resnet50_1/conv2_block3_3_bn_1/batchnorm/sub"], "attr": {"T": {"type": "DT_FLOAT"}}}, {"name": "StatefulPartitionedCall/asl_resnet50_improved_1/resnet50_1/conv2_block3_add_1/Add", "op": "AddV2", "input": ["StatefulPartitionedCall/asl_resnet50_improved_1/resnet50_1/conv2_block2_out_1/Relu", "StatefulPartitionedCall/asl_resnet50_improved_1/resnet50_1/conv2_block3_3_bn_1/batchnorm/add_1"], "attr": {"T": {"type": "DT_FLOAT"}}}, {"name": "StatefulPartitionedCall/asl_resnet50_improved_1/resnet50_1/conv2_block3_out_1/Relu", "op": "Relu", "input": ["StatefulPartitionedCall/asl_resnet50_improved_1/resnet50_1/conv2_block3_add_1/Add"], "attr": {"T": {"type": "DT_FLOAT"}}}, {"name": "StatefulPartitionedCall/asl_resnet50_improved_1/resnet50_1/conv3_block1_0_conv_1/BiasAdd", "op": "_FusedConv2D", "input": ["StatefulPartitionedCall/asl_resnet50_improved_1/resnet50_1/conv2_block3_out_1/Relu", "StatefulPartitionedCall/asl_resnet50_improved_1/resnet50_1/conv3_block1_0_conv_1/convolution/ReadVariableOp", "StatefulPartitionedCall/asl_resnet50_improved_1/resnet50_1/conv3_block1_0_conv_1/Squeeze"], "device": "/device:CPU:0", "attr": {"explicit_paddings": {"list": {}}, "padding": {"s": "VkFMSUQ="}, "epsilon": {"f": 0.0}, "num_host_args": {"i": "0"}, "strides": {"list": {"i": ["1", "2", "2", "1"]}}, "leakyrelu_alpha": {"f": 0.2}, "fused_ops": {"list": {"s": ["Qmlhc0FkZA=="]}}, "TArgs": {"list": {"type": ["DT_FLOAT"]}}, "num_args": {"i": "1"}, "use_cudnn_on_gpu": {"b": true}, "dilations": {"list": {"i": ["1", "1", "1", "1"]}}, "T": {"type": "DT_FLOAT"}, "filter_format": {"s": "SFdJTw=="}, "data_format": {"s": "TkhXQw=="}}}, {"name": "StatefulPartitionedCall/asl_resnet50_improved_1/resnet50_1/conv3_block1_1_conv_1/BiasAdd", "op": "_FusedConv2D", "input": ["StatefulPartitionedCall/asl_resnet50_improved_1/resnet50_1/conv2_block3_out_1/Relu", "StatefulPartitionedCall/asl_resnet50_improved_1/resnet50_1/conv3_block1_1_conv_1/convolution/ReadVariableOp", "StatefulPartitionedCall/asl_resnet50_improved_1/resnet50_1/conv3_block1_1_conv_1/Squeeze"], "device": "/device:CPU:0", "attr": {"explicit_paddings": {"list": {}}, "padding": {"s": "VkFMSUQ="}, "leakyrelu_alpha": {"f": 0.2}, "strides": {"list": {"i": ["1", "2", "2", "1"]}}, "num_host_args": {"i": "0"}, "epsilon": {"f": 0.0}, "fused_ops": {"list": {"s": ["Qmlhc0FkZA=="]}}, "TArgs": {"list": {"type": ["DT_FLOAT"]}}, "num_args": {"i": "1"}, "use_cudnn_on_gpu": {"b": true}, "filter_format": {"s": "SFdJTw=="}, "T": {"type": "DT_FLOAT"}, "dilations": {"list": {"i": ["1", "1", "1", "1"]}}, "data_format": {"s": "TkhXQw=="}}}, {"name": "StatefulPartitionedCall/asl_resnet50_improved_1/resnet50_1/conv3_block1_0_bn_1/batchnorm/mul_1", "op": "Mul", "input": ["StatefulPartitionedCall/asl_resnet50_improved_1/resnet50_1/conv3_block1_0_conv_1/BiasAdd", "StatefulPartitionedCall/asl_resnet50_improved_1/resnet50_1/conv3_block1_0_bn_1/batchnorm/mul"], "attr": {"T": {"type": "DT_FLOAT"}}}, {"name": "StatefulPartitionedCall/asl_resnet50_improved_1/resnet50_1/conv3_block1_1_bn_1/batchnorm/mul_1", "op": "Mul", "input": ["StatefulPartitionedCall/asl_resnet50_improved_1/resnet50_1/conv3_block1_1_conv_1/BiasAdd", "StatefulPartitionedCall/asl_resnet50_improved_1/resnet50_1/conv3_block1_1_bn_1/batchnorm/mul"], "attr": {"T": {"type": "DT_FLOAT"}}}, {"name": "StatefulPartitionedCall/asl_resnet50_improved_1/resnet50_1/conv3_block1_0_bn_1/batchnorm/add_1", "op": "AddV2", "input": ["StatefulPartitionedCall/asl_resnet50_improved_1/resnet50_1/conv3_block1_0_bn_1/batchnorm/mul_1", "StatefulPartitionedCall/asl_resnet50_improved_1/resnet50_1/conv3_block1_0_bn_1/batchnorm/sub"], "attr": {"T": {"type": "DT_FLOAT"}}}, {"name": "StatefulPartitionedCall/asl_resnet50_improved_1/resnet50_1/conv3_block1_1_bn_1/batchnorm/add_1", "op": "AddV2", "input": ["StatefulPartitionedCall/asl_resnet50_improved_1/resnet50_1/conv3_block1_1_bn_1/batchnorm/mul_1", "StatefulPartitionedCall/asl_resnet50_improved_1/resnet50_1/conv3_block1_1_bn_1/batchnorm/sub"], "attr": {"T": {"type": "DT_FLOAT"}}}, {"name": "StatefulPartitionedCall/asl_resnet50_improved_1/resnet50_1/conv3_block1_1_relu_1/Relu", "op": "Relu", "input": ["StatefulPartitionedCall/asl_resnet50_improved_1/resnet50_1/conv3_block1_1_bn_1/batchnorm/add_1"], "attr": {"T": {"type": "DT_FLOAT"}}}, {"name": "StatefulPartitionedCall/asl_resnet50_improved_1/resnet50_1/conv3_block1_2_conv_1/BiasAdd", "op": "_FusedConv2D", "input": ["StatefulPartitionedCall/asl_resnet50_improved_1/resnet50_1/conv3_block1_1_relu_1/Relu", "StatefulPartitionedCall/asl_resnet50_improved_1/resnet50_1/conv3_block1_2_conv_1/convolution/ReadVariableOp", "StatefulPartitionedCall/asl_resnet50_improved_1/resnet50_1/conv3_block1_2_conv_1/Squeeze"], "device": "/device:CPU:0", "attr": {"explicit_paddings": {"list": {}}, "padding": {"s": "U0FNRQ=="}, "epsilon": {"f": 0.0}, "num_host_args": {"i": "0"}, "strides": {"list": {"i": ["1", "1", "1", "1"]}}, "leakyrelu_alpha": {"f": 0.2}, "fused_ops": {"list": {"s": ["Qmlhc0FkZA=="]}}, "TArgs": {"list": {"type": ["DT_FLOAT"]}}, "num_args": {"i": "1"}, "use_cudnn_on_gpu": {"b": true}, "filter_format": {"s": "SFdJTw=="}, "T": {"type": "DT_FLOAT"}, "dilations": {"list": {"i": ["1", "1", "1", "1"]}}, "data_format": {"s": "TkhXQw=="}}}, {"name": "StatefulPartitionedCall/asl_resnet50_improved_1/resnet50_1/conv3_block1_2_bn_1/batchnorm/mul_1", "op": "Mul", "input": ["StatefulPartitionedCall/asl_resnet50_improved_1/resnet50_1/conv3_block1_2_conv_1/BiasAdd", "StatefulPartitionedCall/asl_resnet50_improved_1/resnet50_1/conv3_block1_2_bn_1/batchnorm/mul"], "attr": {"T": {"type": "DT_FLOAT"}}}, {"name": "StatefulPartitionedCall/asl_resnet50_improved_1/resnet50_1/conv3_block1_2_bn_1/batchnorm/add_1", "op": "AddV2", "input": ["StatefulPartitionedCall/asl_resnet50_improved_1/resnet50_1/conv3_block1_2_bn_1/batchnorm/mul_1", "StatefulPartitionedCall/asl_resnet50_improved_1/resnet50_1/conv3_block1_2_bn_1/batchnorm/sub"], "attr": {"T": {"type": "DT_FLOAT"}}}, {"name": "StatefulPartitionedCall/asl_resnet50_improved_1/resnet50_1/conv3_block1_2_relu_1/Relu", "op": "Relu", "input": ["StatefulPartitionedCall/asl_resnet50_improved_1/resnet50_1/conv3_block1_2_bn_1/batchnorm/add_1"], "attr": {"T": {"type": "DT_FLOAT"}}}, {"name": "StatefulPartitionedCall/asl_resnet50_improved_1/resnet50_1/conv3_block1_3_conv_1/BiasAdd", "op": "_FusedConv2D", "input": ["StatefulPartitionedCall/asl_resnet50_improved_1/resnet50_1/conv3_block1_2_relu_1/Relu", "StatefulPartitionedCall/asl_resnet50_improved_1/resnet50_1/conv3_block1_3_conv_1/convolution/ReadVariableOp", "StatefulPartitionedCall/asl_resnet50_improved_1/resnet50_1/conv3_block1_3_conv_1/Squeeze"], "device": "/device:CPU:0", "attr": {"explicit_paddings": {"list": {}}, "padding": {"s": "VkFMSUQ="}, "epsilon": {"f": 0.0}, "strides": {"list": {"i": ["1", "1", "1", "1"]}}, "num_host_args": {"i": "0"}, "leakyrelu_alpha": {"f": 0.2}, "fused_ops": {"list": {"s": ["Qmlhc0FkZA=="]}}, "TArgs": {"list": {"type": ["DT_FLOAT"]}}, "num_args": {"i": "1"}, "use_cudnn_on_gpu": {"b": true}, "dilations": {"list": {"i": ["1", "1", "1", "1"]}}, "T": {"type": "DT_FLOAT"}, "filter_format": {"s": "SFdJTw=="}, "data_format": {"s": "TkhXQw=="}}}, {"name": "StatefulPartitionedCall/asl_resnet50_improved_1/resnet50_1/conv3_block1_3_bn_1/batchnorm/mul_1", "op": "Mul", "input": ["StatefulPartitionedCall/asl_resnet50_improved_1/resnet50_1/conv3_block1_3_conv_1/BiasAdd", "StatefulPartitionedCall/asl_resnet50_improved_1/resnet50_1/conv3_block1_3_bn_1/batchnorm/mul"], "attr": {"T": {"type": "DT_FLOAT"}}}, {"name": "StatefulPartitionedCall/asl_resnet50_improved_1/resnet50_1/conv3_block1_3_bn_1/batchnorm/add_1", "op": "AddV2", "input": ["StatefulPartitionedCall/asl_resnet50_improved_1/resnet50_1/conv3_block1_3_bn_1/batchnorm/mul_1", "StatefulPartitionedCall/asl_resnet50_improved_1/resnet50_1/conv3_block1_3_bn_1/batchnorm/sub"], "attr": {"T": {"type": "DT_FLOAT"}}}, {"name": "StatefulPartitionedCall/asl_resnet50_improved_1/resnet50_1/conv3_block1_add_1/Add", "op": "AddV2", "input": ["StatefulPartitionedCall/asl_resnet50_improved_1/resnet50_1/conv3_block1_0_bn_1/batchnorm/add_1", "StatefulPartitionedCall/asl_resnet50_improved_1/resnet50_1/conv3_block1_3_bn_1/batchnorm/add_1"], "attr": {"T": {"type": "DT_FLOAT"}}}, {"name": "StatefulPartitionedCall/asl_resnet50_improved_1/resnet50_1/conv3_block1_out_1/Relu", "op": "Relu", "input": ["StatefulPartitionedCall/asl_resnet50_improved_1/resnet50_1/conv3_block1_add_1/Add"], "attr": {"T": {"type": "DT_FLOAT"}}}, {"name": "StatefulPartitionedCall/asl_resnet50_improved_1/resnet50_1/conv3_block2_1_conv_1/BiasAdd", "op": "_FusedConv2D", "input": ["StatefulPartitionedCall/asl_resnet50_improved_1/resnet50_1/conv3_block1_out_1/Relu", "StatefulPartitionedCall/asl_resnet50_improved_1/resnet50_1/conv3_block2_1_conv_1/convolution/ReadVariableOp", "StatefulPartitionedCall/asl_resnet50_improved_1/resnet50_1/conv3_block2_1_conv_1/Squeeze"], "device": "/device:CPU:0", "attr": {"explicit_paddings": {"list": {}}, "padding": {"s": "VkFMSUQ="}, "leakyrelu_alpha": {"f": 0.2}, "num_host_args": {"i": "0"}, "strides": {"list": {"i": ["1", "1", "1", "1"]}}, "epsilon": {"f": 0.0}, "fused_ops": {"list": {"s": ["Qmlhc0FkZA=="]}}, "TArgs": {"list": {"type": ["DT_FLOAT"]}}, "num_args": {"i": "1"}, "use_cudnn_on_gpu": {"b": true}, "filter_format": {"s": "SFdJTw=="}, "T": {"type": "DT_FLOAT"}, "dilations": {"list": {"i": ["1", "1", "1", "1"]}}, "data_format": {"s": "TkhXQw=="}}}, {"name": "StatefulPartitionedCall/asl_resnet50_improved_1/resnet50_1/conv3_block2_1_bn_1/batchnorm/mul_1", "op": "Mul", "input": ["StatefulPartitionedCall/asl_resnet50_improved_1/resnet50_1/conv3_block2_1_conv_1/BiasAdd", "StatefulPartitionedCall/asl_resnet50_improved_1/resnet50_1/conv3_block2_1_bn_1/batchnorm/mul"], "attr": {"T": {"type": "DT_FLOAT"}}}, {"name": "StatefulPartitionedCall/asl_resnet50_improved_1/resnet50_1/conv3_block2_1_bn_1/batchnorm/add_1", "op": "AddV2", "input": ["StatefulPartitionedCall/asl_resnet50_improved_1/resnet50_1/conv3_block2_1_bn_1/batchnorm/mul_1", "StatefulPartitionedCall/asl_resnet50_improved_1/resnet50_1/conv3_block2_1_bn_1/batchnorm/sub"], "attr": {"T": {"type": "DT_FLOAT"}}}, {"name": "StatefulPartitionedCall/asl_resnet50_improved_1/resnet50_1/conv3_block2_1_relu_1/Relu", "op": "Relu", "input": ["StatefulPartitionedCall/asl_resnet50_improved_1/resnet50_1/conv3_block2_1_bn_1/batchnorm/add_1"], "attr": {"T": {"type": "DT_FLOAT"}}}, {"name": "StatefulPartitionedCall/asl_resnet50_improved_1/resnet50_1/conv3_block2_2_conv_1/BiasAdd", "op": "_FusedConv2D", "input": ["StatefulPartitionedCall/asl_resnet50_improved_1/resnet50_1/conv3_block2_1_relu_1/Relu", "StatefulPartitionedCall/asl_resnet50_improved_1/resnet50_1/conv3_block2_2_conv_1/convolution/ReadVariableOp", "StatefulPartitionedCall/asl_resnet50_improved_1/resnet50_1/conv3_block2_2_conv_1/Squeeze"], "device": "/device:CPU:0", "attr": {"explicit_paddings": {"list": {}}, "padding": {"s": "U0FNRQ=="}, "leakyrelu_alpha": {"f": 0.2}, "num_host_args": {"i": "0"}, "strides": {"list": {"i": ["1", "1", "1", "1"]}}, "epsilon": {"f": 0.0}, "fused_ops": {"list": {"s": ["Qmlhc0FkZA=="]}}, "TArgs": {"list": {"type": ["DT_FLOAT"]}}, "num_args": {"i": "1"}, "use_cudnn_on_gpu": {"b": true}, "filter_format": {"s": "SFdJTw=="}, "T": {"type": "DT_FLOAT"}, "dilations": {"list": {"i": ["1", "1", "1", "1"]}}, "data_format": {"s": "TkhXQw=="}}}, {"name": "StatefulPartitionedCall/asl_resnet50_improved_1/resnet50_1/conv3_block2_2_bn_1/batchnorm/mul_1", "op": "Mul", "input": ["StatefulPartitionedCall/asl_resnet50_improved_1/resnet50_1/conv3_block2_2_conv_1/BiasAdd", "StatefulPartitionedCall/asl_resnet50_improved_1/resnet50_1/conv3_block2_2_bn_1/batchnorm/mul"], "attr": {"T": {"type": "DT_FLOAT"}}}, {"name": "StatefulPartitionedCall/asl_resnet50_improved_1/resnet50_1/conv3_block2_2_bn_1/batchnorm/add_1", "op": "AddV2", "input": ["StatefulPartitionedCall/asl_resnet50_improved_1/resnet50_1/conv3_block2_2_bn_1/batchnorm/mul_1", "StatefulPartitionedCall/asl_resnet50_improved_1/resnet50_1/conv3_block2_2_bn_1/batchnorm/sub"], "attr": {"T": {"type": "DT_FLOAT"}}}, {"name": "StatefulPartitionedCall/asl_resnet50_improved_1/resnet50_1/conv3_block2_2_relu_1/Relu", "op": "Relu", "input": ["StatefulPartitionedCall/asl_resnet50_improved_1/resnet50_1/conv3_block2_2_bn_1/batchnorm/add_1"], "attr": {"T": {"type": "DT_FLOAT"}}}, {"name": "StatefulPartitionedCall/asl_resnet50_improved_1/resnet50_1/conv3_block2_3_conv_1/BiasAdd", "op": "_FusedConv2D", "input": ["StatefulPartitionedCall/asl_resnet50_improved_1/resnet50_1/conv3_block2_2_relu_1/Relu", "StatefulPartitionedCall/asl_resnet50_improved_1/resnet50_1/conv3_block2_3_conv_1/convolution/ReadVariableOp", "StatefulPartitionedCall/asl_resnet50_improved_1/resnet50_1/conv3_block2_3_conv_1/Squeeze"], "device": "/device:CPU:0", "attr": {"explicit_paddings": {"list": {}}, "padding": {"s": "VkFMSUQ="}, "epsilon": {"f": 0.0}, "num_host_args": {"i": "0"}, "strides": {"list": {"i": ["1", "1", "1", "1"]}}, "leakyrelu_alpha": {"f": 0.2}, "fused_ops": {"list": {"s": ["Qmlhc0FkZA=="]}}, "TArgs": {"list": {"type": ["DT_FLOAT"]}}, "num_args": {"i": "1"}, "use_cudnn_on_gpu": {"b": true}, "dilations": {"list": {"i": ["1", "1", "1", "1"]}}, "T": {"type": "DT_FLOAT"}, "filter_format": {"s": "SFdJTw=="}, "data_format": {"s": "TkhXQw=="}}}, {"name": "StatefulPartitionedCall/asl_resnet50_improved_1/resnet50_1/conv3_block2_3_bn_1/batchnorm/mul_1", "op": "Mul", "input": ["StatefulPartitionedCall/asl_resnet50_improved_1/resnet50_1/conv3_block2_3_conv_1/BiasAdd", "StatefulPartitionedCall/asl_resnet50_improved_1/resnet50_1/conv3_block2_3_bn_1/batchnorm/mul"], "attr": {"T": {"type": "DT_FLOAT"}}}, {"name": "StatefulPartitionedCall/asl_resnet50_improved_1/resnet50_1/conv3_block2_3_bn_1/batchnorm/add_1", "op": "AddV2", "input": ["StatefulPartitionedCall/asl_resnet50_improved_1/resnet50_1/conv3_block2_3_bn_1/batchnorm/mul_1", "StatefulPartitionedCall/asl_resnet50_improved_1/resnet50_1/conv3_block2_3_bn_1/batchnorm/sub"], "attr": {"T": {"type": "DT_FLOAT"}}}, {"name": "StatefulPartitionedCall/asl_resnet50_improved_1/resnet50_1/conv3_block2_add_1/Add", "op": "AddV2", "input": ["StatefulPartitionedCall/asl_resnet50_improved_1/resnet50_1/conv3_block1_out_1/Relu", "StatefulPartitionedCall/asl_resnet50_improved_1/resnet50_1/conv3_block2_3_bn_1/batchnorm/add_1"], "attr": {"T": {"type": "DT_FLOAT"}}}, {"name": "StatefulPartitionedCall/asl_resnet50_improved_1/resnet50_1/conv3_block2_out_1/Relu", "op": "Relu", "input": ["StatefulPartitionedCall/asl_resnet50_improved_1/resnet50_1/conv3_block2_add_1/Add"], "attr": {"T": {"type": "DT_FLOAT"}}}, {"name": "StatefulPartitionedCall/asl_resnet50_improved_1/resnet50_1/conv3_block3_1_conv_1/BiasAdd", "op": "_FusedConv2D", "input": ["StatefulPartitionedCall/asl_resnet50_improved_1/resnet50_1/conv3_block2_out_1/Relu", "StatefulPartitionedCall/asl_resnet50_improved_1/resnet50_1/conv3_block3_1_conv_1/convolution/ReadVariableOp", "StatefulPartitionedCall/asl_resnet50_improved_1/resnet50_1/conv3_block3_1_conv_1/Squeeze"], "device": "/device:CPU:0", "attr": {"explicit_paddings": {"list": {}}, "padding": {"s": "VkFMSUQ="}, "epsilon": {"f": 0.0}, "num_host_args": {"i": "0"}, "strides": {"list": {"i": ["1", "1", "1", "1"]}}, "leakyrelu_alpha": {"f": 0.2}, "fused_ops": {"list": {"s": ["Qmlhc0FkZA=="]}}, "TArgs": {"list": {"type": ["DT_FLOAT"]}}, "num_args": {"i": "1"}, "use_cudnn_on_gpu": {"b": true}, "dilations": {"list": {"i": ["1", "1", "1", "1"]}}, "T": {"type": "DT_FLOAT"}, "filter_format": {"s": "SFdJTw=="}, "data_format": {"s": "TkhXQw=="}}}, {"name": "StatefulPartitionedCall/asl_resnet50_improved_1/resnet50_1/conv3_block3_1_bn_1/batchnorm/mul_1", "op": "Mul", "input": ["StatefulPartitionedCall/asl_resnet50_improved_1/resnet50_1/conv3_block3_1_conv_1/BiasAdd", "StatefulPartitionedCall/asl_resnet50_improved_1/resnet50_1/conv3_block3_1_bn_1/batchnorm/mul"], "attr": {"T": {"type": "DT_FLOAT"}}}, {"name": "StatefulPartitionedCall/asl_resnet50_improved_1/resnet50_1/conv3_block3_1_bn_1/batchnorm/add_1", "op": "AddV2", "input": ["StatefulPartitionedCall/asl_resnet50_improved_1/resnet50_1/conv3_block3_1_bn_1/batchnorm/mul_1", "StatefulPartitionedCall/asl_resnet50_improved_1/resnet50_1/conv3_block3_1_bn_1/batchnorm/sub"], "attr": {"T": {"type": "DT_FLOAT"}}}, {"name": "StatefulPartitionedCall/asl_resnet50_improved_1/resnet50_1/conv3_block3_1_relu_1/Relu", "op": "Relu", "input": ["StatefulPartitionedCall/asl_resnet50_improved_1/resnet50_1/conv3_block3_1_bn_1/batchnorm/add_1"], "attr": {"T": {"type": "DT_FLOAT"}}}, {"name": "StatefulPartitionedCall/asl_resnet50_improved_1/resnet50_1/conv3_block3_2_conv_1/BiasAdd", "op": "_FusedConv2D", "input": ["StatefulPartitionedCall/asl_resnet50_improved_1/resnet50_1/conv3_block3_1_relu_1/Relu", "StatefulPartitionedCall/asl_resnet50_improved_1/resnet50_1/conv3_block3_2_conv_1/convolution/ReadVariableOp", "StatefulPartitionedCall/asl_resnet50_improved_1/resnet50_1/conv3_block3_2_conv_1/Squeeze"], "device": "/device:CPU:0", "attr": {"explicit_paddings": {"list": {}}, "padding": {"s": "U0FNRQ=="}, "leakyrelu_alpha": {"f": 0.2}, "num_host_args": {"i": "0"}, "strides": {"list": {"i": ["1", "1", "1", "1"]}}, "epsilon": {"f": 0.0}, "fused_ops": {"list": {"s": ["Qmlhc0FkZA=="]}}, "TArgs": {"list": {"type": ["DT_FLOAT"]}}, "num_args": {"i": "1"}, "use_cudnn_on_gpu": {"b": true}, "dilations": {"list": {"i": ["1", "1", "1", "1"]}}, "T": {"type": "DT_FLOAT"}, "filter_format": {"s": "SFdJTw=="}, "data_format": {"s": "TkhXQw=="}}}, {"name": "StatefulPartitionedCall/asl_resnet50_improved_1/resnet50_1/conv3_block3_2_bn_1/batchnorm/mul_1", "op": "Mul", "input": ["StatefulPartitionedCall/asl_resnet50_improved_1/resnet50_1/conv3_block3_2_conv_1/BiasAdd", "StatefulPartitionedCall/asl_resnet50_improved_1/resnet50_1/conv3_block3_2_bn_1/batchnorm/mul"], "attr": {"T": {"type": "DT_FLOAT"}}}, {"name": "StatefulPartitionedCall/asl_resnet50_improved_1/resnet50_1/conv3_block3_2_bn_1/batchnorm/add_1", "op": "AddV2", "input": ["StatefulPartitionedCall/asl_resnet50_improved_1/resnet50_1/conv3_block3_2_bn_1/batchnorm/mul_1", "StatefulPartitionedCall/asl_resnet50_improved_1/resnet50_1/conv3_block3_2_bn_1/batchnorm/sub"], "attr": {"T": {"type": "DT_FLOAT"}}}, {"name": "StatefulPartitionedCall/asl_resnet50_improved_1/resnet50_1/conv3_block3_2_relu_1/Relu", "op": "Relu", "input": ["StatefulPartitionedCall/asl_resnet50_improved_1/resnet50_1/conv3_block3_2_bn_1/batchnorm/add_1"], "attr": {"T": {"type": "DT_FLOAT"}}}, {"name": "StatefulPartitionedCall/asl_resnet50_improved_1/resnet50_1/conv3_block3_3_conv_1/BiasAdd", "op": "_FusedConv2D", "input": ["StatefulPartitionedCall/asl_resnet50_improved_1/resnet50_1/conv3_block3_2_relu_1/Relu", "StatefulPartitionedCall/asl_resnet50_improved_1/resnet50_1/conv3_block3_3_conv_1/convolution/ReadVariableOp", "StatefulPartitionedCall/asl_resnet50_improved_1/resnet50_1/conv3_block3_3_conv_1/Squeeze"], "device": "/device:CPU:0", "attr": {"explicit_paddings": {"list": {}}, "padding": {"s": "VkFMSUQ="}, "leakyrelu_alpha": {"f": 0.2}, "num_host_args": {"i": "0"}, "strides": {"list": {"i": ["1", "1", "1", "1"]}}, "epsilon": {"f": 0.0}, "fused_ops": {"list": {"s": ["Qmlhc0FkZA=="]}}, "TArgs": {"list": {"type": ["DT_FLOAT"]}}, "num_args": {"i": "1"}, "use_cudnn_on_gpu": {"b": true}, "dilations": {"list": {"i": ["1", "1", "1", "1"]}}, "T": {"type": "DT_FLOAT"}, "filter_format": {"s": "SFdJTw=="}, "data_format": {"s": "TkhXQw=="}}}, {"name": "StatefulPartitionedCall/asl_resnet50_improved_1/resnet50_1/conv3_block3_3_bn_1/batchnorm/mul_1", "op": "Mul", "input": ["StatefulPartitionedCall/asl_resnet50_improved_1/resnet50_1/conv3_block3_3_conv_1/BiasAdd", "StatefulPartitionedCall/asl_resnet50_improved_1/resnet50_1/conv3_block3_3_bn_1/batchnorm/mul"], "attr": {"T": {"type": "DT_FLOAT"}}}, {"name": "StatefulPartitionedCall/asl_resnet50_improved_1/resnet50_1/conv3_block3_3_bn_1/batchnorm/add_1", "op": "AddV2", "input": ["StatefulPartitionedCall/asl_resnet50_improved_1/resnet50_1/conv3_block3_3_bn_1/batchnorm/mul_1", "StatefulPartitionedCall/asl_resnet50_improved_1/resnet50_1/conv3_block3_3_bn_1/batchnorm/sub"], "attr": {"T": {"type": "DT_FLOAT"}}}, {"name": "StatefulPartitionedCall/asl_resnet50_improved_1/resnet50_1/conv3_block3_add_1/Add", "op": "AddV2", "input": ["StatefulPartitionedCall/asl_resnet50_improved_1/resnet50_1/conv3_block2_out_1/Relu", "StatefulPartitionedCall/asl_resnet50_improved_1/resnet50_1/conv3_block3_3_bn_1/batchnorm/add_1"], "attr": {"T": {"type": "DT_FLOAT"}}}, {"name": "StatefulPartitionedCall/asl_resnet50_improved_1/resnet50_1/conv3_block3_out_1/Relu", "op": "Relu", "input": ["StatefulPartitionedCall/asl_resnet50_improved_1/resnet50_1/conv3_block3_add_1/Add"], "attr": {"T": {"type": "DT_FLOAT"}}}, {"name": "StatefulPartitionedCall/asl_resnet50_improved_1/resnet50_1/conv3_block4_1_conv_1/BiasAdd", "op": "_FusedConv2D", "input": ["StatefulPartitionedCall/asl_resnet50_improved_1/resnet50_1/conv3_block3_out_1/Relu", "StatefulPartitionedCall/asl_resnet50_improved_1/resnet50_1/conv3_block4_1_conv_1/convolution/ReadVariableOp", "StatefulPartitionedCall/asl_resnet50_improved_1/resnet50_1/conv3_block4_1_conv_1/Squeeze"], "device": "/device:CPU:0", "attr": {"explicit_paddings": {"list": {}}, "padding": {"s": "VkFMSUQ="}, "leakyrelu_alpha": {"f": 0.2}, "num_host_args": {"i": "0"}, "strides": {"list": {"i": ["1", "1", "1", "1"]}}, "epsilon": {"f": 0.0}, "fused_ops": {"list": {"s": ["Qmlhc0FkZA=="]}}, "TArgs": {"list": {"type": ["DT_FLOAT"]}}, "num_args": {"i": "1"}, "use_cudnn_on_gpu": {"b": true}, "dilations": {"list": {"i": ["1", "1", "1", "1"]}}, "T": {"type": "DT_FLOAT"}, "filter_format": {"s": "SFdJTw=="}, "data_format": {"s": "TkhXQw=="}}}, {"name": "StatefulPartitionedCall/asl_resnet50_improved_1/resnet50_1/conv3_block4_1_bn_1/batchnorm/mul_1", "op": "Mul", "input": ["StatefulPartitionedCall/asl_resnet50_improved_1/resnet50_1/conv3_block4_1_conv_1/BiasAdd", "StatefulPartitionedCall/asl_resnet50_improved_1/resnet50_1/conv3_block4_1_bn_1/batchnorm/mul"], "attr": {"T": {"type": "DT_FLOAT"}}}, {"name": "StatefulPartitionedCall/asl_resnet50_improved_1/resnet50_1/conv3_block4_1_bn_1/batchnorm/add_1", "op": "AddV2", "input": ["StatefulPartitionedCall/asl_resnet50_improved_1/resnet50_1/conv3_block4_1_bn_1/batchnorm/mul_1", "StatefulPartitionedCall/asl_resnet50_improved_1/resnet50_1/conv3_block4_1_bn_1/batchnorm/sub"], "attr": {"T": {"type": "DT_FLOAT"}}}, {"name": "StatefulPartitionedCall/asl_resnet50_improved_1/resnet50_1/conv3_block4_1_relu_1/Relu", "op": "Relu", "input": ["StatefulPartitionedCall/asl_resnet50_improved_1/resnet50_1/conv3_block4_1_bn_1/batchnorm/add_1"], "attr": {"T": {"type": "DT_FLOAT"}}}, {"name": "StatefulPartitionedCall/asl_resnet50_improved_1/resnet50_1/conv3_block4_2_conv_1/BiasAdd", "op": "_FusedConv2D", "input": ["StatefulPartitionedCall/asl_resnet50_improved_1/resnet50_1/conv3_block4_1_relu_1/Relu", "StatefulPartitionedCall/asl_resnet50_improved_1/resnet50_1/conv3_block4_2_conv_1/convolution/ReadVariableOp", "StatefulPartitionedCall/asl_resnet50_improved_1/resnet50_1/conv3_block4_2_conv_1/Squeeze"], "device": "/device:CPU:0", "attr": {"explicit_paddings": {"list": {}}, "padding": {"s": "U0FNRQ=="}, "leakyrelu_alpha": {"f": 0.2}, "num_host_args": {"i": "0"}, "strides": {"list": {"i": ["1", "1", "1", "1"]}}, "epsilon": {"f": 0.0}, "fused_ops": {"list": {"s": ["Qmlhc0FkZA=="]}}, "TArgs": {"list": {"type": ["DT_FLOAT"]}}, "num_args": {"i": "1"}, "use_cudnn_on_gpu": {"b": true}, "dilations": {"list": {"i": ["1", "1", "1", "1"]}}, "T": {"type": "DT_FLOAT"}, "filter_format": {"s": "SFdJTw=="}, "data_format": {"s": "TkhXQw=="}}}, {"name": "StatefulPartitionedCall/asl_resnet50_improved_1/resnet50_1/conv3_block4_2_bn_1/batchnorm/mul_1", "op": "Mul", "input": ["StatefulPartitionedCall/asl_resnet50_improved_1/resnet50_1/conv3_block4_2_conv_1/BiasAdd", "StatefulPartitionedCall/asl_resnet50_improved_1/resnet50_1/conv3_block4_2_bn_1/batchnorm/mul"], "attr": {"T": {"type": "DT_FLOAT"}}}, {"name": "StatefulPartitionedCall/asl_resnet50_improved_1/resnet50_1/conv3_block4_2_bn_1/batchnorm/add_1", "op": "AddV2", "input": ["StatefulPartitionedCall/asl_resnet50_improved_1/resnet50_1/conv3_block4_2_bn_1/batchnorm/mul_1", "StatefulPartitionedCall/asl_resnet50_improved_1/resnet50_1/conv3_block4_2_bn_1/batchnorm/sub"], "attr": {"T": {"type": "DT_FLOAT"}}}, {"name": "StatefulPartitionedCall/asl_resnet50_improved_1/resnet50_1/conv3_block4_2_relu_1/Relu", "op": "Relu", "input": ["StatefulPartitionedCall/asl_resnet50_improved_1/resnet50_1/conv3_block4_2_bn_1/batchnorm/add_1"], "attr": {"T": {"type": "DT_FLOAT"}}}, {"name": "StatefulPartitionedCall/asl_resnet50_improved_1/resnet50_1/conv3_block4_3_conv_1/BiasAdd", "op": "_FusedConv2D", "input": ["StatefulPartitionedCall/asl_resnet50_improved_1/resnet50_1/conv3_block4_2_relu_1/Relu", "StatefulPartitionedCall/asl_resnet50_improved_1/resnet50_1/conv3_block4_3_conv_1/convolution/ReadVariableOp", "StatefulPartitionedCall/asl_resnet50_improved_1/resnet50_1/conv3_block4_3_conv_1/Squeeze"], "device": "/device:CPU:0", "attr": {"explicit_paddings": {"list": {}}, "padding": {"s": "VkFMSUQ="}, "epsilon": {"f": 0.0}, "strides": {"list": {"i": ["1", "1", "1", "1"]}}, "num_host_args": {"i": "0"}, "leakyrelu_alpha": {"f": 0.2}, "fused_ops": {"list": {"s": ["Qmlhc0FkZA=="]}}, "TArgs": {"list": {"type": ["DT_FLOAT"]}}, "num_args": {"i": "1"}, "use_cudnn_on_gpu": {"b": true}, "dilations": {"list": {"i": ["1", "1", "1", "1"]}}, "T": {"type": "DT_FLOAT"}, "filter_format": {"s": "SFdJTw=="}, "data_format": {"s": "TkhXQw=="}}}, {"name": "StatefulPartitionedCall/asl_resnet50_improved_1/resnet50_1/conv3_block4_3_bn_1/batchnorm/mul_1", "op": "Mul", "input": ["StatefulPartitionedCall/asl_resnet50_improved_1/resnet50_1/conv3_block4_3_conv_1/BiasAdd", "StatefulPartitionedCall/asl_resnet50_improved_1/resnet50_1/conv3_block4_3_bn_1/batchnorm/mul"], "attr": {"T": {"type": "DT_FLOAT"}}}, {"name": "StatefulPartitionedCall/asl_resnet50_improved_1/resnet50_1/conv3_block4_3_bn_1/batchnorm/add_1", "op": "AddV2", "input": ["StatefulPartitionedCall/asl_resnet50_improved_1/resnet50_1/conv3_block4_3_bn_1/batchnorm/mul_1", "StatefulPartitionedCall/asl_resnet50_improved_1/resnet50_1/conv3_block4_3_bn_1/batchnorm/sub"], "attr": {"T": {"type": "DT_FLOAT"}}}, {"name": "StatefulPartitionedCall/asl_resnet50_improved_1/resnet50_1/conv3_block4_add_1/Add", "op": "AddV2", "input": ["StatefulPartitionedCall/asl_resnet50_improved_1/resnet50_1/conv3_block3_out_1/Relu", "StatefulPartitionedCall/asl_resnet50_improved_1/resnet50_1/conv3_block4_3_bn_1/batchnorm/add_1"], "attr": {"T": {"type": "DT_FLOAT"}}}, {"name": "StatefulPartitionedCall/asl_resnet50_improved_1/resnet50_1/conv3_block4_out_1/Relu", "op": "Relu", "input": ["StatefulPartitionedCall/asl_resnet50_improved_1/resnet50_1/conv3_block4_add_1/Add"], "attr": {"T": {"type": "DT_FLOAT"}}}, {"name": "StatefulPartitionedCall/asl_resnet50_improved_1/resnet50_1/conv4_block1_0_conv_1/BiasAdd", "op": "_FusedConv2D", "input": ["StatefulPartitionedCall/asl_resnet50_improved_1/resnet50_1/conv3_block4_out_1/Relu", "StatefulPartitionedCall/asl_resnet50_improved_1/resnet50_1/conv4_block1_0_conv_1/convolution/ReadVariableOp", "StatefulPartitionedCall/asl_resnet50_improved_1/resnet50_1/conv4_block1_0_conv_1/Squeeze"], "device": "/device:CPU:0", "attr": {"explicit_paddings": {"list": {}}, "padding": {"s": "VkFMSUQ="}, "leakyrelu_alpha": {"f": 0.2}, "num_host_args": {"i": "0"}, "strides": {"list": {"i": ["1", "2", "2", "1"]}}, "epsilon": {"f": 0.0}, "fused_ops": {"list": {"s": ["Qmlhc0FkZA=="]}}, "TArgs": {"list": {"type": ["DT_FLOAT"]}}, "num_args": {"i": "1"}, "use_cudnn_on_gpu": {"b": true}, "dilations": {"list": {"i": ["1", "1", "1", "1"]}}, "T": {"type": "DT_FLOAT"}, "filter_format": {"s": "SFdJTw=="}, "data_format": {"s": "TkhXQw=="}}}, {"name": "StatefulPartitionedCall/asl_resnet50_improved_1/resnet50_1/conv4_block1_1_conv_1/BiasAdd", "op": "_FusedConv2D", "input": ["StatefulPartitionedCall/asl_resnet50_improved_1/resnet50_1/conv3_block4_out_1/Relu", "StatefulPartitionedCall/asl_resnet50_improved_1/resnet50_1/conv4_block1_1_conv_1/convolution/ReadVariableOp", "StatefulPartitionedCall/asl_resnet50_improved_1/resnet50_1/conv4_block1_1_conv_1/Squeeze"], "device": "/device:CPU:0", "attr": {"explicit_paddings": {"list": {}}, "padding": {"s": "VkFMSUQ="}, "epsilon": {"f": 0.0}, "strides": {"list": {"i": ["1", "2", "2", "1"]}}, "num_host_args": {"i": "0"}, "leakyrelu_alpha": {"f": 0.2}, "fused_ops": {"list": {"s": ["Qmlhc0FkZA=="]}}, "TArgs": {"list": {"type": ["DT_FLOAT"]}}, "num_args": {"i": "1"}, "use_cudnn_on_gpu": {"b": true}, "filter_format": {"s": "SFdJTw=="}, "T": {"type": "DT_FLOAT"}, "dilations": {"list": {"i": ["1", "1", "1", "1"]}}, "data_format": {"s": "TkhXQw=="}}}, {"name": "StatefulPartitionedCall/asl_resnet50_improved_1/resnet50_1/conv4_block1_0_bn_1/batchnorm/mul_1", "op": "Mul", "input": ["StatefulPartitionedCall/asl_resnet50_improved_1/resnet50_1/conv4_block1_0_conv_1/BiasAdd", "StatefulPartitionedCall/asl_resnet50_improved_1/resnet50_1/conv4_block1_0_bn_1/batchnorm/mul"], "attr": {"T": {"type": "DT_FLOAT"}}}, {"name": "StatefulPartitionedCall/asl_resnet50_improved_1/resnet50_1/conv4_block1_1_bn_1/batchnorm/mul_1", "op": "Mul", "input": ["StatefulPartitionedCall/asl_resnet50_improved_1/resnet50_1/conv4_block1_1_conv_1/BiasAdd", "StatefulPartitionedCall/asl_resnet50_improved_1/resnet50_1/conv4_block1_1_bn_1/batchnorm/mul"], "attr": {"T": {"type": "DT_FLOAT"}}}, {"name": "StatefulPartitionedCall/asl_resnet50_improved_1/resnet50_1/conv4_block1_0_bn_1/batchnorm/add_1", "op": "AddV2", "input": ["StatefulPartitionedCall/asl_resnet50_improved_1/resnet50_1/conv4_block1_0_bn_1/batchnorm/mul_1", "StatefulPartitionedCall/asl_resnet50_improved_1/resnet50_1/conv4_block1_0_bn_1/batchnorm/sub"], "attr": {"T": {"type": "DT_FLOAT"}}}, {"name": "StatefulPartitionedCall/asl_resnet50_improved_1/resnet50_1/conv4_block1_1_bn_1/batchnorm/add_1", "op": "AddV2", "input": ["StatefulPartitionedCall/asl_resnet50_improved_1/resnet50_1/conv4_block1_1_bn_1/batchnorm/mul_1", "StatefulPartitionedCall/asl_resnet50_improved_1/resnet50_1/conv4_block1_1_bn_1/batchnorm/sub"], "attr": {"T": {"type": "DT_FLOAT"}}}, {"name": "StatefulPartitionedCall/asl_resnet50_improved_1/resnet50_1/conv4_block1_1_relu_1/Relu", "op": "Relu", "input": ["StatefulPartitionedCall/asl_resnet50_improved_1/resnet50_1/conv4_block1_1_bn_1/batchnorm/add_1"], "attr": {"T": {"type": "DT_FLOAT"}}}, {"name": "StatefulPartitionedCall/asl_resnet50_improved_1/resnet50_1/conv4_block1_2_conv_1/BiasAdd", "op": "_FusedConv2D", "input": ["StatefulPartitionedCall/asl_resnet50_improved_1/resnet50_1/conv4_block1_1_relu_1/Relu", "StatefulPartitionedCall/asl_resnet50_improved_1/resnet50_1/conv4_block1_2_conv_1/convolution/ReadVariableOp", "StatefulPartitionedCall/asl_resnet50_improved_1/resnet50_1/conv4_block1_2_conv_1/Squeeze"], "device": "/device:CPU:0", "attr": {"explicit_paddings": {"list": {}}, "padding": {"s": "U0FNRQ=="}, "epsilon": {"f": 0.0}, "num_host_args": {"i": "0"}, "strides": {"list": {"i": ["1", "1", "1", "1"]}}, "leakyrelu_alpha": {"f": 0.2}, "fused_ops": {"list": {"s": ["Qmlhc0FkZA=="]}}, "TArgs": {"list": {"type": ["DT_FLOAT"]}}, "num_args": {"i": "1"}, "use_cudnn_on_gpu": {"b": true}, "filter_format": {"s": "SFdJTw=="}, "T": {"type": "DT_FLOAT"}, "dilations": {"list": {"i": ["1", "1", "1", "1"]}}, "data_format": {"s": "TkhXQw=="}}}, {"name": "StatefulPartitionedCall/asl_resnet50_improved_1/resnet50_1/conv4_block1_2_bn_1/batchnorm/mul_1", "op": "Mul", "input": ["StatefulPartitionedCall/asl_resnet50_improved_1/resnet50_1/conv4_block1_2_conv_1/BiasAdd", "StatefulPartitionedCall/asl_resnet50_improved_1/resnet50_1/conv4_block1_2_bn_1/batchnorm/mul"], "attr": {"T": {"type": "DT_FLOAT"}}}, {"name": "StatefulPartitionedCall/asl_resnet50_improved_1/resnet50_1/conv4_block1_2_bn_1/batchnorm/add_1", "op": "AddV2", "input": ["StatefulPartitionedCall/asl_resnet50_improved_1/resnet50_1/conv4_block1_2_bn_1/batchnorm/mul_1", "StatefulPartitionedCall/asl_resnet50_improved_1/resnet50_1/conv4_block1_2_bn_1/batchnorm/sub"], "attr": {"T": {"type": "DT_FLOAT"}}}, {"name": "StatefulPartitionedCall/asl_resnet50_improved_1/resnet50_1/conv4_block1_2_relu_1/Relu", "op": "Relu", "input": ["StatefulPartitionedCall/asl_resnet50_improved_1/resnet50_1/conv4_block1_2_bn_1/batchnorm/add_1"], "attr": {"T": {"type": "DT_FLOAT"}}}, {"name": "StatefulPartitionedCall/asl_resnet50_improved_1/resnet50_1/conv4_block1_3_conv_1/BiasAdd", "op": "_FusedConv2D", "input": ["StatefulPartitionedCall/asl_resnet50_improved_1/resnet50_1/conv4_block1_2_relu_1/Relu", "StatefulPartitionedCall/asl_resnet50_improved_1/resnet50_1/conv4_block1_3_conv_1/convolution/ReadVariableOp", "StatefulPartitionedCall/asl_resnet50_improved_1/resnet50_1/conv4_block1_3_conv_1/Squeeze"], "device": "/device:CPU:0", "attr": {"explicit_paddings": {"list": {}}, "padding": {"s": "VkFMSUQ="}, "leakyrelu_alpha": {"f": 0.2}, "num_host_args": {"i": "0"}, "strides": {"list": {"i": ["1", "1", "1", "1"]}}, "epsilon": {"f": 0.0}, "fused_ops": {"list": {"s": ["Qmlhc0FkZA=="]}}, "TArgs": {"list": {"type": ["DT_FLOAT"]}}, "num_args": {"i": "1"}, "use_cudnn_on_gpu": {"b": true}, "filter_format": {"s": "SFdJTw=="}, "T": {"type": "DT_FLOAT"}, "dilations": {"list": {"i": ["1", "1", "1", "1"]}}, "data_format": {"s": "TkhXQw=="}}}, {"name": "StatefulPartitionedCall/asl_resnet50_improved_1/resnet50_1/conv4_block1_3_bn_1/batchnorm/mul_1", "op": "Mul", "input": ["StatefulPartitionedCall/asl_resnet50_improved_1/resnet50_1/conv4_block1_3_conv_1/BiasAdd", "StatefulPartitionedCall/asl_resnet50_improved_1/resnet50_1/conv4_block1_3_bn_1/batchnorm/mul"], "attr": {"T": {"type": "DT_FLOAT"}}}, {"name": "StatefulPartitionedCall/asl_resnet50_improved_1/resnet50_1/conv4_block1_3_bn_1/batchnorm/add_1", "op": "AddV2", "input": ["StatefulPartitionedCall/asl_resnet50_improved_1/resnet50_1/conv4_block1_3_bn_1/batchnorm/mul_1", "StatefulPartitionedCall/asl_resnet50_improved_1/resnet50_1/conv4_block1_3_bn_1/batchnorm/sub"], "attr": {"T": {"type": "DT_FLOAT"}}}, {"name": "StatefulPartitionedCall/asl_resnet50_improved_1/resnet50_1/conv4_block1_add_1/Add", "op": "AddV2", "input": ["StatefulPartitionedCall/asl_resnet50_improved_1/resnet50_1/conv4_block1_0_bn_1/batchnorm/add_1", "StatefulPartitionedCall/asl_resnet50_improved_1/resnet50_1/conv4_block1_3_bn_1/batchnorm/add_1"], "attr": {"T": {"type": "DT_FLOAT"}}}, {"name": "StatefulPartitionedCall/asl_resnet50_improved_1/resnet50_1/conv4_block1_out_1/Relu", "op": "Relu", "input": ["StatefulPartitionedCall/asl_resnet50_improved_1/resnet50_1/conv4_block1_add_1/Add"], "attr": {"T": {"type": "DT_FLOAT"}}}, {"name": "StatefulPartitionedCall/asl_resnet50_improved_1/resnet50_1/conv4_block2_1_conv_1/BiasAdd", "op": "_FusedConv2D", "input": ["StatefulPartitionedCall/asl_resnet50_improved_1/resnet50_1/conv4_block1_out_1/Relu", "StatefulPartitionedCall/asl_resnet50_improved_1/resnet50_1/conv4_block2_1_conv_1/convolution/ReadVariableOp", "StatefulPartitionedCall/asl_resnet50_improved_1/resnet50_1/conv4_block2_1_conv_1/Squeeze"], "device": "/device:CPU:0", "attr": {"explicit_paddings": {"list": {}}, "padding": {"s": "VkFMSUQ="}, "leakyrelu_alpha": {"f": 0.2}, "num_host_args": {"i": "0"}, "strides": {"list": {"i": ["1", "1", "1", "1"]}}, "epsilon": {"f": 0.0}, "fused_ops": {"list": {"s": ["Qmlhc0FkZA=="]}}, "TArgs": {"list": {"type": ["DT_FLOAT"]}}, "num_args": {"i": "1"}, "use_cudnn_on_gpu": {"b": true}, "dilations": {"list": {"i": ["1", "1", "1", "1"]}}, "T": {"type": "DT_FLOAT"}, "filter_format": {"s": "SFdJTw=="}, "data_format": {"s": "TkhXQw=="}}}, {"name": "StatefulPartitionedCall/asl_resnet50_improved_1/resnet50_1/conv4_block2_1_bn_1/batchnorm/mul_1", "op": "Mul", "input": ["StatefulPartitionedCall/asl_resnet50_improved_1/resnet50_1/conv4_block2_1_conv_1/BiasAdd", "StatefulPartitionedCall/asl_resnet50_improved_1/resnet50_1/conv4_block2_1_bn_1/batchnorm/mul"], "attr": {"T": {"type": "DT_FLOAT"}}}, {"name": "StatefulPartitionedCall/asl_resnet50_improved_1/resnet50_1/conv4_block2_1_bn_1/batchnorm/add_1", "op": "AddV2", "input": ["StatefulPartitionedCall/asl_resnet50_improved_1/resnet50_1/conv4_block2_1_bn_1/batchnorm/mul_1", "StatefulPartitionedCall/asl_resnet50_improved_1/resnet50_1/conv4_block2_1_bn_1/batchnorm/sub"], "attr": {"T": {"type": "DT_FLOAT"}}}, {"name": "StatefulPartitionedCall/asl_resnet50_improved_1/resnet50_1/conv4_block2_1_relu_1/Relu", "op": "Relu", "input": ["StatefulPartitionedCall/asl_resnet50_improved_1/resnet50_1/conv4_block2_1_bn_1/batchnorm/add_1"], "attr": {"T": {"type": "DT_FLOAT"}}}, {"name": "StatefulPartitionedCall/asl_resnet50_improved_1/resnet50_1/conv4_block2_2_conv_1/BiasAdd", "op": "_FusedConv2D", "input": ["StatefulPartitionedCall/asl_resnet50_improved_1/resnet50_1/conv4_block2_1_relu_1/Relu", "StatefulPartitionedCall/asl_resnet50_improved_1/resnet50_1/conv4_block2_2_conv_1/convolution/ReadVariableOp", "StatefulPartitionedCall/asl_resnet50_improved_1/resnet50_1/conv4_block2_2_conv_1/Squeeze"], "device": "/device:CPU:0", "attr": {"explicit_paddings": {"list": {}}, "padding": {"s": "U0FNRQ=="}, "leakyrelu_alpha": {"f": 0.2}, "strides": {"list": {"i": ["1", "1", "1", "1"]}}, "num_host_args": {"i": "0"}, "epsilon": {"f": 0.0}, "fused_ops": {"list": {"s": ["Qmlhc0FkZA=="]}}, "TArgs": {"list": {"type": ["DT_FLOAT"]}}, "num_args": {"i": "1"}, "use_cudnn_on_gpu": {"b": true}, "dilations": {"list": {"i": ["1", "1", "1", "1"]}}, "T": {"type": "DT_FLOAT"}, "filter_format": {"s": "SFdJTw=="}, "data_format": {"s": "TkhXQw=="}}}, {"name": "StatefulPartitionedCall/asl_resnet50_improved_1/resnet50_1/conv4_block2_2_bn_1/batchnorm/mul_1", "op": "Mul", "input": ["StatefulPartitionedCall/asl_resnet50_improved_1/resnet50_1/conv4_block2_2_conv_1/BiasAdd", "StatefulPartitionedCall/asl_resnet50_improved_1/resnet50_1/conv4_block2_2_bn_1/batchnorm/mul"], "attr": {"T": {"type": "DT_FLOAT"}}}, {"name": "StatefulPartitionedCall/asl_resnet50_improved_1/resnet50_1/conv4_block2_2_bn_1/batchnorm/add_1", "op": "AddV2", "input": ["StatefulPartitionedCall/asl_resnet50_improved_1/resnet50_1/conv4_block2_2_bn_1/batchnorm/mul_1", "StatefulPartitionedCall/asl_resnet50_improved_1/resnet50_1/conv4_block2_2_bn_1/batchnorm/sub"], "attr": {"T": {"type": "DT_FLOAT"}}}, {"name": "StatefulPartitionedCall/asl_resnet50_improved_1/resnet50_1/conv4_block2_2_relu_1/Relu", "op": "Relu", "input": ["StatefulPartitionedCall/asl_resnet50_improved_1/resnet50_1/conv4_block2_2_bn_1/batchnorm/add_1"], "attr": {"T": {"type": "DT_FLOAT"}}}, {"name": "StatefulPartitionedCall/asl_resnet50_improved_1/resnet50_1/conv4_block2_3_conv_1/BiasAdd", "op": "_FusedConv2D", "input": ["StatefulPartitionedCall/asl_resnet50_improved_1/resnet50_1/conv4_block2_2_relu_1/Relu", "StatefulPartitionedCall/asl_resnet50_improved_1/resnet50_1/conv4_block2_3_conv_1/convolution/ReadVariableOp", "StatefulPartitionedCall/asl_resnet50_improved_1/resnet50_1/conv4_block2_3_conv_1/Squeeze"], "device": "/device:CPU:0", "attr": {"explicit_paddings": {"list": {}}, "padding": {"s": "VkFMSUQ="}, "epsilon": {"f": 0.0}, "strides": {"list": {"i": ["1", "1", "1", "1"]}}, "num_host_args": {"i": "0"}, "leakyrelu_alpha": {"f": 0.2}, "fused_ops": {"list": {"s": ["Qmlhc0FkZA=="]}}, "TArgs": {"list": {"type": ["DT_FLOAT"]}}, "num_args": {"i": "1"}, "use_cudnn_on_gpu": {"b": true}, "filter_format": {"s": "SFdJTw=="}, "T": {"type": "DT_FLOAT"}, "dilations": {"list": {"i": ["1", "1", "1", "1"]}}, "data_format": {"s": "TkhXQw=="}}}, {"name": "StatefulPartitionedCall/asl_resnet50_improved_1/resnet50_1/conv4_block2_3_bn_1/batchnorm/mul_1", "op": "Mul", "input": ["StatefulPartitionedCall/asl_resnet50_improved_1/resnet50_1/conv4_block2_3_conv_1/BiasAdd", "StatefulPartitionedCall/asl_resnet50_improved_1/resnet50_1/conv4_block2_3_bn_1/batchnorm/mul"], "attr": {"T": {"type": "DT_FLOAT"}}}, {"name": "StatefulPartitionedCall/asl_resnet50_improved_1/resnet50_1/conv4_block2_3_bn_1/batchnorm/add_1", "op": "AddV2", "input": ["StatefulPartitionedCall/asl_resnet50_improved_1/resnet50_1/conv4_block2_3_bn_1/batchnorm/mul_1", "StatefulPartitionedCall/asl_resnet50_improved_1/resnet50_1/conv4_block2_3_bn_1/batchnorm/sub"], "attr": {"T": {"type": "DT_FLOAT"}}}, {"name": "StatefulPartitionedCall/asl_resnet50_improved_1/resnet50_1/conv4_block2_add_1/Add", "op": "AddV2", "input": ["StatefulPartitionedCall/asl_resnet50_improved_1/resnet50_1/conv4_block1_out_1/Relu", "StatefulPartitionedCall/asl_resnet50_improved_1/resnet50_1/conv4_block2_3_bn_1/batchnorm/add_1"], "attr": {"T": {"type": "DT_FLOAT"}}}, {"name": "StatefulPartitionedCall/asl_resnet50_improved_1/resnet50_1/conv4_block2_out_1/Relu", "op": "Relu", "input": ["StatefulPartitionedCall/asl_resnet50_improved_1/resnet50_1/conv4_block2_add_1/Add"], "attr": {"T": {"type": "DT_FLOAT"}}}, {"name": "StatefulPartitionedCall/asl_resnet50_improved_1/resnet50_1/conv4_block3_1_conv_1/BiasAdd", "op": "_FusedConv2D", "input": ["StatefulPartitionedCall/asl_resnet50_improved_1/resnet50_1/conv4_block2_out_1/Relu", "StatefulPartitionedCall/asl_resnet50_improved_1/resnet50_1/conv4_block3_1_conv_1/convolution/ReadVariableOp", "StatefulPartitionedCall/asl_resnet50_improved_1/resnet50_1/conv4_block3_1_conv_1/Squeeze"], "device": "/device:CPU:0", "attr": {"explicit_paddings": {"list": {}}, "padding": {"s": "VkFMSUQ="}, "leakyrelu_alpha": {"f": 0.2}, "num_host_args": {"i": "0"}, "strides": {"list": {"i": ["1", "1", "1", "1"]}}, "epsilon": {"f": 0.0}, "fused_ops": {"list": {"s": ["Qmlhc0FkZA=="]}}, "TArgs": {"list": {"type": ["DT_FLOAT"]}}, "num_args": {"i": "1"}, "use_cudnn_on_gpu": {"b": true}, "filter_format": {"s": "SFdJTw=="}, "T": {"type": "DT_FLOAT"}, "dilations": {"list": {"i": ["1", "1", "1", "1"]}}, "data_format": {"s": "TkhXQw=="}}}, {"name": "StatefulPartitionedCall/asl_resnet50_improved_1/resnet50_1/conv4_block3_1_bn_1/batchnorm/mul_1", "op": "Mul", "input": ["StatefulPartitionedCall/asl_resnet50_improved_1/resnet50_1/conv4_block3_1_conv_1/BiasAdd", "StatefulPartitionedCall/asl_resnet50_improved_1/resnet50_1/conv4_block3_1_bn_1/batchnorm/mul"], "attr": {"T": {"type": "DT_FLOAT"}}}, {"name": "StatefulPartitionedCall/asl_resnet50_improved_1/resnet50_1/conv4_block3_1_bn_1/batchnorm/add_1", "op": "AddV2", "input": ["StatefulPartitionedCall/asl_resnet50_improved_1/resnet50_1/conv4_block3_1_bn_1/batchnorm/mul_1", "StatefulPartitionedCall/asl_resnet50_improved_1/resnet50_1/conv4_block3_1_bn_1/batchnorm/sub"], "attr": {"T": {"type": "DT_FLOAT"}}}, {"name": "StatefulPartitionedCall/asl_resnet50_improved_1/resnet50_1/conv4_block3_1_relu_1/Relu", "op": "Relu", "input": ["StatefulPartitionedCall/asl_resnet50_improved_1/resnet50_1/conv4_block3_1_bn_1/batchnorm/add_1"], "attr": {"T": {"type": "DT_FLOAT"}}}, {"name": "StatefulPartitionedCall/asl_resnet50_improved_1/resnet50_1/conv4_block3_2_conv_1/BiasAdd", "op": "_FusedConv2D", "input": ["StatefulPartitionedCall/asl_resnet50_improved_1/resnet50_1/conv4_block3_1_relu_1/Relu", "StatefulPartitionedCall/asl_resnet50_improved_1/resnet50_1/conv4_block3_2_conv_1/convolution/ReadVariableOp", "StatefulPartitionedCall/asl_resnet50_improved_1/resnet50_1/conv4_block3_2_conv_1/Squeeze"], "device": "/device:CPU:0", "attr": {"explicit_paddings": {"list": {}}, "padding": {"s": "U0FNRQ=="}, "leakyrelu_alpha": {"f": 0.2}, "num_host_args": {"i": "0"}, "strides": {"list": {"i": ["1", "1", "1", "1"]}}, "epsilon": {"f": 0.0}, "fused_ops": {"list": {"s": ["Qmlhc0FkZA=="]}}, "TArgs": {"list": {"type": ["DT_FLOAT"]}}, "num_args": {"i": "1"}, "use_cudnn_on_gpu": {"b": true}, "dilations": {"list": {"i": ["1", "1", "1", "1"]}}, "T": {"type": "DT_FLOAT"}, "filter_format": {"s": "SFdJTw=="}, "data_format": {"s": "TkhXQw=="}}}, {"name": "StatefulPartitionedCall/asl_resnet50_improved_1/resnet50_1/conv4_block3_2_bn_1/batchnorm/mul_1", "op": "Mul", "input": ["StatefulPartitionedCall/asl_resnet50_improved_1/resnet50_1/conv4_block3_2_conv_1/BiasAdd", "StatefulPartitionedCall/asl_resnet50_improved_1/resnet50_1/conv4_block3_2_bn_1/batchnorm/mul"], "attr": {"T": {"type": "DT_FLOAT"}}}, {"name": "StatefulPartitionedCall/asl_resnet50_improved_1/resnet50_1/conv4_block3_2_bn_1/batchnorm/add_1", "op": "AddV2", "input": ["StatefulPartitionedCall/asl_resnet50_improved_1/resnet50_1/conv4_block3_2_bn_1/batchnorm/mul_1", "StatefulPartitionedCall/asl_resnet50_improved_1/resnet50_1/conv4_block3_2_bn_1/batchnorm/sub"], "attr": {"T": {"type": "DT_FLOAT"}}}, {"name": "StatefulPartitionedCall/asl_resnet50_improved_1/resnet50_1/conv4_block3_2_relu_1/Relu", "op": "Relu", "input": ["StatefulPartitionedCall/asl_resnet50_improved_1/resnet50_1/conv4_block3_2_bn_1/batchnorm/add_1"], "attr": {"T": {"type": "DT_FLOAT"}}}, {"name": "StatefulPartitionedCall/asl_resnet50_improved_1/resnet50_1/conv4_block3_3_conv_1/BiasAdd", "op": "_FusedConv2D", "input": ["StatefulPartitionedCall/asl_resnet50_improved_1/resnet50_1/conv4_block3_2_relu_1/Relu", "StatefulPartitionedCall/asl_resnet50_improved_1/resnet50_1/conv4_block3_3_conv_1/convolution/ReadVariableOp", "StatefulPartitionedCall/asl_resnet50_improved_1/resnet50_1/conv4_block3_3_conv_1/Squeeze"], "device": "/device:CPU:0", "attr": {"explicit_paddings": {"list": {}}, "padding": {"s": "VkFMSUQ="}, "epsilon": {"f": 0.0}, "num_host_args": {"i": "0"}, "strides": {"list": {"i": ["1", "1", "1", "1"]}}, "leakyrelu_alpha": {"f": 0.2}, "fused_ops": {"list": {"s": ["Qmlhc0FkZA=="]}}, "TArgs": {"list": {"type": ["DT_FLOAT"]}}, "num_args": {"i": "1"}, "use_cudnn_on_gpu": {"b": true}, "filter_format": {"s": "SFdJTw=="}, "T": {"type": "DT_FLOAT"}, "dilations": {"list": {"i": ["1", "1", "1", "1"]}}, "data_format": {"s": "TkhXQw=="}}}, {"name": "StatefulPartitionedCall/asl_resnet50_improved_1/resnet50_1/conv4_block3_3_bn_1/batchnorm/mul_1", "op": "Mul", "input": ["StatefulPartitionedCall/asl_resnet50_improved_1/resnet50_1/conv4_block3_3_conv_1/BiasAdd", "StatefulPartitionedCall/asl_resnet50_improved_1/resnet50_1/conv4_block3_3_bn_1/batchnorm/mul"], "attr": {"T": {"type": "DT_FLOAT"}}}, {"name": "StatefulPartitionedCall/asl_resnet50_improved_1/resnet50_1/conv4_block3_3_bn_1/batchnorm/add_1", "op": "AddV2", "input": ["StatefulPartitionedCall/asl_resnet50_improved_1/resnet50_1/conv4_block3_3_bn_1/batchnorm/mul_1", "StatefulPartitionedCall/asl_resnet50_improved_1/resnet50_1/conv4_block3_3_bn_1/batchnorm/sub"], "attr": {"T": {"type": "DT_FLOAT"}}}, {"name": "StatefulPartitionedCall/asl_resnet50_improved_1/resnet50_1/conv4_block3_add_1/Add", "op": "AddV2", "input": ["StatefulPartitionedCall/asl_resnet50_improved_1/resnet50_1/conv4_block2_out_1/Relu", "StatefulPartitionedCall/asl_resnet50_improved_1/resnet50_1/conv4_block3_3_bn_1/batchnorm/add_1"], "attr": {"T": {"type": "DT_FLOAT"}}}, {"name": "StatefulPartitionedCall/asl_resnet50_improved_1/resnet50_1/conv4_block3_out_1/Relu", "op": "Relu", "input": ["StatefulPartitionedCall/asl_resnet50_improved_1/resnet50_1/conv4_block3_add_1/Add"], "attr": {"T": {"type": "DT_FLOAT"}}}, {"name": "StatefulPartitionedCall/asl_resnet50_improved_1/resnet50_1/conv4_block4_1_conv_1/BiasAdd", "op": "_FusedConv2D", "input": ["StatefulPartitionedCall/asl_resnet50_improved_1/resnet50_1/conv4_block3_out_1/Relu", "StatefulPartitionedCall/asl_resnet50_improved_1/resnet50_1/conv4_block4_1_conv_1/convolution/ReadVariableOp", "StatefulPartitionedCall/asl_resnet50_improved_1/resnet50_1/conv4_block4_1_conv_1/Squeeze"], "device": "/device:CPU:0", "attr": {"explicit_paddings": {"list": {}}, "padding": {"s": "VkFMSUQ="}, "leakyrelu_alpha": {"f": 0.2}, "strides": {"list": {"i": ["1", "1", "1", "1"]}}, "num_host_args": {"i": "0"}, "epsilon": {"f": 0.0}, "fused_ops": {"list": {"s": ["Qmlhc0FkZA=="]}}, "TArgs": {"list": {"type": ["DT_FLOAT"]}}, "num_args": {"i": "1"}, "use_cudnn_on_gpu": {"b": true}, "filter_format": {"s": "SFdJTw=="}, "T": {"type": "DT_FLOAT"}, "dilations": {"list": {"i": ["1", "1", "1", "1"]}}, "data_format": {"s": "TkhXQw=="}}}, {"name": "StatefulPartitionedCall/asl_resnet50_improved_1/resnet50_1/conv4_block4_1_bn_1/batchnorm/mul_1", "op": "Mul", "input": ["StatefulPartitionedCall/asl_resnet50_improved_1/resnet50_1/conv4_block4_1_conv_1/BiasAdd", "StatefulPartitionedCall/asl_resnet50_improved_1/resnet50_1/conv4_block4_1_bn_1/batchnorm/mul"], "attr": {"T": {"type": "DT_FLOAT"}}}, {"name": "StatefulPartitionedCall/asl_resnet50_improved_1/resnet50_1/conv4_block4_1_bn_1/batchnorm/add_1", "op": "AddV2", "input": ["StatefulPartitionedCall/asl_resnet50_improved_1/resnet50_1/conv4_block4_1_bn_1/batchnorm/mul_1", "StatefulPartitionedCall/asl_resnet50_improved_1/resnet50_1/conv4_block4_1_bn_1/batchnorm/sub"], "attr": {"T": {"type": "DT_FLOAT"}}}, {"name": "StatefulPartitionedCall/asl_resnet50_improved_1/resnet50_1/conv4_block4_1_relu_1/Relu", "op": "Relu", "input": ["StatefulPartitionedCall/asl_resnet50_improved_1/resnet50_1/conv4_block4_1_bn_1/batchnorm/add_1"], "attr": {"T": {"type": "DT_FLOAT"}}}, {"name": "StatefulPartitionedCall/asl_resnet50_improved_1/resnet50_1/conv4_block4_2_conv_1/BiasAdd", "op": "_FusedConv2D", "input": ["StatefulPartitionedCall/asl_resnet50_improved_1/resnet50_1/conv4_block4_1_relu_1/Relu", "StatefulPartitionedCall/asl_resnet50_improved_1/resnet50_1/conv4_block4_2_conv_1/convolution/ReadVariableOp", "StatefulPartitionedCall/asl_resnet50_improved_1/resnet50_1/conv4_block4_2_conv_1/Squeeze"], "device": "/device:CPU:0", "attr": {"explicit_paddings": {"list": {}}, "padding": {"s": "U0FNRQ=="}, "leakyrelu_alpha": {"f": 0.2}, "num_host_args": {"i": "0"}, "strides": {"list": {"i": ["1", "1", "1", "1"]}}, "epsilon": {"f": 0.0}, "fused_ops": {"list": {"s": ["Qmlhc0FkZA=="]}}, "TArgs": {"list": {"type": ["DT_FLOAT"]}}, "num_args": {"i": "1"}, "use_cudnn_on_gpu": {"b": true}, "filter_format": {"s": "SFdJTw=="}, "T": {"type": "DT_FLOAT"}, "dilations": {"list": {"i": ["1", "1", "1", "1"]}}, "data_format": {"s": "TkhXQw=="}}}, {"name": "StatefulPartitionedCall/asl_resnet50_improved_1/resnet50_1/conv4_block4_2_bn_1/batchnorm/mul_1", "op": "Mul", "input": ["StatefulPartitionedCall/asl_resnet50_improved_1/resnet50_1/conv4_block4_2_conv_1/BiasAdd", "StatefulPartitionedCall/asl_resnet50_improved_1/resnet50_1/conv4_block4_2_bn_1/batchnorm/mul"], "attr": {"T": {"type": "DT_FLOAT"}}}, {"name": "StatefulPartitionedCall/asl_resnet50_improved_1/resnet50_1/conv4_block4_2_bn_1/batchnorm/add_1", "op": "AddV2", "input": ["StatefulPartitionedCall/asl_resnet50_improved_1/resnet50_1/conv4_block4_2_bn_1/batchnorm/mul_1", "StatefulPartitionedCall/asl_resnet50_improved_1/resnet50_1/conv4_block4_2_bn_1/batchnorm/sub"], "attr": {"T": {"type": "DT_FLOAT"}}}, {"name": "StatefulPartitionedCall/asl_resnet50_improved_1/resnet50_1/conv4_block4_2_relu_1/Relu", "op": "Relu", "input": ["StatefulPartitionedCall/asl_resnet50_improved_1/resnet50_1/conv4_block4_2_bn_1/batchnorm/add_1"], "attr": {"T": {"type": "DT_FLOAT"}}}, {"name": "StatefulPartitionedCall/asl_resnet50_improved_1/resnet50_1/conv4_block4_3_conv_1/BiasAdd", "op": "_FusedConv2D", "input": ["StatefulPartitionedCall/asl_resnet50_improved_1/resnet50_1/conv4_block4_2_relu_1/Relu", "StatefulPartitionedCall/asl_resnet50_improved_1/resnet50_1/conv4_block4_3_conv_1/convolution/ReadVariableOp", "StatefulPartitionedCall/asl_resnet50_improved_1/resnet50_1/conv4_block4_3_conv_1/Squeeze"], "device": "/device:CPU:0", "attr": {"explicit_paddings": {"list": {}}, "padding": {"s": "VkFMSUQ="}, "leakyrelu_alpha": {"f": 0.2}, "num_host_args": {"i": "0"}, "strides": {"list": {"i": ["1", "1", "1", "1"]}}, "epsilon": {"f": 0.0}, "fused_ops": {"list": {"s": ["Qmlhc0FkZA=="]}}, "TArgs": {"list": {"type": ["DT_FLOAT"]}}, "num_args": {"i": "1"}, "use_cudnn_on_gpu": {"b": true}, "filter_format": {"s": "SFdJTw=="}, "T": {"type": "DT_FLOAT"}, "dilations": {"list": {"i": ["1", "1", "1", "1"]}}, "data_format": {"s": "TkhXQw=="}}}, {"name": "StatefulPartitionedCall/asl_resnet50_improved_1/resnet50_1/conv4_block4_3_bn_1/batchnorm/mul_1", "op": "Mul", "input": ["StatefulPartitionedCall/asl_resnet50_improved_1/resnet50_1/conv4_block4_3_conv_1/BiasAdd", "StatefulPartitionedCall/asl_resnet50_improved_1/resnet50_1/conv4_block4_3_bn_1/batchnorm/mul"], "attr": {"T": {"type": "DT_FLOAT"}}}, {"name": "StatefulPartitionedCall/asl_resnet50_improved_1/resnet50_1/conv4_block4_3_bn_1/batchnorm/add_1", "op": "AddV2", "input": ["StatefulPartitionedCall/asl_resnet50_improved_1/resnet50_1/conv4_block4_3_bn_1/batchnorm/mul_1", "StatefulPartitionedCall/asl_resnet50_improved_1/resnet50_1/conv4_block4_3_bn_1/batchnorm/sub"], "attr": {"T": {"type": "DT_FLOAT"}}}, {"name": "StatefulPartitionedCall/asl_resnet50_improved_1/resnet50_1/conv4_block4_add_1/Add", "op": "AddV2", "input": ["StatefulPartitionedCall/asl_resnet50_improved_1/resnet50_1/conv4_block3_out_1/Relu", "StatefulPartitionedCall/asl_resnet50_improved_1/resnet50_1/conv4_block4_3_bn_1/batchnorm/add_1"], "attr": {"T": {"type": "DT_FLOAT"}}}, {"name": "StatefulPartitionedCall/asl_resnet50_improved_1/resnet50_1/conv4_block4_out_1/Relu", "op": "Relu", "input": ["StatefulPartitionedCall/asl_resnet50_improved_1/resnet50_1/conv4_block4_add_1/Add"], "attr": {"T": {"type": "DT_FLOAT"}}}, {"name": "StatefulPartitionedCall/asl_resnet50_improved_1/resnet50_1/conv4_block5_1_conv_1/BiasAdd", "op": "_FusedConv2D", "input": ["StatefulPartitionedCall/asl_resnet50_improved_1/resnet50_1/conv4_block4_out_1/Relu", "StatefulPartitionedCall/asl_resnet50_improved_1/resnet50_1/conv4_block5_1_conv_1/convolution/ReadVariableOp", "StatefulPartitionedCall/asl_resnet50_improved_1/resnet50_1/conv4_block5_1_conv_1/Squeeze"], "device": "/device:CPU:0", "attr": {"explicit_paddings": {"list": {}}, "padding": {"s": "VkFMSUQ="}, "leakyrelu_alpha": {"f": 0.2}, "num_host_args": {"i": "0"}, "strides": {"list": {"i": ["1", "1", "1", "1"]}}, "epsilon": {"f": 0.0}, "fused_ops": {"list": {"s": ["Qmlhc0FkZA=="]}}, "TArgs": {"list": {"type": ["DT_FLOAT"]}}, "num_args": {"i": "1"}, "use_cudnn_on_gpu": {"b": true}, "filter_format": {"s": "SFdJTw=="}, "T": {"type": "DT_FLOAT"}, "dilations": {"list": {"i": ["1", "1", "1", "1"]}}, "data_format": {"s": "TkhXQw=="}}}, {"name": "StatefulPartitionedCall/asl_resnet50_improved_1/resnet50_1/conv4_block5_1_bn_1/batchnorm/mul_1", "op": "Mul", "input": ["StatefulPartitionedCall/asl_resnet50_improved_1/resnet50_1/conv4_block5_1_conv_1/BiasAdd", "StatefulPartitionedCall/asl_resnet50_improved_1/resnet50_1/conv4_block5_1_bn_1/batchnorm/mul"], "attr": {"T": {"type": "DT_FLOAT"}}}, {"name": "StatefulPartitionedCall/asl_resnet50_improved_1/resnet50_1/conv4_block5_1_bn_1/batchnorm/add_1", "op": "AddV2", "input": ["StatefulPartitionedCall/asl_resnet50_improved_1/resnet50_1/conv4_block5_1_bn_1/batchnorm/mul_1", "StatefulPartitionedCall/asl_resnet50_improved_1/resnet50_1/conv4_block5_1_bn_1/batchnorm/sub"], "attr": {"T": {"type": "DT_FLOAT"}}}, {"name": "StatefulPartitionedCall/asl_resnet50_improved_1/resnet50_1/conv4_block5_1_relu_1/Relu", "op": "Relu", "input": ["StatefulPartitionedCall/asl_resnet50_improved_1/resnet50_1/conv4_block5_1_bn_1/batchnorm/add_1"], "attr": {"T": {"type": "DT_FLOAT"}}}, {"name": "StatefulPartitionedCall/asl_resnet50_improved_1/resnet50_1/conv4_block5_2_conv_1/BiasAdd", "op": "_FusedConv2D", "input": ["StatefulPartitionedCall/asl_resnet50_improved_1/resnet50_1/conv4_block5_1_relu_1/Relu", "StatefulPartitionedCall/asl_resnet50_improved_1/resnet50_1/conv4_block5_2_conv_1/convolution/ReadVariableOp", "StatefulPartitionedCall/asl_resnet50_improved_1/resnet50_1/conv4_block5_2_conv_1/Squeeze"], "device": "/device:CPU:0", "attr": {"explicit_paddings": {"list": {}}, "padding": {"s": "U0FNRQ=="}, "leakyrelu_alpha": {"f": 0.2}, "strides": {"list": {"i": ["1", "1", "1", "1"]}}, "num_host_args": {"i": "0"}, "epsilon": {"f": 0.0}, "fused_ops": {"list": {"s": ["Qmlhc0FkZA=="]}}, "TArgs": {"list": {"type": ["DT_FLOAT"]}}, "num_args": {"i": "1"}, "use_cudnn_on_gpu": {"b": true}, "dilations": {"list": {"i": ["1", "1", "1", "1"]}}, "T": {"type": "DT_FLOAT"}, "filter_format": {"s": "SFdJTw=="}, "data_format": {"s": "TkhXQw=="}}}, {"name": "StatefulPartitionedCall/asl_resnet50_improved_1/resnet50_1/conv4_block5_2_bn_1/batchnorm/mul_1", "op": "Mul", "input": ["StatefulPartitionedCall/asl_resnet50_improved_1/resnet50_1/conv4_block5_2_conv_1/BiasAdd", "StatefulPartitionedCall/asl_resnet50_improved_1/resnet50_1/conv4_block5_2_bn_1/batchnorm/mul"], "attr": {"T": {"type": "DT_FLOAT"}}}, {"name": "StatefulPartitionedCall/asl_resnet50_improved_1/resnet50_1/conv4_block5_2_bn_1/batchnorm/add_1", "op": "AddV2", "input": ["StatefulPartitionedCall/asl_resnet50_improved_1/resnet50_1/conv4_block5_2_bn_1/batchnorm/mul_1", "StatefulPartitionedCall/asl_resnet50_improved_1/resnet50_1/conv4_block5_2_bn_1/batchnorm/sub"], "attr": {"T": {"type": "DT_FLOAT"}}}, {"name": "StatefulPartitionedCall/asl_resnet50_improved_1/resnet50_1/conv4_block5_2_relu_1/Relu", "op": "Relu", "input": ["StatefulPartitionedCall/asl_resnet50_improved_1/resnet50_1/conv4_block5_2_bn_1/batchnorm/add_1"], "attr": {"T": {"type": "DT_FLOAT"}}}, {"name": "StatefulPartitionedCall/asl_resnet50_improved_1/resnet50_1/conv4_block5_3_conv_1/BiasAdd", "op": "_FusedConv2D", "input": ["StatefulPartitionedCall/asl_resnet50_improved_1/resnet50_1/conv4_block5_2_relu_1/Relu", "StatefulPartitionedCall/asl_resnet50_improved_1/resnet50_1/conv4_block5_3_conv_1/convolution/ReadVariableOp", "StatefulPartitionedCall/asl_resnet50_improved_1/resnet50_1/conv4_block5_3_conv_1/Squeeze"], "device": "/device:CPU:0", "attr": {"explicit_paddings": {"list": {}}, "padding": {"s": "VkFMSUQ="}, "leakyrelu_alpha": {"f": 0.2}, "num_host_args": {"i": "0"}, "strides": {"list": {"i": ["1", "1", "1", "1"]}}, "epsilon": {"f": 0.0}, "fused_ops": {"list": {"s": ["Qmlhc0FkZA=="]}}, "TArgs": {"list": {"type": ["DT_FLOAT"]}}, "num_args": {"i": "1"}, "use_cudnn_on_gpu": {"b": true}, "filter_format": {"s": "SFdJTw=="}, "T": {"type": "DT_FLOAT"}, "dilations": {"list": {"i": ["1", "1", "1", "1"]}}, "data_format": {"s": "TkhXQw=="}}}, {"name": "StatefulPartitionedCall/asl_resnet50_improved_1/resnet50_1/conv4_block5_3_bn_1/batchnorm/mul_1", "op": "Mul", "input": ["StatefulPartitionedCall/asl_resnet50_improved_1/resnet50_1/conv4_block5_3_conv_1/BiasAdd", "StatefulPartitionedCall/asl_resnet50_improved_1/resnet50_1/conv4_block5_3_bn_1/batchnorm/mul"], "attr": {"T": {"type": "DT_FLOAT"}}}, {"name": "StatefulPartitionedCall/asl_resnet50_improved_1/resnet50_1/conv4_block5_3_bn_1/batchnorm/add_1", "op": "AddV2", "input": ["StatefulPartitionedCall/asl_resnet50_improved_1/resnet50_1/conv4_block5_3_bn_1/batchnorm/mul_1", "StatefulPartitionedCall/asl_resnet50_improved_1/resnet50_1/conv4_block5_3_bn_1/batchnorm/sub"], "attr": {"T": {"type": "DT_FLOAT"}}}, {"name": "StatefulPartitionedCall/asl_resnet50_improved_1/resnet50_1/conv4_block5_add_1/Add", "op": "AddV2", "input": ["StatefulPartitionedCall/asl_resnet50_improved_1/resnet50_1/conv4_block4_out_1/Relu", "StatefulPartitionedCall/asl_resnet50_improved_1/resnet50_1/conv4_block5_3_bn_1/batchnorm/add_1"], "attr": {"T": {"type": "DT_FLOAT"}}}, {"name": "StatefulPartitionedCall/asl_resnet50_improved_1/resnet50_1/conv4_block5_out_1/Relu", "op": "Relu", "input": ["StatefulPartitionedCall/asl_resnet50_improved_1/resnet50_1/conv4_block5_add_1/Add"], "attr": {"T": {"type": "DT_FLOAT"}}}, {"name": "StatefulPartitionedCall/asl_resnet50_improved_1/resnet50_1/conv4_block6_1_conv_1/BiasAdd", "op": "_FusedConv2D", "input": ["StatefulPartitionedCall/asl_resnet50_improved_1/resnet50_1/conv4_block5_out_1/Relu", "StatefulPartitionedCall/asl_resnet50_improved_1/resnet50_1/conv4_block6_1_conv_1/convolution/ReadVariableOp", "StatefulPartitionedCall/asl_resnet50_improved_1/resnet50_1/conv4_block6_1_conv_1/Squeeze"], "device": "/device:CPU:0", "attr": {"explicit_paddings": {"list": {}}, "padding": {"s": "VkFMSUQ="}, "leakyrelu_alpha": {"f": 0.2}, "strides": {"list": {"i": ["1", "1", "1", "1"]}}, "num_host_args": {"i": "0"}, "epsilon": {"f": 0.0}, "fused_ops": {"list": {"s": ["Qmlhc0FkZA=="]}}, "TArgs": {"list": {"type": ["DT_FLOAT"]}}, "num_args": {"i": "1"}, "use_cudnn_on_gpu": {"b": true}, "filter_format": {"s": "SFdJTw=="}, "T": {"type": "DT_FLOAT"}, "dilations": {"list": {"i": ["1", "1", "1", "1"]}}, "data_format": {"s": "TkhXQw=="}}}, {"name": "StatefulPartitionedCall/asl_resnet50_improved_1/resnet50_1/conv4_block6_1_bn_1/batchnorm/mul_1", "op": "Mul", "input": ["StatefulPartitionedCall/asl_resnet50_improved_1/resnet50_1/conv4_block6_1_conv_1/BiasAdd", "StatefulPartitionedCall/asl_resnet50_improved_1/resnet50_1/conv4_block6_1_bn_1/batchnorm/mul"], "attr": {"T": {"type": "DT_FLOAT"}}}, {"name": "StatefulPartitionedCall/asl_resnet50_improved_1/resnet50_1/conv4_block6_1_bn_1/batchnorm/add_1", "op": "AddV2", "input": ["StatefulPartitionedCall/asl_resnet50_improved_1/resnet50_1/conv4_block6_1_bn_1/batchnorm/mul_1", "StatefulPartitionedCall/asl_resnet50_improved_1/resnet50_1/conv4_block6_1_bn_1/batchnorm/sub"], "attr": {"T": {"type": "DT_FLOAT"}}}, {"name": "StatefulPartitionedCall/asl_resnet50_improved_1/resnet50_1/conv4_block6_1_relu_1/Relu", "op": "Relu", "input": ["StatefulPartitionedCall/asl_resnet50_improved_1/resnet50_1/conv4_block6_1_bn_1/batchnorm/add_1"], "attr": {"T": {"type": "DT_FLOAT"}}}, {"name": "StatefulPartitionedCall/asl_resnet50_improved_1/resnet50_1/conv4_block6_2_conv_1/BiasAdd", "op": "_FusedConv2D", "input": ["StatefulPartitionedCall/asl_resnet50_improved_1/resnet50_1/conv4_block6_1_relu_1/Relu", "StatefulPartitionedCall/asl_resnet50_improved_1/resnet50_1/conv4_block6_2_conv_1/convolution/ReadVariableOp", "StatefulPartitionedCall/asl_resnet50_improved_1/resnet50_1/conv4_block6_2_conv_1/Squeeze"], "device": "/device:CPU:0", "attr": {"explicit_paddings": {"list": {}}, "padding": {"s": "U0FNRQ=="}, "epsilon": {"f": 0.0}, "num_host_args": {"i": "0"}, "strides": {"list": {"i": ["1", "1", "1", "1"]}}, "leakyrelu_alpha": {"f": 0.2}, "fused_ops": {"list": {"s": ["Qmlhc0FkZA=="]}}, "TArgs": {"list": {"type": ["DT_FLOAT"]}}, "num_args": {"i": "1"}, "use_cudnn_on_gpu": {"b": true}, "filter_format": {"s": "SFdJTw=="}, "T": {"type": "DT_FLOAT"}, "dilations": {"list": {"i": ["1", "1", "1", "1"]}}, "data_format": {"s": "TkhXQw=="}}}, {"name": "StatefulPartitionedCall/asl_resnet50_improved_1/resnet50_1/conv4_block6_2_bn_1/batchnorm/mul_1", "op": "Mul", "input": ["StatefulPartitionedCall/asl_resnet50_improved_1/resnet50_1/conv4_block6_2_conv_1/BiasAdd", "StatefulPartitionedCall/asl_resnet50_improved_1/resnet50_1/conv4_block6_2_bn_1/batchnorm/mul"], "attr": {"T": {"type": "DT_FLOAT"}}}, {"name": "StatefulPartitionedCall/asl_resnet50_improved_1/resnet50_1/conv4_block6_2_bn_1/batchnorm/add_1", "op": "AddV2", "input": ["StatefulPartitionedCall/asl_resnet50_improved_1/resnet50_1/conv4_block6_2_bn_1/batchnorm/mul_1", "StatefulPartitionedCall/asl_resnet50_improved_1/resnet50_1/conv4_block6_2_bn_1/batchnorm/sub"], "attr": {"T": {"type": "DT_FLOAT"}}}, {"name": "StatefulPartitionedCall/asl_resnet50_improved_1/resnet50_1/conv4_block6_2_relu_1/Relu", "op": "Relu", "input": ["StatefulPartitionedCall/asl_resnet50_improved_1/resnet50_1/conv4_block6_2_bn_1/batchnorm/add_1"], "attr": {"T": {"type": "DT_FLOAT"}}}, {"name": "StatefulPartitionedCall/asl_resnet50_improved_1/resnet50_1/conv4_block6_3_conv_1/BiasAdd", "op": "_FusedConv2D", "input": ["StatefulPartitionedCall/asl_resnet50_improved_1/resnet50_1/conv4_block6_2_relu_1/Relu", "StatefulPartitionedCall/asl_resnet50_improved_1/resnet50_1/conv4_block6_3_conv_1/convolution/ReadVariableOp", "StatefulPartitionedCall/asl_resnet50_improved_1/resnet50_1/conv4_block6_3_conv_1/Squeeze"], "device": "/device:CPU:0", "attr": {"explicit_paddings": {"list": {}}, "padding": {"s": "VkFMSUQ="}, "leakyrelu_alpha": {"f": 0.2}, "strides": {"list": {"i": ["1", "1", "1", "1"]}}, "num_host_args": {"i": "0"}, "epsilon": {"f": 0.0}, "fused_ops": {"list": {"s": ["Qmlhc0FkZA=="]}}, "TArgs": {"list": {"type": ["DT_FLOAT"]}}, "num_args": {"i": "1"}, "use_cudnn_on_gpu": {"b": true}, "filter_format": {"s": "SFdJTw=="}, "T": {"type": "DT_FLOAT"}, "dilations": {"list": {"i": ["1", "1", "1", "1"]}}, "data_format": {"s": "TkhXQw=="}}}, {"name": "StatefulPartitionedCall/asl_resnet50_improved_1/resnet50_1/conv4_block6_3_bn_1/batchnorm/mul_1", "op": "Mul", "input": ["StatefulPartitionedCall/asl_resnet50_improved_1/resnet50_1/conv4_block6_3_conv_1/BiasAdd", "StatefulPartitionedCall/asl_resnet50_improved_1/resnet50_1/conv4_block6_3_bn_1/batchnorm/mul"], "attr": {"T": {"type": "DT_FLOAT"}}}, {"name": "StatefulPartitionedCall/asl_resnet50_improved_1/resnet50_1/conv4_block6_3_bn_1/batchnorm/add_1", "op": "AddV2", "input": ["StatefulPartitionedCall/asl_resnet50_improved_1/resnet50_1/conv4_block6_3_bn_1/b…
 "StatefulPartitionedCall/asl_resnet50_improved_1/resnet50_1/conv5_block1_3_conv_1/Squeeze"], "device": "/device:CPU:0", "attr": {"explicit_paddings": {"list": {}}, "padding": {"s": "VkFMSUQ="}, "epsilon": {"f": 0.0}, "strides": {"list": {"i": ["1", "1", "1", "1"]}}, "num_host_args": {"i": "0"}, "leakyrelu_alpha": {"f": 0.2}, "fused_ops": {"list": {"s": ["Qmlhc0FkZA=="]}}, "TArgs": {"list": {"type": ["DT_FLOAT"]}}, "num_args": {"i": "1"}, "use_cudnn_on_gpu": {"b": true}, "dilations": {"list": {"i": ["1", "1", "1", "1"]}}, "T": {"type": "DT_FLOAT"}, "filter_format": {"s": "SFdJTw=="}, "data_format": {"s": "TkhXQw=="}}}, {"name": "StatefulPartitionedCall/asl_resnet50_improved_1/resnet50_1/conv5_block1_3_bn_1/batchnorm/mul_1", "op": "Mul", "input": ["StatefulPartitionedCall/asl_resnet50_improved_1/resnet50_1/conv5_block1_3_conv_1/BiasAdd", "StatefulPartitionedCall/asl_resnet50_improved_1/resnet50_1/conv5_block1_3_bn_1/batchnorm/mul"], "attr": {"T": {"type": "DT_FLOAT"}}}, {"name": "StatefulPartitionedCall/asl_resnet50_improved_1/resnet50_1/conv5_block1_3_bn_1/batchnorm/add_1", "op": "AddV2", "input": ["StatefulPartitionedCall/asl_resnet50_improved_1/resnet50_1/conv5_block1_3_bn_1/batchnorm/mul_1", "StatefulPartitionedCall/asl_resnet50_improved_1/resnet50_1/conv5_block1_3_bn_1/batchnorm/sub"], "attr": {"T": {"type": "DT_FLOAT"}}}, {"name": "StatefulPartitionedCall/asl_resnet50_improved_1/resnet50_1/conv5_block1_add_1/Add", "op": "AddV2", "input": ["StatefulPartitionedCall/asl_resnet50_improved_1/resnet50_1/conv5_block1_0_bn_1/batchnorm/add_1", "StatefulPartitionedCall/asl_resnet50_improved_1/resnet50_1/conv5_block1_3_bn_1/batchnorm/add_1"], "attr": {"T": {"type": "DT_FLOAT"}}}, {"name": "StatefulPartitionedCall/asl_resnet50_improved_1/resnet50_1/conv5_block1_out_1/Relu", "op": "Relu", "input": ["StatefulPartitionedCall/asl_resnet50_improved_1/resnet50_1/conv5_block1_add_1/Add"], "attr": {"T": {"type": "DT_FLOAT"}}}, {"name": "StatefulPartitionedCall/asl_resnet50_improved_1/resnet50_1/conv5_block2_1_conv_1/BiasAdd", "op": "_FusedConv2D", "input": ["StatefulPartitionedCall/asl_resnet50_improved_1/resnet50_1/conv5_block1_out_1/Relu", "StatefulPartitionedCall/asl_resnet50_improved_1/resnet50_1/conv5_block2_1_conv_1/convolution/ReadVariableOp", "StatefulPartitionedCall/asl_resnet50_improved_1/resnet50_1/conv5_block2_1_conv_1/Squeeze"], "device": "/device:CPU:0", "attr": {"explicit_paddings": {"list": {}}, "padding": {"s": "VkFMSUQ="}, "epsilon": {"f": 0.0}, "strides": {"list": {"i": ["1", "1", "1", "1"]}}, "num_host_args": {"i": "0"}, "leakyrelu_alpha": {"f": 0.2}, "fused_ops": {"list": {"s": ["Qmlhc0FkZA=="]}}, "TArgs": {"list": {"type": ["DT_FLOAT"]}}, "num_args": {"i": "1"}, "use_cudnn_on_gpu": {"b": true}, "dilations": {"list": {"i": ["1", "1", "1", "1"]}}, "T": {"type": "DT_FLOAT"}, "filter_format": {"s": "SFdJTw=="}, "data_format": {"s": "TkhXQw=="}}}, {"name": "StatefulPartitionedCall/asl_resnet50_improved_1/resnet50_1/conv5_block2_1_bn_1/batchnorm/mul_1", "op": "Mul", "input": ["StatefulPartitionedCall/asl_resnet50_improved_1/resnet50_1/conv5_block2_1_conv_1/BiasAdd", "StatefulPartitionedCall/asl_resnet50_improved_1/resnet50_1/conv5_block2_1_bn_1/batchnorm/mul"], "attr": {"T": {"type": "DT_FLOAT"}}}, {"name": "StatefulPartitionedCall/asl_resnet50_improved_1/resnet50_1/conv5_block2_1_bn_1/batchnorm/add_1", "op": "AddV2", "input": ["StatefulPartitionedCall/asl_resnet50_improved_1/resnet50_1/conv5_block2_1_bn_1/batchnorm/mul_1", "StatefulPartitionedCall/asl_resnet50_improved_1/resnet50_1/conv5_block2_1_bn_1/batchnorm/sub"], "attr": {"T": {"type": "DT_FLOAT"}}}, {"name": "StatefulPartitionedCall/asl_resnet50_improved_1/resnet50_1/conv5_block2_1_relu_1/Relu", "op": "Relu", "input": ["StatefulPartitionedCall/asl_resnet50_improved_1/resnet50_1/conv5_block2_1_bn_1/batchnorm/add_1"], "attr": {"T": {"type": "DT_FLOAT"}}}, {"name": "StatefulPartitionedCall/asl_resnet50_improved_1/resnet50_1/conv5_block2_2_conv_1/BiasAdd", "op": "_FusedConv2D", "input": ["StatefulPartitionedCall/asl_resnet50_improved_1/resnet50_1/conv5_block2_1_relu_1/Relu", "StatefulPartitionedCall/asl_resnet50_improved_1/resnet50_1/conv5_block2_2_conv_1/convolution/ReadVariableOp", "StatefulPartitionedCall/asl_resnet50_improved_1/resnet50_1/conv5_block2_2_conv_1/Squeeze"], "device": "/device:CPU:0", "attr": {"explicit_paddings": {"list": {}}, "padding": {"s": "U0FNRQ=="}, "leakyrelu_alpha": {"f": 0.2}, "num_host_args": {"i": "0"}, "strides": {"list": {"i": ["1", "1", "1", "1"]}}, "epsilon": {"f": 0.0}, "fused_ops": {"list": {"s": ["Qmlhc0FkZA=="]}}, "TArgs": {"list": {"type": ["DT_FLOAT"]}}, "num_args": {"i": "1"}, "use_cudnn_on_gpu": {"b": true}, "dilations": {"list": {"i": ["1", "1", "1", "1"]}}, "T": {"type": "DT_FLOAT"}, "filter_format": {"s": "SFdJTw=="}, "data_format": {"s": "TkhXQw=="}}}, {"name": "StatefulPartitionedCall/asl_resnet50_improved_1/resnet50_1/conv5_block2_2_bn_1/batchnorm/mul_1", "op": "Mul", "input": ["StatefulPartitionedCall/asl_resnet50_improved_1/resnet50_1/conv5_block2_2_conv_1/BiasAdd", "StatefulPartitionedCall/asl_resnet50_improved_1/resnet50_1/conv5_block2_2_bn_1/batchnorm/mul"], "attr": {"T": {"type": "DT_FLOAT"}}}, {"name": "StatefulPartitionedCall/asl_resnet50_improved_1/resnet50_1/conv5_block2_2_bn_1/batchnorm/add_1", "op": "AddV2", "input": ["StatefulPartitionedCall/asl_resnet50_improved_1/resnet50_1/conv5_block2_2_bn_1/batchnorm/mul_1", "StatefulPartitionedCall/asl_resnet50_improved_1/resnet50_1/conv5_block2_2_bn_1/batchnorm/sub"], "attr": {"T": {"type": "DT_FLOAT"}}}, {"name": "StatefulPartitionedCall/asl_resnet50_improved_1/resnet50_1/conv5_block2_2_relu_1/Relu", "op": "Relu", "input": ["StatefulPartitionedCall/asl_resnet50_improved_1/resnet50_1/conv5_block2_2_bn_1/batchnorm/add_1"], "attr": {"T": {"type": "DT_FLOAT"}}}, {"name": "StatefulPartitionedCall/asl_resnet50_improved_1/resnet50_1/conv5_block2_3_conv_1/BiasAdd", "op": "_FusedConv2D", "input": ["StatefulPartitionedCall/asl_resnet50_improved_1/resnet50_1/conv5_block2_2_relu_1/Relu", "StatefulPartitionedCall/asl_resnet50_improved_1/resnet50_1/conv5_block2_3_conv_1/convolution/ReadVariableOp", "StatefulPartitionedCall/asl_resnet50_improved_1/resnet50_1/conv5_block2_3_conv_1/Squeeze"], "device": "/device:CPU:0", "attr": {"explicit_paddings": {"list": {}}, "padding": {"s": "VkFMSUQ="}, "epsilon": {"f": 0.0}, "strides": {"list": {"i": ["1", "1", "1", "1"]}}, "num_host_args": {"i": "0"}, "leakyrelu_alpha": {"f": 0.2}, "fused_ops": {"list": {"s": ["Qmlhc0FkZA=="]}}, "TArgs": {"list": {"type": ["DT_FLOAT"]}}, "num_args": {"i": "1"}, "use_cudnn_on_gpu": {"b": true}, "dilations": {"list": {"i": ["1", "1", "1", "1"]}}, "T": {"type": "DT_FLOAT"}, "filter_format": {"s": "SFdJTw=="}, "data_format": {"s": "TkhXQw=="}}}, {"name": "StatefulPartitionedCall/asl_resnet50_improved_1/resnet50_1/conv5_block2_3_bn_1/batchnorm/mul_1", "op": "Mul", "input": ["StatefulPartitionedCall/asl_resnet50_improved_1/resnet50_1/conv5_block2_3_conv_1/BiasAdd", "StatefulPartitionedCall/asl_resnet50_improved_1/resnet50_1/conv5_block2_3_bn_1/batchnorm/mul"], "attr": {"T": {"type": "DT_FLOAT"}}}, {"name": "StatefulPartitionedCall/asl_resnet50_improved_1/resnet50_1/conv5_block2_3_bn_1/batchnorm/add_1", "op": "AddV2", "input": ["StatefulPartitionedCall/asl_resnet50_improved_1/resnet50_1/conv5_block2_3_bn_1/batchnorm/mul_1", "StatefulPartitionedCall/asl_resnet50_improved_1/resnet50_1/conv5_block2_3_bn_1/batchnorm/sub"], "attr": {"T": {"type": "DT_FLOAT"}}}, {"name": "StatefulPartitionedCall/asl_resnet50_improved_1/resnet50_1/conv5_block2_add_1/Add", "op": "AddV2", "input": ["StatefulPartitionedCall/asl_resnet50_improved_1/resnet50_1/conv5_block1_out_1/Relu", "StatefulPartitionedCall/asl_resnet50_improved_1/resnet50_1/conv5_block2_3_bn_1/batchnorm/add_1"], "attr": {"T": {"type": "DT_FLOAT"}}}, {"name": "StatefulPartitionedCall/asl_resnet50_improved_1/resnet50_1/conv5_block2_out_1/Relu", "op": "Relu", "input": ["StatefulPartitionedCall/asl_resnet50_improved_1/resnet50_1/conv5_block2_add_1/Add"], "attr": {"T": {"type": "DT_FLOAT"}}}, {"name": "StatefulPartitionedCall/asl_resnet50_improved_1/resnet50_1/conv5_block3_1_conv_1/BiasAdd", "op": "_FusedConv2D", "input": ["StatefulPartitionedCall/asl_resnet50_improved_1/resnet50_1/conv5_block2_out_1/Relu", "StatefulPartitionedCall/asl_resnet50_improved_1/resnet50_1/conv5_block3_1_conv_1/convolution/ReadVariableOp", "StatefulPartitionedCall/asl_resnet50_improved_1/resnet50_1/conv5_block3_1_conv_1/Squeeze"], "device": "/device:CPU:0", "attr": {"explicit_paddings": {"list": {}}, "padding": {"s": "VkFMSUQ="}, "epsilon": {"f": 0.0}, "strides": {"list": {"i": ["1", "1", "1", "1"]}}, "num_host_args": {"i": "0"}, "leakyrelu_alpha": {"f": 0.2}, "fused_ops": {"list": {"s": ["Qmlhc0FkZA=="]}}, "TArgs": {"list": {"type": ["DT_FLOAT"]}}, "num_args": {"i": "1"}, "use_cudnn_on_gpu": {"b": true}, "filter_format": {"s": "SFdJTw=="}, "T": {"type": "DT_FLOAT"}, "dilations": {"list": {"i": ["1", "1", "1", "1"]}}, "data_format": {"s": "TkhXQw=="}}}, {"name": "StatefulPartitionedCall/asl_resnet50_improved_1/resnet50_1/conv5_block3_1_bn_1/batchnorm/mul_1", "op": "Mul", "input": ["StatefulPartitionedCall/asl_resnet50_improved_1/resnet50_1/conv5_block3_1_conv_1/BiasAdd", "StatefulPartitionedCall/asl_resnet50_improved_1/resnet50_1/conv5_block3_1_bn_1/batchnorm/mul"], "attr": {"T": {"type": "DT_FLOAT"}}}, {"name": "StatefulPartitionedCall/asl_resnet50_improved_1/resnet50_1/conv5_block3_1_bn_1/batchnorm/add_1", "op": "AddV2", "input": ["StatefulPartitionedCall/asl_resnet50_improved_1/resnet50_1/conv5_block3_1_bn_1/batchnorm/mul_1", "StatefulPartitionedCall/asl_resnet50_improved_1/resnet50_1/conv5_block3_1_bn_1/batchnorm/sub"], "attr": {"T": {"type": "DT_FLOAT"}}}, {"name": "StatefulPartitionedCall/asl_resnet50_improved_1/resnet50_1/conv5_block3_1_relu_1/Relu", "op": "Relu", "input": ["StatefulPartitionedCall/asl_resnet50_improved_1/resnet50_1/conv5_block3_1_bn_1/batchnorm/add_1"], "attr": {"T": {"type": "DT_FLOAT"}}}, {"name": "StatefulPartitionedCall/asl_resnet50_improved_1/resnet50_1/conv5_block3_2_conv_1/BiasAdd", "op": "_FusedConv2D", "input": ["StatefulPartitionedCall/asl_resnet50_improved_1/resnet50_1/conv5_block3_1_relu_1/Relu", "StatefulPartitionedCall/asl_resnet50_improved_1/resnet50_1/conv5_block3_2_conv_1/convolution/ReadVariableOp", "StatefulPartitionedCall/asl_resnet50_improved_1/resnet50_1/conv5_block3_2_conv_1/Squeeze"], "device": "/device:CPU:0", "attr": {"explicit_paddings": {"list": {}}, "padding": {"s": "U0FNRQ=="}, "leakyrelu_alpha": {"f": 0.2}, "num_host_args": {"i": "0"}, "strides": {"list": {"i": ["1", "1", "1", "1"]}}, "epsilon": {"f": 0.0}, "fused_ops": {"list": {"s": ["Qmlhc0FkZA=="]}}, "TArgs": {"list": {"type": ["DT_FLOAT"]}}, "num_args": {"i": "1"}, "use_cudnn_on_gpu": {"b": true}, "filter_format": {"s": "SFdJTw=="}, "T": {"type": "DT_FLOAT"}, "dilations": {"list": {"i": ["1", "1", "1", "1"]}}, "data_format": {"s": "TkhXQw=="}}}, {"name": "StatefulPartitionedCall/asl_resnet50_improved_1/resnet50_1/conv5_block3_2_bn_1/batchnorm/mul_1", "op": "Mul", "input": ["StatefulPartitionedCall/asl_resnet50_improved_1/resnet50_1/conv5_block3_2_conv_1/BiasAdd", "StatefulPartitionedCall/asl_resnet50_improved_1/resnet50_1/conv5_block3_2_bn_1/batchnorm/mul"], "attr": {"T": {"type": "DT_FLOAT"}}}, {"name": "StatefulPartitionedCall/asl_resnet50_improved_1/resnet50_1/conv5_block3_2_bn_1/batchnorm/add_1", "op": "AddV2", "input": ["StatefulPartitionedCall/asl_resnet50_improved_1/resnet50_1/conv5_block3_2_bn_1/batchnorm/mul_1", "StatefulPartitionedCall/asl_resnet50_improved_1/resnet50_1/conv5_block3_2_bn_1/batchnorm/sub"], "attr": {"T": {"type": "DT_FLOAT"}}}, {"name": "StatefulPartitionedCall/asl_resnet50_improved_1/resnet50_1/conv5_block3_2_relu_1/Relu", "op": "Relu", "input": ["StatefulPartitionedCall/asl_resnet50_improved_1/resnet50_1/conv5_block3_2_bn_1/batchnorm/add_1"], "attr": {"T": {"type": "DT_FLOAT"}}}, {"name": "StatefulPartitionedCall/asl_resnet50_improved_1/resnet50_1/conv5_block3_3_conv_1/BiasAdd", "op": "_FusedConv2D", "input": ["StatefulPartitionedCall/asl_resnet50_improved_1/resnet50_1/conv5_block3_2_relu_1/Relu", "StatefulPartitionedCall/asl_resnet50_improved_1/resnet50_1/conv5_block3_3_conv_1/convolution/ReadVariableOp", "StatefulPartitionedCall/asl_resnet50_improved_1/resnet50_1/conv5_block3_3_conv_1/Squeeze"], "device": "/device:CPU:0", "attr": {"explicit_paddings": {"list": {}}, "padding": {"s": "VkFMSUQ="}, "epsilon": {"f": 0.0}, "num_host_args": {"i": "0"}, "strides": {"list": {"i": ["1", "1", "1", "1"]}}, "leakyrelu_alpha": {"f": 0.2}, "fused_ops": {"list": {"s": ["Qmlhc0FkZA=="]}}, "TArgs": {"list": {"type": ["DT_FLOAT"]}}, "num_args": {"i": "1"}, "use_cudnn_on_gpu": {"b": true}, "dilations": {"list": {"i": ["1", "1", "1", "1"]}}, "T": {"type": "DT_FLOAT"}, "filter_format": {"s": "SFdJTw=="}, "data_format": {"s": "TkhXQw=="}}}, {"name": "StatefulPartitionedCall/asl_resnet50_improved_1/resnet50_1/conv5_block3_3_bn_1/batchnorm/mul_1", "op": "Mul", "input": ["StatefulPartitionedCall/asl_resnet50_improved_1/resnet50_1/conv5_block3_3_conv_1/BiasAdd", "StatefulPartitionedCall/asl_resnet50_improved_1/resnet50_1/conv5_block3_3_bn_1/batchnorm/mul"], "attr": {"T": {"type": "DT_FLOAT"}}}, {"name": "StatefulPartitionedCall/asl_resnet50_improved_1/resnet50_1/conv5_block3_3_bn_1/batchnorm/add_1", "op": "AddV2", "input": ["StatefulPartitionedCall/asl_resnet50_improved_1/resnet50_1/conv5_block3_3_bn_1/batchnorm/mul_1", "StatefulPartitionedCall/asl_resnet50_improved_1/resnet50_1/conv5_block3_3_bn_1/batchnorm/sub"], "attr": {"T": {"type": "DT_FLOAT"}}}, {"name": "StatefulPartitionedCall/asl_resnet50_improved_1/resnet50_1/conv5_block3_add_1/Add", "op": "AddV2", "input": ["StatefulPartitionedCall/asl_resnet50_improved_1/resnet50_1/conv5_block2_out_1/Relu", "StatefulPartitionedCall/asl_resnet50_improved_1/resnet50_1/conv5_block3_3_bn_1/batchnorm/add_1"], "attr": {"T": {"type": "DT_FLOAT"}}}, {"name": "StatefulPartitionedCall/asl_resnet50_improved_1/resnet50_1/conv5_block3_out_1/Relu", "op": "Relu", "input": ["StatefulPartitionedCall/asl_resnet50_improved_1/resnet50_1/conv5_block3_add_1/Add"], "attr": {"T": {"type": "DT_FLOAT"}}}, {"name": "StatefulPartitionedCall/asl_resnet50_improved_1/global_average_pooling2d_1/Mean", "op": "Mean", "input": ["StatefulPartitionedCall/asl_resnet50_improved_1/resnet50_1/conv5_block3_out_1/Relu", "StatefulPartitionedCall/asl_resnet50_improved_1/global_average_pooling2d_1/Mean/reduction_indices"], "attr": {"keep_dims": {"b": false}, "T": {"type": "DT_FLOAT"}, "Tidx": {"type": "DT_INT32"}}}, {"name": "StatefulPartitionedCall/asl_resnet50_improved_1/dense_1/Relu", "op": "_FusedMatMul", "input": ["StatefulPartitionedCall/asl_resnet50_improved_1/global_average_pooling2d_1/Mean", "StatefulPartitionedCall/asl_resnet50_improved_1/dense_1/Cast/ReadVariableOp", "StatefulPartitionedCall/asl_resnet50_improved_1/dense_1/BiasAdd/ReadVariableOp"], "device": "/device:CPU:0", "attr": {"num_args": {"i": "1"}, "transpose_a": {"b": false}, "leakyrelu_alpha": {"f": 0.2}, "epsilon": {"f": 0.0}, "T": {"type": "DT_FLOAT"}, "transpose_b": {"b": false}, "fused_ops": {"list": {"s": ["Qmlhc0FkZA==", "UmVsdQ=="]}}}}, {"name": "StatefulPartitionedCall/asl_resnet50_improved_1/dense_1_2/BiasAdd", "op": "_FusedMatMul", "input": ["StatefulPartitionedCall/asl_resnet50_improved_1/dense_1/Relu", "StatefulPartitionedCall/asl_resnet50_improved_1/dense_1_2/Cast/ReadVariableOp", "StatefulPartitionedCall/asl_resnet50_improved_1/dense_1_2/BiasAdd/ReadVariableOp"], "device": "/device:CPU:0", "attr": {"num_args": {"i": "1"}, "transpose_a": {"b": false}, "leakyrelu_alpha": {"f": 0.2}, "epsilon": {"f": 0.0}, "T": {"type": "DT_FLOAT"}, "transpose_b": {"b": false}, "fused_ops": {"list": {"s": ["Qmlhc0FkZA=="]}}}}, {"name": "StatefulPartitionedCall/asl_resnet50_improved_1/dense_1_2/Softmax", "op": "Softmax", "input": ["StatefulPartitionedCall/asl_resnet50_improved_1/dense_1_2/BiasAdd"], "attr": {"T": {"type": "DT_FLOAT"}}}, {"name": "Identity", "op": "Identity", "input": ["StatefulPartitionedCall/asl_resnet50_improved_1/dense_1_2/Softmax"], "attr": {"T": {"type": "DT_FLOAT"}}}], "library": {}, "versions": {"producer": 2129}}, "weightsManifest": [{"paths": ["group1-shard1of23.bin", "group1-shard2of23.bin", "group1-shard3of23.bin", "group1-shard4of23.bin", "group1-shard5of23.bin", "group1-shard6of23.bin", "group1-shard7of23.bin", "group1-shard8of23.bin", "group1-shard9of23.bin", "group1-shard10of23.bin", "group1-shard11of23.bin", "group1-shard12of23.bin", "group1-shard13of23.bin", "group1-shard14of23.bin", "group1-shard15of23.bin", "group1-shard16of23.bin", "group1-shard17of23.bin", "group1-shard18of23.bin", "group1-shard19of23.bin", "group1-shard20of23.bin", "group1-shard21of23.bin", "group1-shard22of23.bin", "group1-shard23of23.bin"], "weights": [{"name": "StatefulPartitionedCall/asl_resnet50_improved_1/resnet50_1/conv5_block1_0_conv_1/convolution/ReadVariableOp", "shape": [1, 1, 1024, 2048], "dtype": "float32"}, {"name": "StatefulPartitionedCall/asl_resnet50_improved_1/resnet50_1/conv5_block1_0_conv_1/Squeeze", "shape": [2048], "dtype": "float32"}, {"name": "StatefulPartitionedCall/asl_resnet50_improved_1/resnet50_1/conv5_block1_0_bn_1/batchnorm/mul", "shape": [1, 1, 1, 2048], "dtype": "float32"}, {"name": "StatefulPartitionedCall/asl_resnet50_improved_1/resnet50_1/conv5_block1_0_bn_1/batchnorm/sub", "shape": [1, 1, 1, 2048], "dtype": "float32"}, {"name": "StatefulPartitionedCall/asl_resnet50_improved_1/resnet50_1/conv4_block1_0_conv_1/convolution/ReadVariableOp", "shape": [1, 1, 512, 1024], "dtype": "float32"}, {"name": "StatefulPartitionedCall/asl_resnet50_improved_1/resnet50_1/conv4_block1_0_conv_1/Squeeze", "shape": [1024], "dtype": "float32"}, {"name": "StatefulPartitionedCall/asl_resnet50_improved_1/resnet50_1/conv4_block1_0_bn_1/batchnorm/mul", "shape": [1, 1, 1, 1024], "dtype": "float32"}, {"name": "StatefulPartitionedCall/asl_resnet50_improved_1/resnet50_1/conv4_block1_0_bn_1/batchnorm/sub", "shape": [1, 1, 1, 1024], "dtype": "float32"}, {"name": "StatefulPartitionedCall/asl_resnet50_improved_1/resnet50_1/conv3_block1_0_conv_1/convolution/ReadVariableOp", "shape": [1, 1, 256, 512], "dtype": "float32"}, {"name": "StatefulPartitionedCall/asl_resnet50_improved_1/resnet50_1/conv3_block1_0_conv_1/Squeeze", "shape": [512], "dtype": "float32"}, {"name": "StatefulPartitionedCall/asl_resnet50_improved_1/resnet50_1/conv3_block1_0_bn_1/batchnorm/mul", "shape": [1, 1, 1, 512], "dtype": "float32"}, {"name": "StatefulPartitionedCall/asl_resnet50_improved_1/resnet50_1/conv3_block1_0_bn_1/batchnorm/sub", "shape": [1, 1, 1, 512], "dtype": "float32"}, {"name": "StatefulPartitionedCall/asl_resnet50_improved_1/resnet50_1/conv2_block1_0_conv_1/convolution/ReadVariableOp", "shape": [1, 1, 64, 256], "dtype": "float32"}, {"name": "StatefulPartitionedCall/asl_resnet50_improved_1/resnet50_1/conv2_block1_0_conv_1/Squeeze", "shape": [256], "dtype": "float32"}, {"name": "StatefulPartitionedCall/asl_resnet50_improved_1/resnet50_1/conv2_block1_0_bn_1/batchnorm/mul", "shape": [1, 1, 1, 256], "dtype": "float32"}, {"name": "StatefulPartitionedCall/asl_resnet50_improved_1/resnet50_1/conv2_block1_0_bn_1/batchnorm/sub", "shape": [1, 1, 1, 256], "dtype": "float32"}, {"name": "StatefulPartitionedCall/asl_resnet50_improved_1/resnet50_1/conv1_pad_1/Const", "shape": [4, 2], "dtype": "int32"}, {"name": "StatefulPartitionedCall/asl_resnet50_improved_1/resnet50_1/conv1_conv_1/convolution/ReadVariableOp", "shape": [7, 7, 3, 64], "dtype": "float32"}, {"name": "StatefulPartitionedCall/asl_resnet50_improved_1/resnet50_1/conv1_conv_1/Squeeze", "shape": [64], "dtype": "float32"}, {"name": "StatefulPartitionedCall/asl_resnet50_improved_1/resnet50_1/conv1_bn_1/batchnorm/mul", "shape": [1, 1, 1, 64], "dtype": "float32"}, {"name": "StatefulPartitionedCall/asl_resnet50_improved_1/resnet50_1/conv1_bn_1/batchnorm/sub", "shape": [1, 1, 1, 64], "dtype": "float32"}, {"name": "StatefulPartitionedCall/asl_resnet50_improved_1/resnet50_1/pool1_pad_1/Const", "shape": [4, 2], "dtype": "int32"}, {"name": "StatefulPartitionedCall/asl_resnet50_improved_1/resnet50_1/conv2_block1_1_conv_1/convolution/ReadVariableOp", "shape": [1, 1, 64, 64], "dtype": "float32"}, {"name": "StatefulPartitionedCall/asl_resnet50_improved_1/resnet50_1/conv2_block1_1_conv_1/Squeeze", "shape": [64], "dtype": "float32"}, {"name": "StatefulPartitionedCall/asl_resnet50_improved_1/resnet50_1/conv2_block1_1_bn_1/batchnorm/mul", "shape": [1, 1, 1, 64], "dtype": "float32"}, {"name": "StatefulPartitionedCall/asl_resnet50_improved_1/resnet50_1/conv2_block1_1_bn_1/batchnorm/sub", "shape": [1, 1, 1, 64], "dtype": "float32"}, {"name": "StatefulPartitionedCall/asl_resnet50_improved_1/resnet50_1/conv2_block1_2_conv_1/convolution/ReadVariableOp", "shape": [3, 3, 64, 64], "dtype": "float32"}, {"name": "StatefulPartitionedCall/asl_resnet50_improved_1/resnet50_1/conv2_block1_2_conv_1/Squeeze", "shape": [64], "dtype": "float32"}, {"name": "StatefulPartitionedCall/asl_resnet50_improved_1/resnet50_1/conv2_block1_2_bn_1/batchnorm/mul", "shape": [1, 1, 1, 64], "dtype": "float32"}, {"name": "StatefulPartitionedCall/asl_resnet50_improved_1/resnet50_1/conv2_block1_2_bn_1/batchnorm/sub", "shape": [1, 1, 1, 64], "dtype": "float32"}, {"name": "StatefulPartitionedCall/asl_resnet50_improved_1/resnet50_1/conv2_block1_3_conv_1/convolution/ReadVariableOp", "shape": [1, 1, 64, 256], "dtype": "float32"}, {"name": "StatefulPartitionedCall/asl_resnet50_improved_1/resnet50_1/conv2_block1_3_conv_1/Squeeze", "shape": [256], "dtype": "float32"}, {"name": "StatefulPartitionedCall/asl_resnet50_improved_1/resnet50_1/conv2_block1_3_bn_1/batchnorm/mul", "shape": [1, 1, 1, 256], "dtype": "float32"}, {"name": "StatefulPartitionedCall/asl_resnet50_improved_1/resnet50_1/conv2_block1_3_bn_1/batchnorm/sub", "shape": [1, 1, 1, 256], "dtype": "float32"}, {"name": "StatefulPartitionedCall/asl_resnet50_improved_1/resnet50_1/conv2_block2_1_conv_1/convolution/ReadVariableOp", "shape": [1, 1, 256, 64], "dtype": "float32"}, {"name": "StatefulPartitionedCall/asl_resnet50_improved_1/resnet50_1/conv2_block2_1_conv_1/Squeeze", "shape": [64], "dtype": "float32"}, {"name": "StatefulPartitionedCall/asl_resnet50_improved_1/resnet50_1/conv2_block2_1_bn_1/batchnorm/mul", "shape": [1, 1, 1, 64], "dtype": "float32"}, {"name": "StatefulPartitionedCall/asl_resnet50_improved_1/resnet50_1/conv2_block2_1_bn_1/batchnorm/sub", "shape": [1, 1, 1, 64], "dtype": "float32"}, {"name": "StatefulPartitionedCall/asl_resnet50_improved_1/resnet50_1/conv2_block2_2_conv_1/convolution/ReadVariableOp", "shape": [3, 3, 64, 64], "dtype": "float32"}, {"name": "StatefulPartitionedCall/asl_resnet50_improved_1/resnet50_1/conv2_block2_2_conv_1/Squeeze", "shape": [64], "dtype": "float32"}, {"name": "StatefulPartitionedCall/asl_resnet50_improved_1/resnet50_1/conv2_block2_2_bn_1/batchnorm/mul", "shape": [1, 1, 1, 64], "dtype": "float32"}, {"name": "StatefulPartitionedCall/asl_resnet50_improved_1/resnet50_1/conv2_block2_2_bn_1/batchnorm/sub", "shape": [1, 1, 1, 64], "dtype": "float32"}, {"name": "StatefulPartitionedCall/asl_resnet50_improved_1/resnet50_1/conv2_block2_3_conv_1/convolution/ReadVariableOp", "shape": [1, 1, 64, 256], "dtype": "float32"}, {"name": "StatefulPartitionedCall/asl_resnet50_improved_1/resnet50_1/conv2_block2_3_conv_1/Squeeze", "shape": [256], "dtype": "float32"}, {"name": "StatefulPartitionedCall/asl_resnet50_improved_1/resnet50_1/conv2_block2_3_bn_1/batchnorm/mul", "shape": [1, 1, 1, 256], "dtype": "float32"}, {"name": "StatefulPartitionedCall/asl_resnet50_improved_1/resnet50_1/conv2_block2_3_bn_1/batchnorm/sub", "shape": [1, 1, 1, 256], "dtype": "float32"}, {"name": "StatefulPartitionedCall/asl_resnet50_improved_1/resnet50_1/conv2_block3_1_conv_1/convolution/ReadVariableOp", "shape": [1, 1, 256, 64], "dtype": "float32"}, {"name": "StatefulPartitionedCall/asl_resnet50_improved_1/resnet50_1/conv2_block3_1_conv_1/Squeeze", "shape": [64], "dtype": "float32"}, {"name": "StatefulPartitionedCall/asl_resnet50_improved_1/resnet50_1/conv2_block3_1_bn_1/batchnorm/mul", "shape": [1, 1, 1, 64], "dtype": "float32"}, {"name": "StatefulPartitionedCall/asl_resnet50_improved_1/resnet50_1/conv2_block3_1_bn_1/batchnorm/sub", "shape": [1, 1, 1, 64], "dtype": "float32"}, {"name": "StatefulPartitionedCall/asl_resnet50_improved_1/resnet50_1/conv2_block3_2_conv_1/convolution/ReadVariableOp", "shape": [3, 3, 64, 64], "dtype": "float32"}, {"name": "StatefulPartitionedCall/asl_resnet50_improved_1/resnet50_1/conv2_block3_2_conv_1/Squeeze", "shape": [64], "dtype": "float32"}, {"name": "StatefulPartitionedCall/asl_resnet50_improved_1/resnet50_1/conv2_block3_2_bn_1/batchnorm/mul", "shape": [1, 1, 1, 64], "dtype": "float32"}, {"name": "StatefulPartitionedCall/asl_resnet50_improved_1/resnet50_1/conv2_block3_2_bn_1/batchnorm/sub", "shape": [1, 1, 1, 64], "dtype": "float32"}, {"name": "StatefulPartitionedCall/asl_resnet50_improved_1/resnet50_1/conv2_block3_3_conv_1/convolution/ReadVariableOp", "shape": [1, 1, 64, 256], "dtype": "float32"}, {"name": "StatefulPartitionedCall/asl_resnet50_improved_1/resnet50_1/conv2_block3_3_conv_1/Squeeze", "shape": [256], "dtype": "float32"}, {"name": "StatefulPartitionedCall/asl_resnet50_improved_1/resnet50_1/conv2_block3_3_bn_1/batchnorm/mul", "shape": [1, 1, 1, 256], "dtype": "float32"}, {"name": "StatefulPartitionedCall/asl_resnet50_improved_1/resnet50_1/conv2_block3_3_bn_1/batchnorm/sub", "shape": [1, 1, 1, 256], "dtype": "float32"}, {"name": "StatefulPartitionedCall/asl_resnet50_improved_1/resnet50_1/conv3_block1_1_conv_1/convolution/ReadVariableOp", "shape": [1, 1, 256, 128], "dtype": "float32"}, {"name": "StatefulPartitionedCall/asl_resnet50_improved_1/resnet50_1/conv3_block1_1_conv_1/Squeeze", "shape": [128], "dtype": "float32"}, {"name": "StatefulPartitionedCall/asl_resnet50_improved_1/resnet50_1/conv3_block1_1_bn_1/batchnorm/mul", "shape": [1, 1, 1, 128], "dtype": "float32"}, {"name": "StatefulPartitionedCall/asl_resnet50_improved_1/resnet50_1/conv3_block1_1_bn_1/batchnorm/sub", "shape": [1, 1, 1, 128], "dtype": "float32"}, {"name": "StatefulPartitionedCall/asl_resnet50_improved_1/resnet50_1/conv3_block1_2_conv_1/convolution/ReadVariableOp", "shape": [3, 3, 128, 128], "dtype": "float32"}, {"name": "StatefulPartitionedCall/asl_resnet50_improved_1/resnet50_1/conv3_block1_2_conv_1/Squeeze", "shape": [128], "dtype": "float32"}, {"name": "StatefulPartitionedCall/asl_resnet50_improved_1/resnet50_1/conv3_block1_2_bn_1/batchnorm/mul", "shape": [1, 1, 1, 128], "dtype": "float32"}, {"name": "StatefulPartitionedCall/asl_resnet50_improved_1/resnet50_1/conv3_block1_2_bn_1/batchnorm/sub", "shape": [1, 1, 1, 128], "dtype": "float32"}, {"name": "StatefulPartitionedCall/asl_resnet50_improved_1/resnet50_1/conv3_block1_3_conv_1/convolution/ReadVariableOp", "shape": [1, 1, 128, 512], "dtype": "float32"}, {"name": "StatefulPartitionedCall/asl_resnet50_improved_1/resnet50_1/conv3_block1_3_conv_1/Squeeze", "shape": [512], "dtype": "float32"}, {"name": "StatefulPartitionedCall/asl_resnet50_improved_1/resnet50_1/conv3_block1_3_bn_1/batchnorm/mul", "shape": [1, 1, 1, 512], "dtype": "float32"}, {"name": "StatefulPartitionedCall/asl_resnet50_improved_1/resnet50_1/conv3_block1_3_bn_1/batchnorm/sub", "shape": [1, 1, 1, 512], "dtype": "float32"}, {"name": "StatefulPartitionedCall/asl_resnet50_improved_1/resnet50_1/conv3_block2_1_conv_1/convolution/ReadVariableOp", "shape": [1, 1, 512, 128], "dtype": "float32"}, {"name": "StatefulPartitionedCall/asl_resnet50_improved_1/resnet50_1/conv3_block2_1_conv_1/Squeeze", "shape": [128], "dtype": "float32"}, {"name": "StatefulPartitionedCall/asl_resnet50_improved_1/resnet50_1/conv3_block2_1_bn_1/batchnorm/mul", "shape": [1, 1, 1, 128], "dtype": "float32"}, {"name": "StatefulPartitionedCall/asl_resnet50_improved_1/resnet50_1/conv3_block2_1_bn_1/batchnorm/sub", "shape": [1, 1, 1, 128], "dtype": "float32"}, {"name": "StatefulPartitionedCall/asl_resnet50_improved_1/resnet50_1/conv3_block2_2_conv_1/convolution/ReadVariableOp", "shape": [3, 3, 128, 128], "dtype": "float32"}, {"name": "StatefulPartitionedCall/asl_resnet50_improved_1/resnet50_1/conv3_block2_2_conv_1/Squeeze", "shape": [128], "dtype": "float32"}, {"name": "StatefulPartitionedCall/asl_resnet50_improved_1/resnet50_1/conv3_block2_2_bn_1/batchnorm/mul", "shape": [1, 1, 1, 128], "dtype": "float32"}, {"name": "StatefulPartitionedCall/asl_resnet50_improved_1/resnet50_1/conv3_block2_2_bn_1/batchnorm/sub", "shape": [1, 1, 1, 128], "dtype": "float32"}, {"name": "StatefulPartitionedCall/asl_resnet50_improved_1/resnet50_1/conv3_block2_3_conv_1/convolution/ReadVariableOp", "shape": [1, 1, 128, 512], "dtype": "float32"}, {"name": "StatefulPartitionedCall/asl_resnet50_improved_1/resnet50_1/conv3_block2_3_conv_1/Squeeze", "shape": [512], "dtype": "float32"}, {"name": "StatefulPartitionedCall/asl_resnet50_improved_1/resnet50_1/conv3_block2_3_bn_1/batchnorm/mul", "shape": [1, 1, 1, 512], "dtype": "float32"}, {"name": "StatefulPartitionedCall/asl_resnet50_improved_1/resnet50_1/conv3_block2_3_bn_1/batchnorm/sub", "shape": [1, 1, 1, 512], "dtype": "float32"}, {"name": "StatefulPartitionedCall/asl_resnet50_improved_1/resnet50_1/conv3_block3_1_conv_1/convolution/ReadVariableOp", "shape": [1, 1, 512, 128], "dtype": "float32"}, {"name": "StatefulPartitionedCall/asl_resnet50_improved_1/resnet50_1/conv3_block3_1_conv_1/Squeeze", "shape": [128], "dtype": "float32"}, {"name": "StatefulPartitionedCall/asl_resnet50_improved_1/resnet50_1/conv3_block3_1_bn_1/batchnorm/mul", "shape": [1, 1, 1, 128], "dtype": "float32"}, {"name": "StatefulPartitionedCall/asl_resnet50_improved_1/resnet50_1/conv3_block3_1_bn_1/batchnorm/sub", "shape": [1, 1, 1, 128], "dtype": "float32"}, {"name": "StatefulPartitionedCall/asl_resnet50_improved_1/resnet50_1/conv3_block3_2_conv_1/convolution/ReadVariableOp", "shape": [3, 3, 128, 128], "dtype": "float32"}, {"name": "StatefulPartitionedCall/asl_resnet50_improved_1/resnet50_1/conv3_block3_2_conv_1/Squeeze", "shape": [128], "dtype": "float32"}, {"name": "StatefulPartitionedCall/asl_resnet50_improved_1/resnet50_1/conv3_block3_2_bn_1/batchnorm/mul", "shape": [1, 1, 1, 128], "dtype": "float32"}, {"name": "StatefulPartitionedCall/asl_resnet50_improved_1/resnet50_1/conv3_block3_2_bn_1/batchnorm/sub", "shape": [1, 1, 1, 128], "dtype": "float32"}, {"name": "StatefulPartitionedCall/asl_resnet50_improved_1/resnet50_1/conv3_block3_3_conv_1/convolution/ReadVariableOp", "shape": [1, 1, 128, 512], "dtype": "float32"}, {"name": "StatefulPartitionedCall/asl_resnet50_improved_1/resnet50_1/conv3_block3_3_conv_1/Squeeze", "shape": [512], "dtype": "float32"}, {"name": "StatefulPartitionedCall/asl_resnet50_improved_1/resnet50_1/conv3_block3_3_bn_1/batchnorm/mul", "shape": [1, 1, 1, 512], "dtype": "float32"}, {"name": "StatefulPartitionedCall/asl_resnet50_improved_1/resnet50_1/conv3_block3_3_bn_1/batchnorm/sub", "shape": [1, 1, 1, 512], "dtype": "float32"}, {"name": "StatefulPartitionedCall/asl_resnet50_improved_1/resnet50_1/conv3_block4_1_conv_1/convolution/ReadVariableOp", "shape": [1, 1, 512, 128], "dtype": "float32"}, {"name": "StatefulPartitionedCall/asl_resnet50_improved_1/resnet50_1/conv3_block4_1_conv_1/Squeeze", "shape": [128], "dtype": "float32"}, {"name": "StatefulPartitionedCall/asl_resnet50_improved_1/resnet50_1/conv3_block4_1_bn_1/batchnorm/mul", "shape": [1, 1, 1, 128], "dtype": "float32"}, {"name": "StatefulPartitionedCall/asl_resnet50_improved_1/resnet50_1/conv3_block4_1_bn_1/batchnorm/sub", "shape": [1, 1, 1, 128], "dtype": "float32"}, {"name": "StatefulPartitionedCall/asl_resnet50_improved_1/resnet50_1/conv3_block4_2_conv_1/convolution/ReadVariableOp", "shape": [3, 3, 128, 128], "dtype": "float32"}, {"name": "StatefulPartitionedCall/asl_resnet50_improved_1/resnet50_1/conv3_block4_2_conv_1/Squeeze", "shape": [128], "dtype": "float32"}, {"name": "StatefulPartitionedCall/asl_resnet50_improved_1/resnet50_1/conv3_block4_2_bn_1/batchnorm/mul", "shape": [1, 1, 1, 128], "dtype": "float32"}, {"name": "StatefulPartitionedCall/asl_resnet50_improved_1/resnet50_1/conv3_block4_2_bn_1/batchnorm/sub", "shape": [1, 1, 1, 128], "dtype": "float32"}, {"name": "StatefulPartitionedCall/asl_resnet50_improved_1/resnet50_1/conv3_block4_3_conv_1/convolution/ReadVariableOp", "shape": [1, 1, 128, 512], "dtype": "float32"}, {"name": "StatefulPartitionedCall/asl_resnet50_improved_1/resnet50_1/conv3_block4_3_conv_1/Squeeze", "shape": [512], "dtype": "float32"}, {"name": "StatefulPartitionedCall/asl_resnet50_improved_1/resnet50_1/conv3_block4_3_bn_1/batchnorm/mul", "shape": [1, 1, 1, 512], "dtype": "float32"}, {"name": "StatefulPartitionedCall/asl_resnet50_improved_1/resnet50_1/conv3_block4_3_bn_1/batchnorm/sub", "shape": [1, 1, 1, 512], "dtype": "float32"}, {"name": "StatefulPartitionedCall/asl_resnet50_improved_1/resnet50_1/conv4_block1_1_conv_1/convolution/ReadVariableOp", "shape": [1, 1, 512, 256], "dtype": "float32"}, {"name": "StatefulPartitionedCall/asl_resnet50_improved_1/resnet50_1/conv4_block1_1_conv_1/Squeeze", "shape": [256], "dtype": "float32"}, {"name": "StatefulPartitionedCall/asl_resnet50_improved_1/resnet50_1/conv4_block1_1_bn_1/batchnorm/mul", "shape": [1, 1, 1, 256], "dtype": "float32"}, {"name": "StatefulPartitionedCall/asl_resnet50_improved_1/resnet50_1/conv4_block1_1_bn_1/batchnorm/sub", "shape": [1, 1, 1, 256], "dtype": "float32"}, {"name": "StatefulPartitionedCall/asl_resnet50_improved_1/resnet50_1/conv4_block1_2_conv_1/convolution/ReadVariableOp", "shape": [3, 3, 256, 256], "dtype": "float32"}, {"name": "StatefulPartitionedCall/asl_resnet50_improved_1/resnet50_1/conv4_block1_2_conv_1/Squeeze", "shape": [256], "dtype": "float32"}, {"name": "StatefulPartitionedCall/asl_resnet50_improved_1/resnet50_1/conv4_block1_2_bn_1/batchnorm/mul", "shape": [1, 1, 1, 256], "dtype": "float32"}, {"name": "StatefulPartitionedCall/asl_resnet50_improved_1/resnet50_1/conv4_block1_2_bn_1/batchnorm/sub", "shape": [1, 1, 1, 256], "dtype": "float32"}, {"name": "StatefulPartitionedCall/asl_resnet50_improved_1/resnet50_1/conv4_block1_3_conv_1/convolution/ReadVariableOp", "shape": [1, 1, 256, 1024], "dtype": "float32"}, {"name": "StatefulPartitionedCall/asl_resnet50_improved_1/resnet50_1/conv4_block1_3_conv_1/Squeeze", "shape": [1024], "dtype": "float32"}, {"name": "StatefulPartitionedCall/asl_resnet50_improved_1/resnet50_1/conv4_block1_3_bn_1/batchnorm/mul", "shape": [1, 1, 1, 1024], "dtype": "float32"}, {"name": "StatefulPartitionedCall/asl_resnet50_improved_1/resnet50_1/conv4_block1_3_bn_1/batchnorm/sub", "shape": [1, 1, 1, 1024], "dtype": "float32"}, {"name": "StatefulPartitionedCall/asl_resnet50_improved_1/resnet50_1/conv4_block2_1_conv_1/convolution/ReadVariableOp", "shape": [1, 1, 1024, 256], "dtype": "float32"}, {"name": "StatefulPartitionedCall/asl_resnet50_improved_1/resnet50_1/conv4_block2_1_conv_1/Squeeze", "shape": [256], "dtype": "float32"}, {"name": "StatefulPartitionedCall/asl_resnet50_improved_1/resnet50_1/conv4_block2_1_bn_1/batchnorm/mul", "shape": [1, 1, 1, 256], "dtype": "float32"}, {"name": "StatefulPartitionedCall/asl_resnet50_improved_1/resnet50_1/conv4_block2_1_bn_1/batchnorm/sub", "shape": [1, 1, 1, 256], "dtype": "float32"}, {"name": "StatefulPartitionedCall/asl_resnet50_improved_1/resnet50_1/conv4_block2_2_conv_1/convolution/ReadVariableOp", "shape": [3, 3, 256, 256], "dtype": "float32"}, {"name": "StatefulPartitionedCall/asl_resnet50_improved_1/resnet50_1/conv4_block2_2_conv_1/Squeeze", "shape": [256], "dtype": "float32"}, {"name": "StatefulPartitionedCall/asl_resnet50_improved_1/resnet50_1/conv4_block2_2_bn_1/batchnorm/mul", "shape": [1, 1, 1, 256], "dtype": "float32"}, {"name": "StatefulPartitionedCall/asl_resnet50_improved_1/resnet50_1/conv4_block2_2_bn_1/batchnorm/sub", "shape": [1, 1, 1, 256], "dtype": "float32"}, {"name": "StatefulPartitionedCall/asl_resnet50_improved_1/resnet50_1/conv4_block2_3_conv_1/convolution/ReadVariableOp", "shape": [1, 1, 256, 1024], "dtype": "float32"}, {"name": "StatefulPartitionedCall/asl_resnet50_improved_1/resnet50_1/conv4_block2_3_conv_1/Squeeze", "shape": [1024], "dtype": "float32"}, {"name": "StatefulPartitionedCall/asl_resnet50_improved_1/resnet50_1/conv4_block2_3_bn_1/batchnorm/mul", "shape": [1, 1, 1, 1024], "dtype": "float32"}, {"name": "StatefulPartitionedCall/asl_resnet50_improved_1/resnet50_1/conv4_block2_3_bn_1/batchnorm/sub", "shape": [1, 1, 1, 1024], "dtype": "float32"}, {"name": "StatefulPartitionedCall/asl_resnet50_improved_1/resnet50_1/conv4_block3_1_conv_1/convolution/ReadVariableOp", "shape": [1, 1, 1024, 256], "dtype": "float32"}, {"name": "StatefulPartitionedCall/asl_resnet50_improved_1/resnet50_1/conv4_block3_1_conv_1/Squeeze", "shape": [256], "dtype": "float32"}, {"name": "StatefulPartitionedCall/asl_resnet50_improved_1/resnet50_1/conv4_block3_1_bn_1/batchnorm/mul", "shape": [1, 1, 1, 256], "dtype": "float32"}, {"name": "StatefulPartitionedCall/asl_resnet50_improved_1/resnet50_1/conv4_block3_1_bn_1/batchnorm/sub", "shape": [1, 1, 1, 256], "dtype": "float32"}, {"name": "StatefulPartitionedCall/asl_resnet50_improved_1/resnet50_1/conv4_block3_2_conv_1/convolution/ReadVariableOp", "shape": [3, 3, 256, 256], "dtype": "float32"}, {"name": "StatefulPartitionedCall/asl_resnet50_improved_1/resnet50_1/conv4_block3_2_conv_1/Squeeze", "shape": [256], "dtype": "float32"}, {"name": "StatefulPartitionedCall/asl_resnet50_improved_1/resnet50_1/conv4_block3_2_bn_1/batchnorm/mul", "shape": [1, 1, 1, 256], "dtype": "float32"}, {"name": "StatefulPartitionedCall/asl_resnet50_improved_1/resnet50_1/conv4_block3_2_bn_1/batchnorm/sub", "shape": [1, 1, 1, 256], "dtype": "float32"}, {"name": "StatefulPartitionedCall/asl_resnet50_improved_1/resnet50_1/conv4_block3_3_conv_1/convolution/ReadVariableOp", "shape": [1, 1, 256, 1024], "dtype": "float32"}, {"name": "StatefulPartitionedCall/asl_resnet50_improved_1/resnet50_1/conv4_block3_3_conv_1/Squeeze", "shape": [1024], "dtype": "float32"}, {"name": "StatefulPartitionedCall/asl_resnet50_improved_1/resnet50_1/conv4_block3_3_bn_1/batchnorm/mul", "shape": [1, 1, 1, 1024], "dtype": "float32"}, {"name": "StatefulPartitionedCall/asl_resnet50_improved_1/resnet50_1/conv4_block3_3_bn_1/batchnorm/sub", "shape": [1, 1, 1, 1024], "dtype": "float32"}, {"name": "StatefulPartitionedCall/asl_resnet50_improved_1/resnet50_1/conv4_block4_1_conv_1/convolution/ReadVariableOp", "shape": [1, 1, 1024, 256], "dtype": "float32"}, {"name": "StatefulPartitionedCall/asl_resnet50_improved_1/resnet50_1/conv4_block4_1_conv_1/Squeeze", "shape": [256], "dtype": "float32"}, {"name": "StatefulPartitionedCall/asl_resnet50_improved_1/resnet50_1/conv4_block4_1_bn_1/batchnorm/mul", "shape": [1, 1, 1, 256], "dtype": "float32"}, {"name": "StatefulPartitionedCall/asl_resnet50_improved_1/resnet50_1/conv4_block4_1_bn_1/batchnorm/sub", "shape": [1, 1, 1, 256], "dtype": "float32"}, {"name": "StatefulPartitionedCall/asl_resnet50_improved_1/resnet50_1/conv4_block4_2_conv_1/convolution/ReadVariableOp", "shape": [3, 3, 256, 256], "dtype": "float32"}, {"name": "StatefulPartitionedCall/asl_resnet50_improved_1/resnet50_1/conv4_block4_2_conv_1/Squeeze", "shape": [256], "dtype": "float32"}, {"name": "StatefulPartitionedCall/asl_resnet50_improved_1/resnet50_1/conv4_block4_2_bn_1/batchnorm/mul", "shape": [1, 1, 1, 256], "dtype": "float32"}, {"name": "StatefulPartitionedCall/asl_resnet50_improved_1/resnet50_1/conv4_block4_2_bn_1/batchnorm/sub", "shape": [1, 1, 1, 256], "dtype": "float32"}, {"name": "StatefulPartitionedCall/asl_resnet50_improved_1/resnet50_1/conv4_block4_3_conv_1/convolution/ReadVariableOp", "shape": [1, 1, 256, 1024], "dtype": "float32"}, {"name": "StatefulPartitionedCall/asl_resnet50_improved_1/resnet50_1/conv4_block4_3_conv_1/Squeeze", "shape": [1024], "dtype": "float32"}, {"name": "StatefulPartitionedCall/asl_resnet50_improved_1/resnet50_1/conv4_block4_3_bn_1/batchnorm/mul", "shape": [1, 1, 1, 1024], "dtype": "float32"}, {"name": "StatefulPartitionedCall/asl_resnet50_improved_1/resnet50_1/conv4_block4_3_bn_1/batchnorm/sub", "shape": [1, 1, 1, 1024], "dtype": "float32"}, {"name": "StatefulPartitionedCall/asl_resnet50_improved_1/resnet50_1/conv4_block5_1_conv_1/convolution/ReadVariableOp", "shape": [1, 1, 1024, 256], "dtype": "float32"}, {"name": "StatefulPartitionedCall/asl_resnet50_improved_1/resnet50_1/conv4_block5_1_conv_1/Squeeze", "shape": [256], "dtype": "float32"}, {"name": "StatefulPartitionedCall/asl_resnet50_improved_1/resnet50_1/conv4_block5_1_bn_1/batchnorm/mul", "shape": [1, 1, 1, 256], "dtype": "float32"}, {"name": "StatefulPartitionedCall/asl_resnet50_improved_1/resnet50_1/conv4_block5_1_bn_1/batchnorm/sub", "shape": [1, 1, 1, 256], "dtype": "float32"}, {"name": "StatefulPartitionedCall/asl_resnet50_improved_1/resnet50_1/conv4_block5_2_conv_1/convolution/ReadVariableOp", "shape": [3, 3, 256, 256], "dtype": "float32"}, {"name": "StatefulPartitionedCall/asl_resnet50_improved_1/resnet50_1/conv4_block5_2_conv_1/Squeeze", "shape": [256], "dtype": "float32"}, {"name": "StatefulPartitionedCall/asl_resnet50_improved_1/resnet50_1/conv4_block5_2_bn_1/batchnorm/mul", "shape": [1, 1, 1, 256], "dtype": "float32"}, {"name": "StatefulPartitionedCall/asl_resnet50_improved_1/resnet50_1/conv4_block5_2_bn_1/batchnorm/sub", "shape": [1, 1, 1, 256], "dtype": "float32"}, {"name": "StatefulPartitionedCall/asl_resnet50_improved_1/resnet50_1/conv4_block5_3_conv_1/convolution/ReadVariableOp", "shape": [1, 1, 256, 1024], "dtype": "float32"}, {"name": "StatefulPartitionedCall/asl_resnet50_improved_1/resnet50_1/conv4_block5_3_conv_1/Squeeze", "shape": [1024], "dtype": "float32"}, {"name": "StatefulPartitionedCall/asl_resnet50_improved_1/resnet50_1/conv4_block5_3_bn_1/batchnorm/mul", "shape": [1, 1, 1, 1024], "dtype": "float32"}, {"name": "StatefulPartitionedCall/asl_resnet50_improved_1/resnet50_1/conv4_block5_3_bn_1/batchnorm/sub", "shape": [1, 1, 1, 1024], "dtype": "float32"}, {"name": "StatefulPartitionedCall/asl_resnet50_improved_1/resnet50_1/conv4_block6_1_conv_1/convolution/ReadVariableOp", "shape": [1, 1, 1024, 256], "dtype": "float32"}, {"name": "StatefulPartitionedCall/asl_resnet50_improved_1/resnet50_1/conv4_block6_1_conv_1/Squeeze", "shape": [256], "dtype": "float32"}, {"name": "StatefulPartitionedCall/asl_resnet50_improved_1/resnet50_1/conv4_block6_1_bn_1/batchnorm/mul", "shape": [1, 1, 1, 256], "dtype": "float32"}, {"name": "StatefulPartitionedCall/asl_resnet50_improved_1/resnet50_1/conv4_block6_1_bn_1/batchnorm/sub", "shape": [1, 1, 1, 256], "dtype": "float32"}, {"name": "StatefulPartitionedCall/asl_resnet50_improved_1/resnet50_1/conv4_block6_2_conv_1/convolution/ReadVariableOp", "shape": [3, 3, 256, 256], "dtype": "float32"}, {"name": "StatefulPartitionedCall/asl_resnet50_improved_1/resnet50_1/conv4_block6_2_conv_1/Squeeze", "shape": [256], "dtype": "float32"}, {"name": "StatefulPartitionedCall/asl_resnet50_improved_1/resnet50_1/conv4_block6_2_bn_1/batchnorm/mul", "shape": [1, 1, 1, 256], "dtype": "float32"}, {"name": "StatefulPartitionedCall/asl_resnet50_improved_1/resnet50_1/conv4_block6_2_bn_1/batchnorm/sub", "shape": [1, 1, 1, 256], "dtype": "float32"}, {"name": "StatefulPartitionedCall/asl_resnet50_improved_1/resnet50_1/conv4_block6_3_conv_1/convolution/ReadVariableOp", "shape": [1, 1, 256, 1024], "dtype": "float32"}, {"name": "StatefulPartitionedCall/asl_resnet50_improved_1/resnet50_1/conv4_block6_3_conv_1/Squeeze", "shape": [1024], "dtype": "float32"}, {"name": "StatefulPartitionedCall/asl_resnet50_improved_1/resnet50_1/conv4_block6_3_bn_1/batchnorm/mul", "shape": [1, 1, 1, 1024], "dtype": "float32"}, {"name": "StatefulPartitionedCall/asl_resnet50_improved_1/resnet50_1/conv4_block6_3_bn_1/batchnorm/sub", "shape": [1, 1, 1, 1024], "dtype": "float32"}, {"name": "StatefulPartitionedCall/asl_resnet50_improved_1/resnet50_1/conv5_block1_1_conv_1/convolution/ReadVariableOp", "shape": [1, 1, 1024, 512], "dtype": "float32"}, {"name": "StatefulPartitionedCall/asl_resnet50_improved_1/resnet50_1/conv5_block1_1_conv_1/Squeeze", "shape": [512], "dtype": "float32"}, {"name": "StatefulPartitionedCall/asl_resnet50_improved_1/resnet50_1/conv5_block1_1_bn_1/batchnorm/mul", "shape": [1, 1, 1, 512], "dtype": "float32"}, {"name": "StatefulPartitionedCall/asl_resnet50_improved_1/resnet50_1/conv5_block1_1_bn_1/batchnorm/sub", "shape": [1, 1, 1, 512], "dtype": "float32"}, {"name": "StatefulPartitionedCall/asl_resnet50_improved_1/resnet50_1/conv5_block1_2_conv_1/convolution/ReadVariableOp", "shape": [3, 3, 512, 512], "dtype": "float32"}, {"name": "StatefulPartitionedCall/asl_resnet50_improved_1/resnet50_1/conv5_block1_2_conv_1/Squeeze", "shape": [512], "dtype": "float32"}, {"name": "StatefulPartitionedCall/asl_resnet50_improved_1/resnet50_1/conv5_block1_2_bn_1/batchnorm/mul", "shape": [1, 1, 1, 512], "dtype": "float32"}, {"name": "StatefulPartitionedCall/asl_resnet50_improved_1/resnet50_1/conv5_block1_2_bn_1/batchnorm/sub", "shape": [1, 1, 1, 512], "dtype": "float32"}, {"name": "StatefulPartitionedCall/asl_resnet50_improved_1/resnet50_1/conv5_block1_3_conv_1/convolution/ReadVariableOp", "shape": [1, 1, 512, 2048], "dtype": "float32"}, {"name": "StatefulPartitionedCall/asl_resnet50_improved_1/resnet50_1/conv5_block1_3_conv_1/Squeeze", "shape": [2048], "dtype": "float32"}, {"name": "StatefulPartitionedCall/asl_resnet50_improved_1/resnet50_1/conv5_block1_3_bn_1/batchnorm/mul", "shape": [1, 1, 1, 2048], "dtype": "float32"}, {"name": "StatefulPartitionedCall/asl_resnet50_improved_1/resnet50_1/conv5_block1_3_bn_1/batchnorm/sub", "shape": [1, 1, 1, 2048], "dtype": "float32"}, {"name": "StatefulPartitionedCall/asl_resnet50_improved_1/resnet50_1/conv5_block2_1_conv_1/convolution/ReadVariableOp", "shape": [1, 1, 2048, 512], "dtype": "float32"}, {"name": "StatefulPartitionedCall/asl_resnet50_improved_1/resnet50_1/conv5_block2_1_conv_1/Squeeze", "shape": [512], "dtype": "float32"}, {"name": "StatefulPartitionedCall/asl_resnet50_improved_1/resnet50_1/conv5_block2_1_bn_1/batchnorm/mul", "shape": [1, 1, 1, 512], "dtype": "float32"}, {"name": "StatefulPartitionedCall/asl_resnet50_improved_1/resnet50_1/conv5_block2_1_bn_1/batchnorm/sub", "shape": [1, 1, 1, 512], "dtype": "float32"}, {"name": "StatefulPartitionedCall/asl_resnet50_improved_1/resnet50_1/conv5_block2_2_conv_1/convolution/ReadVariableOp", "shape": [3, 3, 512, 512], "dtype": "float32"}, {"name": "StatefulPartitionedCall/asl_resnet50_improved_1/resnet50_1/conv5_block2_2_conv_1/Squeeze", "shape": [512], "dtype": "float32"}, {"name": "StatefulPartitionedCall/asl_resnet50_improved_1/resnet50_1/conv5_block2_2_bn_1/batchnorm/mul", "shape": [1, 1, 1, 512], "dtype": "float32"}, {"name": "StatefulPartitionedCall/asl_resnet50_improved_1/resnet50_1/conv5_block2_2_bn_1/batchnorm/sub", "shape": [1, 1, 1, 512], "dtype": "float32"}, {"name": "StatefulPartitionedCall/asl_resnet50_improved_1/resnet50_1/conv5_block2_3_conv_1/convolution/ReadVariableOp", "shape": [1, 1, 512, 2048], "dtype": "float32"}, {"name": "StatefulPartitionedCall/asl_resnet50_improved_1/resnet50_1/conv5_block2_3_conv_1/Squeeze", "shape": [2048], "dtype": "float32"}, {"name": "StatefulPartitionedCall/asl_resnet50_improved_1/resnet50_1/conv5_block2_3_bn_1/batchnorm/mul", "shape": [1, 1, 1, 2048], "dtype": "float32"}, {"name": "StatefulPartitionedCall/asl_resnet50_improved_1/resnet50_1/conv5_block2_3_bn_1/batchnorm/sub", "shape": [1, 1, 1, 2048], "dtype": "float32"}, {"name": "StatefulPartitionedCall/asl_resnet50_improved_1/resnet50_1/conv5_block3_1_conv_1/convolution/ReadVariableOp", "shape": [1, 1, 2048, 512], "dtype": "float32"}, {"name": "StatefulPartitionedCall/asl_resnet50_improved_1/resnet50_1/conv5_block3_1_conv_1/Squeeze", "shape": [512], "dtype": "float32"}, {"name": "StatefulPartitionedCall/asl_resnet50_improved_1/resnet50_1/conv5_block3_1_bn_1/batchnorm/mul", "shape": [1, 1, 1, 512], "dtype": "float32"}, {"name": "StatefulPartitionedCall/asl_resnet50_improved_1/resnet50_1/conv5_block3_1_bn_1/batchnorm/sub", "shape": [1, 1, 1, 512], "dtype": "float32"}, {"name": "StatefulPartitionedCall/asl_resnet50_improved_1/resnet50_1/conv5_block3_2_conv_1/convolution/ReadVariableOp", "shape": [3, 3, 512, 512], "dtype": "float32"}, {"name": "StatefulPartitionedCall/asl_resnet50_improved_1/resnet50_1/conv5_block3_2_conv_1/Squeeze", "shape": [512], "dtype": "float32"}, {"name": "StatefulPartitionedCall/asl_resnet50_improved_1/resnet50_1/conv5_block3_2_bn_1/batchnorm/mul", "shape": [1, 1, 1, 512], "dtype": "float32"}, {"name": "StatefulPartitionedCall/asl_resnet50_improved_1/resnet50_1/conv5_block3_2_bn_1/batchnorm/sub", "shape": [1, 1, 1, 512], "dtype": "float32"}, {"name": "StatefulPartitionedCall/asl_resnet50_improved_1/resnet50_1/conv5_block3_3_conv_1/convolution/ReadVariableOp", "shape": [1, 1, 512, 2048], "dtype": "float32"}, {"name": "StatefulPartitionedCall/asl_resnet50_improved_1/resnet50_1/conv5_block3_3_conv_1/Squeeze", "shape": [2048], "dtype": "float32"}, {"name": "StatefulPartitionedCall/asl_resnet50_improved_1/resnet50_1/conv5_block3_3_bn_1/batchnorm/mul", "shape": [1, 1, 1, 2048], "dtype": "float32"}, {"name": "StatefulPartitionedCall/asl_resnet50_improved_1/resnet50_1/conv5_block3_3_bn_1/batchnorm/sub", "shape": [1, 1, 1, 2048], "dtype": "float32"}, {"name": "StatefulPartitionedCall/asl_resnet50_improved_1/global_average_pooling2d_1/Mean/reduction_indices", "shape": [2], "dtype": "int32"}, {"name": "StatefulPartitionedCall/asl_resnet50_improved_1/dense_1/Cast/ReadVariableOp", "shape": [2048, 128], "dtype": "float32"}, {"name": "StatefulPartitionedCall/asl_resnet50_improved_1/dense_1/BiasAdd/ReadVariableOp", "shape": [128], "dtype": "float32"}, {"name": "StatefulPartitionedCall/asl_resnet50_improved_1/dense_1_2/Cast/ReadVariableOp", "shape": [128, 29], "dtype": "float32"}, {"name": "StatefulPartitionedCall/asl_resnet50_improved_1/dense_1_2/BiasAdd/ReadVariableOp", "shape": [29], "dtype": "float32"}]}]}