{"format": "layers-model", "generatedBy": "manual-converter-quantized", "convertedBy": null, "modelTopology": {"class_name": "Functional", "config": {"name": "asl_resnet50", "trainable": true, "layers": [{"module": "keras.layers", "class_name": "InputLayer", "config": {"batch_shape": [null, 96, 96, 3], "dtype": "float32", "sparse": false, "ragged": false, "name": "input_layer_2", "optional": false}, "registered_name": null, "name": "input_layer_2", "inbound_nodes": []}, {"module": "keras.src.models.functional", "class_name": "Functional", "config": {"name": "resnet50", "trainable": true, "layers": [{"module": "keras.layers", "class_name": "InputLayer", "config": {"batch_shape": [null, 96, 96, 3], "dtype": "float32", "sparse": false, "ragged": false, "name": "input_layer_1", "optional": false}, "registered_name": null, "name": "input_layer_1", "inbound_nodes": []}, {"module": "keras.layers", "class_name": "ZeroPadding2D", "config": {"name": "conv1_pad", "trainable": false, "dtype": {"module": "keras", "class_name": "DTypePolicy", "config": {"name": "float32"}, "registered_name": null}, "padding": [[3, 3], [3, 3]], "data_format": "channels_last"}, "registered_name": null, "build_config": {"input_shape": [null, 96, 96, 3]}, "name": "conv1_pad", "inbound_nodes": [{"args": [{"class_name": "__keras_tensor__", "config": {"shape": [null, 96, 96, 3], "dtype": "float32", "keras_history": ["input_layer_1", 0, 0]}}], "kwargs": {}}]}, {"module": "keras.layers", "class_name": "Conv2D", "config": {"name": "conv1_conv", "trainable": false, "dtype": {"module": "keras", "class_name": "DTypePolicy", "config": {"name": "float32"}, "registered_name": null}, "filters": 64, "kernel_size": [7, 7], "strides": [2, 2], "padding": "valid", "data_format": "channels_last", "dilation_rate": [1, 1], "groups": 1, "activation": "linear", "use_bias": true, "kernel_initializer": {"module": "keras.initializers", "class_name": "GlorotUniform", "config": {"seed": null}, "registered_name": null}, "bias_initializer": {"module": "keras.initializers", "class_name": "Zeros", "config": {}, "registered_name": null}, "kernel_regularizer": null, "bias_regularizer": null, "activity_regularizer": null, "kernel_constraint": null, "bias_constraint": null}, "registered_name": null, "build_config": {"input_shape": [null, 102, 102, 3]}, "name": "conv1_conv", "inbound_nodes": [{"args": [{"class_name": "__keras_tensor__", "config": {"shape": [null, 102, 102, 3], "dtype": "float32", "keras_history": ["conv1_pad", 0, 0]}}], "kwargs": {}}]}, {"module": "keras.layers", "class_name": "BatchNormalization", "config": {"name": "conv1_bn", "trainable": false, "dtype": {"module": "keras", "class_name": "DTypePolicy", "config": {"name": "float32"}, "registered_name": null}, "axis": 3, "momentum": 0.99, "epsilon": 1.001e-05, "center": true, "scale": true, "beta_initializer": {"module": "keras.initializers", "class_name": "Zeros", "config": {}, "registered_name": null}, "gamma_initializer": {"module": "keras.initializers", "class_name": "Ones", "config": {}, "registered_name": null}, "moving_mean_initializer": {"module": "keras.initializers", "class_name": "Zeros", "config": {}, "registered_name": null}, "moving_variance_initializer": {"module": "keras.initializers", "class_name": "Ones", "config": {}, "registered_name": null}, "beta_regularizer": null, "gamma_regularizer": null, "beta_constraint": null, "gamma_constraint": null, "synchronized": false, "renorm": false, "renorm_clipping": null, "renorm_momentum": 0.99}, "registered_name": null, "build_config": {"input_shape": [null, 48, 48, 64]}, "name": "conv1_bn", "inbound_nodes": [{"args": [{"class_name": "__keras_tensor__", "config": {"shape": [null, 48, 48, 64], "dtype": "float32", "keras_history": ["conv1_conv", 0, 0]}}], "kwargs": {"mask": null}}]}, {"module": "keras.layers", "class_name": "Activation", "config": {"name": "conv1_relu", "trainable": false, "dtype": {"module": "keras", "class_name": "DTypePolicy", "config": {"name": "float32"}, "registered_name": null}, "activation": "relu"}, "registered_name": null, "name": "conv1_relu", "inbound_nodes": [{"args": [{"class_name": "__keras_tensor__", "config": {"shape": [null, 48, 48, 64], "dtype": "float32", "keras_history": ["conv1_bn", 0, 0]}}], "kwargs": {}}]}, {"module": "keras.layers", "class_name": "ZeroPadding2D", "config": {"name": "pool1_pad", "trainable": false, "dtype": {"module": "keras", "class_name": "DTypePolicy", "config": {"name": "float32"}, "registered_name": null}, "padding": [[1, 1], [1, 1]], "data_format": "channels_last"}, "registered_name": null, "build_config": {"input_shape": [null, 48, 48, 64]}, "name": "pool1_pad", "inbound_nodes": [{"args": [{"class_name": "__keras_tensor__", "config": {"shape": [null, 48, 48, 64], "dtype": "float32", "keras_history": ["conv1_relu", 0, 0]}}], "kwargs": {}}]}, {"module": "keras.layers", "class_name": "MaxPooling2D", "config": {"name": "pool1_pool", "trainable": false, "dtype": {"module": "keras", "class_name": "DTypePolicy", "config": {"name": "float32"}, "registered_name": null}, "pool_size": [3, 3], "padding": "valid", "strides": [2, 2], "data_format": "channels_last"}, "registered_name": null, "name": "pool1_pool", "inbound_nodes": [{"args": [{"class_name": "__keras_tensor__", "config": {"shape": [null, 50, 50, 64], "dtype": "float32", "keras_history": ["pool1_pad", 0, 0]}}], "kwargs": {}}]}, {"module": "keras.layers", "class_name": "Conv2D", "config": {"name": "conv2_block1_1_conv", "trainable": false, "dtype": {"module": "keras", "class_name": "DTypePolicy", "config": {"name": "float32"}, "registered_name": null}, "filters": 64, "kernel_size": [1, 1], "strides": [1, 1], "padding": "valid", "data_format": "channels_last", "dilation_rate": [1, 1], "groups": 1, "activation": "linear", "use_bias": true, "kernel_initializer": {"module": "keras.initializers", "class_name": "GlorotUniform", "config": {"seed": null}, "registered_name": null}, "bias_initializer": {"module": "keras.initializers", "class_name": "Zeros", "config": {}, "registered_name": null}, "kernel_regularizer": null, "bias_regularizer": null, "activity_regularizer": null, "kernel_constraint": null, "bias_constraint": null}, "registered_name": null, "build_config": {"input_shape": [null, 24, 24, 64]}, "name": "conv2_block1_1_conv", "inbound_nodes": [{"args": [{"class_name": "__keras_tensor__", "config": {"shape": [null, 24, 24, 64], "dtype": "float32", "keras_history": ["pool1_pool", 0, 0]}}], "kwargs": {}}]}, {"module": "keras.layers", "class_name": "BatchNormalization", "config": {"name": "conv2_block1_1_bn", "trainable": false, "dtype": {"module": "keras", "class_name": "DTypePolicy", "config": {"name": "float32"}, "registered_name": null}, "axis": 3, "momentum": 0.99, "epsilon": 1.001e-05, "center": true, "scale": true, "beta_initializer": {"module": "keras.initializers", "class_name": "Zeros", "config": {}, "registered_name": null}, "gamma_initializer": {"module": "keras.initializers", "class_name": "Ones", "config": {}, "registered_name": null}, "moving_mean_initializer": {"module": "keras.initializers", "class_name": "Zeros", "config": {}, "registered_name": null}, "moving_variance_initializer": {"module": "keras.initializers", "class_name": "Ones", "config": {}, "registered_name": null}, "beta_regularizer": null, "gamma_regularizer": null, "beta_constraint": null, "gamma_constraint": null, "synchronized": false, "renorm": false, "renorm_clipping": null, "renorm_momentum": 0.99}, "registered_name": null, "build_config": {"input_shape": [null, 24, 24, 64]}, "name": "conv2_block1_1_bn", "inbound_nodes": [{"args": [{"class_name": "__keras_tensor__", "config": {"shape": [null, 24, 24, 64], "dtype": "float32", "keras_history": ["conv2_block1_1_conv", 0, 0]}}], "kwargs": {"mask": null}}]}, {"module": "keras.layers", "class_name": "Activation", "config": {"name": "conv2_block1_1_relu", "trainable": false, "dtype": {"module": "keras", "class_name": "DTypePolicy", "config": {"name": "float32"}, "registered_name": null}, "activation": "relu"}, "registered_name": null, "name": "conv2_block1_1_relu", "inbound_nodes": [{"args": [{"class_name": "__keras_tensor__", "config": {"shape": [null, 24, 24, 64], "dtype": "float32", "keras_history": ["conv2_block1_1_bn", 0, 0]}}], "kwargs": {}}]}, {"module": "keras.layers", "class_name": "Conv2D", "config": {"name": "conv2_block1_2_conv", "trainable": false, "dtype": {"module": "keras", "class_name": "DTypePolicy", "config": {"name": "float32"}, "registered_name": null}, "filters": 64, "kernel_size": [3, 3], "strides": [1, 1], "padding": "same", "data_format": "channels_last", "dilation_rate": [1, 1], "groups": 1, "activation": "linear", "use_bias": true, "kernel_initializer": {"module": "keras.initializers", "class_name": "GlorotUniform", "config": {"seed": null}, "registered_name": null}, "bias_initializer": {"module": "keras.initializers", "class_name": "Zeros", "config": {}, "registered_name": null}, "kernel_regularizer": null, "bias_regularizer": null, "activity_regularizer": null, "kernel_constraint": null, "bias_constraint": null}, "registered_name": null, "build_config": {"input_shape": [null, 24, 24, 64]}, "name": "conv2_block1_2_conv", "inbound_nodes": [{"args": [{"class_name": "__keras_tensor__", "config": {"shape": [null, 24, 24, 64], "dtype": "float32", "keras_history": ["conv2_block1_1_relu", 0, 0]}}], "kwargs": {}}]}, {"module": "keras.layers", "class_name": "BatchNormalization", "config": {"name": "conv2_block1_2_bn", "trainable": false, "dtype": {"module": "keras", "class_name": "DTypePolicy", "config": {"name": "float32"}, "registered_name": null}, "axis": 3, "momentum": 0.99, "epsilon": 1.001e-05, "center": true, "scale": true, "beta_initializer": {"module": "keras.initializers", "class_name": "Zeros", "config": {}, "registered_name": null}, "gamma_initializer": {"module": "keras.initializers", "class_name": "Ones", "config": {}, "registered_name": null}, "moving_mean_initializer": {"module": "keras.initializers", "class_name": "Zeros", "config": {}, "registered_name": null}, "moving_variance_initializer": {"module": "keras.initializers", "class_name": "Ones", "config": {}, "registered_name": null}, "beta_regularizer": null, "gamma_regularizer": null, "beta_constraint": null, "gamma_constraint": null, "synchronized": false, "renorm": false, "renorm_clipping": null, "renorm_momentum": 0.99}, "registered_name": null, "build_config": {"input_shape": [null, 24, 24, 64]}, "name": "conv2_block1_2_bn", "inbound_nodes": [{"args": [{"class_name": "__keras_tensor__", "config": {"shape": [null, 24, 24, 64], "dtype": "float32", "keras_history": ["conv2_block1_2_conv", 0, 0]}}], "kwargs": {"mask": null}}]}, {"module": "keras.layers", "class_name": "Activation", "config": {"name": "conv2_block1_2_relu", "trainable": false, "dtype": {"module": "keras", "class_name": "DTypePolicy", "config": {"name": "float32"}, "registered_name": null}, "activation": "relu"}, "registered_name": null, "name": "conv2_block1_2_relu", "inbound_nodes": [{"args": [{"class_name": "__keras_tensor__", "config": {"shape": [null, 24, 24, 64], "dtype": "float32", "keras_history": ["conv2_block1_2_bn", 0, 0]}}], "kwargs": {}}]}, {"module": "keras.layers", "class_name": "Conv2D", "config": {"name": "conv2_block1_0_conv", "trainable": false, "dtype": {"module": "keras", "class_name": "DTypePolicy", "config": {"name": "float32"}, "registered_name": null}, "filters": 256, "kernel_size": [1, 1], "strides": [1, 1], "padding": "valid", "data_format": "channels_last", "dilation_rate": [1, 1], "groups": 1, "activation": "linear", "use_bias": true, "kernel_initializer": {"module": "keras.initializers", "class_name": "GlorotUniform", "config": {"seed": null}, "registered_name": null}, "bias_initializer": {"module": "keras.initializers", "class_name": "Zeros", "config": {}, "registered_name": null}, "kernel_regularizer": null, "bias_regularizer": null, "activity_regularizer": null, "kernel_constraint": null, "bias_constraint": null}, "registered_name": null, "build_config": {"input_shape": [null, 24, 24, 64]}, "name": "conv2_block1_0_conv", "inbound_nodes": [{"args": [{"class_name": "__keras_tensor__", "config": {"shape": [null, 24, 24, 64], "dtype": "float32", "keras_history": ["pool1_pool", 0, 0]}}], "kwargs": {}}]}, {"module": "keras.layers", "class_name": "Conv2D", "config": {"name": "conv2_block1_3_conv", "trainable": false, "dtype": {"module": "keras", "class_name": "DTypePolicy", "config": {"name": "float32"}, "registered_name": null}, "filters": 256, "kernel_size": [1, 1], "strides": [1, 1], "padding": "valid", "data_format": "channels_last", "dilation_rate": [1, 1], "groups": 1, "activation": "linear", "use_bias": true, "kernel_initializer": {"module": "keras.initializers", "class_name": "GlorotUniform", "config": {"seed": null}, "registered_name": null}, "bias_initializer": {"module": "keras.initializers", "class_name": "Zeros", "config": {}, "registered_name": null}, "kernel_regularizer": null, "bias_regularizer": null, "activity_regularizer": null, "kernel_constraint": null, "bias_constraint": null}, "registered_name": null, "build_config": {"input_shape": [null, 24, 24, 64]}, "name": "conv2_block1_3_conv", "inbound_nodes": [{"args": [{"class_name": "__keras_tensor__", "config": {"shape": [null, 24, 24, 64], "dtype": "float32", "keras_history": ["conv2_block1_2_relu", 0, 0]}}], "kwargs": {}}]}, {"module": "keras.layers", "class_name": "BatchNormalization", "config": {"name": "conv2_block1_0_bn", "trainable": false, "dtype": {"module": "keras", "class_name": "DTypePolicy", "config": {"name": "float32"}, "registered_name": null}, "axis": 3, "momentum": 0.99, "epsilon": 1.001e-05, "center": true, "scale": true, "beta_initializer": {"module": "keras.initializers", "class_name": "Zeros", "config": {}, "registered_name": null}, "gamma_initializer": {"module": "keras.initializers", "class_name": "Ones", "config": {}, "registered_name": null}, "moving_mean_initializer": {"module": "keras.initializers", "class_name": "Zeros", "config": {}, "registered_name": null}, "moving_variance_initializer": {"module": "keras.initializers", "class_name": "Ones", "config": {}, "registered_name": null}, "beta_regularizer": null, "gamma_regularizer": null, "beta_constraint": null, "gamma_constraint": null, "synchronized": false, "renorm": false, "renorm_clipping": null, "renorm_momentum": 0.99}, "registered_name": null, "build_config": {"input_shape": [null, 24, 24, 256]}, "name": "conv2_block1_0_bn", "inbound_nodes": [{"args": [{"class_name": "__keras_tensor__", "config": {"shape": [null, 24, 24, 256], "dtype": "float32", "keras_history": ["conv2_block1_0_conv", 0, 0]}}], "kwargs": {"mask": null}}]}, {"module": "keras.layers", "class_name": "BatchNormalization", "config": {"name": "conv2_block1_3_bn", "trainable": false, "dtype": {"module": "keras", "class_name": "DTypePolicy", "config": {"name": "float32"}, "registered_name": null}, "axis": 3, "momentum": 0.99, "epsilon": 1.001e-05, "center": true, "scale": true, "beta_initializer": {"module": "keras.initializers", "class_name": "Zeros", "config": {}, "registered_name": null}, "gamma_initializer": {"module": "keras.initializers", "class_name": "Ones", "config": {}, "registered_name": null}, "moving_mean_initializer": {"module": "keras.initializers", "class_name": "Zeros", "config": {}, "registered_name": null}, "moving_variance_initializer": {"module": "keras.initializers", "class_name": "Ones", "config": {}, "registered_name": null}, "beta_regularizer": null, "gamma_regularizer": null, "beta_constraint": null, "gamma_constraint": null, "synchronized": false, "renorm": false, "renorm_clipping": null, "renorm_momentum": 0.99}, "registered_name": null, "build_config": {"input_shape": [null, 24, 24, 256]}, "name": "conv2_block1_3_bn", "inbound_nodes": [{"args": [{"class_name": "__keras_tensor__", "config": {"shape": [null, 24, 24, 256], "dtype": "float32", "keras_history": ["conv2_block1_3_conv", 0, 0]}}], "kwargs": {"mask": null}}]}, {"module": "keras.layers", "class_name": "Add", "config": {"name": "conv2_block1_add", "trainable": false, "dtype": {"module": "keras", "class_name": "DTypePolicy", "config": {"name": "float32"}, "registered_name": null}}, "registered_name": null, "build_config": {"input_shape": [[null, 24, 24, 256], [null, 24, 24, 256]]}, "name": "conv2_block1_add", "inbound_nodes": [{"args": [[{"class_name": "__keras_tensor__", "config": {"shape": [null, 24, 24, 256], "dtype": "float32", "keras_history": ["conv2_block1_0_bn", 0, 0]}}, {"class_name": "__keras_tensor__", "config": {"shape": [null, 24, 24, 256], "dtype": "float32", "keras_history": ["conv2_block1_3_bn", 0, 0]}}]], "kwargs": {}}]}, {"module": "keras.layers", "class_name": "Activation", "config": {"name": "conv2_block1_out", "trainable": false, "dtype": {"module": "keras", "class_name": "DTypePolicy", "config": {"name": "float32"}, "registered_name": null}, "activation": "relu"}, "registered_name": null, "name": "conv2_block1_out", "inbound_nodes": [{"args": [{"class_name": "__keras_tensor__", "config": {"shape": [null, 24, 24, 256], "dtype": "float32", "keras_history": ["conv2_block1_add", 0, 0]}}], "kwargs": {}}]}, {"module": "keras.layers", "class_name": "Conv2D", "config": {"name": "conv2_block2_1_conv", "trainable": false, "dtype": {"module": "keras", "class_name": "DTypePolicy", "config": {"name": "float32"}, "registered_name": null}, "filters": 64, "kernel_size": [1, 1], "strides": [1, 1], "padding": "valid", "data_format": "channels_last", "dilation_rate": [1, 1], "groups": 1, "activation": "linear", "use_bias": true, "kernel_initializer": {"module": "keras.initializers", "class_name": "GlorotUniform", "config": {"seed": null}, "registered_name": null}, "bias_initializer": {"module": "keras.initializers", "class_name": "Zeros", "config": {}, "registered_name": null}, "kernel_regularizer": null, "bias_regularizer": null, "activity_regularizer": null, "kernel_constraint": null, "bias_constraint": null}, "registered_name": null, "build_config": {"input_shape": [null, 24, 24, 256]}, "name": "conv2_block2_1_conv", "inbound_nodes": [{"args": [{"class_name": "__keras_tensor__", "config": {"shape": [null, 24, 24, 256], "dtype": "float32", "keras_history": ["conv2_block1_out", 0, 0]}}], "kwargs": {}}]}, {"module": "keras.layers", "class_name": "BatchNormalization", "config": {"name": "conv2_block2_1_bn", "trainable": false, "dtype": {"module": "keras", "class_name": "DTypePolicy", "config": {"name": "float32"}, "registered_name": null}, "axis": 3, "momentum": 0.99, "epsilon": 1.001e-05, "center": true, "scale": true, "beta_initializer": {"module": "keras.initializers", "class_name": "Zeros", "config": {}, "registered_name": null}, "gamma_initializer": {"module": "keras.initializers", "class_name": "Ones", "config": {}, "registered_name": null}, "moving_mean_initializer": {"module": "keras.initializers", "class_name": "Zeros", "config": {}, "registered_name": null}, "moving_variance_initializer": {"module": "keras.initializers", "class_name": "Ones", "config": {}, "registered_name": null}, "beta_regularizer": null, "gamma_regularizer": null, "beta_constraint": null, "gamma_constraint": null, "synchronized": false, "renorm": false, "renorm_clipping": null, "renorm_momentum": 0.99}, "registered_name": null, "build_config": {"input_shape": [null, 24, 24, 64]}, "name": "conv2_block2_1_bn", "inbound_nodes": [{"args": [{"class_name": "__keras_tensor__", "config": {"shape": [null, 24, 24, 64], "dtype": "float32", "keras_history": ["conv2_block2_1_conv", 0, 0]}}], "kwargs": {"mask": null}}]}, {"module": "keras.layers", "class_name": "Activation", "config": {"name": "conv2_block2_1_relu", "trainable": false, "dtype": {"module": "keras", "class_name": "DTypePolicy", "config": {"name": "float32"}, "registered_name": null}, "activation": "relu"}, "registered_name": null, "name": "conv2_block2_1_relu", "inbound_nodes": [{"args": [{"class_name": "__keras_tensor__", "config": {"shape": [null, 24, 24, 64], "dtype": "float32", "keras_history": ["conv2_block2_1_bn", 0, 0]}}], "kwargs": {}}]}, {"module": "keras.layers", "class_name": "Conv2D", "config": {"name": "conv2_block2_2_conv", "trainable": false, "dtype": {"module": "keras", "class_name": "DTypePolicy", "config": {"name": "float32"}, "registered_name": null}, "filters": 64, "kernel_size": [3, 3], "strides": [1, 1], "padding": "same", "data_format": "channels_last", "dilation_rate": [1, 1], "groups": 1, "activation": "linear", "use_bias": true, "kernel_initializer": {"module": "keras.initializers", "class_name": "GlorotUniform", "config": {"seed": null}, "registered_name": null}, "bias_initializer": {"module": "keras.initializers", "class_name": "Zeros", "config": {}, "registered_name": null}, "kernel_regularizer": null, "bias_regularizer": null, "activity_regularizer": null, "kernel_constraint": null, "bias_constraint": null}, "registered_name": null, "build_config": {"input_shape": [null, 24, 24, 64]}, "name": "conv2_block2_2_conv", "inbound_nodes": [{"args": [{"class_name": "__keras_tensor__", "config": {"shape": [null, 24, 24, 64], "dtype": "float32", "keras_history": ["conv2_block2_1_relu", 0, 0]}}], "kwargs": {}}]}, {"module": "keras.layers", "class_name": "BatchNormalization", "config": {"name": "conv2_block2_2_bn", "trainable": false, "dtype": {"module": "keras", "class_name": "DTypePolicy", "config": {"name": "float32"}, "registered_name": null}, "axis": 3, "momentum": 0.99, "epsilon": 1.001e-05, "center": true, "scale": true, "beta_initializer": {"module": "keras.initializers", "class_name": "Zeros", "config": {}, "registered_name": null}, "gamma_initializer": {"module": "keras.initializers", "class_name": "Ones", "config": {}, "registered_name": null}, "moving_mean_initializer": {"module": "keras.initializers", "class_name": "Zeros", "config": {}, "registered_name": null}, "moving_variance_initializer": {"module": "keras.initializers", "class_name": "Ones", "config": {}, "registered_name": null}, "beta_regularizer": null, "gamma_regularizer": null, "beta_constraint": null, "gamma_constraint": null, "synchronized": false, "renorm": false, "renorm_clipping": null, "renorm_momentum": 0.99}, "registered_name": null, "build_config": {"input_shape": [null, 24, 24, 64]}, "name": "conv2_block2_2_bn", "inbound_nodes": [{"args": [{"class_name": "__keras_tensor__", "config": {"shape": [null, 24, 24, 64], "dtype": "float32", "keras_history": ["conv2_block2_2_conv", 0, 0]}}], "kwargs": {"mask": null}}]}, {"module": "keras.layers", "class_name": "Activation", "config": {"name": "conv2_block2_2_relu", "trainable": false, "dtype": {"module": "keras", "class_name": "DTypePolicy", "config": {"name": "float32"}, "registered_name": null}, "activation": "relu"}, "registered_name": null, "name": "conv2_block2_2_relu", "inbound_nodes": [{"args": [{"class_name": "__keras_tensor__", "config": {"shape": [null, 24, 24, 64], "dtype": "float32", "keras_history": ["conv2_block2_2_bn", 0, 0]}}], "kwargs": {}}]}, {"module": "keras.layers", "class_name": "Conv2D", "config": {"name": "conv2_block2_3_conv", "trainable": false, "dtype": {"module": "keras", "class_name": "DTypePolicy", "config": {"name": "float32"}, "registered_name": null}, "filters": 256, "kernel_size": [1, 1], "strides": [1, 1], "padding": "valid", "data_format": "channels_last", "dilation_rate": [1, 1], "groups": 1, "activation": "linear", "use_bias": true, "kernel_initializer": {"module": "keras.initializers", "class_name": "GlorotUniform", "config": {"seed": null}, "registered_name": null}, "bias_initializer": {"module": "keras.initializers", "class_name": "Zeros", "config": {}, "registered_name": null}, "kernel_regularizer": null, "bias_regularizer": null, "activity_regularizer": null, "kernel_constraint": null, "bias_constraint": null}, "registered_name": null, "build_config": {"input_shape": [null, 24, 24, 64]}, "name": "conv2_block2_3_conv", "inbound_nodes": [{"args": [{"class_name": "__keras_tensor__", "config": {"shape": [null, 24, 24, 64], "dtype": "float32", "keras_history": ["conv2_block2_2_relu", 0, 0]}}], "kwargs": {}}]}, {"module": "keras.layers", "class_name": "BatchNormalization", "config": {"name": "conv2_block2_3_bn", "trainable": false, "dtype": {"module": "keras", "class_name": "DTypePolicy", "config": {"name": "float32"}, "registered_name": null}, "axis": 3, "momentum": 0.99, "epsilon": 1.001e-05, "center": true, "scale": true, "beta_initializer": {"module": "keras.initializers", "class_name": "Zeros", "config": {}, "registered_name": null}, "gamma_initializer": {"module": "keras.initializers", "class_name": "Ones", "config": {}, "registered_name": null}, "moving_mean_initializer": {"module": "keras.initializers", "class_name": "Zeros", "config": {}, "registered_name": null}, "moving_variance_initializer": {"module": "keras.initializers", "class_name": "Ones", "config": {}, "registered_name": null}, "beta_regularizer": null, "gamma_regularizer": null, "beta_constraint": null, "gamma_constraint": null, "synchronized": false, "renorm": false, "renorm_clipping": null, "renorm_momentum": 0.99}, "registered_name": null, "build_config": {"input_shape": [null, 24, 24, 256]}, "name": "conv2_block2_3_bn", "inbound_nodes": [{"args": [{"class_name": "__keras_tensor__", "config": {"shape": [null, 24, 24, 256], "dtype": "float32", "keras_history": ["conv2_block2_3_conv", 0, 0]}}], "kwargs": {"mask": null}}]}, {"module": "keras.layers", "class_name": "Add", "config": {"name": "conv2_block2_add", "trainable": false, "dtype": {"module": "keras", "class_name": "DTypePolicy", "config": {"name": "float32"}, "registered_name": null}}, "registered_name": null, "build_config": {"input_shape": [[null, 24, 24, 256], [null, 24, 24, 256]]}, "name": "conv2_block2_add", "inbound_nodes": [{"args": [[{"class_name": "__keras_tensor__", "config": {"shape": [null, 24, 24, 256], "dtype": "float32", "keras_history": ["conv2_block1_out", 0, 0]}}, {"class_name": "__keras_tensor__", "config": {"shape": [null, 24, 24, 256], "dtype": "float32", "keras_history": ["conv2_block2_3_bn", 0, 0]}}]], "kwargs": {}}]}, {"module": "keras.layers", "class_name": "Activation", "config": {"name": "conv2_block2_out", "trainable": false, "dtype": {"module": "keras", "class_name": "DTypePolicy", "config": {"name": "float32"}, "registered_name": null}, "activation": "relu"}, "registered_name": null, "name": "conv2_block2_out", "inbound_nodes": [{"args": [{"class_name": "__keras_tensor__", "config": {"shape": [null, 24, 24, 256], "dtype": "float32", "keras_history": ["conv2_block2_add", 0, 0]}}], "kwargs": {}}]}, {"module": "keras.layers", "class_name": "Conv2D", "config": {"name": "conv2_block3_1_conv", "trainable": false, "dtype": {"module": "keras", "class_name": "DTypePolicy", "config": {"name": "float32"}, "registered_name": null}, "filters": 64, "kernel_size": [1, 1], "strides": [1, 1], "padding": "valid", "data_format": "channels_last", "dilation_rate": [1, 1], "groups": 1, "activation": "linear", "use_bias": true, "kernel_initializer": {"module": "keras.initializers", "class_name": "GlorotUniform", "config": {"seed": null}, "registered_name": null}, "bias_initializer": {"module": "keras.initializers", "class_name": "Zeros", "config": {}, "registered_name": null}, "kernel_regularizer": null, "bias_regularizer": null, "activity_regularizer": null, "kernel_constraint": null, "bias_constraint": null}, "registered_name": null, "build_config": {"input_shape": [null, 24, 24, 256]}, "name": "conv2_block3_1_conv", "inbound_nodes": [{"args": [{"class_name": "__keras_tensor__", "config": {"shape": [null, 24, 24, 256], "dtype": "float32", "keras_history": ["conv2_block2_out", 0, 0]}}], "kwargs": {}}]}, {"module": "keras.layers", "class_name": "BatchNormalization", "config": {"name": "conv2_block3_1_bn", "trainable": false, "dtype": {"module": "keras", "class_name": "DTypePolicy", "config": {"name": "float32"}, "registered_name": null}, "axis": 3, "momentum": 0.99, "epsilon": 1.001e-05, "center": true, "scale": true, "beta_initializer": {"module": "keras.initializers", "class_name": "Zeros", "config": {}, "registered_name": null}, "gamma_initializer": {"module": "keras.initializers", "class_name": "Ones", "config": {}, "registered_name": null}, "moving_mean_initializer": {"module": "keras.initializers", "class_name": "Zeros", "config": {}, "registered_name": null}, "moving_variance_initializer": {"module": "keras.initializers", "class_name": "Ones", "config": {}, "registered_name": null}, "beta_regularizer": null, "gamma_regularizer": null, "beta_constraint": null, "gamma_constraint": null, "synchronized": false, "renorm": false, "renorm_clipping": null, "renorm_momentum": 0.99}, "registered_name": null, "build_config": {"input_shape": [null, 24, 24, 64]}, "name": "conv2_block3_1_bn", "inbound_nodes": [{"args": [{"class_name": "__keras_tensor__", "config": {"shape": [null, 24, 24, 64], "dtype": "float32", "keras_history": ["conv2_block3_1_conv", 0, 0]}}], "kwargs": {"mask": null}}]}, {"module": "keras.layers", "class_name": "Activation", "config": {"name": "conv2_block3_1_relu", "trainable": false, "dtype": {"module": "keras", "class_name": "DTypePolicy", "config": {"name": "float32"}, "registered_name": null}, "activation": "relu"}, "registered_name": null, "name": "conv2_block3_1_relu", "inbound_nodes": [{"args": [{"class_name": "__keras_tensor__", "config": {"shape": [null, 24, 24, 64], "dtype": "float32", "keras_history": ["conv2_block3_1_bn", 0, 0]}}], "kwargs": {}}]}, {"module": "keras.layers", "class_name": "Conv2D", "config": {"name": "conv2_block3_2_conv", "trainable": false, "dtype": {"module": "keras", "class_name": "DTypePolicy", "config": {"name": "float32"}, "registered_name": null}, "filters": 64, "kernel_size": [3, 3], "strides": [1, 1], "padding": "same", "data_format": "channels_last", "dilation_rate": [1, 1], "groups": 1, "activation": "linear", "use_bias": true, "kernel_initializer": {"module": "keras.initializers", "class_name": "GlorotUniform", "config": {"seed": null}, "registered_name": null}, "bias_initializer": {"module": "keras.initializers", "class_name": "Zeros", "config": {}, "registered_name": null}, "kernel_regularizer": null, "bias_regularizer": null, "activity_regularizer": null, "kernel_constraint": null, "bias_constraint": null}, "registered_name": null, "build_config": {"input_shape": [null, 24, 24, 64]}, "name": "conv2_block3_2_conv", "inbound_nodes": [{"args": [{"class_name": "__keras_tensor__", "config": {"shape": [null, 24, 24, 64], "dtype": "float32", "keras_history": ["conv2_block3_1_relu", 0, 0]}}], "kwargs": {}}]}, {"module": "keras.layers", "class_name": "BatchNormalization", "config": {"name": "conv2_block3_2_bn", "trainable": false, "dtype": {"module": "keras", "class_name": "DTypePolicy", "config": {"name": "float32"}, "registered_name": null}, "axis": 3, "momentum": 0.99, "epsilon": 1.001e-05, "center": true, "scale": true, "beta_initializer": {"module": "keras.initializers", "class_name": "Zeros", "config": {}, "registered_name": null}, "gamma_initializer": {"module": "keras.initializers", "class_name": "Ones", "config": {}, "registered_name": null}, "moving_mean_initializer": {"module": "keras.initializers", "class_name": "Zeros", "config": {}, "registered_name": null}, "moving_variance_initializer": {"module": "keras.initializers", "class_name": "Ones", "config": {}, "registered_name": null}, "beta_regularizer": null, "gamma_regularizer": null, "beta_constraint": null, "gamma_constraint": null, "synchronized": false, "renorm": false, "renorm_clipping": null, "renorm_momentum": 0.99}, "registered_name": null, "build_config": {"input_shape": [null, 24, 24, 64]}, "name": "conv2_block3_2_bn", "inbound_nodes": [{"args": [{"class_name": "__keras_tensor__", "config": {"shape": [null, 24, 24, 64], "dtype": "float32", "keras_history": ["conv2_block3_2_conv", 0, 0]}}], "kwargs": {"mask": null}}]}, {"module": "keras.layers", "class_name": "Activation", "config": {"name": "conv2_block3_2_relu", "trainable": false, "dtype": {"module": "keras", "class_name": "DTypePolicy", "config": {"name": "float32"}, "registered_name": null}, "activation": "relu"}, "registered_name": null, "name": "conv2_block3_2_relu", "inbound_nodes": [{"args": [{"class_name": "__keras_tensor__", "config": {"shape": [null, 24, 24, 64], "dtype": "float32", "keras_history": ["conv2_block3_2_bn", 0, 0]}}], "kwargs": {}}]}, {"module": "keras.layers", "class_name": "Conv2D", "config": {"name": "conv2_block3_3_conv", "trainable": false, "dtype": {"module": "keras", "class_name": "DTypePolicy", "config": {"name": "float32"}, "registered_name": null}, "filters": 256, "kernel_size": [1, 1], "strides": [1, 1], "padding": "valid", "data_format": "channels_last", "dilation_rate": [1, 1], "groups": 1, "activation": "linear", "use_bias": true, "kernel_initializer": {"module": "keras.initializers", "class_name": "GlorotUniform", "config": {"seed": null}, "registered_name": null}, "bias_initializer": {"module": "keras.initializers", "class_name": "Zeros", "config": {}, "registered_name": null}, "kernel_regularizer": null, "bias_regularizer": null, "activity_regularizer": null, "kernel_constraint": null, "bias_constraint": null}, "registered_name": null, "build_config": {"input_shape": [null, 24, 24, 64]}, "name": "conv2_block3_3_conv", "inbound_nodes": [{"args": [{"class_name": "__keras_tensor__", "config": {"shape": [null, 24, 24, 64], "dtype": "float32", "keras_history": ["conv2_block3_2_relu", 0, 0]}}], "kwargs": {}}]}, {"module": "keras.layers", "class_name": "BatchNormalization", "config": {"name": "conv2_block3_3_bn", "trainable": false, "dtype": {"module": "keras", "class_name": "DTypePolicy", "config": {"name": "float32"}, "registered_name": null}, "axis": 3, "momentum": 0.99, "epsilon": 1.001e-05, "center": true, "scale": true, "beta_initializer": {"module": "keras.initializers", "class_name": "Zeros", "config": {}, "registered_name": null}, "gamma_initializer": {"module": "keras.initializers", "class_name": "Ones", "config": {}, "registered_name": null}, "moving_mean_initializer": {"module": "keras.initializers", "class_name": "Zeros", "config": {}, "registered_name": null}, "moving_variance_initializer": {"module": "keras.initializers", "class_name": "Ones", "config": {}, "registered_name": null}, "beta_regularizer": null, "gamma_regularizer": null, "beta_constraint": null, "gamma_constraint": null, "synchronized": false, "renorm": false, "renorm_clipping": null, "renorm_momentum": 0.99}, "registered_name": null, "build_config": {"input_shape": [null, 24, 24, 256]}, "name": "conv2_block3_3_bn", "inbound_nodes": [{"args": [{"class_name": "__keras_tensor__", "config": {"shape": [null, 24, 24, 256], "dtype": "float32", "keras_history": ["conv2_block3_3_conv", 0, 0]}}], "kwargs": {"mask": null}}]}, {"module": "keras.layers", "class_name": "Add", "config": {"name": "conv2_block3_add", "trainable": false, "dtype": {"module": "keras", "class_name": "DTypePolicy", "config": {"name": "float32"}, "registered_name": null}}, "registered_name": null, "build_config": {"input_shape": [[null, 24, 24, 256], [null, 24, 24, 256]]}, "name": "conv2_block3_add", "inbound_nodes": [{"args": [[{"class_name": "__keras_tensor__", "config": {"shape": [null, 24, 24, 256], "dtype": "float32", "keras_history": ["conv2_block2_out", 0, 0]}}, {"class_name": "__keras_tensor__", "config": {"shape": [null, 24, 24, 256], "dtype": "float32", "keras_history": ["conv2_block3_3_bn", 0, 0]}}]], "kwargs": {}}]}, {"module": "keras.layers", "class_name": "Activation", "config": {"name": "conv2_block3_out", "trainable": false, "dtype": {"module": "keras", "class_name": "DTypePolicy", "config": {"name": "float32"}, "registered_name": null}, "activation": "relu"}, "registered_name": null, "name": "conv2_block3_out", "inbound_nodes": [{"args": [{"class_name": "__keras_tensor__", "config": {"shape": [null, 24, 24, 256], "dtype": "float32", "keras_history": ["conv2_block3_add", 0, 0]}}], "kwargs": {}}]}, {"module": "keras.layers", "class_name": "Conv2D", "config": {"name": "conv3_block1_1_conv", "trainable": false, "dtype": {"module": "keras", "class_name": "DTypePolicy", "config": {"name": "float32"}, "registered_name": null}, "filters": 128, "kernel_size": [1, 1], "strides": [2, 2], "padding": "valid", "data_format": "channels_last", "dilation_rate": [1, 1], "groups": 1, "activation": "linear", "use_bias": true, "kernel_initializer": {"module": "keras.initializers", "class_name": "GlorotUniform", "config": {"seed": null}, "registered_name": null}, "bias_initializer": {"module": "keras.initializers", "class_name": "Zeros", "config": {}, "registered_name": null}, "kernel_regularizer": null, "bias_regularizer": null, "activity_regularizer": null, "kernel_constraint": null, "bias_constraint": null}, "registered_name": null, "build_config": {"input_shape": [null, 24, 24, 256]}, "name": "conv3_block1_1_conv", "inbound_nodes": [{"args": [{"class_name": "__keras_tensor__", "config": {"shape": [null, 24, 24, 256], "dtype": "float32", "keras_history": ["conv2_block3_out", 0, 0]}}], "kwargs": {}}]}, {"module": "keras.layers", "class_name": "BatchNormalization", "config": {"name": "conv3_block1_1_bn", "trainable": false, "dtype": {"module": "keras", "class_name": "DTypePolicy", "config": {"name": "float32"}, "registered_name": null}, "axis": 3, "momentum": 0.99, "epsilon": 1.001e-05, "center": true, "scale": true, "beta_initializer": {"module": "keras.initializers", "class_name": "Zeros", "config": {}, "registered_name": null}, "gamma_initializer": {"module": "keras.initializers", "class_name": "Ones", "config": {}, "registered_name": null}, "moving_mean_initializer": {"module": "keras.initializers", "class_name": "Zeros", "config": {}, "registered_name": null}, "moving_variance_initializer": {"module": "keras.initializers", "class_name": "Ones", "config": {}, "registered_name": null}, "beta_regularizer": null, "gamma_regularizer": null, "beta_constraint": null, "gamma_constraint": null, "synchronized": false, "renorm": false, "renorm_clipping": null, "renorm_momentum": 0.99}, "registered_name": null, "build_config": {"input_shape": [null, 12, 12, 128]}, "name": "conv3_block1_1_bn", "inbound_nodes": [{"args": [{"class_name": "__keras_tensor__", "config": {"shape": [null, 12, 12, 128], "dtype": "float32", "keras_history": ["conv3_block1_1_conv", 0, 0]}}], "kwargs": {"mask": null}}]}, {"module": "keras.layers", "class_name": "Activation", "config": {"name": "conv3_block1_1_relu", "trainable": false, "dtype": {"module": "keras", "class_name": "DTypePolicy", "config": {"name": "float32"}, "registered_name": null}, "activation": "relu"}, "registered_name": null, "name": "conv3_block1_1_relu", "inbound_nodes": [{"args": [{"class_name": "__keras_tensor__", "config": {"shape": [null, 12, 12, 128], "dtype": "float32", "keras_history": ["conv3_block1_1_bn", 0, 0]}}], "kwargs": {}}]}, {"module": "keras.layers", "class_name": "Conv2D", "config": {"name": "conv3_block1_2_conv", "trainable": false, "dtype": {"module": "keras", "class_name": "DTypePolicy", "config": {"name": "float32"}, "registered_name": null}, "filters": 128, "kernel_size": [3, 3], "strides": [1, 1], "padding": "same", "data_format": "channels_last", "dilation_rate": [1, 1], "groups": 1, "activation": "linear", "use_bias": true, "kernel_initializer": {"module": "keras.initializers", "class_name": "GlorotUniform", "config": {"seed": null}, "registered_name": null}, "bias_initializer": {"module": "keras.initializers", "class_name": "Zeros", "config": {}, "registered_name": null}, "kernel_regularizer": null, "bias_regularizer": null, "activity_regularizer": null, "kernel_constraint": null, "bias_constraint": null}, "registered_name": null, "build_config": {"input_shape": [null, 12, 12, 128]}, "name": "conv3_block1_2_conv", "inbound_nodes": [{"args": [{"class_name": "__keras_tensor__", "config": {"shape": [null, 12, 12, 128], "dtype": "float32", "keras_history": ["conv3_block1_1_relu", 0, 0]}}], "kwargs": {}}]}, {"module": "keras.layers", "class_name": "BatchNormalization", "config": {"name": "conv3_block1_2_bn", "trainable": false, "dtype": {"module": "keras", "class_name": "DTypePolicy", "config": {"name": "float32"}, "registered_name": null}, "axis": 3, "momentum": 0.99, "epsilon": 1.001e-05, "center": true, "scale": true, "beta_initializer": {"module": "keras.initializers", "class_name": "Zeros", "config": {}, "registered_name": null}, "gamma_initializer": {"module": "keras.initializers", "class_name": "Ones", "config": {}, "registered_name": null}, "moving_mean_initializer": {"module": "keras.initializers", "class_name": "Zeros", "config": {}, "registered_name": null}, "moving_variance_initializer": {"module": "keras.initializers", "class_name": "Ones", "config": {}, "registered_name": null}, "beta_regularizer": null, "gamma_regularizer": null, "beta_constraint": null, "gamma_constraint": null, "synchronized": false, "renorm": false, "renorm_clipping": null, "renorm_momentum": 0.99}, "registered_name": null, "build_config": {"input_shape": [null, 12, 12, 128]}, "name": "conv3_block1_2_bn", "inbound_nodes": [{"args": [{"class_name": "__keras_tensor__", "config": {"shape": [null, 12, 12, 128], "dtype": "float32", "keras_history": ["conv3_block1_2_conv", 0, 0]}}], "kwargs": {"mask": null}}]}, {"module": "keras.layers", "class_name": "Activation", "config": {"name": "conv3_block1_2_relu", "trainable": false, "dtype": {"module": "keras", "class_name": "DTypePolicy", "config": {"name": "float32"}, "registered_name": null}, "activation": "relu"}, "registered_name": null, "name": "conv3_block1_2_relu", "inbound_nodes": [{"args": [{"class_name": "__keras_tensor__", "config": {"shape": [null, 12, 12, 128], "dtype": "float32", "keras_history": ["conv3_block1_2_bn", 0, 0]}}], "kwargs": {}}]}, {"module": "keras.layers", "class_name": "Conv2D", "config": {"name": "conv3_block1_0_conv", "trainable": false, "dtype": {"module": "keras", "class_name": "DTypePolicy", "config": {"name": "float32"}, "registered_name": null}, "filters": 512, "kernel_size": [1, 1], "strides": [2, 2], "padding": "valid", "data_format": "channels_last", "dilation_rate": [1, 1], "groups": 1, "activation": "linear", "use_bias": true, "kernel_initializer": {"module": "keras.initializers", "class_name": "GlorotUniform", "config": {"seed": null}, "registered_name": null}, "bias_initializer": {"module": "keras.initializers", "class_name": "Zeros", "config": {}, "registered_name": null}, "kernel_regularizer": null, "bias_regularizer": null, "activity_regularizer": null, "kernel_constraint": null, "bias_constraint": null}, "registered_name": null, "build_config": {"input_shape": [null, 24, 24, 256]}, "name": "conv3_block1_0_conv", "inbound_nodes": [{"args": [{"class_name": "__keras_tensor__", "config": {"shape": [null, 24, 24, 256], "dtype": "float32", "keras_history": ["conv2_block3_out", 0, 0]}}], "kwargs": {}}]}, {"module": "keras.layers", "class_name": "Conv2D", "config": {"name": "conv3_block1_3_conv", "trainable": false, "dtype": {"module": "keras", "class_name": "DTypePolicy", "config": {"name": "float32"}, "registered_name": null}, "filters": 512, "kernel_size": [1, 1], "strides": [1, 1], "padding": "valid", "data_format": "channels_last", "dilation_rate": [1, 1], "groups": 1, "activation": "linear", "use_bias": true, "kernel_initializer": {"module": "keras.initializers", "class_name": "GlorotUniform", "config": {"seed": null}, "registered_name": null}, "bias_initializer": {"module": "keras.initializers", "class_name": "Zeros", "config": {}, "registered_name": null}, "kernel_regularizer": null, "bias_regularizer": null, "activity_regularizer": null, "kernel_constraint": null, "bias_constraint": null}, "registered_name": null, "build_config": {"input_shape": [null, 12, 12, 128]}, "name": "conv3_block1_3_conv", "inbound_nodes": [{"args": [{"class_name": "__keras_tensor__", "config": {"shape": [null, 12, 12, 128], "dtype": "float32", "keras_history": ["conv3_block1_2_relu", 0, 0]}}], "kwargs": {}}]}, {"module": "keras.layers", "class_name": "BatchNormalization", "config": {"name": "conv3_block1_0_bn", "trainable": false, "dtype": {"module": "keras", "class_name": "DTypePolicy", "config": {"name": "float32"}, "registered_name": null}, "axis": 3, "momentum": 0.99, "epsilon": 1.001e-05, "center": true, "scale": true, "beta_initializer": {"module": "keras.initializers", "class_name": "Zeros", "config": {}, "registered_name": null}, "gamma_initializer": {"module": "keras.initializers", "class_name": "Ones", "config": {}, "registered_name": null}, "moving_mean_initializer": {"module": "keras.initializers", "class_name": "Zeros", "config": {}, "registered_name": null}, "moving_variance_initializer": {"module": "keras.initializers", "class_name": "Ones", "config": {}, "registered_name": null}, "beta_regularizer": null, "gamma_regularizer": null, "beta_constraint": null, "gamma_constraint": null, "synchronized": false, "renorm": false, "renorm_clipping": null, "renorm_momentum": 0.99}, "registered_name": null, "build_config": {"input_shape": [null, 12, 12, 512]}, "name": "conv3_block1_0_bn", "inbound_nodes": [{"args": [{"class_name": "__keras_tensor__", "config": {"shape": [null, 12, 12, 512], "dtype": "float32", "keras_history": ["conv3_block1_0_conv", 0, 0]}}], "kwargs": {"mask": null}}]}, {"module": "keras.layers", "class_name": "BatchNormalization", "config": {"name": "conv3_block1_3_bn", "trainable": false, "dtype": {"module": "keras", "class_name": "DTypePolicy", "config": {"name": "float32"}, "registered_name": null}, "axis": 3, "momentum": 0.99, "epsilon": 1.001e-05, "center": true, "scale": true, "beta_initializer": {"module": "keras.initializers", "class_name": "Zeros", "config": {}, "registered_name": null}, "gamma_initializer": {"module": "keras.initializers", "class_name": "Ones", "config": {}, "registered_name": null}, "moving_mean_initializer": {"module": "keras.initializers", "class_name": "Zeros", "config": {}, "registered_name": null}, "moving_variance_initializer": {"module": "keras.initializers", "class_name": "Ones", "config": {}, "registered_name": null}, "beta_regularizer": null, "gamma_regularizer": null, "beta_constraint": null, "gamma_constraint": null, "synchronized": false, "renorm": false, "renorm_clipping": null, "renorm_momentum": 0.99}, "registered_name": null, "build_config": {"input_shape": [null, 12, 12, 512]}, "name": "conv3_block1_3_bn", "inbound_nodes": [{"args": [{"class_name": "__keras_tensor__", "config": {"shape": [null, 12, 12, 512], "dtype": "float32", "keras_history": ["conv3_block1_3_conv", 0, 0]}}], "kwargs": {"mask": null}}]}, {"module": "keras.layers", "class_name": "Add", "config": {"name": "conv3_block1_add", "trainable": false, "dtype": {"module": "keras", "class_name": "DTypePolicy", "config": {"name": "float32"}, "registered_name": null}}, "registered_name": null, "build_config": {"input_shape": [[null, 12, 12, 512], [null, 12, 12, 512]]}, "name": "conv3_block1_add", "inbound_nodes": [{"args": [[{"class_name": "__keras_tensor__", "config": {"shape": [null, 12, 12, 512], "dtype": "float32", "keras_history": ["conv3_block1_0_bn", 0, 0]}}, {"class_name": "__keras_tensor__", "config": {"shape": [null, 12, 12, 512], "dtype": "float32", "keras_history": ["conv3_block1_3_bn", 0, 0]}}]], "kwargs": {}}]}, {"module": "keras.layers", "class_name": "Activation", "config": {"name": "conv3_block1_out", "trainable": false, "dtype": {"module": "keras", "class_name": "DTypePolicy", "config": {"name": "float32"}, "registered_name": null}, "activation": "relu"}, "registered_name": null, "name": "conv3_block1_out", "inbound_nodes": [{"args": [{"class_name": "__keras_tensor__", "config": {"shape": [null, 12, 12, 512], "dtype": "float32", "keras_history": ["conv3_block1_add", 0, 0]}}], "kwargs": {}}]}, {"module": "keras.layers", "class_name": "Conv2D", "config": {"name": "conv3_block2_1_conv", "trainable": false, "dtype": {"module": "keras", "class_name": "DTypePolicy", "config": {"name": "float32"}, "registered_name": null}, "filters": 128, "kernel_size": [1, 1], "strides": [1, 1], "padding": "valid", "data_format": "channels_last", "dilation_rate": [1, 1], "groups": 1, "activation": "linear", "use_bias": true, "kernel_initializer": {"module": "keras.initializers", "class_name": "GlorotUniform", "config": {"seed": null}, "registered_name": null}, "bias_initializer": {"module": "keras.initializers", "class_name": "Zeros", "config": {}, "registered_name": null}, "kernel_regularizer": null, "bias_regularizer": null, "activity_regularizer": null, "kernel_constraint": null, "bias_constraint": null}, "registered_name": null, "build_config": {"input_shape": [null, 12, 12, 512]}, "name": "conv3_block2_1_conv", "inbound_nodes": [{"args": [{"class_name": "__keras_tensor__", "config": {"shape": [null, 12, 12, 512], "dtype": "float32", "keras_history": ["conv3_block1_out", 0, 0]}}], "kwargs": {}}]}, {"module": "keras.layers", "class_name": "BatchNormalization", "config": {"name": "conv3_block2_1_bn", "trainable": false, "dtype": {"module": "keras", "class_name": "DTypePolicy", "config": {"name": "float32"}, "registered_name": null}, "axis": 3, "momentum": 0.99, "epsilon": 1.001e-05, "center": true, "scale": true, "beta_initializer": {"module": "keras.initializers", "class_name": "Zeros", "config": {}, "registered_name": null}, "gamma_initializer": {"module": "keras.initializers", "class_name": "Ones", "config": {}, "registered_name": null}, "moving_mean_initializer": {"module": "keras.initializers", "class_name": "Zeros", "config": {}, "registered_name": null}, "moving_variance_initializer": {"module": "keras.initializers", "class_name": "Ones", "config": {}, "registered_name": null}, "beta_regularizer": null, "gamma_regularizer": null, "beta_constraint": null, "gamma_constraint": null, "synchronized": false, "renorm": false, "renorm_clipping": null, "renorm_momentum": 0.99}, "registered_name": null, "build_config": {"input_shape": [null, 12, 12, 128]}, "name": "conv3_block2_1_bn", "inbound_nodes": [{"args": [{"class_name": "__keras_tensor__", "config": {"shape": [null, 12, 12, 128], "dtype": "float32", "keras_history": ["conv3_block2_1_conv", 0, 0]}}], "kwargs": {"mask": null}}]}, {"module": "keras.layers", "class_name": "Activation", "config": {"name": "conv3_block2_1_relu", "trainable": false, "dtype": {"module": "keras", "class_name": "DTypePolicy", "config": {"name": "float32"}, "registered_name": null}, "activation": "relu"}, "registered_name": null, "name": "conv3_block2_1_relu", "inbound_nodes": [{"args": [{"class_name": "__keras_tensor__", "config": {"shape": [null, 12, 12, 128], "dtype": "float32", "keras_history": ["conv3_block2_1_bn", 0, 0]}}], "kwargs": {}}]}, {"module": "keras.layers", "class_name": "Conv2D", "config": {"name": "conv3_block2_2_conv", "trainable": false, "dtype": {"module": "keras", "class_name": "DTypePolicy", "config": {"name": "float32"}, "registered_name": null}, "filters": 128, "kernel_size": [3, 3], "strides": [1, 1], "padding": "same", "data_format": "channels_last", "dilation_rate": [1, 1], "groups": 1, "activation": "linear", "use_bias": true, "kernel_initializer": {"module": "keras.initializers", "class_name": "GlorotUniform", "config": {"seed": null}, "registered_name": null}, "bias_initializer": {"module": "keras.initializers", "class_name": "Zeros", "config": {}, "registered_name": null}, "kernel_regularizer": null, "bias_regularizer": null, "activity_regularizer": null, "kernel_constraint": null, "bias_constraint": null}, "registered_name": null, "build_config": {"input_shape": [null, 12, 12, 128]}, "name": "conv3_block2_2_conv", "inbound_nodes": [{"args": [{"class_name": "__keras_tensor__", "config": {"shape": [null, 12, 12, 128], "dtype": "float32", "keras_history": ["conv3_block2_1_relu", 0, 0]}}], "kwargs": {}}]}, {"module": "keras.layers", "class_name": "BatchNormalization", "config": {"name": "conv3_block2_2_bn", "trainable": false, "dtype": {"module": "keras", "class_name": "DTypePolicy", "config": {"name": "float32"}, "registered_name": null}, "axis": 3, "momentum": 0.99, "epsilon": 1.001e-05, "center": true, "scale": true, "beta_initializer": {"module": "keras.initializers", "class_name": "Zeros", "config": {}, "registered_name": null}, "gamma_initializer": {"module": "keras.initializers", "class_name": "Ones", "config": {}, "registered_name": null}, "moving_mean_initializer": {"module": "keras.initializers", "class_name": "Zeros", "config": {}, "registered_name": null}, "moving_variance_initializer": {"module": "keras.initializers", "class_name": "Ones", "config": {}, "registered_name": null}, "beta_regularizer": null, "gamma_regularizer": null, "beta_constraint": null, "gamma_constraint": null, "synchronized": false, "renorm": false, "renorm_clipping": null, "renorm_momentum": 0.99}, "registered_name": null, "build_config": {"input_shape": [null, 12, 12, 128]}, "name": "conv3_block2_2_bn", "inbound_nodes": [{"args": [{"class_name": "__keras_tensor__", "config": {"shape": [null, 12, 12, 128], "dtype": "float32", "keras_history": ["conv3_block2_2_conv", 0, 0]}}], "kwargs": {"mask": null}}]}, {"module": "keras.layers", "class_name": "Activation", "config": {"name": "conv3_block2_2_relu", "trainable": false, "dtype": {"module": "keras", "class_name": "DTypePolicy", "config": {"name": "float32"}, "registered_name": null}, "activation": "relu"}, "registered_name": null, "name": "conv3_block2_2_relu", "inbound_nodes": [{"args": [{"class_name": "__keras_tensor__", "config": {"shape": [null, 12, 12, 128], "dtype": "float32", "keras_history": ["conv3_block2_2_bn", 0, 0]}}], "kwargs": {}}]}, {"module": "keras.layers", "class_name": "Conv2D", "config": {"name": "conv3_block2_3_conv", "trainable": false, "dtype": {"module": "keras", "class_name": "DTypePolicy", "config": {"name": "float32"}, "registered_name": null}, "filters": 512, "kernel_size": [1, 1], "strides": [1, 1], "padding": "valid", "data_format": "channels_last", "dilation_rate": [1, 1], "groups": 1, "activation": "linear", "use_bias": true, "kernel_initializer": {"module": "keras.initializers", "class_name": "GlorotUniform", "config": {"seed": null}, "registered_name": null}, "bias_initializer": {"module": "keras.initializers", "class_name": "Zeros", "config": {}, "registered_name": null}, "kernel_regularizer": null, "bias_regularizer": null, "activity_regularizer": null, "kernel_constraint": null, "bias_constraint": null}, "registered_name": null, "build_config": {"input_shape": [null, 12, 12, 128]}, "name": "conv3_block2_3_conv", "inbound_nodes": [{"args": [{"class_name": "__keras_tensor__", "config": {"shape": [null, 12, 12, 128], "dtype": "float32", "keras_history": ["conv3_block2_2_relu", 0, 0]}}], "kwargs": {}}]}, {"module": "keras.layers", "class_name": "BatchNormalization", "config": {"name": "conv3_block2_3_bn", "trainable": false, "dtype": {"module": "keras", "class_name": "DTypePolicy", "config": {"name": "float32"}, "registered_name": null}, "axis": 3, "momentum": 0.99, "epsilon": 1.001e-05, "center": true, "scale": true, "beta_initializer": {"module": "keras.initializers", "class_name": "Zeros", "config": {}, "registered_name": null}, "gamma_initializer": {"module": "keras.initializers", "class_name": "Ones", "config": {}, "registered_name": null}, "moving_mean_initializer": {"module": "keras.initializers", "class_name": "Zeros", "config": {}, "registered_name": null}, "moving_variance_initializer": {"module": "keras.initializers", "class_name": "Ones", "config": {}, "registered_name": null}, "beta_regularizer": null, "gamma_regularizer": null, "beta_constraint": null, "gamma_constraint": null, "synchronized": false, "renorm": false, "renorm_clipping": null, "renorm_momentum": 0.99}, "registered_name": null, "build_config": {"input_shape": [null, 12, 12, 512]}, "name": "conv3_block2_3_bn", "inbound_nodes": [{"args": [{"class_name": "__keras_tensor__", "config": {"shape": [null, 12, 12, 512], "dtype": "float32", "keras_history": ["conv3_block2_3_conv", 0, 0]}}], "kwargs": {"mask": null}}]}, {"module": "keras.layers", "class_name": "Add", "config": {"name": "conv3_block2_add", "trainable": false, "dtype": {"module": "keras", "class_name": "DTypePolicy", "config": {"name": "float32"}, "registered_name": null}}, "registered_name": null, "build_config": {"input_shape": [[null, 12, 12, 512], [null, 12, 12, 512]]}, "name": "conv3_block2_add", "inbound_nodes": [{"args": [[{"class_name": "__keras_tensor__", "config": {"shape": [null, 12, 12, 512], "dtype": "float32", "keras_history": ["conv3_block1_out", 0, 0]}}, {"class_name": "__keras_tensor__", "config": {"shape": [null, 12, 12, 512], "dtype": "float32", "keras_history": ["conv3_block2_3_bn", 0, 0]}}]], "kwargs": {}}]}, {"module": "keras.layers", "class_name": "Activation", "config": {"name": "conv3_block2_out", "trainable": false, "dtype": {"module": "keras", "class_name": "DTypePolicy", "config": {"name": "float32"}, "registered_name": null}, "activation": "relu"}, "registered_name": null, "name": "conv3_block2_out", "inbound_nodes": [{"args": [{"class_name": "__keras_tensor__", "config": {"shape": [null, 12, 12, 512], "dtype": "float32", "keras_history": ["conv3_block2_add", 0, 0]}}], "kwargs": {}}]}, {"module": "keras.layers", "class_name": "Conv2D", "config": {"name": "conv3_block3_1_conv", "trainable": false, "dtype": {"module": "keras", "class_name": "DTypePolicy", "config": {"name": "float32"}, "registered_name": null}, "filters": 128, "kernel_size": [1, 1], "strides": [1, 1], "padding": "valid", "data_format": "channels_last", "dilation_rate": [1, 1], "groups": 1, "activation": "linear", "use_bias": true, "kernel_initializer": {"module": "keras.initializers", "class_name": "GlorotUniform", "config": {"seed": null}, "registered_name": null}, "bias_initializer": {"module": "keras.initializers", "class_name": "Zeros", "config": {}, "registered_name": null}, "kernel_regularizer": null, "bias_regularizer": null, "activity_regularizer": null, "kernel_constraint": null, "bias_constraint": null}, "registered_name": null, "build_config": {"input_shape": [null, 12, 12, 512]}, "name": "conv3_block3_1_conv", "inbound_nodes": [{"args": [{"class_name": "__keras_tensor__", "config": {"shape": [null, 12, 12, 512], "dtype": "float32", "keras_history": ["conv3_block2_out", 0, 0]}}], "kwargs": {}}]}, {"module": "keras.layers", "class_name": "BatchNormalization", "config": {"name": "conv3_block3_1_bn", "trainable": false, "dtype": {"module": "keras", "class_name": "DTypePolicy", "config": {"name": "float32"}, "registered_name": null}, "axis": 3, "momentum": 0.99, "epsilon": 1.001e-05, "center": true, "scale": true, "beta_initializer": {"module": "keras.initializers", "class_name": "Zeros", "config": {}, "registered_name": null}, "gamma_initializer": {"module": "keras.initializers", "class_name": "Ones", "config": {}, "registered_name": null}, "moving_mean_initializer": {"module": "keras.initializers", "class_name": "Zeros", "config": {}, "registered_name": null}, "moving_variance_initializer": {"module": "keras.initializers", "class_name": "Ones", "config": {}, "registered_name": null}, "beta_regularizer": null, "gamma_regularizer": null, "beta_constraint": null, "gamma_constraint": null, "synchronized": false, "renorm": false, "renorm_clipping": null, "renorm_momentum": 0.99}, "registered_name": null, "build_config": {"input_shape": [null, 12, 12, 128]}, "name": "conv3_block3_1_bn", "inbound_nodes": [{"args": [{"class_name": "__keras_tensor__", "config": {"shape": [null, 12, 12, 128], "dtype": "float32", "keras_history": ["conv3_block3_1_conv", 0, 0]}}], "kwargs": {"mask": null}}]}, {"module": "keras.layers", "class_name": "Activation", "config": {"name": "conv3_block3_1_relu", "trainable": false, "dtype": {"module": "keras", "class_name": "DTypePolicy", "config": {"name": "float32"}, "registered_name": null}, "activation": "relu"}, "registered_name": null, "name": "conv3_block3_1_relu", "inbound_nodes": [{"args": [{"class_name": "__keras_tensor__", "config": {"shape": [null, 12, 12, 128], "dtype": "float32", "keras_history": ["conv3_block3_1_bn", 0, 0]}}], "kwargs": {}}]}, {"module": "keras.layers", "class_name": "Conv2D", "config": {"name": "conv3_block3_2_conv", "trainable": false, "dtype": {"module": "keras", "class_name": "DTypePolicy", "config": {"name": "float32"}, "registered_name": null}, "filters": 128, "kernel_size": [3, 3], "strides": [1, 1], "padding": "same", "data_format": "channels_last", "dilation_rate": [1, 1], "groups": 1, "activation": "linear", "use_bias": true, "kernel_initializer": {"module": "keras.initializers", "class_name": "GlorotUniform", "config": {"seed": null}, "registered_name": null}, "bias_initializer": {"module": "keras.initializers", "class_name": "Zeros", "config": {}, "registered_name": null}, "kernel_regularizer": null, "bias_regularizer": null, "activity_regularizer": null, "kernel_constraint": null, "bias_constraint": null}, "registered_name": null, "build_config": {"input_shape": [null, 12, 12, 128]}, "name": "conv3_block3_2_conv", "inbound_nodes": [{"args": [{"class_name": "__keras_tensor__", "config": {"shape": [null, 12, 12, 128], "dtype": "float32", "keras_history": ["conv3_block3_1_relu", 0, 0]}}], "kwargs": {}}]}, {"module": "keras.layers", "class_name": "BatchNormalization", "config": {"name": "conv3_block3_2_bn", "trainable": false, "dtype": {"module": "keras", "class_name": "DTypePolicy", "config": {"name": "float32"}, "registered_name": null}, "axis": 3, "momentum": 0.99, "epsilon": 1.001e-05, "center": true, "scale": true, "beta_initializer": {"module": "keras.initializers", "class_name": "Zeros", "config": {}, "registered_name": null}, "gamma_initializer": {"module": "keras.initializers", "class_name": "Ones", "config": {}, "registered_name": null}, "moving_mean_initializer": {"module": "keras.initializers", "class_name": "Zeros", "config": {}, "registered_name": null}, "moving_variance_initializer": {"module": "keras.initializers", "class_name": "Ones", "config": {}, "registered_name": null}, "beta_regularizer": null, "gamma_regularizer": null, "beta_constraint": null, "gamma_constraint": null, "synchronized": false, "renorm": false, "renorm_clipping": null, "renorm_momentum": 0.99}, "registered_name": null, "build_config": {"input_shape": [null, 12, 12, 128]}, "name": "conv3_block3_2_bn", "inbound_nodes": [{"args": [{"class_name": "__keras_tensor__", "config": {"shape": [null, 12, 12, 128], "dtype": "float32", "keras_history": ["conv3_block3_2_conv", 0, 0]}}], "kwargs": {"mask": null}}]}, {"module": "keras.layers", "class_name": "Activation", "config": {"name": "conv3_block3_2_relu", "trainable": false, "dtype": {"module": "keras", "class_name": "DTypePolicy", "config": {"name": "float32"}, "registered_name": null}, "activation": "relu"}, "registered_name": null, "name": "conv3_block3_2_relu", "inbound_nodes": [{"args": [{"class_name": "__keras_tensor__", "config": {"shape": [null, 12, 12, 128], "dtype": "float32", "keras_history": ["conv3_block3_2_bn", 0, 0]}}], "kwargs": {}}]}, {"module": "keras.layers", "class_name": "Conv2D", "config": {"name": "conv3_block3_3_conv", "trainable": false, "dtype": {"module": "keras", "class_name": "DTypePolicy", "config": {"name": "float32"}, "registered_name": null}, "filters": 512, "kernel_size": [1, 1], "strides": [1, 1], "padding": "valid", "data_format": "channels_last", "dilation_rate": [1, 1], "groups": 1, "activation": "linear", "use_bias": true, "kernel_initializer": {"module": "keras.initializers", "class_name": "GlorotUniform", "config": {"seed": null}, "registered_name": null}, "bias_initializer": {"module": "keras.initializers", "class_name": "Zeros", "config": {}, "registered_name": null}, "kernel_regularizer": null, "bias_regularizer": null, "activity_regularizer": null, "kernel_constraint": null, "bias_constraint": null}, "registered_name": null, "build_config": {"input_shape": [null, 12, 12, 128]}, "name": "conv3_block3_3_conv", "inbound_nodes": [{"args": [{"class_name": "__keras_tensor__", "config": {"shape": [null, 12, 12, 128], "dtype": "float32", "keras_history": ["conv3_block3_2_relu", 0, 0]}}], "kwargs": {}}]}, {"module": "keras.layers", "class_name": "BatchNormalization", "config": {"name": "conv3_block3_3_bn", "trainable": false, "dtype": {"module": "keras", "class_name": "DTypePolicy", "config": {"name": "float32"}, "registered_name": null}, "axis": 3, "momentum": 0.99, "epsilon": 1.001e-05, "center": true, "scale": true, "beta_initializer": {"module": "keras.initializers", "class_name": "Zeros", "config": {}, "registered_name": null}, "gamma_initializer": {"module": "keras.initializers", "class_name": "Ones", "config": {}, "registered_name": null}, "moving_mean_initializer": {"module": "keras.initializers", "class_name": "Zeros", "config": {}, "registered_name": null}, "moving_variance_initializer": {"module": "keras.initializers", "class_name": "Ones", "config": {}, "registered_name": null}, "beta_regularizer": null, "gamma_regularizer": null, "beta_constraint": null, "gamma_constraint": null, "synchronized": false, "renorm": false, "renorm_clipping": null, "renorm_momentum": 0.99}, "registered_name": null, "build_config": {"input_shape": [null, 12, 12, 512]}, "name": "conv3_block3_3_bn", "inbound_nodes": [{"args": [{"class_name": "__keras_tensor__", "config": {"shape": [null, 12, 12, 512], "dtype": "float32", "keras_history": ["conv3_block3_3_conv", 0, 0]}}], "kwargs": {"mask": null}}]}, {"module": "keras.layers", "class_name": "Add", "config": {"name": "conv3_block3_add", "trainable": false, "dtype": {"module": "keras", "class_name": "DTypePolicy", "config": {"name": "float32"}, "registered_name": null}}, "registered_name": null, "build_config": {"input_shape": [[null, 12, 12, 512], [null, 12, 12, 512]]}, "name": "conv3_block3_add", "inbound_nodes": [{"args": [[{"class_name": "__keras_tensor__", "config": {"shape": [null, 12, 12, 512], "dtype": "float32", "keras_history": ["conv3_block2_out", 0, 0]}}, {"class_name": "__keras_tensor__", "config": {"shape": [null, 12, 12, 512], "dtype": "float32", "keras_history": ["conv3_block3_3_bn", 0, 0]}}]], "kwargs": {}}]}, {"module": "keras.layers", "class_name": "Activation", "config": {"name": "conv3_block3_out", "trainable": false, "dtype": {"module": "keras", "class_name": "DTypePolicy", "config": {"name": "float32"}, "registered_name": null}, "activation": "relu"}, "registered_name": null, "name": "conv3_block3_out", "inbound_nodes": [{"args": [{"class_name": "__keras_tensor__", "config": {"shape": [null, 12, 12, 512], "dtype": "float32", "keras_history": ["conv3_block3_add", 0, 0]}}], "kwargs": {}}]}, {"module": "keras.layers", "class_name": "Conv2D", "config": {"name": "conv3_block4_1_conv", "trainable": false, "dtype": {"module": "keras", "class_name": "DTypePolicy", "config": {"name": "float32"}, "registered_name": null}, "filters": 128, "kernel_size": [1, 1], "strides": [1, 1], "padding": "valid", "data_format": "channels_last", "dilation_rate": [1, 1], "groups": 1, "activation": "linear", "use_bias": true, "kernel_initializer": {"module": "keras.initializers", "class_name": "GlorotUniform", "config": {"seed": null}, "registered_name": null}, "bias_initializer": {"module": "keras.initializers", "class_name": "Zeros", "config": {}, "registered_name": null}, "kernel_regularizer": null, "bias_regularizer": null, "activity_regularizer": null, "kernel_constraint": null, "bias_constraint": null}, "registered_name": null, "build_config": {"input_shape": [null, 12, 12, 512]}, "name": "conv3_block4_1_conv", "inbound_nodes": [{"args": [{"class_name": "__keras_tensor__", "config": {"shape": [null, 12, 12, 512], "dtype": "float32", "keras_history": ["conv3_block3_out", 0, 0]}}], "kwargs": {}}]}, {"module": "keras.layers", "class_name": "BatchNormalization", "config": {"name": "conv3_block4_1_bn", "trainable": false, "dtype": {"module": "keras", "class_name": "DTypePolicy", "config": {"name": "float32"}, "registered_name": null}, "axis": 3, "momentum": 0.99, "epsilon": 1.001e-05, "center": true, "scale": true, "beta_initializer": {"module": "keras.initializers", "class_name": "Zeros", "config": {}, "registered_name": null}, "gamma_initializer": {"module": "keras.initializers", "class_name": "Ones", "config": {}, "registered_name": null}, "moving_mean_initializer": {"module": "keras.initializers", "class_name": "Zeros", "config": {}, "registered_name": null}, "moving_variance_initializer": {"module": "keras.initializers", "class_name": "Ones", "config": {}, "registered_name": null}, "beta_regularizer": null, "gamma_regularizer": null, "beta_constraint": null, "gamma_constraint": null, "synchronized": false, "renorm": false, "renorm_clipping": null, "renorm_momentum": 0.99}, "registered_name": null, "build_config": {"input_shape": [null, 12, 12, 128]}, "name": "conv3_block4_1_bn", "inbound_nodes": [{"args": [{"class_name": "__keras_tensor__", "config": {"shape": [null, 12, 12, 128], "dtype": "float32", "keras_history": ["conv3_block4_1_conv", 0, 0]}}], "kwargs": {"mask": null}}]}, {"module": "keras.layers", "class_name": "Activation", "config": {"name": "conv3_block4_1_relu", "trainable": false, "dtype": {"module": "keras", "class_name": "DTypePolicy", "config": {"name": "float32"}, "registered_name": null}, "activation": "relu"}, "registered_name": null, "name": "conv3_block4_1_relu", "inbound_nodes": [{"args": [{"class_name": "__keras_tensor__", "config": {"shape": [null, 12, 12, 128], "dtype": "float32", "keras_history": ["conv3_block4_1_bn", 0, 0]}}], "kwargs": {}}]}, {"module": "keras.layers", "class_name": "Conv2D", "config": {"name": "conv3_block4_2_conv", "trainable": false, "dtype": {"module": "keras", "class_name": "DTypePolicy", "config": {"name": "float32"}, "registered_name": null}, "filters": 128, "kernel_size": [3, 3], "strides": [1, 1], "padding": "same", "data_format": "channels_last", "dilation_rate": [1, 1], "groups": 1, "activation": "linear", "use_bias": true, "kernel_initializer": {"module": "keras.initializers", "class_name": "GlorotUniform", "config": {"seed": null}, "registered_name": null}, "bias_initializer": {"module": "keras.initializers", "class_name": "Zeros", "config": {}, "registered_name": null}, "kernel_regularizer": null, "bias_regularizer": null, "activity_regularizer": null, "kernel_constraint": null, "bias_constraint": null}, "registered_name": null, "build_config": {"input_shape": [null, 12, 12, 128]}, "name": "conv3_block4_2_conv", "inbound_nodes": [{"args": [{"class_name": "__keras_tensor__", "config": {"shape": [null, 12, 12, 128], "dtype": "float32", "keras_history": ["conv3_block4_1_relu", 0, 0]}}], "kwargs": {}}]}, {"module": "keras.layers", "class_name": "BatchNormalization", "config": {"name": "conv3_block4_2_bn", "trainable": false, "dtype": {"module": "keras", "class_name": "DTypePolicy", "config": {"name": "float32"}, "registered_name": null}, "axis": 3, "momentum": 0.99, "epsilon": 1.001e-05, "center": true, "scale": true, "beta_initializer": {"module": "keras.initializers", "class_name": "Zeros", "config": {}, "registered_name": null}, "gamma_initializer": {"module": "keras.initializers", "class_name": "Ones", "config": {}, "registered_name": null}, "moving_mean_initializer": {"module": "keras.initializers", "class_name": "Zeros", "config": {}, "registered_name": null}, "moving_variance_initializer": {"module": "keras.initializers", "class_name": "Ones", "config": {}, "registered_name": null}, "beta_regularizer": null, "gamma_regularizer": null, "beta_constraint": null, "gamma_constraint": null, "synchronized": false, "renorm": false, "renorm_clipping": null, "renorm_momentum": 0.99}, "registered_name": null, "build_config": {"input_shape": [null, 12, 12, 128]}, "name": "conv3_block4_2_bn", "inbound_nodes": [{"args": [{"class_name": "__keras_tensor__", "config": {"shape": [null, 12, 12, 128], "dtype": "float32", "keras_history": ["conv3_block4_2_conv", 0, 0]}}], "kwargs": {"mask": null}}]}, {"module": "keras.layers", "class_name": "Activation", "config": {"name": "conv3_block4_2_relu", "trainable": false, "dtype": {"module": "keras", "class_name": "DTypePolicy", "config": {"name": "float32"}, "registered_name": null}, "activation": "relu"}, "registered_name": null, "name": "conv3_block4_2_relu", "inbound_nodes": [{"args": [{"class_name": "__keras_tensor__", "config": {"shape": [null, 12, 12, 128], "dtype": "float32", "keras_history": ["conv3_block4_2_bn", 0, 0]}}], "kwargs": {}}]}, {"module": "keras.layers", "class_name": "Conv2D", "config": {"name": "conv3_block4_3_conv", "trainable": false, "dtype": {"module": "keras", "class_name": "DTypePolicy", "config": {"name": "float32"}, "registered_name": null}, "filters": 512, "kernel_size": [1, 1], "strides": [1, 1], "padding": "valid", "data_format": "channels_last", "dilation_rate": [1, 1], "groups": 1, "activation": "linear", "use_bias": true, "kernel_initializer": {"module": "keras.initializers", "class_name": "GlorotUniform", "config": {"seed": null}, "registered_name": null}, "bias_initializer": {"module": "keras.initializers", "class_name": "Zeros", "config": {}, "registered_name": null}, "kernel_regularizer": null, "bias_regularizer": null, "activity_regularizer": null, "kernel_constraint": null, "bias_constraint": null}, "registered_name": null, "build_config": {"input_shape": [null, 12, 12, 128]}, "name": "conv3_block4_3_conv", "inbound_nodes": [{"args": [{"class_name": "__keras_tensor__", "config": {"shape": [null, 12, 12, 128], "dtype": "float32", "keras_history": ["conv3_block4_2_relu", 0, 0]}}], "kwargs": {}}]}, {"module": "keras.layers", "class_name": "BatchNormalization", "config": {"name": "conv3_block4_3_bn", "trainable": false, "dtype": {"module": "keras", "class_name": "DTypePolicy", "config": {"name": "float32"}, "registered_name": null}, "axis": 3, "momentum": 0.99, "epsilon": 1.001e-05, "center": true, "scale": true, "beta_initializer": {"module": "keras.initializers", "class_name": "Zeros", "config": {}, "registered_name": null}, "gamma_initializer": {"module": "keras.initializers", "class_name": "Ones", "config": {}, "registered_name": null}, "moving_mean_initializer": {"module": "keras.initializers", "class_name": "Zeros", "config": {}, "registered_name": null}, "moving_variance_initializer": {"module": "keras.initializers", "class_name": "Ones", "config": {}, "registered_name": null}, "beta_regularizer": null, "gamma_regularizer": null, "beta_constraint": null, "gamma_constraint": null, "synchronized": false, "renorm": false, "renorm_clipping": null, "renorm_momentum": 0.99}, "registered_name": null, "build_config": {"input_shape": [null, 12, 12, 512]}, "name": "conv3_block4_3_bn", "inbound_nodes": [{"args": [{"class_name": "__keras_tensor__", "config": {"shape": [null, 12, 12, 512], "dtype": "float32", "keras_history": ["conv3_block4_3_conv", 0, 0]}}], "kwargs": {"mask": null}}]}, {"module": "keras.layers", "class_name": "Add", "config": {"name": "conv3_block4_add", "trainable": false, "dtype": {"module": "keras", "class_name": "DTypePolicy", "config": {"name": "float32"}, "registered_name": null}}, "registered_name": null, "build_config": {"input_shape": [[null, 12, 12, 512], [null, 12, 12, 512]]}, "name": "conv3_block4_add", "inbound_nodes": [{"args": [[{"class_name": "__keras_tensor__", "config": {"shape": [null, 12, 12, 512], "dtype": "float32", "keras_history": ["conv3_block3_out", 0, 0]}}, {"class_name": "__keras_tensor__", "config": {"shape": [null, 12, 12, 512], "dtype": "float32", "keras_history": ["conv3_block4_3_bn", 0, 0]}}]], "kwargs": {}}]}, {"module": "keras.layers", "class_name": "Activation", "config": {"name": "conv3_block4_out", "trainable": false, "dtype": {"module": "keras", "class_name": "DTypePolicy", "config": {"name": "float32"}, "registered_name": null}, "activation": "relu"}, "registered_name": null, "name": "conv3_block4_out", "inbound_nodes": [{"args": [{"class_name": "__keras_tensor__", "config": {"shape": [null, 12, 12, 512], "dtype": "float32", "keras_history": ["conv3_block4_add", 0, 0]}}], "kwargs": {}}]}, {"module": "keras.layers", "class_name": "Conv2D", "config": {"name": "conv4_block1_1_conv", "trainable": false, "dtype": {"module": "keras", "class_name": "DTypePolicy", "config": {"name": "float32"}, "registered_name": null}, "filters": 256, "kernel_size": [1, 1], "strides": [2, 2], "padding": "valid", "data_format": "channels_last", "dilation_rate": [1, 1], "groups": 1, "activation": "linear", "use_bias": true, "kernel_initializer": {"module": "keras.initializers", "class_name": "GlorotUniform", "config": {"seed": null}, "registered_name": null}, "bias_initializer": {"module": "keras.initializers", "class_name": "Zeros", "config": {}, "registered_name": null}, "kernel_regularizer": null, "bias_regularizer": null, "activity_regularizer": null, "kernel_constraint": null, "bias_constraint": null}, "registered_name": null, "build_config": {"input_shape": [null, 12, 12, 512]}, "name": "conv4_block1_1_conv", "inbound_nodes": [{"args": [{"class_name": "__keras_tensor__", "config": {"shape": [null, 12, 12, 512], "dtype": "float32", "keras_history": ["conv3_block4_out", 0, 0]}}], "kwargs": {}}]}, {"module": "keras.layers", "class_name": "BatchNormalization", "config": {"name": "conv4_block1_1_bn", "trainable": false, "dtype": {"module": "keras", "class_name": "DTypePolicy", "config": {"name": "float32"}, "registered_name": null}, "axis": 3, "momentum": 0.99, "epsilon": 1.001e-05, "center": true, "scale": true, "beta_initializer": {"module": "keras.initializers", "class_name": "Zeros", "config": {}, "registered_name": null}, "gamma_initializer": {"module": "keras.initializers", "class_name": "Ones", "config": {}, "registered_name": null}, "moving_mean_initializer": {"module": "keras.initializers", "class_name": "Zeros", "config": {}, "registered_name": null}, "moving_variance_initializer": {"module": "keras.initializers", "class_name": "Ones", "config": {}, "registered_name": null}, "beta_regularizer": null, "gamma_regularizer": null, "beta_constraint": null, "gamma_constraint": null, "synchronized": false, "renorm": false, "renorm_clipping": null, "renorm_momentum": 0.99}, "registered_name": null, "build_config": {"input_shape": [null, 6, 6, 256]}, "name": "conv4_block1_1_bn", "inbound_nodes": [{"args": [{"class_name": "__keras_tensor__", "config": {"shape": [null, 6, 6, 256], "dtype": "float32", "keras_history": ["conv4_block1_1_conv", 0, 0]}}], "kwargs": {"mask": null}}]}, {"module": "keras.layers", "class_name": "Activation", "config": {"name": "conv4_block1_1_relu", "trainable": false, "dtype": {"module": "keras", "class_name": "DTypePolicy", "config": {"name": "float32"}, "registered_name": null}, "activation": "relu"}, "registered_name": null, "name": "conv4_block1_1_relu", "inbound_nodes": [{"args": [{"class_name": "__keras_tensor__", "config": {"shape": [null, 6, 6, 256], "dtype": "float32", "keras_history": ["conv4_block1_1_bn", 0, 0]}}], "kwargs": {}}]}, {"module": "keras.layers", "class_name": "Conv2D", "config": {"name": "conv4_block1_2_conv", "trainable": false, "dtype": {"module": "keras", "class_name": "DTypePolicy", "config": {"name": "float32"}, "registered_name": null}, "filters": 256, "kernel_size": [3, 3], "strides": [1, 1], "padding": "same", "data_format": "channels_last", "dilation_rate": [1, 1], "groups": 1, "activation": "linear", "use_bias": true, "kernel_initializer": {"module": "keras.initializers", "class_name": "GlorotUniform", "config": {"seed": null}, "registered_name": null}, "bias_initializer": {"module": "keras.initializers", "class_name": "Zeros", "config": {}, "registered_name": null}, "kernel_regularizer": null, "bias_regularizer": null, "activity_regularizer": null, "kernel_constraint": null, "bias_constraint": null}, "registered_name": null, "build_config": {"input_shape": [null, 6, 6, 256]}, "name": "conv4_block1_2_conv", "inbound_nodes": [{"args": [{"class_name": "__keras_tensor__", "config": {"shape": [null, 6, 6, 256], "dtype": "float32", "keras_history": ["conv4_block1_1_relu", 0, 0]}}], "kwargs": {}}]}, {"module": "keras.layers", "class_name": "BatchNormalization", "config": {"name": "conv4_block1_2_bn", "trainable": false, "dtype": {"module": "keras", "class_name": "DTypePolicy", "config": {"name": "float32"}, "registered_name": null}, "axis": 3, "momentum": 0.99, "epsilon": 1.001e-05, "center": true, "scale": true, "beta_initializer": {"module": "keras.initializers", "class_name": "Zeros", "config": {}, "registered_name": null}, "gamma_initializer": {"module": "keras.initializers", "class_name": "Ones", "config": {}, "registered_name": null}, "moving_mean_initializer": {"module": "keras.initializers", "class_name": "Zeros", "config": {}, "registered_name": null}, "moving_variance_initializer": {"module": "keras.initializers", "class_name": "Ones", "config": {}, "registered_name": null}, "beta_regularizer": null, "gamma_regularizer": null, "beta_constraint": null, "gamma_constraint": null, "synchronized": false, "renorm": false, "renorm_clipping": null, "renorm_momentum": 0.99}, "registered_name": null, "build_config": {"input_shape": [null, 6, 6, 256]}, "name": "conv4_block1_2_bn", "inbound_nodes": [{"args": [{"class_name": "__keras_tensor__", "config": {"shape": [null, 6, 6, 256], "dtype": "float32", "keras_history": ["conv4_block1_2_conv", 0, 0]}}], "kwargs": {"mask": null}}]}, {"module": "keras.layers", "class_name": "Activation", "config": {"name": "conv4_block1_2_relu", "trainable": false, "dtype": {"module": "keras", "class_name": "DTypePolicy", "config": {"name": "float32"}, "registered_name": null}, "activation": "relu"}, "registered_name": null, "name": "conv4_block1_2_relu", "inbound_nodes": [{"args": [{"class_name": "__keras_tensor__", "config": {"shape": [null, 6, 6, 256], "dtype": "float32", "keras_history": ["conv4_block1_2_bn", 0, 0]}}], "kwargs": {}}]}, {"module": "keras.layers", "class_name": "Conv2D", "config": {"name": "conv4_block1_0_conv", "trainable": false, "dtype": {"module": "keras", "class_name": "DTypePolicy", "config": {"name": "float32"}, "registered_name": null}, "filters": 1024, "kernel_size": [1, 1], "strides": [2, 2], "padding": "valid", "data_format": "channels_last", "dilation_rate": [1, 1], "groups": 1, "activation": "linear", "use_bias": true, "kernel_initializer": {"module": "keras.initializers", "class_name": "GlorotUniform", "config": {"seed": null}, "registered_name": null}, "bias_initializer": {"module": "keras.initializers", "class_name": "Zeros", "config": {}, "registered_name": null}, "kernel_regularizer": null, "bias_regularizer": null, "activity_regularizer": null, "kernel_constraint": null, "bias_constraint": null}, "registered_name": null, "build_config": {"input_shape": [null, 12, 12, 512]}, "name": "conv4_block1_0_conv", "inbound_nodes": [{"args": [{"class_name": "__keras_tensor__", "config": {"shape": [null, 12, 12, 512], "dtype": "float32", "keras_history": ["conv3_block4_out", 0, 0]}}], "kwargs": {}}]}, {"module": "keras.layers", "class_name": "Conv2D", "config": {"name": "conv4_block1_3_conv", "trainable": false, "dtype": {"module": "keras", "class_name": "DTypePolicy", "config": {"name": "float32"}, "registered_name": null}, "filters": 1024, "kernel_size": [1, 1], "strides": [1, 1], "padding": "valid", "data_format": "channels_last", "dilation_rate": [1, 1], "groups": 1, "activation": "linear", "use_bias": true, "kernel_initializer": {"module": "keras.initializers", "class_name": "GlorotUniform", "config": {"seed": null}, "registered_name": null}, "bias_initializer": {"module": "keras.initializers", "class_name": "Zeros", "config": {}, "registered_name": null}, "kernel_regularizer": null, "bias_regularizer": null, "activity_regularizer": null, "kernel_constraint": null, "bias_constraint": null}, "registered_name": null, "build_config": {"input_shape": [null, 6, 6, 256]}, "name": "conv4_block1_3_conv", "inbound_nodes": [{"args": [{"class_name": "__keras_tensor__", "config": {"shape": [null, 6, 6, 256], "dtype": "float32", "keras_history": ["conv4_block1_2_relu", 0, 0]}}], "kwargs": {}}]}, {"module": "keras.layers", "class_name": "BatchNormalization", "config": {"name": "conv4_block1_0_bn", "trainable": false, "dtype": {"module": "keras", "class_name": "DTypePolicy", "config": {"name": "float32"}, "registered_name": null}, "axis": 3, "momentum": 0.99, "epsilon": 1.001e-05, "center": true, "scale": true, "beta_initializer": {"module": "keras.initializers", "class_name": "Zeros", "config": {}, "registered_name": null}, "gamma_initializer": {"module": "keras.initializers", "class_name": "Ones", "config": {}, "registered_name": null}, "moving_mean_initializer": {"module": "keras.initializers", "class_name": "Zeros", "config": {}, "registered_name": null}, "moving_variance_initializer": {"module": "keras.initializers", "class_name": "Ones", "config": {}, "registered_name": null}, "beta_regularizer": null, "gamma_regularizer": null, "beta_constraint": null, "gamma_constraint": null, "synchronized": false, "renorm": false, "renorm_clipping": null, "renorm_momentum": 0.99}, "registered_name": null, "build_config": {"input_shape": [null, 6, 6, 1024]}, "name": "conv4_block1_0_bn", "inbound_nodes": [{"args": [{"class_name": "__keras_tensor__", "config": {"shape": [null, 6, 6, 1024], "dtype": "float32", "keras_history": ["conv4_block1_0_conv", 0, 0]}}], "kwargs": {"mask": null}}]}, {"module": "keras.layers", "class_name": "BatchNormalization", "config": {"name": "conv4_block1_3_bn", "trainable": false, "dtype": {"module": "keras", "class_name": "DTypePolicy", "config": {"name": "float32"}, "registered_name": null}, "axis": 3, "momentum": 0.99, "epsilon": 1.001e-05, "center": true, "scale": true, "beta_initializer": {"module": "keras.initializers", "class_name": "Zeros", "config": {}, "registered_name": null}, "gamma_initializer": {"module": "keras.initializers", "class_name": "Ones", "config": {}, "registered_name": null}, "moving_mean_initializer": {"module": "keras.initializers", "class_name": "Zeros", "config": {}, "registered_name": null}, "moving_variance_initializer": {"module": "keras.initializers", "class_name": "Ones", "config": {}, "registered_name": null}, "beta_regularizer": null, "gamma_regularizer": null, "beta_constraint": null, "gamma_constraint": null, "synchronized": false, "renorm": false, "renorm_clipping": null, "renorm_momentum": 0.99}, "registered_name": null, "build_config": {"input_shape": [null, 6, 6, 1024]}, "name": "conv4_block1_3_bn", "inbound_nodes": [{"args": [{"class_name": "__keras_tensor__", "config": {"shape": [null, 6, 6, 1024], "dtype": "float32", "keras_history": ["conv4_block1_3_conv", 0, 0]}}], "kwargs": {"mask": null}}]}, {"module": "keras.layers", "class_name": "Add", "config": {"name": "conv4_block1_add", "trainable": false, "dtype": {"module": "keras", "class_name": "DTypePolicy", "config": {"name": "float32"}, "registered_name": null}}, "registered_name": null, "build_config": {"input_shape": [[null, 6, 6, 1024], [null, 6, 6, 1024]]}, "name": "conv4_block1_add", "inbound_nodes": [{"args": [[{"class_name": "__keras_tensor__", "config": {"shape": [null, 6, 6, 1024], "dtype": "float32", "keras_history": ["conv4_block1_0_bn", 0, 0]}}, {"class_name": "__keras_tensor__", "config": {"shape": [null, 6, 6, 1024], "dtype": "float32", "keras_history": ["conv4_block1_3_bn", 0, 0]}}]], "kwargs": {}}]}, {"module": "keras.layers", "class_name": "Activation", "config": {"name": "conv4_block1_out", "trainable": false, "dtype": {"module": "keras", "class_name": "DTypePolicy", "config": {"name": "float32"}, "registered_name": null}, "activation": "relu"}, "registered_name": null, "name": "conv4_block1_out", "inbound_nodes": [{"args": [{"class_name": "__keras_tensor__", "config": {"shape": [null, 6, 6, 1024], "dtype": "float32", "keras_history": ["conv4_block1_add", 0, 0]}}], "kwargs": {}}]}, {"module": "keras.layers", "class_name": "Conv2D", "config": {"name": "conv4_block2_1_conv", "trainable": false, "dtype": {"module": "keras", "class_name": "DTypePolicy", "config": {"name": "float32"}, "registered_name": null}, "filters": 256, "kernel_size": [1, 1], "strides": [1, 1], "padding": "valid", "data_format": "channels_last", "dilation_rate": [1, 1], "groups": 1, "activation": "linear", "use_bias": true, "kernel_initializer": {"module": "keras.initializers", "class_name": "GlorotUniform", "config": {"seed": null}, "registered_name": null}, "bias_initializer": {"module": "keras.initializers", "class_name": "Zeros", "config": {}, "registered_name": null}, "kernel_regularizer": null, "bias_regularizer": null, "activity_regularizer": null, "kernel_constraint": null, "bias_constraint": null}, "registered_name": null, "build_config": {"input_shape": [null, 6, 6, 1024]}, "name": "conv4_block2_1_conv", "inbound_nodes": [{"args": [{"class_name": "__keras_tensor__", "config": {"shape": [null, 6, 6, 1024], "dtype": "float32", "keras_history": ["conv4_block1_out", 0, 0]}}], "kwargs": {}}]}, {"module": "keras.layers", "class_name": "BatchNormalization", "config": {"name": "conv4_block2_1_bn", "trainable": false, "dtype": {"module": "keras", "class_name": "DTypePolicy", "config": {"name": "float32"}, "registered_name": null}, "axis": 3, "momentum": 0.99, "epsilon": 1.001e-05, "center": true, "scale": true, "beta_initializer": {"module": "keras.initializers", "class_name": "Zeros", "config": {}, "registered_name": null}, "gamma_initializer": {"module": "keras.initializers", "class_name": "Ones", "config": {}, "registered_name": null}, "moving_mean_initializer": {"module": "keras.initializers", "class_name": "Zeros", "config": {}, "registered_name": null}, "moving_variance_initializer": {"module": "keras.initializers", "class_name": "Ones", "config": {}, "registered_name": null}, "beta_regularizer": null, "gamma_regularizer": null, "beta_constraint": null, "gamma_constraint": null, "synchronized": false, "renorm": false, "renorm_clipping": null, "renorm_momentum": 0.99}, "registered_name": null, "build_config": {"input_shape": [null, 6, 6, 256]}, "name": "conv4_block2_1_bn", "inbound_nodes": [{"args": [{"class_name": "__keras_tensor__", "config": {"shape": [null, 6, 6, 256], "dtype": "float32", "keras_history": ["conv4_block2_1_conv", 0, 0]}}], "kwargs": {"mask": null}}]}, {"module": "keras.layers", "class_name": "Activation", "config": {"name": "conv4_block2_1_relu", "trainable": false, "dtype": {"module": "keras", "class_name": "DTypePolicy", "config": {"name": "float32"}, "registered_name": null}, "activation": "relu"}, "registered_name": null, "name": "conv4_block2_1_relu", "inbound_nodes": [{"args": [{"class_name": "__keras_tensor__", "config": {"shape": [null, 6, 6, 256], "dtype": "float32", "keras_history": ["conv4_block2_1_bn", 0, 0]}}], "kwargs": {}}]}, {"module": "keras.layers", "class_name": "Conv2D", "config": {"name": "conv4_block2_2_conv", "trainable": false, "dtype": {"module": "keras", "class_name": "DTypePolicy", "config": {"name": "float32"}, "registered_name": null}, "filters": 256, "kernel_size": [3, 3], "strides": [1, 1], "padding": "same", "data_format": "channels_last", "dilation_rate": [1, 1], "groups": 1, "activation": "linear", "use_bias": true, "kernel_initializer": {"module": "keras.initializers", "class_name": "GlorotUniform", "config": {"seed": null}, "registered_name": null}, "bias_initializer": {"module": "keras.initializers", "class_name": "Zeros", "config": {}, "registered_name": null}, "kernel_regularizer": null, "bias_regularizer": null, "activity_regularizer": null, "kernel_constraint": null, "bias_constraint": null}, "registered_name": null, "build_config": {"input_shape": [null, 6, 6, 256]}, "name": "conv4_block2_2_conv", "inbound_nodes": [{"args": [{"class_name": "__keras_tensor__", "config": {"shape": [null, 6, 6, 256], "dtype": "float32", "keras_history": ["conv4_block2_1_relu", 0, 0]}}], "kwargs": {}}]}, {"module": "keras.layers", "class_name": "BatchNormalization", "config": {"name": "conv4_block2_2_bn", "trainable": false, "dtype": {"module": "keras", "class_name": "DTypePolicy", "config": {"name": "float32"}, "registered_name": null}, "axis": 3, "momentum": 0.99, "epsilon": 1.001e-05, "center": true, "scale": true, "beta_initializer": {"module": "keras.initializers", "class_name": "Zeros", "config": {}, "registered_name": null}, "gamma_initializer": {"module": "keras.initializers", "class_name": "Ones", "config": {}, "registered_name": null}, "moving_mean_initializer": {"module": "keras.initializers", "class_name": "Zeros", "config": {}, "registered_name": null}, "moving_variance_initializer": {"module": "keras.initializers", "class_name": "Ones", "config": {}, "registered_name": null}, "beta_regularizer": null, "gamma_regularizer": null, "beta_constraint": null, "gamma_constraint": null, "synchronized": false, "renorm": false, "renorm_clipping": null, "renorm_momentum": 0.99}, "registered_name": null, "build_config": {"input_shape": [null, 6, 6, 256]}, "name": "conv4_block2_2_bn", "inbound_nodes": [{"args": [{"class_name": "__keras_tensor__", "config": {"shape": [null, 6, 6, 256], "dtype": "float32", "keras_history": ["conv4_block2_2_conv", 0, 0]}}], "kwargs": {"mask": null}}]}, {"module": "keras.layers", "class_name": "Activation", "config": {"name": "conv4_block2_2_relu", "trainable": false, "dtype": {"module": "keras", "class_name": "DTypePolicy", "config": {"name": "float32"}, "registered_name": null}, "activation": "relu"}, "registered_name": null, "name": "conv4_block2_2_relu", "inbound_nodes": [{"args": [{"class_name": "__keras_tensor__", "config": {"shape": [null, 6, 6, 256], "dtype": "float32", "keras_history": ["conv4_block2_2_bn", 0, 0]}}], "kwargs": {}}]}, {"module": "keras.layers", "class_name": "Conv2D", "config": {"name": "conv4_block2_3_conv", "trainable": false, "dtype": {"module": "keras", "class_name": "DTypePolicy", "config": {"name": "float32"}, "registered_name": null}, "filters": 1024, "kernel_size": [1, 1], "strides": [1, 1], "padding": "valid", "data_format": "channels_last", "dilation_rate": [1, 1], "groups": 1, "activation": "linear", "use_bias": true, "kernel_initializer": {"module": "keras.initializers", "class_name": "GlorotUniform", "config": {"seed": null}, "registered_name": null}, "bias_initializer": {"module": "keras.initializers", "class_name": "Zeros", "config": {}, "registered_name": null}, "kernel_regularizer": null, "bias_regularizer": null, "activity_regularizer": null, "kernel_constraint": null, "bias_constraint": null}, "registered_name": null, "build_config": {"input_shape": [null, 6, 6, 256]}, "name": "conv4_block2_3_conv", "inbound_nodes": [{"args": [{"class_name": "__keras_tensor__", "config": {"shape": [null, 6, 6, 256], "dtype": "float32", "keras_history": ["conv4_block2_2_relu", 0, 0]}}], "kwargs": {}}]}, {"module": "keras.layers", "class_name": "BatchNormalization", "config": {"name": "conv4_block2_3_bn", "trainable": false, "dtype": {"module": "keras", "class_name": "DTypePolicy", "config": {"name": "float32"}, "registered_name": null}, "axis": 3, "momentum": 0.99, "epsilon": 1.001e-05, "center": true, "scale": true, "beta_initializer": {"module": "keras.initializers", "class_name": "Zeros", "config": {}, "registered_name": null}, "gamma_initializer": {"module": "keras.initializers", "class_name": "Ones", "config": {}, "registered_name": null}, "moving_mean_initializer": {"module": "keras.initializers", "class_name": "Zeros", "config": {}, "registered_name": null}, "moving_variance_initializer": {"module": "keras.initializers", "class_name": "Ones", "config": {}, "registered_name": null}, "beta_regularizer": null, "gamma_regularizer": null, "beta_constraint": null, "gamma_constraint": null, "synchronized": false, "renorm": false, "renorm_clipping": null, "renorm_momentum": 0.99}, "registered_name": null, "build_config": {"input_shape": [null, 6, 6, 1024]}, "name": "conv4_block2_3_bn", "inbound_nodes": [{"args": [{"class_name": "__keras_tensor__", "config": {"shape": [null, 6, 6, 1024], "dtype": "float32", "keras_history": ["conv4_block2_3_conv", 0, 0]}}], "kwargs": {"mask": null}}]}, {"module": "keras.layers", "class_name": "Add", "config": {"name": "conv4_block2_add", "trainable": false, "dtype": {"module": "keras", "class_name": "DTypePolicy", "config": {"name": "float32"}, "registered_name": null}}, "registered_name": null, "build_config": {"input_shape": [[null, 6, 6, 1024], [null, 6, 6, 1024]]}, "name": "conv4_block2_add", "inbound_nodes": [{"args": [[{"class_name": "__keras_tensor__", "config": {"shape": [null, 6, 6, 1024], "dtype": "float32", "keras_history": ["conv4_block1_out", 0, 0]}}, {"class_name": "__keras_tensor__", "config": {"shape": [null, 6, 6, 1024], "dtype": "float32", "keras_history": ["conv4_block2_3_bn", 0, 0]}}]], "kwargs": {}}]}, {"module": "keras.layers", "class_name": "Activation", "config": {"name": "conv4_block2_out", "trainable": false, "dtype": {"module": "keras", "class_name": "DTypePolicy", "config": {"name": "float32"}, "registered_name": null}, "activation": "relu"}, "registered_name": null, "name": "conv4_block2_out", "inbound_nodes": [{"args": [{"class_name": "__keras_tensor__", "config": {"shape": [null, 6, 6, 1024], "dtype": "float32", "keras_history": ["conv4_block2_add", 0, 0]}}], "kwargs": {}}]}, {"module": "keras.layers", "class_name": "Conv2D", "config": {"name": "conv4_block3_1_conv", "trainable": false, "dtype": {"module": "keras", "class_name": "DTypePolicy", "config": {"name": "float32"}, "registered_name": null}, "filters": 256, "kernel_size": [1, 1], "strides": [1, 1], "padding": "valid", "data_format": "channels_last", "dilation_rate": [1, 1], "groups": 1, "activation": "linear", "use_bias": true, "kernel_initializer": {"module": "keras.initializers", "class_name": "GlorotUniform", "config": {"seed": null}, "registered_name": null}, "bias_initializer": {"module": "keras.initializers", "class_name": "Zeros", "config": {}, "registered_name": null}, "kernel_regularizer": null, "bias_regularizer": null, "activity_regularizer": null, "kernel_constraint": null, "bias_constraint": null}, "registered_name": null, "build_config": {"input_shape": [null, 6, 6, 1024]}, "name": "conv4_block3_1_conv", "inbound_nodes": [{"args": [{"class_name": "__keras_tensor__", "config": {"shape": [null, 6, 6, 1024], "dtype": "float32", "keras_history": ["conv4_block2_out", 0, 0]}}], "kwargs": {}}]}, {"module": "keras.layers", "class_name": "BatchNormalization", "config": {"name": "conv4_block3_1_bn", "trainable": false, "dtype": {"module": "keras", "class_name": "DTypePolicy", "config": {"name": "float32"}, "registered_name": null}, "axis": 3, "momentum": 0.99, "epsilon": 1.001e-05, "center": true, "scale": true, "beta_initializer": {"module": "keras.initializers", "class_name": "Zeros", "config": {}, "registered_name": null}, "gamma_initializer": {"module": "keras.initializers", "class_name": "Ones", "config": {}, "registered_name": null}, "moving_mean_initializer": {"module": "keras.initializers", "class_name": "Zeros", "config": {}, "registered_name": null}, "moving_variance_initializer": {"module": "keras.initializers", "class_name": "Ones", "config": {}, "registered_name": null}, "beta_regularizer": null, "gamma_regularizer": null, "beta_constraint": null, "gamma_constraint": null, "synchronized": false, "renorm": false, "renorm_clipping": null, "renorm_momentum": 0.99}, "registered_name": null, "build_config": {"input_shape": [null, 6, 6, 256]}, "name": "conv4_block3_1_bn", "inbound_nodes": [{"args": [{"class_name": "__keras_tensor__", "config": {"shape": [null, 6, 6, 256], "dtype": "float32", "keras_history": ["conv4_block3_1_conv", 0, 0]}}], "kwargs": {"mask": null}}]}, {"module": "keras.layers", "class_name": "Activation", "config": {"name": "conv4_block3_1_relu", "trainable": false, "dtype": {"module": "keras", "class_name": "DTypePolicy", "config": {"name": "float32"}, "registered_name": null}, "activation": "relu"}, "registered_name": null, "name": "conv4_block3_1_relu", "inbound_nodes": [{"args": [{"class_name": "__keras_tensor__", "config": {"shape": [null, 6, 6, 256], "dtype": "float32", "keras_history": ["conv4_block3_1_bn", 0, 0]}}], "kwargs": {}}]}, {"module": "keras.layers", "class_name": "Conv2D", "config": {"name": "conv4_block3_2_conv", "trainable": false, "dtype": {"module": "keras", "class_name": "DTypePolicy", "config": {"name": "float32"}, "registered_name": null}, "filters": 256, "kernel_size": [3, 3], "strides": [1, 1], "padding": "same", "data_format": "channels_last", "dilation_rate": [1, 1], "groups": 1, "activation": "linear", "use_bias": true, "kernel_initializer": {"module": "keras.initializers", "class_name": "GlorotUniform", "config": {"seed": null}, "registered_name": null}, "bias_initializer": {"module": "keras.initializers", "class_name": "Zeros", "config": {}, "registered_name": null}, "kernel_regularizer": null, "bias_regularizer": null, "activity_regularizer": null, "kernel_constraint": null, "bias_constraint": null}, "registered_name": null, "build_config": {"input_shape": [null, 6, 6, 256]}, "name": "conv4_block3_2_conv", "inbound_nodes": [{"args": [{"class_name": "__keras_tensor__", "config": {"shape": [null, 6, 6, 256], "dtype": "float32", "keras_history": ["conv4_block3_1_relu", 0, 0]}}], "kwargs": {}}]}, {"module": "keras.layers", "class_name": "BatchNormalization", "config": {"name": "conv4_block3_2_bn", "trainable": false, "dtype": {"module": "keras", "class_name": "DTypePolicy", "config": {"name": "float32"}, "registered_name": null}, "axis": 3, "momentum": 0.99, "epsilon": 1.001e-05, "center": true, "scale": true, "beta_initializer": {"module": "keras.initializers", "class_name": "Zeros", "config": {}, "registered_name": null}, "gamma_initializer": {"module": "keras.initializers", "class_name": "Ones", "config": {}, "registered_name": null}, "moving_mean_initializer": {"module": "keras.initializers", "class_name": "Zeros", "config": {}, "registered_name": null}, "moving_variance_initializer": {"module": "keras.initializers", "class_name": "Ones", "config": {}, "registered_name": null}, "beta_regularizer": null, "gamma_regularizer": null, "beta_constraint": null, "gamma_constraint": null, "synchronized": false, "renorm": false, "renorm_clipping": null, "renorm_momentum": 0.99}, "registered_name": null, "build_config": {"input_shape": [null, 6, 6, 256]}, "name": "conv4_block3_2_bn", "inbound_nodes": [{"args": [{"class_name": "__keras_tensor__", "config": {"shape": [null, 6, 6, 256], "dtype": "float32", "keras_history": ["conv4_block3_2_conv", 0, 0]}}], "kwargs": {"mask": null}}]}, {"module": "keras.layers", "class_name": "Activation", "config": {"name": "conv4_block3_2_relu", "trainable": false, "dtype": {"module": "keras", "class_name": "DTypePolicy", "config": {"name": "float32"}, "registered_name": null}, "activation": "relu"}, "registered_name": null, "name": "conv4_block3_2_relu", "inbound_nodes": [{"args": [{"class_name": "__keras_tensor__", "config": {"shape": [null, 6, 6, 256], "dtype": "float32", "keras_history": ["conv4_block3_2_bn", 0, 0]}}], "kwargs": {}}]}, {"module": "keras.layers", "class_name": "Conv2D", "config": {"name": "conv4_block3_3_conv", "trainable": false, "dtype": {"module": "keras", "class_name": "DTypePolicy", "config": {"name": "float32"}, "registered_name": null}, "filters": 1024, "kernel_size": [1, 1], "strides": [1, 1], "padding": "valid", "data_format": "channels_last", "dilation_rate": [1, 1], "groups": 1, "activation": "linear", "use_bias": true, "kernel_initializer": {"module": "keras.initializers", "class_name": "GlorotUniform", "config": {"seed": null}, "registered_name": null}, "bias_initializer": {"module": "keras.initializers", "class_name": "Zeros", "config": {}, "registered_name": null}, "kernel_regularizer": null, "bias_regularizer": null, "activity_regularizer": null, "kernel_constraint": null, "bias_constraint": null}, "registered_name": null, "build_config": {"input_shape": [null, 6, 6, 256]}, "name": "conv4_block3_3_conv", "inbound_nodes": [{"args": [{"class_name": "__keras_tensor__", "config": {"shape": [null, 6, 6, 256], "dtype": "float32", "keras_history": ["conv4_block3_2_relu", 0, 0]}}], "kwargs": {}}]}, {"module": "keras.layers", "class_name": "BatchNormalization", "config": {"name": "conv4_block3_3_bn", "trainable": false, "dtype": {"module": "keras", "class_name": "DTypePolicy", "config": {"name": "float32"}, "registered_name": null}, "axis": 3, "momentum": 0.99, "epsilon": 1.001e-05, "center": true, "scale": true, "beta_initializer": {"module": "keras.initializers", "class_name": "Zeros", "config": {}, "registered_name": null}, "gamma_initializer": {"module": "keras.initializers", "class_name": "Ones", "config": {}, "registered_name": null}, "moving_mean_initializer": {"module": "keras.initializers", "class_name": "Zeros", "config": {}, "registered_name": null}, "moving_variance_initializer": {"module": "keras.initializers", "class_name": "Ones", "config": {}, "registered_name": null}, "beta_regularizer": null, "gamma_regularizer": null, "beta_constraint": null, "gamma_constraint": null, "synchronized": false, "renorm": false, "renorm_clipping": null, "renorm_momentum": 0.99}, "registered_name": null, "build_config": {"input_shape": [null, 6, 6, 1024]}, "name": "conv4_block3_3_bn", "inbound_nodes": [{"args": [{"class_name": "__keras_tensor__", "config": {"shape": [null, 6, 6, 1024], "dtype": "float32", "keras_history": ["conv4_block3_3_conv", 0, 0]}}], "kwargs": {"mask": null}}]}, {"module": "keras.layers", "class_name": "Add", "config": {"name": "conv4_block3_add", "trainable": false, "dtype": {"module": "keras", "class_name": "DTypePolicy", "config": {"name": "float32"}, "registered_name": null}}, "registered_name": null, "build_config": {"input_shape": [[null, 6, 6, 1024], [null, 6, 6, 1024]]}, "name": "conv4_block3_add", "inbound_nodes": [{"args": [[{"class_name": "__keras_tensor__", "config": {"shape": [null, 6, 6, 1024], "dtype": "float32", "keras_history": ["conv4_block2_out", 0, 0]}}, {"class_name": "__keras_tensor__", "config": {"shape": [null, 6, 6, 1024], "dtype": "float32", "keras_history": ["conv4_block3_3_bn", 0, 0]}}]], "kwargs": {}}]}, {"module": "keras.layers", "class_name": "Activation", "config": {"name": "conv4_block3_out", "trainable": false, "dtype": {"module": "keras", "class_name": "DTypePolicy", "config": {"name": "float32"}, "registered_name": null}, "activation": "relu"}, "registered_name": null, "name": "conv4_block3_out", "inbound_nodes": [{"args": [{"class_name": "__keras_tensor__", "config": {"shape": [null, 6, 6, 1024], "dtype": "float32", "keras_history": ["conv4_block3_add", 0, 0]}}], "kwargs": {}}]}, {"module": "keras.layers", "class_name": "Conv2D", "config": {"name": "conv4_block4_1_conv", "trainable": false, "dtype": {"module": "keras", "class_name": "DTypePolicy", "config": {"name": "float32"}, "registered_name": null}, "filters": 256, "kernel_size": [1, 1], "strides": [1, 1], "padding": "valid", "data_format": "channels_last", "dilation_rate": [1, 1], "groups": 1, "activation": "linear", "use_bias": true, "kernel_initializer": {"module": "keras.initializers", "class_name": "GlorotUniform", "config": {"seed": null}, "registered_name": null}, "bias_initializer": {"module": "keras.initializers", "class_name": "Zeros", "config": {}, "registered_name": null}, "kernel_regularizer": null, "bias_regularizer": null, "activity_regularizer": null, "kernel_constraint": null, "bias_constraint": null}, "registered_name": null, "build_config": {"input_shape": [null, 6, 6, 1024]}, "name": "conv4_block4_1_conv", "inbound_nodes": [{"args": [{"class_name": "__keras_tensor__", "config": {"shape": [null, 6, 6, 1024], "dtype": "float32", "keras_history": ["conv4_block3_out", 0, 0]}}], "kwargs": {}}]}, {"module": "keras.layers", "class_name": "BatchNormalization", "config": {"name": "conv4_block4_1_bn", "trainable": false, "dtype": {"module": "keras", "class_name": "DTypePolicy", "config": {"name": "float32"}, "registered_name": null}, "axis": 3, "momentum": 0.99, "epsilon": 1.001e-05, "center": true, "scale": true, "beta_initializer": {"module": "keras.initializers", "class_name": "Zeros", "config": {}, "registered_name": null}, "gamma_initializer": {"module": "keras.initializers", "class_name": "Ones", "config": {}, "registered_name": null}, "moving_mean_initializer": {"module": "keras.initializers", "class_name": "Zeros", "config": {}, "registered_name": null}, "moving_variance_initializer": {"module": "keras.initializers", "class_name": "Ones", "config": {}, "registered_name": null}, "beta_regularizer": null, "gamma_regularizer": null, "beta_constraint": null, "gamma_constraint": null, "synchronized": false, "renorm": false, "renorm_clipping": null, "renorm_momentum": 0.99}, "registered_name": null, "build_config": {"input_shape": [null, 6, 6, 256]}, "name": "conv4_block4_1_bn", "inbound_nodes": [{"args": [{"class_name": "__keras_tensor__", "config": {"shape": [null, 6, 6, 256], "dtype": "float32", "keras_history": ["conv4_block4_1_conv", 0, 0]}}], "kwargs": {"mask": null}}]}, {"module": "keras.layers", "class_name": "Activation", "config": {"name": "conv4_block4_1_relu", "trainable": false, "dtype": {"module": "keras", "class_name": "DTypePolicy", "config": {"name": "float32"}, "registered_name": null}, "activation": "relu"}, "registered_name": null, "name": "conv4_block4_1_relu", "inbound_nodes": [{"args": [{"class_name": "__keras_tensor__", "config": {"shape": [null, 6, 6, 256], "dtype": "float32", "keras_history": ["conv4_block4_1_bn", 0, 0]}}], "kwargs": {}}]}, {"module": "keras.layers", "class_name": "Conv2D", "config": {"name": "conv4_block4_2_conv", "trainable": false, "dtype": {"module": "keras", "class_name": "DTypePolicy", "config": {"name": "float32"}, "registered_name": null}, "filters": 256, "kernel_size": [3, 3], "strides": [1, 1], "padding": "same", "data_format": "channels_last", "dilation_rate": [1, 1], "groups": 1, "activation": "linear", "use_bias": true, "kernel_initializer": {"module": "keras.initializers", "class_name": "GlorotUniform", "config": {"seed": null}, "registered_name": null}, "bias_initializer": {"module": "keras.initializers", "class_name": "Zeros", "config": {}, "registered_name": null}, "kernel_regularizer": null, "bias_regularizer": null, "activity_regularizer": null, "kernel_constraint": null, "bias_constraint": null}, "registered_name": null, "build_config": {"input_shape": [null, 6, 6, 256]}, "name": "conv4_block4_2_conv", "inbound_nodes": [{"args": [{"class_name": "__keras_tensor__", "config": {"shape": [null, 6, 6, 256], "dtype": "float32", "keras_history": ["conv4_block4_1_relu", 0, 0]}}], "kwargs": {}}]}, {"module": "keras.layers", "class_name": "BatchNormalization", "config": {"name": "conv4_block4_2_bn", "trainable": false, "dtype": {"module": "keras", "class_name": "DTypePolicy", "config": {"name": "float32"}, "registered_name": null}, "axis": 3, "momentum": 0.99, "epsilon": 1.001e-05, "center": true, "scale": true, "beta_initializer": {"module": "keras.initializers", "class_name": "Zeros", "config": {}, "registered_name": null}, "gamma_initializer": {"module": "keras.initializers", "class_name": "Ones", "config": {}, "registered_name": null}, "moving_mean_initializer": {"module": "keras.initializers", "class_name": "Zeros", "config": {}, "registered_name": null}, "moving_variance_initializer": {"module": "keras.initializers", "class_name": "Ones", "config": {}, "registered_name": null}, "beta_regularizer": null, "gamma_regularizer": null, "beta_constraint": null, "gamma_constraint": null, "synchronized": false, "renorm": false, "renorm_clipping": null, "renorm_momentum": 0.99}, "registered_name": null, "build_config": {"input_shape": [null, 6, 6, 256]}, "name": "conv4_block4_2_bn", "inbound_nodes": [{"args": [{"class_name": "__keras_tensor__", "config": {"shape": [null, 6, 6, 256], "dtype": "float32", "keras_history": ["conv4_block4_2_conv", 0, 0]}}], "kwargs": {"mask": null}}]}, {"module": "keras.layers", "class_name": "Activation", "config": {"name": "conv4_block4_2_relu", "trainable": false, "dtype": {"module": "keras", "class_name": "DTypePolicy", "config": {"name": "float32"}, "registered_name": null}, "activation": "relu"}, "registered_name": null, "name": "conv4_block4_2_relu", "inbound_nodes": [{"args": [{"class_name": "__keras_tensor__", "config": {"shape": [null, 6, 6, 256], "dtype": "float32", "keras_history": ["conv4_block4_2_bn", 0, 0]}}], "kwargs": {}}]}, {"module": "keras.layers", "class_name": "Conv2D", "config": {"name": "conv4_block4_3_conv", "trainable": false, "dtype": {"module": "keras", "class_name": "DTypePolicy", "config": {"name": "float32"}, "registered_name": null}, "filters": 1024, "kernel_size": [1, 1], "strides": [1, 1], "padding": "valid", "data_format": "channels_last", "dilation_rate": [1, 1], "groups": 1, "activation": "linear", "use_bias": true, "kernel_initializer": {"module": "keras.initializers", "class_name": "GlorotUniform", "config": {"seed": null}, "registered_name": null}, "bias_initializer": {"module": "keras.initializers", "class_name": "Zeros", "config": {}, "registered_name": null}, "kernel_regularizer": null, "bias_regularizer": null, "activity_regularizer": null, "kernel_constraint": null, "bias_constraint": null}, "registered_name": null, "build_config": {"input_shape": [null, 6, 6, 256]}, "name": "conv4_block4_3_conv", "inbound_nodes": [{"args": [{"class_name": "__keras_tensor__", "config": {"shape": [null, 6, 6, 256], "dtype": "float32", "keras_history": ["conv4_block4_2_relu", 0, 0]}}], "kwargs": {}}]}, {"module": "keras.layers", "class_name": "BatchNormalization", "config": {"name": "conv4_block4_3_bn", "trainable": false, "dtype": {"module": "keras", "class_name": "DTypePolicy", "config": {"name": "float32"}, "registered_name": null}, "axis": 3, "momentum": 0.99, "epsilon": 1.001e-05, "center": true, "scale": true, "beta_initializer": {"module": "keras.initializers", "class_name": "Zeros", "config": {}, "registered_name": null}, "gamma_initializer": {"module": "keras.initializers", "class_name": "Ones", "config": {}, "registered_name": null}, "moving_mean_initializer": {"module": "keras.initializers", "class_name": "Zeros", "config": {}, "registered_name": null}, "moving_variance_initializer": {"module": "keras.initializers", "class_name": "Ones", "config": {}, "registered_name": null}, "beta_regularizer": null, "gamma_regularizer": null, "beta_constraint": null, "gamma_constraint": null, "synchronized": false, "renorm": false, "renorm_clipping": null, "renorm_momentum": 0.99}, "registered_name": null, "build_config": {"input_shape": [null, 6, 6, 1024]}, "name": "conv4_block4_3_bn", "inbound_nodes": [{"args": [{"class_name": "__keras_tensor__", "config": {"shape": [null, 6, 6, 1024], "dtype": "float32", "keras_history": ["conv4_block4_3_conv", 0, 0]}}], "kwargs": {"mask": null}}]}, {"module": "keras.layers", "class_name": "Add", "config": {"name": "conv4_block4_add", "trainable": false, "dtype": {"module": "keras", "class_name": "DTypePolicy", "config": {"name": "float32"}, "registered_name": null}}, "registered_name": null, "build_config": {"input_shape": [[null, 6, 6, 1024], [null, 6, 6, 1024]]}, "name": "conv4_block4_add", "inbound_nodes": [{"args": [[{"class_name": "__keras_tensor__", "config": {"shape": [null, 6, 6, 1024], "dtype": "float32", "keras_history": ["conv4_block3_out", 0, 0]}}, {"class_name": "__keras_tensor__", "config": {"shape": [null, 6, 6, 1024], "dtype": "float32", "keras_history": ["conv4_block4_3_bn", 0, 0]}}]], "kwargs": {}}]}, {"module": "keras.layers", "class_name": "Activation", "config": {"name": "conv4_block4_out", "trainable": false, "dtype": {"module": "keras", "class_name": "DTypePolicy", "config": {"name": "float32"}, "registered_name": null}, "activation": "relu"}, "registered_name": null, "name": "conv4_block4_out", "inbound_nodes": [{"args": [{"class_name": "__keras_tensor__", "config": {"shape": [null, 6, 6, 1024], "dtype": "float32", "keras_history": ["conv4_block4_add", 0, 0]}}], "kwargs": {}}]}, {"module": "keras.layers", "class_name": "Conv2D", "config": {"name": "conv4_block5_1_conv", "trainable": false, "dtype": {"module": "keras", "class_name": "DTypePolicy", "config": {"name": "float32"}, "registered_name": null}, "filters": 256, "kernel_size": [1, 1], "strides": [1, 1], "padding": "valid", "data_format": "channels_last", "dilation_rate": [1, 1], "groups": 1, "activation": "linear", "use_bias": true, "kernel_initializer": {"module": "keras.initializers", "class_name": "GlorotUniform", "config": {"seed": null}, "registered_name": null}, "bias_initializer": {"module": "keras.initializers", "class_name": "Zeros", "config": {}, "registered_name": null}, "kernel_regularizer": null, "bias_regularizer": null, "activity_regularizer": null, "kernel_constraint": null, "bias_constraint": null}, "registered_name": null, "build_config": {"input_shape": [null, 6, 6, 1024]}, "name": "conv4_block5_1_conv", "inbound_nodes": [{"args": [{"class_name": "__keras_tensor__", "config": {"shape": [null, 6, 6, 1024], "dtype": "float32", "keras_history": ["conv4_block4_out", 0, 0]}}], "kwargs": {}}]}, {"module": "keras.layers", "class_name": "BatchNormalization", "config": {"name": "conv4_block5_1_bn", "trainable": false, "dtype": {"module": "keras", "class_name": "DTypePolicy", "config": {"name": "float32"}, "registered_name": null}, "axis": 3, "momentum": 0.99, "epsilon": 1.001e-05, "center": true, "scale": true, "beta_initializer": {"module": "keras.initializers", "class_name": "Zeros", "config": {}, "registered_name": null}, "gamma_initializer": {"module": "keras.initializers", "class_name": "Ones", "config": {}, "registered_name": null}, "moving_mean_initializer": {"module": "keras.initializers", "class_name": "Zeros", "config": {}, "registered_name": null}, "moving_variance_initializer": {"module": "keras.initializers", "class_name": "Ones", "config": {}, "registered_name": null}, "beta_regularizer": null, "gamma_regularizer": null, "beta_constraint": null, "gamma_constraint": null, "synchronized": false, "renorm": false, "renorm_clipping": null, "renorm_momentum": 0.99}, "registered_name": null, "build_config": {"input_shape": [null, 6, 6, 256]}, "name": "conv4_block5_1_bn", "inbound_nodes": [{"args": [{"class_name": "__keras_tensor__", "config": {"shape": [null, 6, 6, 256], "dtype": "float32", "keras_history": ["conv4_block5_1_conv", 0, 0]}}], "kwargs": {"mask": null}}]}, {"module": "keras.layers", "class_name": "Activation", "config": {"name": "conv4_block5_1_relu", "trainable": false, "dtype": {"module": "keras", "class_name": "DTypePolicy", "config": {"name": "float32"}, "registered_name": null}, "activation": "relu"}, "registered_name": null, "name": "conv4_block5_1_relu", "inbound_nodes": [{"args": [{"class_name": "__keras_tensor__", "config": {"shape": [null, 6, 6, 256], "dtype": "float32", "keras_history": ["conv4_block5_1_bn", 0, 0]}}], "kwargs": {}}]}, {"module": "keras.layers", "class_name": "Conv2D", "config": {"name": "conv4_block5_2_conv", "trainable": false, "dtype": {"module": "keras", "class_name": "DTypePolicy", "config": {"name": "float32"}, "registered_name": null}, "filters": 256, "kernel_size": [3, 3], "strides": [1, 1], "padding": "same", "data_format": "channels_last", "dilation_rate": [1, 1], "groups": 1, "activation": "linear", "use_bias": true, "kernel_initializer": {"module": "keras.initializers", "class_name": "GlorotUniform", "config": {"seed": null}, "registered_name": null}, "bias_initializer": {"module": "keras.initializers", "class_name": "Zeros", "config": {}, "registered_name": null}, "kernel_regularizer": null, "bias_regularizer": null, "activity_regularizer": null, "kernel_constraint": null, "bias_constraint": null}, "registered_name": null, "build_config": {"input_shape": [null, 6, 6, 256]}, "name": "conv4_block5_2_conv", "inbound_nodes": [{"args": [{"class_name": "__keras_tensor__", "config": {"shape": [null, 6, 6, 256], "dtype": "float32", "keras_history": ["conv4_block5_1_relu", 0, 0]}}], "kwargs": {}}]}, {"module": "keras.layers", "class_name": "BatchNormalization", "config": {"name": "conv4_block5_2_bn", "trainable": false, "dtype": {"module": "keras", "class_name": "DTypePolicy", "config": {"name": "float32"}, "registered_name": null}, "axis": 3, "momentum": 0.99, "epsilon": 1.001e-05, "center": true, "scale": true, "beta_initializer": {"module": "keras.initializers", "class_name": "Zeros", "config": {}, "registered_name": null}, "gamma_initializer": {"module": "keras.initializers", "class_name": "Ones", "config": {}, "registered_name": null}, "moving_mean_initializer": {"module": "keras.initializers", "class_name": "Zeros", "config": {}, "registered_name": null}, "moving_variance_initializer": {"module": "keras.initializers", "class_name": "Ones", "config": {}, "registered_name": null}, "beta_regularizer": null, "gamma_regularizer": null, "beta_constraint": null, "gamma_constraint": null, "synchronized": false, "renorm": false, "renorm_clipping": null, "renorm_momentum": 0.99}, "registered_name": null, "build_config": {"input_shape": [null, 6, 6, 256]}, "name": "conv4_block5_2_bn", "inbound_nodes": [{"args": [{"class_name": "__keras_tensor__", "config": {"shape": [null, 6, 6, 256], "dtype": "float32", "keras_history": ["conv4_block5_2_conv", 0, 0]}}], "kwargs": {"mask": null}}]}, {"module": "keras.layers", "class_name": "Activation", "config": {"name": "conv4_block5_2_relu", "trainable": false, "dtype": {"module": "keras", "class_name": "DTypePolicy", "config": {"name": "float32"}, "registered_name": null}, "activation": "relu"}, "registered_name": null, "name": "conv4_block5_2_relu", "inbound_nodes": [{"args": [{"class_name": "__keras_tensor__", "config": {"shape": [null, 6, 6, 256], "dtype": "float32", "keras_history": ["conv4_block5_2_bn", 0, 0]}}], "kwargs": {}}]}, {"module": "keras.layers", "class_name": "Conv2D", "config": {"name": "conv4_block5_3_conv", "trainable": false, "dtype": {"module": "keras", "class_name": "DTypePolicy", "config": {"name": "float32"}, "registered_name": null}, "filters": 1024, "kernel_size": [1, 1], "strides": [1, 1], "padding": "valid", "data_format": "channels_last", "dilation_rate": [1, 1], "groups": 1, "activation": "linear", "use_bias": true, "kernel_initializer": {"module": "keras.initializers", "class_name": "GlorotUniform", "config": {"seed": null}, "registered_name": null}, "bias_initializer": {"module": "keras.initializers", "class_name": "Zeros", "config": {}, "registered_name": null}, "kernel_regularizer": null, "bias_regularizer": null, "activity_regularizer": null, "kernel_constraint": null, "bias_constraint": null}, "registered_name": null, "build_config": {"input_shape": [null, 6, 6, 256]}, "name": "conv4_block5_3_conv", "inbound_nodes": [{"args": [{"class_name": "__keras_tensor__", "config": {"shape": [null, 6, 6, 256], "dtype": "float32", "keras_history": ["conv4_block5_2_relu", 0, 0]}}], "kwargs": {}}]}, {"module": "keras.layers", "class_name": "BatchNormalization", "config": {"name": "conv4_block5_3_bn", "trainable": false, "dtype": {"module": "keras", "class_name": "DTypePolicy", "config": {"name": "float32"}, "registered_name": null}, "axis": 3, "momentum": 0.99, "epsilon": 1.001e-05, "center": true, "scale": true, "beta_initializer": {"module": "keras.initializers", "class_name": "Zeros", "config": {}, "registered_name": null}, "gamma_initializer": {"module": "keras.initializers", "class_name": "Ones", "config": {}, "registered_name": null}, "moving_mean_initializer": {"module": "keras.initializers", "class_name": "Zeros", "config": {}, "registered_name": null}, "moving_variance_initializer": {"module": "keras.initializers", "class_name": "Ones", "config": {}, "registered_name": null}, "beta_regularizer": null, "gamma_regularizer": null, "beta_constraint": null, "gamma_constraint": null, "synchronized": false, "renorm": false, "renorm_clipping": null, "renorm_momentum": 0.99}, "registered_name": null, "build_config": {"input_shape": [null, 6, 6, 1024]}, "name": "conv4_block5_3_bn", "inbound_nodes": [{"args": [{"class_name": "__keras_tensor__", "config": {"shape": [null, 6, 6, 1024], "dtype": "float32", "keras_history": ["conv4_block5_3_conv", 0, 0]}}], "kwargs": {"mask": null}}]}, {"module": "keras.layers", "class_name": "Add", "config": {"name": "conv4_block5_add", "trainable": false, "dtype": {"module": "keras", "class_name": "DTypePolicy", "config": {"name": "float32"}, "registered_name": null}}, "registered_name": null, "build_config": {"input_shape": [[null, 6, 6, 1024], [null, 6, 6, 1024]]}, "name": "conv4_block5_add", "inbound_nodes": [{"args": [[{"class_name": "__keras_tensor__", "config": {"shape": [null, 6, 6, 1024], "dtype": "float32", "keras_history": ["conv4_block4_out", 0, 0]}}, {"class_name": "__keras_tensor__", "config": {"shape": [null, 6, 6, 1024], "dtype": "float32", "keras_history": ["conv4_block5_3_bn", 0, 0]}}]], "kwargs": {}}]}, {"module": "keras.layers", "class_name": "Activation", "config": {"name": "conv4_block5_out", "trainable": false, "dtype": {"module": "keras", "class_name": "DTypePolicy", "config": {"name": "float32"}, "registered_name": null}, "activation": "relu"}, "registered_name": null, "name": "conv4_block5_out", "inbound_nodes": [{"args": [{"class_name": "__keras_tensor__", "config": {"shape": [null, 6, 6, 1024], "dtype": "float32", "keras_history": ["conv4_block5_add", 0, 0]}}], "kwargs": {}}]}, {"module": "keras.layers", "class_name": "Conv2D", "config": {"name": "conv4_block6_1_conv", "trainable": false, "dtype": {"module": "keras", "class_name": "DTypePolicy", "config": {"name": "float32"}, "registered_name": null}, "filters": 256, "kernel_size": [1, 1], "strides": [1, 1], "padding": "valid", "data_format": "channels_last", "dilation_rate": [1, 1], "groups": 1, "activation": "linear", "use_bias": true, "kernel_initializer": {"module": "keras.initializers", "class_name": "GlorotUniform", "config": {"seed": null}, "registered_name": null}, "bias_initializer": {"module": "keras.initializers", "class_name": "Zeros", "config": {}, "registered_name": null}, "kernel_regularizer": null, "bias_regularizer": null, "activity_regularizer": null, "kernel_constraint": null, "bias_constraint": null}, "registered_name": null, "build_config": {"input_shape": [null, 6, 6, 1024]}, "name": "conv4_block6_1_conv", "inbound_nodes": [{"args": [{"class_name": "__keras_tensor__", "config": {"shape": [null, 6, 6, 1024], "dtype": "float32", "keras_history": ["conv4_block5_out", 0, 0]}}], "kwargs": {}}]}, {"module": "keras.layers", "class_name": "BatchNormalization", "config": {"name": "conv4_block6_1_bn", "trainable": false, "dtype": {"module": "keras", "class_name": "DTypePolicy", "config": {"name": "float32"}, "registered_name": null}, "axis": 3, "momentum": 0.99, "epsilon": 1.001e-05, "center": true, "scale": true, "beta_initializer": {"module": "keras.initializers", "class_name": "Zeros", "config": {}, "registered_name": null}, "gamma_initializer": {"module": "keras.initializers", "class_name": "Ones", "config": {}, "registered_name": null}, "moving_mean_initializer": {"module": "keras.initializers", "class_name": "Zeros", "config": {}, "registered_name": null}, "moving_variance_initializer": {"module": "keras.initializers", "class_name": "Ones", "config": {}, "registered_name": null}, "beta_regularizer": null, "gamma_regularizer": null, "beta_constraint": null, "gamma_constraint": null, "synchronized": false, "renorm": false, "renorm_clipping": null, "renorm_momentum": 0.99}, "registered_name": null, "build_config": {"input_shape": [null, 6, 6, 256]}, "name": "conv4_block6_1_bn", "inbound_nodes": [{"args": [{"class_name": "__keras_tensor__", "config": {"shape": [null, 6, 6, 256], "dtype": "float32", "keras_history": ["conv4_block6_1_conv", 0, 0]}}], "kwargs": {"mask": null}}]}, {"module": "keras.layers", "class_name": "Activation", "config": {"name": "conv4_block6_1_relu", "trainable": false, "dtype": {"module": "keras", "class_name": "DTypePolicy", "config": {"name": "float32"}, "registered_name": null}, "activation": "relu"}, "registered_name": null, "name": "conv4_block6_1_relu", "inbound_nodes": [{"args": [{"class_name": "__keras_tensor__", "config": {"shape": [null, 6, 6, 256], "dtype": "float32", "keras_history": ["conv4_block6_1_bn", 0, 0]}}], "kwargs": {}}]}, {"module": "keras.layers", "class_name": "Conv2D", "config": {"name": "conv4_block6_2_conv", "trainable": false, "dtype": {"module": "keras", "class_name": "DTypePolicy", "config": {"name": "float32"}, "registered_name": null}, "filters": 256, "kernel_size": [3, 3], "strides": [1, 1], "padding": "same", "data_format": "channels_last", "dilation_rate": [1, 1], "groups": 1, "activation": "linear", "use_bias": true, "kernel_initializer": {"module": "keras.initializers", "class_name": "GlorotUniform", "config": {"seed": null}, "registered_name": null}, "bias_initializer": {"module": "keras.initializers", "class_name": "Zeros", "config": {}, "registered_name": null}, "kernel_regularizer": null, "bias_regularizer": null, "activity_regularizer": null, "kernel_constraint": null, "bias_constraint": null}, "registered_name": null, "build_config": {"input_shape": [null, 6, 6, 256]}, "name": "conv4_block6_2_conv", "inbound_nodes": [{"args": [{"class_name": "__keras_tensor__", "config": {"shape": [null, 6, 6, 256], "dtype": "float32", "keras_history": ["conv4_block6_1_relu", 0, 0]}}], "kwargs": {}}]}, {"module": "keras.layers", "class_name": "BatchNormalization", "config": {"name": "conv4_block6_2_bn", "trainable": false, "dtype": {"module": "keras", "class_name": "DTypePolicy", "config": {"name": "float32"}, "registered_name": null}, "axis": 3, "momentum": 0.99, "epsilon": 1.001e-05, "center": true, "scale": true, "beta_initializer": {"module": "keras.initializers", "class_name": "Zeros", "config": {}, "registered_name": null}, "gamma_initializer": {"module": "keras.initializers", "class_name": "Ones", "config": {}, "registered_name": null}, "moving_mean_initializer": {"module": "keras.initializers", "class_name": "Zeros", "config": {}, "registered_name": null}, "moving_variance_initializer": {"module": "keras.initializers", "class_name": "Ones", "config": {}, "registered_name": null}, "beta_regularizer": null, "gamma_regularizer": null, "beta_constraint": null, "gamma_constraint": null, "synchronized": false, "renorm": false, "renorm_clipping": null, "renorm_momentum": 0.99}, "registered_name": null, "build_config": {"input_shape": [null, 6, 6, 256]}, "name": "conv4_block6_2_bn", "inbound_nodes": [{"args": [{"class_name": "__keras_tensor__", "config": {"shape": [null, 6, 6, 256], "dtype": "float32", "keras_history": ["conv4_block6_2_conv", 0, 0]}}], "kwargs": {"mask": null}}]}, {"module": "keras.layers", "class_name": "Activation", "config": {"name": "conv4_block6_2_relu", "trainable": false, "dtype": {"module": "keras", "class_name": "DTypePolicy", "config": {"name": "float32"}, "registered_name": null}, "activation": "relu"}, "registered_name": null, "name": "conv4_block6_2_relu", "inbound_nodes": [{"args": [{"class_name": "__keras_tensor__", "config": {"shape": [null, 6, 6, 256], "dtype": "float32", "keras_history": ["conv4_block6_2_bn", 0, 0]}}], "kwargs": {}}]}, {"module": "keras.layers", "class_name": "Conv2D", "config": {"name": "conv4_block6_3_conv", "trainable": false, "dtype": {"module": "keras", "class_name": "DTypePolicy", "config": {"name": "float32"}, "registered_name": null}, "filters": 1024, "kernel_size": [1, 1], "strides": [1, 1], "padding": "valid", "data_format": "channels_last", "dilation_rate": [1, 1], "groups": 1, "activation": "linear", "use_bias": true, "kernel_initializer": {"module": "keras.initializers", "class_name": "GlorotUniform", "config": {"seed": null}, "registered_name": null}, "bias_initializer": {"module": "keras.initializers", "class_name": "Zeros", "config": {}, "registered_name": null}, "kernel_regularizer": null, "bias_regularizer": null, "activity_regularizer": null, "kernel_constraint": null, "bias_constraint": null}, "registered_name": null, "build_config": {"input_shape": [null, 6, 6, 256]}, "name": "conv4_block6_3_conv", "inbound_nodes": [{"args": [{"class_name": "__keras_tensor__", "config": {"shape": [null, 6, 6, 256], "dtype": "float32", "keras_history": ["conv4_block6_2_relu", 0, 0]}}], "kwargs": {}}]}, {"module": "keras.layers", "class_name": "BatchNormalization", "config": {"name": "conv4_block6_3_bn", "trainable": false, "dtype": {"module": "keras", "class_name": "DTypePolicy", "config": {"name": "float32"}, "registered_name": null}, "axis": 3, "momentum": 0.99, "epsilon": 1.001e-05, "center": true, "scale": true, "beta_initializer": {"module": "keras.initializers", "class_name": "Zeros", "config": {}, "registered_name": null}, "gamma_initializer": {"module": "keras.initializers", "class_name": "Ones", "config": {}, "registered_name": null}, "moving_mean_initializer": {"module": "keras.initializers", "class_name": "Zeros", "config": {}, "registered_name": null}, "moving_variance_initializer": {"module": "keras.initializers", "class_name": "Ones", "config": {}, "registered_name": null}, "beta_regularizer": null, "gamma_regularizer": null, "beta_constraint": null, "gamma_constraint": null, "synchronized": false, "renorm": false, "renorm_clipping": null, "renorm_momentum": 0.99}, "registered_name": null, "build_config": {"input_shape": [null, 6, 6, 1024]}, "name": "conv4_block6_3_bn", "inbound_nodes": [{"args": [{"class_name": "__keras_tensor__", "config": {"shape": [null, 6, 6, 1024], "dtype": "float32", "keras_history": ["conv4_block6_3_conv", 0, 0]}}], "kwargs": {"mask": null}}]}, {"module": "keras.layers", "class_name": "Add", "config": {"name": "conv4_block6_add", "trainable": false, "dtype": {"module": "keras", "class_name": "DTypePolicy", "config": {"name": "float32"}, "registered_name": null}}, "registered_name": null, "build_config": {"input_shape": [[null, 6, 6, 1024], [null, 6, 6, 1024]]}, "name": "conv4_block6_add", "inbound_nodes": [{"args": [[{"class_name": "__keras_tensor__", "config": {"shape": [null, 6, 6, 1024], "dtype": "float32", "keras_history": ["conv4_block5_out", 0, 0]}}, {"class_name": "__keras_tensor__", "config": {"shape": [null, 6, 6, 1024], "dtype": "float32", "keras_history": ["conv4_block6_3_bn", 0, 0]}}]], "kwargs": {}}]}, {"module": "keras.layers", "class_name": "Activation", "config": {"name": "conv4_block6_out", "trainable": false, "dtype": {"module": "keras", "class_name": "DTypePolicy", "config": {"name": "float32"}, "registered_name": null}, "activation": "relu"}, "registered_name": null, "name": "conv4_block6_out", "inbound_nodes": [{"args": [{"class_name": "__keras_tensor__", "config": {"shape": [null, 6, 6, 1024], "dtype": "float32", "keras_history": ["conv4_block6_add", 0, 0]}}], "kwargs": {}}]}, {"module": "keras.layers", "class_name": "Conv2D", "config": {"name": "conv5_block1_1_conv", "trainable": true, "dtype": {"module": "keras", "class_name": "DTypePolicy", "config": {"name": "float32"}, "registered_name": null}, "filters": 512, "kernel_size": [1, 1], "strides": [2, 2], "padding": "valid", "data_format": "channels_last", "dilation_rate": [1, 1], "groups": 1, "activation": "linear", "use_bias": true, "kernel_initializer": {"module": "keras.initializers", "class_name": "GlorotUniform", "config": {"seed": null}, "registered_name": null}, "bias_initializer": {"module": "keras.initializers", "class_name": "Zeros", "config": {}, "registered_name": null}, "kernel_regularizer": null, "bias_regularizer": null, "activity_regularizer": null, "kernel_constraint": null, "bias_constraint": null}, "registered_name": null, "build_config": {"input_shape": [null, 6, 6, 1024]}, "name": "conv5_block1_1_conv", "inbound_nodes": [{"args": [{"class_name": "__keras_tensor__", "config": {"shape": [null, 6, 6, 1024], "dtype": "float32", "keras_history": ["conv4_block6_out", 0, 0]}}], "kwargs": {}}]}, {"module": "keras.layers", "class_name": "BatchNormalization", "config": {"name": "conv5_block1_1_bn", "trainable": true, "dtype": {"module": "keras", "class_name": "DTypePolicy", "config": {"name": "float32"}, "registered_name": null}, "axis": 3, "momentum": 0.99, "epsilon": 1.001e-05, "center": true, "scale": true, "beta_initializer": {"module": "keras.initializers", "class_name": "Zeros", "config": {}, "registered_name": null}, "gamma_initializer": {"module": "keras.initializers", "class_name": "Ones", "config": {}, "registered_name": null}, "moving_mean_initializer": {"module": "keras.initializers", "class_name": "Zeros", "config": {}, "registered_name": null}, "moving_variance_initializer": {"module": "keras.initializers", "class_name": "Ones", "config": {}, "registered_name": null}, "beta_regularizer": null, "gamma_regularizer": null, "beta_constraint": null, "gamma_constraint": null, "synchronized": false, "renorm": false, "renorm_clipping": null, "renorm_momentum": 0.99}, "registered_name": null, "build_config": {"input_shape": [null, 3, 3, 512]}, "name": "conv5_block1_1_bn", "inbound_nodes": [{"args": [{"class_name": "__keras_tensor__", "config": {"shape": [null, 3, 3, 512], "dtype": "float32", "keras_history": ["conv5_block1_1_conv", 0, 0]}}], "kwargs": {"mask": null}}]}, {"module": "keras.layers", "class_name": "Activation", "config": {"name": "conv5_block1_1_relu", "trainable": true, "dtype": {"module": "keras", "class_name": "DTypePolicy", "config": {"name": "float32"}, "registered_name": null}, "activation": "relu"}, "registered_name": null, "name": "conv5_block1_1_relu", "inbound_nodes": [{"args": [{"class_name": "__keras_tensor__", "config": {"shape": [null, 3, 3, 512], "dtype": "float32", "keras_history": ["conv5_block1_1_bn", 0, 0]}}], "kwargs": {}}]}, {"module": "keras.layers", "class_name": "Conv2D", "config": {"name": "conv5_block1_2_conv", "trainable": true, "dtype": {"module": "keras", "class_name": "DTypePolicy", "config": {"name": "float32"}, "registered_name": null}, "filters": 512, "kernel_size": [3, 3], "strides": [1, 1], "padding": "same", "data_format": "channels_last", "dilation_rate": [1, 1], "groups": 1, "activation": "linear", "use_bias": true, "kernel_initializer": {"module": "keras.initializers", "class_name": "GlorotUniform", "config": {"seed": null}, "registered_name": null}, "bias_initializer": {"module": "keras.initializers", "class_name": "Zeros", "config": {}, "registered_name": null}, "kernel_regularizer": null, "bias_regularizer": null, "activity_regularizer": null, "kernel_constraint": null, "bias_constraint": null}, "registered_name": null, "build_config": {"input_shape": [null, 3, 3, 512]}, "name": "conv5_block1_2_conv", "inbound_nodes": [{"args": [{"class_name": "__keras_tensor__", "config": {"shape": [null, 3, 3, 512], "dtype": "float32", "keras_history": ["conv5_block1_1_relu", 0, 0]}}], "kwargs": {}}]}, {"module": "keras.layers", "class_name": "BatchNormalization", "config": {"name": "conv5_block1_2_bn", "trainable": true, "dtype": {"module": "keras", "class_name": "DTypePolicy", "config": {"name": "float32"}, "registered_name": null}, "axis": 3, "momentum": 0.99, "epsilon": 1.001e-05, "center": true, "scale": true, "beta_initializer": {"module": "keras.initializers", "class_name": "Zeros", "config": {}, "registered_name": null}, "gamma_initializer": {"module": "keras.initializers", "class_name": "Ones", "config": {}, "registered_name": null}, "moving_mean_initializer": {"module": "keras.initializers", "class_name": "Zeros", "config": {}, "registered_name": null}, "moving_variance_initializer": {"module": "keras.initializers", "class_name": "Ones", "config": {}, "registered_name": null}, "beta_regularizer": null, "gamma_regularizer": null, "beta_constraint": null, "gamma_constraint": null, "synchronized": false, "renorm": false, "renorm_clipping": null, "renorm_momentum": 0.99}, "registered_name": null, "build_config": {"input_shape": [null, 3, 3, 512]}, "name": "conv5_block1_2_bn", "inbound_nodes": [{"args": [{"class_name": "__keras_tensor__", "config": {"shape": [null, 3, 3, 512], "dtype": "float32", "keras_history": ["conv5_block1_2_conv", 0, 0]}}], "kwargs": {"mask": null}}]}, {"module": "keras.layers", "class_name": "Activation", "config": {"name": "conv5_block1_2_relu", "trainable": true, "dtype": {"module": "keras", "class_name": "DTypePolicy", "config": {"name": "float32"}, "registered_name": null}, "activation": "relu"}, "registered_name": null, "name": "conv5_block1_2_relu", "inbound_nodes": [{"args": [{"class_name": "__keras_tensor__", "config": {"shape": [null, 3, 3, 512], "dtype": "float32", "keras_history": ["conv5_block1_2_bn", 0, 0]}}], "kwargs": {}}]}, {"module": "keras.layers", "class_name": "Conv2D", "config": {"name": "conv5_block1_0_conv", "trainable": true, "dtype": {"module": "keras", "class_name": "DTypePolicy", "config": {"name": "float32"}, "registered_name": null}, "filters": 2048, "kernel_size": [1, 1], "strides": [2, 2], "padding": "valid", "data_format": "channels_last", "dilation_rate": [1, 1], "groups": 1, "activation": "linear", "use_bias": true, "kernel_initializer": {"module": "keras.initializers", "class_name": "GlorotUniform", "config": {"seed": null}, "registered_name": null}, "bias_initializer": {"module": "keras.initializers", "class_name": "Zeros", "config": {}, "registered_name": null}, "kernel_regularizer": null, "bias_regularizer": null, "activity_regularizer": null, "kernel_constraint": null, "bias_constraint": null}, "registered_name": null, "build_config": {"input_shape": [null, 6, 6, 1024]}, "name": "conv5_block1_0_conv", "inbound_nodes": [{"args": [{"class_name": "__keras_tensor__", "config": {"shape": [null, 6, 6, 1024], "dtype": "float32", "keras_history": ["conv4_block6_out", 0, 0]}}], "kwargs": {}}]}, {"module": "keras.layers", "class_name": "Conv2D", "config": {"name": "conv5_block1_3_conv", "trainable": true, "dtype": {"module": "keras", "class_name": "DTypePolicy", "config": {"name": "float32"}, "registered_name": null}, "filters": 2048, "kernel_size": [1, 1], "strides": [1, 1], "padding": "valid", "data_format": "channels_last", "dilation_rate": [1, 1], "groups": 1, "activation": "linear", "use_bias": true, "kernel_initializer": {"module": "keras.initializers", "class_name": "GlorotUniform", "config": {"seed": null}, "registered_name": null}, "bias_initializer": {"module": "keras.initializers", "class_name": "Zeros", "config": {}, "registered_name": null}, "kernel_regularizer": null, "bias_regularizer": null, "activity_regularizer": null, "kernel_constraint": null, "bias_constraint": null}, "registered_name": null, "build_config": {"input_shape": [null, 3, 3, 512]}, "name": "conv5_block1_3_conv", "inbound_nodes": [{"args": [{"class_name": "__keras_tensor__", "config": {"shape": [null, 3, 3, 512], "dtype": "float32", "keras_history": ["conv5_block1_2_relu", 0, 0]}}], "kwargs": {}}]}, {"module": "keras.layers", "class_name": "BatchNormalization", "config": {"name": "conv5_block1_0_bn", "trainable": true, "dtype": {"module": "keras", "class_name": "DTypePolicy", "config": {"name": "float32"}, "registered_name": null}, "axis": 3, "momentum": 0.99, "epsilon": 1.001e-05, "center": true, "scale": true, "beta_initializer": {"module": "keras.initializers", "class_name": "Zeros", "config": {}, "registered_name": null}, "gamma_initializer": {"module": "keras.initializers", "class_name": "Ones", "config": {}, "registered_name": null}, "moving_mean_initializer": {"module": "keras.initializers", "class_name": "Zeros", "config": {}, "registered_name": null}, "moving_variance_initializer": {"module": "keras.initializers", "class_name": "Ones", "config": {}, "registered_name": null}, "beta_regularizer": null, "gamma_regularizer": null, "beta_constraint": null, "gamma_constraint": null, "synchronized": false, "renorm": false, "renorm_clipping": null, "renorm_momentum": 0.99}, "registered_name": null, "build_config": {"input_shape": [null, 3, 3, 2048]}, "name": "conv5_block1_0_bn", "inbound_nodes": [{"args": [{"class_name": "__keras_tensor__", "config": {"shape": [null, 3, 3, 2048], "dtype": "float32", "keras_history": ["conv5_block1_0_conv", 0, 0]}}], "kwargs": {"mask": null}}]}, {"module": "keras.layers", "class_name": "BatchNormalization", "config": {"name": "conv5_block1_3_bn", "trainable": true, "dtype": {"module": "keras", "class_name": "DTypePolicy", "config": {"name": "float32"}, "registered_name": null}, "axis": 3, "momentum": 0.99, "epsilon": 1.001e-05, "center": true, "scale": true, "beta_initializer": {"module": "keras.initializers", "class_name": "Zeros", "config": {}, "registered_name": null}, "gamma_initializer": {"module": "keras.initializers", "class_name": "Ones", "config": {}, "registered_name": null}, "moving_mean_initializer": {"module": "keras.initializers", "class_name": "Zeros", "config": {}, "registered_name": null}, "moving_variance_initializer": {"module": "keras.initializers", "class_name": "Ones", "config": {}, "registered_name": null}, "beta_regularizer": null, "gamma_regularizer": null, "beta_constraint": null, "gamma_constraint": null, "synchronized": false, "renorm": false, "renorm_clipping": null, "renorm_momentum": 0.99}, "registered_name": null, "build_config": {"input_shape": [null, 3, 3, 2048]}, "name": "conv5_block1_3_bn", "inbound_nodes": [{"args": [{"class_name": "__keras_tensor__", "config": {"shape": [null, 3, 3, 2048], "dtype": "float32", "keras_history": ["conv5_block1_3_conv", 0, 0]}}], "kwargs": {"mask": null}}]}, {"module": "keras.layers", "class_name": "Add", "config": {"name": "conv5_block1_add", "trainable": true, "dtype": {"module": "keras", "class_name": "DTypePolicy", "config": {"name": "float32"}, "registered_name": null}}, "registered_name": null, "build_config": {"input_shape": [[null, 3, 3, 2048], [null, 3, 3, 2048]]}, "name": "conv5_block1_add", "inbound_nodes": [{"args": [[{"class_name": "__keras_tensor__", "config": {"shape": [null, 3, 3, 2048], "dtype": "float32", "keras_history": ["conv5_block1_0_bn", 0, 0]}}, {"class_name": "__keras_tensor__", "config": {"shape": [null, 3, 3, 2048], "dtype": "float32", "keras_history": ["conv5_block1_3_bn", 0, 0]}}]], "kwargs": {}}]}, {"module": "keras.layers", "class_name": "Activation", "config": {"name": "conv5_block1_out", "trainable": true, "dtype": {"module": "keras", "class_name": "DTypePolicy", "config": {"name": "float32"}, "registered_name": null}, "activation": "relu"}, "registered_name": null, "name": "conv5_block1_out", "inbound_nodes": [{"args": [{"class_name": "__keras_tensor__", "config": {"shape": [null, 3, 3, 2048], "dtype": "float32", "keras_history": ["conv5_block1_add", 0, 0]}}], "kwargs": {}}]}, {"module": "keras.layers", "class_name": "Conv2D", "config": {"name": "conv5_block2_1_conv", "trainable": true, "dtype": {"module": "keras", "class_name": "DTypePolicy", "config": {"name": "float32"}, "registered_name": null}, "filters": 512, "kernel_size": [1, 1], "strides": [1, 1], "padding": "valid", "data_format": "channels_last", "dilation_rate": [1, 1], "groups": 1, "activation": "linear", "use_bias": true, "kernel_initializer": {"module": "keras.initializers", "class_name": "GlorotUniform", "config": {"seed": null}, "registered_name": null}, "bias_initializer": {"module": "keras.initializers", "class_name": "Zeros", "config": {}, "registered_name": null}, "kernel_regularizer": null, "bias_regularizer": null, "activity_regularizer": null, "kernel_constraint": null, "bias_constraint": null}, "registered_name": null, "build_config": {"input_shape": [null, 3, 3, 2048]}, "name": "conv5_block2_1_conv", "inbound_nodes": [{"args": [{"class_name": "__keras_tensor__", "config": {"shape": [null, 3, 3, 2048], "dtype": "float32", "keras_history": ["conv5_block1_out", 0, 0]}}], "kwargs": {}}]}, {"module": "keras.layers", "class_name": "BatchNormalization", "config": {"name": "conv5_block2_1_bn", "trainable": true, "dtype": {"module": "keras", "class_name": "DTypePolicy", "config": {"name": "float32"}, "registered_name": null}, "axis": 3, "momentum": 0.99, "epsilon": 1.001e-05, "center": true, "scale": true, "beta_initializer": {"module": "keras.initializers", "class_name": "Zeros", "config": {}, "registered_name": null}, "gamma_initializer": {"module": "keras.initializers", "class_name": "Ones", "config": {}, "registered_name": null}, "moving_mean_initializer": {"module": "keras.initializers", "class_name": "Zeros", "config": {}, "registered_name": null}, "moving_variance_initializer": {"module": "keras.initializers", "class_name": "Ones", "config": {}, "registered_name": null}, "beta_regularizer": null, "gamma_regularizer": null, "beta_constraint": null, "gamma_constraint": null, "synchronized": false, "renorm": false, "renorm_clipping": null, "renorm_momentum": 0.99}, "registered_name": null, "build_config": {"input_shape": [null, 3, 3, 512]}, "name": "conv5_block2_1_bn", "inbound_nodes": [{"args": [{"class_name": "__keras_tensor__", "config": {"shape": [null, 3, 3, 512], "dtype": "float32", "keras_history": ["conv5_block2_1_conv", 0, 0]}}], "kwargs": {"mask": null}}]}, {"module": "keras.layers", "class_name": "Activation", "config": {"name": "conv5_block2_1_relu", "trainable": true, "dtype": {"module": "keras", "class_name": "DTypePolicy", "config": {"name": "float32"}, "registered_name": null}, "activation": "relu"}, "registered_name": null, "name": "conv5_block2_1_relu", "inbound_nodes": [{"args": [{"class_name": "__keras_tensor__", "config": {"shape": [null, 3, 3, 512], "dtype": "float32", "keras_history": ["conv5_block2_1_bn", 0, 0]}}], "kwargs": {}}]}, {"module": "keras.layers", "class_name": "Conv2D", "config": {"name": "conv5_block2_2_conv", "trainable": true, "dtype": {"module": "keras", "class_name": "DTypePolicy", "confi…
0", "backend": "tensorflow"}, "weightsManifest": [{"paths": ["group1-shard1of6.bin", "group1-shard2of6.bin", "group1-shard3of6.bin", "group1-shard4of6.bin", "group1-shard5of6.bin", "group1-shard6of6.bin"], "weights": [{"name": "resnet50/kernel", "shape": [7, 7, 3, 64], "dtype": "float32", "quantization": {"dtype": "uint8", "min": -0.6710243821144104, "max": 0.7043237686157227}}, {"name": "resnet50/bias", "shape": [64], "dtype": "float32", "quantization": {"dtype": "uint8", "min": -4.431191413800661e-09, "max": 7.641752119980083e-09}}, {"name": "resnet50/var_2", "shape": [64], "dtype": "float32", "quantization": {"dtype": "uint8", "min": 0.5126429200172424, "max": 2.6685867309570312}}, {"name": "resnet50/var_3", "shape": [64], "dtype": "float32", "quantization": {"dtype": "uint8", "min": -2.6539840698242188, "max": 6.353635311126709}}, {"name": "resnet50/var_4", "shape": [64], "dtype": "float32", "quantization": {"dtype": "uint8", "min": -3.537402391433716, "max": 3.334259033203125}}, {"name": "resnet50/var_5", "shape": [64], "dtype": "float32", "quantization": {"dtype": "uint8", "min": 184.10784912109375, "max": 83614.734375}}, {"name": "resnet50/var_6", "shape": [1, 1, 64, 64], "dtype": "float32", "quantization": {"dtype": "uint8", "min": -0.7174957394599915, "max": 0.392185777425766}}, {"name": "resnet50/var_7", "shape": [64], "dtype": "float32", "quantization": {"dtype": "uint8", "min": 0.0, "max": 0.0}}, {"name": "resnet50/var_8", "shape": [64], "dtype": "float32", "quantization": {"dtype": "uint8", "min": 0.5092175602912903, "max": 2.066087245941162}}, {"name": "resnet50/var_9", "shape": [64], "dtype": "float32", "quantization": {"dtype": "uint8", "min": -2.4108686447143555, "max": 3.607542037963867}}, {"name": "resnet50/var_10", "shape": [64], "dtype": "float32", "quantization": {"dtype": "uint8", "min": -4.624998092651367, "max": 7.615551471710205}}, {"name": "resnet50/var_11", "shape": [64], "dtype": "float32", "quantization": {"dtype": "uint8", "min": 0.05220366269350052, "max": 8.771974563598633}}, {"name": "resnet50/var_12", "shape": [3, 3, 64, 64], "dtype": "float32", "quantization": {"dtype": "uint8", "min": -0.39004024863243103, "max": 0.3637588620185852}}, {"name": "resnet50/var_13", "shape": [64], "dtype": "float32", "quantization": {"dtype": "uint8", "min": 0.0, "max": 0.0}}, {"name": "resnet50/var_14", "shape": [64], "dtype": "float32", "quantization": {"dtype": "uint8", "min": 0.4204263389110565, "max": 2.529534339904785}}, {"name": "resnet50/var_15", "shape": [64], "dtype": "float32", "quantization": {"dtype": "uint8", "min": -2.285513162612915, "max": 5.91256856918335}}, {"name": "resnet50/var_16", "shape": [64], "dtype": "float32", "quantization": {"dtype": "uint8", "min": -4.01137113571167, "max": 2.998420000076294}}, {"name": "resnet50/var_17", "shape": [64], "dtype": "float32", "quantization": {"dtype": "uint8", "min": 0.12235629558563232, "max": 21.474212646484375}}, {"name": "resnet50/var_18", "shape": [1, 1, 64, 256], "dtype": "float32", "quantization": {"dtype": "uint8", "min": -0.7719802856445312, "max": 0.9003667831420898}}, {"name": "resnet50/var_19", "shape": [256], "dtype": "float32", "quantization": {"dtype": "uint8", "min": 0.0, "max": 0.0}}, {"name": "resnet50/var_20", "shape": [1, 1, 64, 256], "dtype": "float32", "quantization": {"dtype": "uint8", "min": -0.39744213223457336, "max": 0.34759417176246643}}, {"name": "resnet50/var_21", "shape": [256], "dtype": "float32", "quantization": {"dtype": "uint8", "min": 0.0, "max": 0.0}}, {"name": "resnet50/var_22", "shape": [256], "dtype": "float32", "quantization": {"dtype": "uint8", "min": 0.0043527209199965, "max": 3.064375400543213}}, {"name": "resnet50/var_23", "shape": [256], "dtype": "float32", "quantization": {"dtype": "uint8", "min": -1.125503659248352, "max": 1.5218191146850586}}, {"name": "resnet50/var_24", "shape": [256], "dtype": "float32", "quantization": {"dtype": "uint8", "min": -6.648303508758545, "max": 9.714516639709473}}, {"name": "resnet50/var_25", "shape": [256], "dtype": "float32", "quantization": {"dtype": "uint8", "min": 1.1424858712416608e-06, "max": 7.3274078369140625}}, {"name": "resnet50/var_26", "shape": [256], "dtype": "float32", "quantization": {"dtype": "uint8", "min": 0.011003042571246624, "max": 2.8199548721313477}}, {"name": "resnet50/var_27", "shape": [256], "dtype": "float32", "quantization": {"dtype": "uint8", "min": -1.125503659248352, "max": 1.5218191146850586}}, {"name": "resnet50/var_28", "shape": [256], "dtype": "float32", "quantization": {"dtype": "uint8", "min": -2.008284568786621, "max": 1.837123155593872}}, {"name": "resnet50/var_29", "shape": [256], "dtype": "float32", "quantization": {"dtype": "uint8", "min": 8.595875442551915e-07, "max": 2.1369636058807373}}, {"name": "resnet50/var_30", "shape": [1, 1, 256, 64], "dtype": "float32", "quantization": {"dtype": "uint8", "min": -0.29685765504837036, "max": 0.22034934163093567}}, {"name": "resnet50/var_31", "shape": [64], "dtype": "float32", "quantization": {"dtype": "uint8", "min": 0.0, "max": 0.0}}, {"name": "resnet50/var_32", "shape": [64], "dtype": "float32", "quantization": {"dtype": "uint8", "min": 0.7461968660354614, "max": 1.9490301609039307}}, {"name": "resnet50/var_33", "shape": [64], "dtype": "float32", "quantization": {"dtype": "uint8", "min": -1.6880511045455933, "max": 1.5778692960739136}}, {"name": "resnet50/var_34", "shape": [64], "dtype": "float32", "quantization": {"dtype": "uint8", "min": -2.512779474258423, "max": 1.1115639209747314}}, {"name": "resnet50/var_35", "shape": [64], "dtype": "float32", "quantization": {"dtype": "uint8", "min": 0.22886011004447937, "max": 2.1670989990234375}}, {"name": "resnet50/var_36", "shape": [3, 3, 64, 64], "dtype": "float32", "quantization": {"dtype": "uint8", "min": -0.2401261180639267, "max": 0.31828755140304565}}, {"name": "resnet50/var_37", "shape": [64], "dtype": "float32", "quantization": {"dtype": "uint8", "min": 0.0, "max": 0.0}}, {"name": "resnet50/var_38", "shape": [64], "dtype": "float32", "quantization": {"dtype": "uint8", "min": 0.6205095648765564, "max": 1.6177189350128174}}, {"name": "resnet50/var_39", "shape": [64], "dtype": "float32", "quantization": {"dtype": "uint8", "min": -2.0026955604553223, "max": 2.398329257965088}}, {"name": "resnet50/var_40", "shape": [64], "dtype": "float32", "quantization": {"dtype": "uint8", "min": -1.3383042812347412, "max": 0.9407705068588257}}, {"name": "resnet50/var_41", "shape": [64], "dtype": "float32", "quantization": {"dtype": "uint8", "min": 0.16632837057113647, "max": 1.1179124116897583}}, {"name": "resnet50/var_42", "shape": [1, 1, 64, 256], "dtype": "float32", "quantization": {"dtype": "uint8", "min": -0.24024516344070435, "max": 0.2795711159706116}}, {"name": "resnet50/var_43", "shape": [256], "dtype": "float32", "quantization": {"dtype": "uint8", "min": 0.0, "max": 0.0}}, {"name": "resnet50/var_44", "shape": [256], "dtype": "float32", "quantization": {"dtype": "uint8", "min": -0.01685367152094841, "max": 2.1300814151763916}}, {"name": "resnet50/var_45", "shape": [256], "dtype": "float32", "quantization": {"dtype": "uint8", "min": -1.711315393447876, "max": 1.2913141250610352}}, {"name": "resnet50/var_46", "shape": [256], "dtype": "float32", "quantization": {"dtype": "uint8", "min": -1.0901072025299072, "max": 0.9930865168571472}}, {"name": "resnet50/var_47", "shape": [256], "dtype": "float32", "quantization": {"dtype": "uint8", "min": 0.0003367012832313776, "max": 0.1778140366077423}}, {"name": "resnet50/var_48", "shape": [1, 1, 256, 64], "dtype": "float32", "quantization": {"dtype": "uint8", "min": -0.2099272757768631, "max": 0.2637099623680115}}, {"name": "resnet50/var_49", "shape": [64], "dtype": "float32", "quantization": {"dtype": "uint8", "min": 0.0, "max": 0.0}}, {"name": "resnet50/var_50", "shape": [64], "dtype": "float32", "quantization": {"dtype": "uint8", "min": 0.5740686058998108, "max": 1.6880440711975098}}, {"name": "resnet50/var_51", "shape": [64], "dtype": "float32", "quantization": {"dtype": "uint8", "min": -1.8763647079467773, "max": 1.0903713703155518}}, {"name": "resnet50/var_52", "shape": [64], "dtype": "float32", "quantization": {"dtype": "uint8", "min": -1.9883192777633667, "max": 1.6708719730377197}}, {"name": "resnet50/var_53", "shape": [64], "dtype": "float32", "quantization": {"dtype": "uint8", "min": 2.1013129298808053e-06, "max": 2.505723237991333}}, {"name": "resnet50/var_54", "shape": [3, 3, 64, 64], "dtype": "float32", "quantization": {"dtype": "uint8", "min": -0.2179543524980545, "max": 0.20133185386657715}}, {"name": "resnet50/var_55", "shape": [64], "dtype": "float32", "quantization": {"dtype": "uint8", "min": 0.0, "max": 0.0}}, {"name": "resnet50/var_56", "shape": [64], "dtype": "float32", "quantization": {"dtype": "uint8", "min": 0.7570450901985168, "max": 1.6492785215377808}}, {"name": "resnet50/var_57", "shape": [64], "dtype": "float32", "quantization": {"dtype": "uint8", "min": -2.2205915451049805, "max": 1.8783485889434814}}, {"name": "resnet50/var_58", "shape": [64], "dtype": "float32", "quantization": {"dtype": "uint8", "min": -1.346063256263733, "max": 0.2782866656780243}}, {"name": "resnet50/var_59", "shape": [64], "dtype": "float32", "quantization": {"dtype": "uint8", "min": 0.1354680061340332, "max": 0.8499058485031128}}, {"name": "resnet50/var_60", "shape": [1, 1, 64, 256], "dtype": "float32", "quantization": {"dtype": "uint8", "min": -0.275219202041626, "max": 0.3499836325645447}}, {"name": "resnet50/var_61", "shape": [256], "dtype": "float32", "quantization": {"dtype": "uint8", "min": 0.0, "max": 0.0}}, {"name": "resnet50/var_62", "shape": [256], "dtype": "float32", "quantization": {"dtype": "uint8", "min": -0.05848333239555359, "max": 2.153981924057007}}, {"name": "resnet50/var_63", "shape": [256], "dtype": "float32", "quantization": {"dtype": "uint8", "min": -1.5696371793746948, "max": 1.5349221229553223}}, {"name": "resnet50/var_64", "shape": [256], "dtype": "float32", "quantization": {"dtype": "uint8", "min": -1.0839043855667114, "max": 1.0337263345718384}}, {"name": "resnet50/var_65", "shape": [256], "dtype": "float32", "quantization": {"dtype": "uint8", "min": 0.0005230105016380548, "max": 0.31503796577453613}}, {"name": "resnet50/var_66", "shape": [1, 1, 256, 128], "dtype": "float32", "quantization": {"dtype": "uint8", "min": -0.33393511176109314, "max": 0.3003352880477905}}, {"name": "resnet50/var_67", "shape": [128], "dtype": "float32", "quantization": {"dtype": "uint8", "min": 0.0, "max": 0.0}}, {"name": "resnet50/var_68", "shape": [128], "dtype": "float32", "quantization": {"dtype": "uint8", "min": 0.6103370785713196, "max": 1.6423887014389038}}, {"name": "resnet50/var_69", "shape": [128], "dtype": "float32", "quantization": {"dtype": "uint8", "min": -1.578908920288086, "max": 1.4490063190460205}}, {"name": "resnet50/var_70", "shape": [128], "dtype": "float32", "quantization": {"dtype": "uint8", "min": -2.94162654876709, "max": 1.688821792602539}}, {"name": "resnet50/var_71", "shape": [128], "dtype": "float32", "quantization": {"dtype": "uint8", "min": 0.17527830600738525, "max": 2.5665621757507324}}, {"name": "resnet50/var_72", "shape": [3, 3, 128, 128], "dtype": "float32", "quantization": {"dtype": "uint8", "min": -0.3836938440799713, "max": 0.3766743838787079}}, {"name": "resnet50/var_73", "shape": [128], "dtype": "float32", "quantization": {"dtype": "uint8", "min": 0.0, "max": 0.0}}, {"name": "resnet50/var_74", "shape": [128], "dtype": "float32", "quantization": {"dtype": "uint8", "min": 0.6048915386199951, "max": 1.621626377105713}}, {"name": "resnet50/var_75", "shape": [128], "dtype": "float32", "quantization": {"dtype": "uint8", "min": -2.7684810161590576, "max": 1.7468947172164917}}, {"name": "resnet50/var_76", "shape": [128], "dtype": "float32", "quantization": {"dtype": "uint8", "min": -4.09386682510376, "max": 1.9894057512283325}}, {"name": "resnet50/var_77", "shape": [128], "dtype": "float32", "quantization": {"dtype": "uint8", "min": 0.23013627529144287, "max": 2.146244525909424}}, {"name": "resnet50/var_78", "shape": [1, 1, 256, 512], "dtype": "float32", "quantization": {"dtype": "uint8", "min": -0.46598711609840393, "max": 0.642471194267273}}, {"name": "resnet50/var_79", "shape": [512], "dtype": "float32", "quantization": {"dtype": "uint8", "min": 0.0, "max": 0.0}}, {"name": "resnet50/var_80", "shape": [1, 1, 128, 512], "dtype": "float32", "quantization": {"dtype": "uint8", "min": -0.373850017786026, "max": 0.4343515634536743}}, {"name": "resnet50/var_81", "shape": [512], "dtype": "float32", "quantization": {"dtype": "uint8", "min": 0.0, "max": 0.0}}, {"name": "resnet50/var_82", "shape": [512], "dtype": "float32", "quantization": {"dtype": "uint8", "min": 0.005530852824449539, "max": 2.5519018173217773}}, {"name": "resnet50/var_83", "shape": [512], "dtype": "float32", "quantization": {"dtype": "uint8", "min": -1.5448297262191772, "max": 1.2564595937728882}}, {"name": "resnet50/var_84", "shape": [512], "dtype": "float32", "quantization": {"dtype": "uint8", "min": -2.3781545162200928, "max": 2.7351315021514893}}, {"name": "resnet50/var_85", "shape": [512], "dtype": "float32", "quantization": {"dtype": "uint8", "min": 0.0026763337664306164, "max": 4.063079833984375}}, {"name": "resnet50/var_86", "shape": [512], "dtype": "float32", "quantization": {"dtype": "uint8", "min": -0.006952978670597076, "max": 2.7298789024353027}}, {"name": "resnet50/var_87", "shape": [512], "dtype": "float32", "quantization": {"dtype": "uint8", "min": -1.5448297262191772, "max": 1.2564595937728882}}, {"name": "resnet50/var_88", "shape": [512], "dtype": "float32", "quantization": {"dtype": "uint8", "min": -1.07444167137146, "max": 1.0758048295974731}}, {"name": "resnet50/var_89", "shape": [512], "dtype": "float32", "quantization": {"dtype": "uint8", "min": 0.000684088678099215, "max": 0.44466081261634827}}, {"name": "resnet50/var_90", "shape": [1, 1, 512, 128], "dtype": "float32", "quantization": {"dtype": "uint8", "min": -0.16184905171394348, "max": 0.19470170140266418}}, {"name": "resnet50/var_91", "shape": [128], "dtype": "float32", "quantization": {"dtype": "uint8", "min": 0.0, "max": 0.0}}, {"name": "resnet50/var_92", "shape": [128], "dtype": "float32", "quantization": {"dtype": "uint8", "min": 0.5784836411476135, "max": 1.4287751913070679}}, {"name": "resnet50/var_93", "shape": [128], "dtype": "float32", "quantization": {"dtype": "uint8", "min": -4.3484110832214355, "max": 0.5884836912155151}}, {"name": "resnet50/var_94", "shape": [128], "dtype": "float32", "quantization": {"dtype": "uint8", "min": -2.095688581466675, "max": 1.3789128065109253}}, {"name": "resnet50/var_95", "shape": [128], "dtype": "float32", "quantization": {"dtype": "uint8", "min": 4.261433787178248e-06, "max": 2.396214485168457}}, {"name": "resnet50/var_96", "shape": [3, 3, 128, 128], "dtype": "float32", "quantization": {"dtype": "uint8", "min": -0.17590387165546417, "max": 0.17721769213676453}}, {"name": "resnet50/var_97", "shape": [128], "dtype": "float32", "quantization": {"dtype": "uint8", "min": 0.0, "max": 0.0}}, {"name": "resnet50/var_98", "shape": [128], "dtype": "float32", "quantization": {"dtype": "uint8", "min": 0.5107861161231995, "max": 1.7941620349884033}}, {"name": "resnet50/var_99", "shape": [128], "dtype": "float32", "quantization": {"dtype": "uint8", "min": -3.8254806995391846, "max": 1.3433891534805298}}, {"name": "resnet50/var_100", "shape": [128], "dtype": "float32", "quantization": {"dtype": "uint8", "min": -1.4254804849624634, "max": 1.1129072904586792}}, {"name": "resnet50/var_101", "shape": [128], "dtype": "float32", "quantization": {"dtype": "uint8", "min": 0.17664289474487305, "max": 0.7534013390541077}}, {"name": "resnet50/var_102", "shape": [1, 1, 128, 512], "dtype": "float32", "quantization": {"dtype": "uint8", "min": -0.34425830841064453, "max": 0.33577612042427063}}, {"name": "resnet50/var_103", "shape": [512], "dtype": "float32", "quantization": {"dtype": "uint8", "min": 0.0, "max": 0.0}}, {"name": "resnet50/var_104", "shape": [512], "dtype": "float32", "quantization": {"dtype": "uint8", "min": -0.07246959209442139, "max": 2.121532440185547}}, {"name": "resnet50/var_105", "shape": [512], "dtype": "float32", "quantization": {"dtype": "uint8", "min": -1.5018510818481445, "max": 1.1662451028823853}}, {"name": "resnet50/var_106", "shape": [512], "dtype": "float32", "quantization": {"dtype": "uint8", "min": -0.6253314018249512, "max": 0.48259419202804565}}, {"name": "resnet50/var_107", "shape": [512], "dtype": "float32", "quantization": {"dtype": "uint8", "min": 0.00038828252581879497, "max": 0.15366828441619873}}, {"name": "resnet50/var_108", "shape": [1, 1, 512, 128], "dtype": "float32", "quantization": {"dtype": "uint8", "min": -0.329771488904953, "max": 0.36850523948669434}}, {"name": "resnet50/var_109", "shape": [128], "dtype": "float32", "quantization": {"dtype": "uint8", "min": 0.0, "max": 0.0}}, {"name": "resnet50/var_110", "shape": [128], "dtype": "float32", "quantization": {"dtype": "uint8", "min": 0.40599995851516724, "max": 1.6955897808074951}}, {"name": "resnet50/var_111", "shape": [128], "dtype": "float32", "quantization": {"dtype": "uint8", "min": -2.6959264278411865, "max": 1.9444817304611206}}, {"name": "resnet50/var_112", "shape": [128], "dtype": "float32", "quantization": {"dtype": "uint8", "min": -1.8667402267456055, "max": 1.5205799341201782}}, {"name": "resnet50/var_113", "shape": [128], "dtype": "float32", "quantization": {"dtype": "uint8", "min": 0.18360655009746552, "max": 11.532685279846191}}, {"name": "resnet50/var_114", "shape": [3, 3, 128, 128], "dtype": "float32", "quantization": {"dtype": "uint8", "min": -0.3258318603038788, "max": 0.37364569306373596}}, {"name": "resnet50/var_115", "shape": [128], "dtype": "float32", "quantization": {"dtype": "uint8", "min": 0.0, "max": 0.0}}, {"name": "resnet50/var_116", "shape": [128], "dtype": "float32", "quantization": {"dtype": "uint8", "min": 0.46005693078041077, "max": 2.1787796020507812}}, {"name": "resnet50/var_117", "shape": [128], "dtype": "float32", "quantization": {"dtype": "uint8", "min": -1.58680260181427, "max": 0.5887434482574463}}, {"name": "resnet50/var_118", "shape": [128], "dtype": "float32", "quantization": {"dtype": "uint8", "min": -1.4784077405929565, "max": 1.7390124797821045}}, {"name": "resnet50/var_119", "shape": [128], "dtype": "float32", "quantization": {"dtype": "uint8", "min": 0.08016139268875122, "max": 1.8845925331115723}}, {"name": "resnet50/var_120", "shape": [1, 1, 128, 512], "dtype": "float32", "quantization": {"dtype": "uint8", "min": -0.2875514328479767, "max": 0.23197698593139648}}, {"name": "resnet50/var_121", "shape": [512], "dtype": "float32", "quantization": {"dtype": "uint8", "min": 0.0, "max": 0.0}}, {"name": "resnet50/var_122", "shape": [512], "dtype": "float32", "quantization": {"dtype": "uint8", "min": -0.005503741558641195, "max": 3.0426125526428223}}, {"name": "resnet50/var_123", "shape": [512], "dtype": "float32", "quantization": {"dtype": "uint8", "min": -2.36887526512146, "max": 0.43957269191741943}}, {"name": "resnet50/var_124", "shape": [512], "dtype": "float32", "quantization": {"dtype": "uint8", "min": -0.5232849717140198, "max": 0.5000514984130859}}, {"name": "resnet50/var_125", "shape": [512], "dtype": "float32", "quantization": {"dtype": "uint8", "min": 0.00010034152364823967, "max": 0.21930812299251556}}, {"name": "resnet50/var_126", "shape": [1, 1, 512, 128], "dtype": "float32", "quantization": {"dtype": "uint8", "min": -0.2975178360939026, "max": 0.34626492857933044}}, {"name": "resnet50/var_127", "shape": [128], "dtype": "float32", "quantization": {"dtype": "uint8", "min": 0.0, "max": 0.0}}, {"name": "resnet50/var_128", "shape": [128], "dtype": "float32", "quantization": {"dtype": "uint8", "min": 0.7355023622512817, "max": 2.39445161819458}}, {"name": "resnet50/var_129", "shape": [128], "dtype": "float32", "quantization": {"dtype": "uint8", "min": -2.6432812213897705, "max": 0.7561008930206299}}, {"name": "resnet50/var_130", "shape": [128], "dtype": "float32", "quantization": {"dtype": "uint8", "min": -1.5132728815078735, "max": 1.3111871480941772}}, {"name": "resnet50/var_131", "shape": [128], "dtype": "float32", "quantization": {"dtype": "uint8", "min": 0.3949695825576782, "max": 2.495253801345825}}, {"name": "resnet50/var_132", "shape": [3, 3, 128, 128], "dtype": "float32", "quantization": {"dtype": "uint8", "min": -0.27221035957336426, "max": 0.2083522379398346}}, {"name": "resnet50/var_133", "shape": [128], "dtype": "float32", "quantization": {"dtype": "uint8", "min": 0.0, "max": 0.0}}, {"name": "resnet50/var_134", "shape": [128], "dtype": "float32", "quantization": {"dtype": "uint8", "min": 0.6816897988319397, "max": 1.6944721937179565}}, {"name": "resnet50/var_135", "shape": [128], "dtype": "float32", "quantization": {"dtype": "uint8", "min": -1.3647669553756714, "max": 1.5991840362548828}}, {"name": "resnet50/var_136", "shape": [128], "dtype": "float32", "quantization": {"dtype": "uint8", "min": -1.3848155736923218, "max": 1.6231056451797485}}, {"name": "resnet50/var_137", "shape": [128], "dtype": "float32", "quantization": {"dtype": "uint8", "min": 0.2500532567501068, "max": 1.487027645111084}}, {"name": "resnet50/var_138", "shape": [1, 1, 128, 512], "dtype": "float32", "quantization": {"dtype": "uint8", "min": -0.27852433919906616, "max": 0.2808302938938141}}, {"name": "resnet50/var_139", "shape": [512], "dtype": "float32", "quantization": {"dtype": "uint8", "min": 0.0, "max": 0.0}}, {"name": "resnet50/var_140", "shape": [512], "dtype": "float32", "quantization": {"dtype": "uint8", "min": -0.00882949959486723, "max": 1.7209473848342896}}, {"name": "resnet50/var_141", "shape": [512], "dtype": "float32", "quantization": {"dtype": "uint8", "min": -1.8971370458602905, "max": 1.1821248531341553}}, {"name": "resnet50/var_142", "shape": [512], "dtype": "float32", "quantization": {"dtype": "uint8", "min": -0.900407612323761, "max": 1.0312480926513672}}, {"name": "resnet50/var_143", "shape": [512], "dtype": "float32", "quantization": {"dtype": "uint8", "min": 0.00021288255811668932, "max": 0.23819833993911743}}, {"name": "resnet50/var_144", "shape": [1, 1, 512, 256], "dtype": "float32", "quantization": {"dtype": "uint8", "min": -0.23003244400024414, "max": 0.3407989740371704}}, {"name": "resnet50/var_145", "shape": [256], "dtype": "float32", "quantization": {"dtype": "uint8", "min": 0.0, "max": 0.0}}, {"name": "resnet50/var_146", "shape": [256], "dtype": "float32", "quantization": {"dtype": "uint8", "min": 0.6213442087173462, "max": 1.6363730430603027}}, {"name": "resnet50/var_147", "shape": [256], "dtype": "float32", "quantization": {"dtype": "uint8", "min": -1.41952645778656, "max": 0.9165217280387878}}, {"name": "resnet50/var_148", "shape": [256], "dtype": "float32", "quantization": {"dtype": "uint8", "min": -1.7993948459625244, "max": 1.3411229848861694}}, {"name": "resnet50/var_149", "shape": [256], "dtype": "float32", "quantization": {"dtype": "uint8", "min": 0.40585967898368835, "max": 2.550400495529175}}, {"name": "resnet50/var_150", "shape": [3, 3, 256, 256], "dtype": "float32", "quantization": {"dtype": "uint8", "min": -0.26729434728622437, "max": 0.17937226593494415}}, {"name": "resnet50/var_151", "shape": [256], "dtype": "float32", "quantization": {"dtype": "uint8", "min": 0.0, "max": 0.0}}, {"name": "resnet50/var_152", "shape": [256], "dtype": "float32", "quantization": {"dtype": "uint8", "min": 0.5854782462120056, "max": 1.749166488647461}}, {"name": "resnet50/var_153", "shape": [256], "dtype": "float32", "quantization": {"dtype": "uint8", "min": -1.8369724750518799, "max": 1.3979170322418213}}, {"name": "resnet50/var_154", "shape": [256], "dtype": "float32", "quantization": {"dtype": "uint8", "min": -4.123749256134033, "max": 3.869809150695801}}, {"name": "resnet50/var_155", "shape": [256], "dtype": "float32", "quantization": {"dtype": "uint8", "min": 0.34219133853912354, "max": 5.198996543884277}}, {"name": "resnet50/var_156", "shape": [1, 1, 512, 1024], "dtype": "float32", "quantization": {"dtype": "uint8", "min": -0.33257994055747986, "max": 0.42074406147003174}}, {"name": "resnet50/var_157", "shape": [1024], "dtype": "float32", "quantization": {"dtype": "uint8", "min": 0.0, "max": 0.0}}, {"name": "resnet50/var_158", "shape": [1, 1, 256, 1024], "dtype": "float32", "quantization": {"dtype": "uint8", "min": -0.332700252532959, "max": 0.38419127464294434}}, {"name": "resnet50/var_159", "shape": [1024], "dtype": "float32", "quantization": {"dtype": "uint8", "min": 0.0, "max": 0.0}}, {"name": "resnet50/var_160", "shape": [1024], "dtype": "float32", "quantization": {"dtype": "uint8", "min": 0.033979933708906174, "max": 2.7791919708251953}}, {"name": "resnet50/var_161", "shape": [1024], "dtype": "float32", "quantization": {"dtype": "uint8", "min": -0.9383100271224976, "max": 0.8867571353912354}}, {"name": "resnet50/var_162", "shape": [1024], "dtype": "float32", "quantization": {"dtype": "uint8", "min": -2.003016233444214, "max": 2.1764488220214844}}, {"name": "resnet50/var_163", "shape": [1024], "dtype": "float32", "quantization": {"dtype": "uint8", "min": 0.015027696266770363, "max": 2.892120838165283}}, {"name": "resnet50/var_164", "shape": [1024], "dtype": "float32", "quantization": {"dtype": "uint8", "min": 0.07113350182771683, "max": 2.3668365478515625}}, {"name": "resnet50/var_165", "shape": [1024], "dtype": "float32", "quantization": {"dtype": "uint8", "min": -0.9383100271224976, "max": 0.8867571353912354}}, {"name": "resnet50/var_166", "shape": [1024], "dtype": "float32", "quantization": {"dtype": "uint8", "min": -0.7337787747383118, "max": 0.5172724723815918}}, {"name": "resnet50/var_167", "shape": [1024], "dtype": "float32", "quantization": {"dtype": "uint8", "min": 0.005249861162155867, "max": 0.35921287536621094}}, {"name": "resnet50/var_168", "shape": [1, 1, 1024, 256], "dtype": "float32", "quantization": {"dtype": "uint8", "min": -0.19655461609363556, "max": 0.23593004047870636}}, {"name": "resnet50/var_169", "shape": [256], "dtype": "float32", "quantization": {"dtype": "uint8", "min": 0.0, "max": 0.0}}, {"name": "resnet50/var_170", "shape": [256], "dtype": "float32", "quantization": {"dtype": "uint8", "min": 0.5655062198638916, "max": 1.7433578968048096}}, {"name": "resnet50/var_171", "shape": [256], "dtype": "float32", "quantization": {"dtype": "uint8", "min": -2.7033824920654297, "max": 1.0419669151306152}}, {"name": "resnet50/var_172", "shape": [256], "dtype": "float32", "quantization": {"dtype": "uint8", "min": -5.858452796936035, "max": 2.20847225189209}}, {"name": "resnet50/var_173", "shape": [256], "dtype": "float32", "quantization": {"dtype": "uint8", "min": 0.36715057492256165, "max": 4.1957221031188965}}, {"name": "resnet50/var_174", "shape": [3, 3, 256, 256], "dtype": "float32", "quantization": {"dtype": "uint8", "min": -0.436288446187973, "max": 0.19625958800315857}}, {"name": "resnet50/var_175", "shape": [256], "dtype": "float32", "quantization": {"dtype": "uint8", "min": 0.0, "max": 0.0}}, {"name": "resnet50/var_176", "shape": [256], "dtype": "float32", "quantization": {"dtype": "uint8", "min": 0.5147577524185181, "max": 2.300740957260132}}, {"name": "resnet50/var_177", "shape": [256], "dtype": "float32", "quantization": {"dtype": "uint8", "min": -2.5483906269073486, "max": 1.8564074039459229}}, {"name": "resnet50/var_178", "shape": [256], "dtype": "float32", "quantization": {"dtype": "uint8", "min": -2.382957935333252, "max": 1.2051403522491455}}, {"name": "resnet50/var_179", "shape": [256], "dtype": "float32", "quantization": {"dtype": "uint8", "min": 0.10513381659984589, "max": 1.3241283893585205}}, {"name": "resnet50/var_180", "shape": [1, 1, 256, 1024], "dtype": "float32", "quantization": {"dtype": "uint8", "min": -0.43761372566223145, "max": 0.2951264977455139}}, {"name": "resnet50/var_181", "shape": [1024], "dtype": "float32", "quantization": {"dtype": "uint8", "min": 0.0, "max": 0.0}}, {"name": "resnet50/var_182", "shape": [1024], "dtype": "float32", "quantization": {"dtype": "uint8", "min": 0.05497802793979645, "max": 1.9429709911346436}}, {"name": "resnet50/var_183", "shape": [1024], "dtype": "float32", "quantization": {"dtype": "uint8", "min": -1.6467840671539307, "max": 1.0155103206634521}}, {"name": "resnet50/var_184", "shape": [1024], "dtype": "float32", "quantization": {"dtype": "uint8", "min": -0.43183156847953796, "max": 0.32219383120536804}}, {"name": "resnet50/var_185", "shape": [1024], "dtype": "float32", "quantization": {"dtype": "uint8", "min": 0.0014270668616518378, "max": 0.12322593480348587}}, {"name": "resnet50/var_186", "shape": [1, 1, 1024, 256], "dtype": "float32", "quantization": {"dtype": "uint8", "min": -0.386906236410141, "max": 0.3373482823371887}}, {"name": "resnet50/var_187", "shape": [256], "dtype": "float32", "quantization": {"dtype": "uint8", "min": 0.0, "max": 0.0}}, {"name": "resnet50/var_188", "shape": [256], "dtype": "float32", "quantization": {"dtype": "uint8", "min": 0.4627031981945038, "max": 1.885679006576538}}, {"name": "resnet50/var_189", "shape": [256], "dtype": "float32", "quantization": {"dtype": "uint8", "min": -2.3986763954162598, "max": 0.48811039328575134}}, {"name": "resnet50/var_190", "shape": [256], "dtype": "float32", "quantization": {"dtype": "uint8", "min": -2.171499490737915, "max": 1.3108526468276978}}, {"name": "resnet50/var_191", "shape": [256], "dtype": "float32", "quantization": {"dtype": "uint8", "min": 0.31561028957366943, "max": 3.7005538940429688}}, {"name": "resnet50/var_192", "shape": [3, 3, 256, 256], "dtype": "float32", "quantization": {"dtype": "uint8", "min": -0.1645086407661438, "max": 0.257589191198349}}, {"name": "resnet50/var_193", "shape": [256], "dtype": "float32", "quantization": {"dtype": "uint8", "min": 0.0, "max": 0.0}}, {"name": "resnet50/var_194", "shape": [256], "dtype": "float32", "quantization": {"dtype": "uint8", "min": 0.5552687048912048, "max": 1.9005546569824219}}, {"name": "resnet50/var_195", "shape": [256], "dtype": "float32", "quantization": {"dtype": "uint8", "min": -1.6548916101455688, "max": 0.7044894099235535}}, {"name": "resnet50/var_196", "shape": [256], "dtype": "float32", "quantization": {"dtype": "uint8", "min": -0.9571532607078552, "max": 0.9092488288879395}}, {"name": "resnet50/var_197", "shape": [256], "dtype": "float32", "quantization": {"dtype": "uint8", "min": 0.08332255482673645, "max": 0.4668150842189789}}, {"name": "resnet50/var_198", "shape": [1, 1, 256, 1024], "dtype": "float32", "quantization": {"dtype": "uint8", "min": -0.2897443473339081, "max": 0.2608676552772522}}, {"name": "resnet50/var_199", "shape": [1024], "dtype": "float32", "quantization": {"dtype": "uint8", "min": 0.0, "max": 0.0}}, {"name": "resnet50/var_200", "shape": [1024], "dtype": "float32", "quantization": {"dtype": "uint8", "min": 0.0488269217312336, "max": 1.449705719947815}}, {"name": "resnet50/var_201", "shape": [1024], "dtype": "float32", "quantization": {"dtype": "uint8", "min": -1.2007766962051392, "max": 0.5865668058395386}}, {"name": "resnet50/var_202", "shape": [1024], "dtype": "float32", "quantization": {"dtype": "uint8", "min": -0.3010520339012146, "max": 0.34200307726860046}}, {"name": "resnet50/var_203", "shape": [1024], "dtype": "float32", "quantization": {"dtype": "uint8", "min": 0.0017046096036210656, "max": 0.09788867831230164}}, {"name": "resnet50/var_204", "shape": [1, 1, 1024, 256], "dtype": "float32", "quantization": {"dtype": "uint8", "min": -0.1939503252506256, "max": 0.2954038679599762}}, {"name": "resnet50/var_205", "shape": [256], "dtype": "float32", "quantization": {"dtype": "uint8", "min": 0.0, "max": 0.0}}, {"name": "resnet50/var_206", "shape": [256], "dtype": "float32", "quantization": {"dtype": "uint8", "min": 0.4422333836555481, "max": 1.3527276515960693}}, {"name": "resnet50/var_207", "shape": [256], "dtype": "float32", "quantization": {"dtype": "uint8", "min": -2.3216354846954346, "max": 0.5090862512588501}}, {"name": "resnet50/var_208", "shape": [256], "dtype": "float32", "quantization": {"dtype": "uint8", "min": -1.9416464567184448, "max": 0.902130663394928}}, {"name": "resnet50/var_209", "shape": [256], "dtype": "float32", "quantization": {"dtype": "uint8", "min": 0.3172389268875122, "max": 2.755537509918213}}, {"name": "resnet50/var_210", "shape": [3, 3, 256, 256], "dtype": "float32", "quantization": {"dtype": "uint8", "min": -0.2014399766921997, "max": 0.1755792498588562}}, {"name": "resnet50/var_211", "shape": [256], "dtype": "float32", "quantization": {"dtype": "uint8", "min": 0.0, "max": 0.0}}, {"name": "resnet50/var_212", "shape": [256], "dtype": "float32", "quantization": {"dtype": "uint8", "min": 0.5292788743972778, "max": 1.939180612564087}}, {"name": "resnet50/var_213", "shape": [256], "dtype": "float32", "quantization": {"dtype": "uint8", "min": -1.6098885536193848, "max": 0.7761873006820679}}, {"name": "resnet50/var_214", "shape": [256], "dtype": "float32", "quantization": {"dtype": "uint8", "min": -1.1185952425003052, "max": 1.0654945373535156}}, {"name": "resnet50/var_215", "shape": [256], "dtype": "float32", "quantization": {"dtype": "uint8", "min": 0.07131592184305191, "max": 0.6756821870803833}}, {"name": "resnet50/var_216", "shape": [1, 1, 256, 1024], "dtype": "float32", "quantization": {"dtype": "uint8", "min": -0.20502081513404846, "max": 0.23945623636245728}}, {"name": "resnet50/var_217", "shape": [1024], "dtype": "float32", "quantization": {"dtype": "uint8", "min": 0.0, "max": 0.0}}, {"name": "resnet50/var_218", "shape": [1024], "dtype": "float32", "quantization": {"dtype": "uint8", "min": -0.036879174411296844, "max": 1.6456414461135864}}, {"name": "resnet50/var_219", "shape": [1024], "dtype": "float32", "quantization": {"dtype": "uint8", "min": -1.4837385416030884, "max": 0.34446704387664795}}, {"name": "resnet50/var_220", "shape": [1024], "dtype": "float32", "quantization": {"dtype": "uint8", "min": -0.3651520311832428, "max": 0.3958536982536316}}, {"name": "resnet50/var_221", "shape": [1024], "dtype": "float32", "quantization": {"dtype": "uint8", "min": 8.513742068316787e-05, "max": 0.10655415058135986}}, {"name": "resnet50/var_222", "shape": [1, 1, 1024, 256], "dtype": "float32", "quantization": {"dtype": "uint8", "min": -0.2257833033800125, "max": 0.3061061203479767}}, {"name": "resnet50/var_223", "shape": [256], "dtype": "float32", "quantization": {"dtype": "uint8", "min": 0.0, "max": 0.0}}, {"name": "resnet50/var_224", "shape": [256], "dtype": "float32", "quantization": {"dtype": "uint8", "min": 0.4382966458797455, "max": 1.445796251296997}}, {"name": "resnet50/var_225", "shape": [256], "dtype": "float32", "quantization": {"dtype": "uint8", "min": -2.5107953548431396, "max": 0.5567478537559509}}, {"name": "resnet50/var_226", "shape": [256], "dtype": "float32", "quantization": {"dtype": "uint8", "min": -2.570901870727539, "max": 0.6033623218536377}}, {"name": "resnet50/var_227", "shape": [256], "dtype": "float32", "quantization": {"dtype": "uint8", "min": 0.4042649567127228, "max": 1.8636287450790405}}, {"name": "resnet50/var_228", "shape": [3, 3, 256, 256], "dtype": "float32", "quantization": {"dtype": "uint8", "min": -0.14707645773887634, "max": 0.22309079766273499}}, {"name": "resnet50/var_229", "shape": [256], "dtype": "float32", "quantization": {"dtype": "uint8", "min": 0.0, "max": 0.0}}, {"name": "resnet50/var_230", "shape": [256], "dtype": "float32", "quantization": {"dtype": "uint8", "min": 0.650596022605896, "max": 1.8580942153930664}}, {"name": "resnet50/var_231", "shape": [256], "dtype": "float32", "quantization": {"dtype": "uint8", "min": -1.5884517431259155, "max": 0.6606935858726501}}, {"name": "resnet50/var_232", "shape": [256], "dtype": "float32", "quantization": {"dtype": "uint8", "min": -0.46684932708740234, "max": 0.49229615926742554}}, {"name": "resnet50/var_233", "shape": [256], "dtype": "float32", "quantization": {"dtype": "uint8", "min": 0.05927896872162819, "max": 0.35198894143104553}}, {"name": "resnet50/var_234", "shape": [1, 1, 256, 1024], "dtype": "float32", "quantization": {"dtype": "uint8", "min": -0.17820169031620026, "max": 0.2649639844894409}}, {"name": "resnet50/var_235", "shape": [1024], "dtype": "float32", "quantization": {"dtype": "uint8", "min": 0.0, "max": 0.0}}, {"name": "resnet50/var_236", "shape": [1024], "dtype": "float32", "quantization": {"dtype": "uint8", "min": -0.0013022794155403972, "max": 1.5005439519882202}}, {"name": "resnet50/var_237", "shape": [1024], "dtype": "float32", "quantization": {"dtype": "uint8", "min": -1.1082860231399536, "max": 0.639276921749115}}, {"name": "resnet50/var_238", "shape": [1024], "dtype": "float32", "quantization": {"dtype": "uint8", "min": -0.57989501953125, "max": 1.0716928243637085}}, {"name": "resnet50/var_239", "shape": [1024], "dtype": "float32", "quantization": {"dtype": "uint8", "min": 0.0003081673930864781, "max": 0.17343294620513916}}, {"name": "resnet50/var_240", "shape": [1, 1, 1024, 256], "dtype": "float32", "quantization": {"dtype": "uint8", "min": -0.1533603072166443, "max": 0.3296962380409241}}, {"name": "resnet50/var_241", "shape": [256], "dtype": "float32", "quantization": {"dtype": "uint8", "min": 0.0, "max": 0.0}}, {"name": "resnet50/var_242", "shape": [256], "dtype": "float32", "quantization": {"dtype": "uint8", "min": 0.4254356026649475, "max": 1.5466755628585815}}, {"name": "resnet50/var_243", "shape": [256], "dtype": "float32", "quantization": {"dtype": "uint8", "min": -1.9723799228668213, "max": 0.8232882618904114}}, {"name": "resnet50/var_244", "shape": [256], "dtype": "float32", "quantization": {"dtype": "uint8", "min": -1.156536340713501, "max": 0.9281110167503357}}, {"name": "resnet50/var_245", "shape": [256], "dtype": "float32", "quantization": {"dtype": "uint8", "min": 0.41855305433273315, "max": 2.1176419258117676}}, {"name": "resnet50/var_246", "shape": [3, 3, 256, 256], "dtype": "float32", "quantization": {"dtype": "uint8", "min": -0.2927062213420868, "max": 0.27586546540260315}}, {"name": "resnet50/var_247", "shape": [256], "dtype": "float32", "quantization": {"dtype": "uint8", "min": 0.0, "max": 0.0}}, {"name": "resnet50/var_248", "shape": [256], "dtype": "float32", "quantization": {"dtype": "uint8", "min": 0.6498118042945862, "max": 2.9422175884246826}}, {"name": "resnet50/var_249", "shape": [256], "dtype": "float32", "quantization": {"dtype": "uint8", "min": -1.0928775072097778, "max": 0.7713561058044434}}, {"name": "resnet50/var_250", "shape": [256], "dtype": "float32", "quantization": {"dtype": "uint8", "min": -0.9002596735954285, "max": 0.5086299777030945}}, {"name": "resnet50/var_251", "shape": [256], "dtype": "float32", "quantization": {"dtype": "uint8", "min": 0.08530989289283752, "max": 0.9655584692955017}}, {"name": "resnet50/var_252", "shape": [1, 1, 256, 1024], "dtype": "float32", "quantization": {"dtype": "uint8", "min": -0.2321351170539856, "max": 0.2935456931591034}}, {"name": "resnet50/var_253", "shape": [1024], "dtype": "float32", "quantization": {"dtype": "uint8", "min": 0.0, "max": 0.0}}, {"name": "resnet50/var_254", "shape": [1024], "dtype": "float32", "quantization": {"dtype": "uint8", "min": 0.0042371368035674095, "max": 1.984312653541565}}, {"name": "resnet50/var_255", "shape": [1024], "dtype": "float32", "quantization": {"dtype": "uint8", "min": -1.6360373497009277, "max": 1.2499268054962158}}, {"name": "resnet50/var_256", "shape": [1024], "dtype": "float32", "quantization": {"dtype": "uint8", "min": -0.6203246712684631, "max": 0.5244510173797607}}, {"name": "resnet50/var_257", "shape": [1024], "dtype": "float32", "quantization": {"dtype": "uint8", "min": 0.0005924173747189343, "max": 1.1390345096588135}}, {"name": "resnet50/var_258", "shape": [1, 1, 1024, 512], "dtype": "float32", "quantization": {"dtype": "uint8", "min": -0.18803387880325317, "max": 0.3314819037914276}}, {"name": "resnet50/var_259", "shape": [512], "dtype": "float32", "quantization": {"dtype": "uint8", "min": -0.007617070339620113, "max": 0.007927059195935726}}, {"name": "resnet50/var_260", "shape": [512], "dtype": "float32", "quantization": {"dtype": "uint8", "min": 0.5890747308731079, "max": 1.5733097791671753}}, {"name": "resnet50/var_261", "shape": [512], "dtype": "float32", "quantization": {"dtype": "uint8", "min": -1.769655704498291, "max": 0.3172232508659363}}, {"name": "resnet50/var_262", "shape": [512], "dtype": "float32", "quantization": {"dtype": "uint8", "min": -3.3214645385742188, "max": 4.382238388061523}}, {"name": "resnet50/var_263", "shape": [512], "dtype": "float32", "quantization": {"dtype": "uint8", "min": 0.03273441642522812, "max": 3.063711404800415}}, {"name": "resnet50/var_264", "shape": [3, 3, 512, 512], "dtype": "float32", "quantization": {"dtype": "uint8", "min": -0.15810133516788483, "max": 0.26662033796310425}}, {"name": "resnet50/var_265", "shape": [512], "dtype": "float32", "quantization": {"dtype": "uint8", "min": -0.002041902393102646, "max": 0.0029124384745955467}}, {"name": "resnet50/var_266", "shape": [512], "dtype": "float32", "quantization": {"dtype": "uint8", "min": 0.4590383470058441, "max": 1.5269159078598022}}, {"name": "resnet50/var_267", "shape": [512], "dtype": "float32", "quantization": {"dtype": "uint8", "min": -1.8322025537490845, "max": 0.8525012135505676}}, {"name": "resnet50/var_268", "shape": [512], "dtype": "float32", "quantization": {"dtype": "uint8", "min": -1.571892499923706, "max": 0.6885645985603333}}, {"name": "resnet50/var_269", "shape": [512], "dtype": "float32", "quantization": {"dtype": "uint8", "min": 0.07185498625040054, "max": 2.142993450164795}}, {"name": "resnet50/var_270", "shape": [1, 1, 1024, 2048], "dtype": "float32", "quantization": {"dtype": "uint8", "min": -0.6678457260131836, "max": 0.4845232367515564}}, {"name": "resnet50/var_271", "shape": [2048], "dtype": "float32", "quantization": {"dtype": "uint8", "min": -0.007105027791112661, "max": 0.007800157181918621}}, {"name": "resnet50/var_272", "shape": [1, 1, 512, 2048], "dtype": "float32", "quantization": {"dtype": "uint8", "min": -0.333003968000412, "max": 0.4272487163543701}}, {"name": "resnet50/var_273", "shape": [2048], "dtype": "float32", "quantization": {"dtype": "uint8", "min": -0.0025872858241200447, "max": 0.0022414810955524445}}, {"name": "resnet50/var_274", "shape": [2048], "dtype": "float32", "quantization": {"dtype": "uint8", "min": 0.25159069895744324, "max": 4.563417911529541}}, {"name": "resnet50/var_275", "shape": [2048], "dtype": "float32", "quantization": {"dtype": "uint8", "min": -1.8267109394073486, "max": 0.9628130793571472}}, {"name": "resnet50/var_276", "shape": [2048], "dtype": "float32", "quantization": {"dtype": "uint8", "min": -2.762054920196533, "max": 3.270338296890259}}, {"name": "resnet50/var_277", "shape": [2048], "dtype": "float32", "quantization": {"dtype": "uint8", "min": 0.01331889908760786, "max": 3.1745057106018066}}, {"name": "resnet50/var_278", "shape": [2048], "dtype": "float32", "quantization": {"dtype": "uint8", "min": 0.8848591446876526, "max": 3.4835195541381836}}, {"name": "resnet50/var_279", "shape": [2048], "dtype": "float32", "quantization": {"dtype": "uint8", "min": -1.8267109394073486, "max": 0.9628130793571472}}, {"name": "resnet50/var_280", "shape": [2048], "dtype": "float32", "quantization": {"dtype": "uint8", "min": -0.6924837827682495, "max": 0.9417241215705872}}, {"name": "resnet50/var_281", "shape": [2048], "dtype": "float32", "quantization": {"dtype": "uint8", "min": 0.016141226515173912, "max": 1.0254621505737305}}, {"name": "resnet50/var_282", "shape": [1, 1, 2048, 512], "dtype": "float32", "quantization": {"dtype": "uint8", "min": -0.30448007583618164, "max": 0.5889484286308289}}, {"name": "resnet50/var_283", "shape": [512], "dtype": "float32", "quantization": {"dtype": "uint8", "min": -0.0007357128197327256, "max": 0.0006017719861119986}}, {"name": "resnet50/var_284", "shape": [512], "dtype": "float32", "quantization": {"dtype": "uint8", "min": 0.39256563782691956, "max": 1.4250997304916382}}, {"name": "resnet50/var_285", "shape": [512], "dtype": "float32", "quantization": {"dtype": "uint8", "min": -1.3958542346954346, "max": 0.40570420026779175}}, {"name": "resnet50/var_286", "shape": [512], "dtype": "float32", "quantization": {"dtype": "uint8", "min": -2.510328769683838, "max": 2.186028242111206}}, {"name": "resnet50/var_287", "shape": [512], "dtype": "float32", "quantization": {"dtype": "uint8", "min": 0.47677579522132874, "max": 7.433444976806641}}, {"name": "resnet50/var_288", "shape": [3, 3, 512, 512], "dtype": "float32", "quantization": {"dtype": "uint8", "min": -0.21279233694076538, "max": 0.29755058884620667}}, {"name": "resnet50/var_289", "shape": [512], "dtype": "float32", "quantization": {"dtype": "uint8", "min": -0.0016088472912088037, "max": 0.0018674674211069942}}, {"name": "resnet50/var_290", "shape": [512], "dtype": "float32", "quantization": {"dtype": "uint8", "min": 0.3799342215061188, "max": 1.5387588739395142}}, {"name": "resnet50/var_291", "shape": [512], "dtype": "float32", "quantization": {"dtype": "uint8", "min": -1.8719388246536255, "max": 0.8923198580741882}}, {"name": "resnet50/var_292", "shape": [512], "dtype": "float32", "quantization": {"dtype": "uint8", "min": -1.7108581066131592, "max": 0.9676336050033569}}, {"name": "resnet50/var_293", "shape": [512], "dtype": "float32", "quantization": {"dtype": "uint8", "min": 0.15990443527698517, "max": 3.6062934398651123}}, {"name": "resnet50/var_294", "shape": [1, 1, 512, 2048], "dtype": "float32", "quantization": {"dtype": "uint8", "min": -0.2082575410604477, "max": 0.28637969493865967}}, {"name": "resnet50/var_295", "shape": [2048], "dtype": "float32", "quantization": {"dtype": "uint8", "min": -0.001956506399437785, "max": 0.0015291903400793672}}, {"name": "resnet50/var_296", "shape": [2048], "dtype": "float32", "quantization": {"dtype": "uint8", "min": 0.5532217621803284, "max": 2.819976329803467}}, {"name": "resnet50/var_297", "shape": [2048], "dtype": "float32", "quantization": {"dtype": "uint8", "min": -2.662045478820801, "max": 0.5338910222053528}}, {"name": "resnet50/var_298", "shape": [2048], "dtype": "float32", "quantization": {"dtype": "uint8", "min": -0.619719922542572, "max": 0.9095516204833984}}, {"name": "resnet50/var_299", "shape": [2048], "dtype": "float32", "quantization": {"dtype": "uint8", "min": 0.008328999392688274, "max": 0.8382291197776794}}, {"name": "resnet50/var_300", "shape": [1, 1, 2048, 512], "dtype": "float32", "quantization": {"dtype": "uint8", "min": -0.2858535945415497, "max": 0.5022610425949097}}, {"name": "resnet50/var_301", "shape": [512], "dtype": "float32", "quantization": {"dtype": "uint8", "min": -0.0004808473167940974, "max": 0.0004816873697564006}}, {"name": "resnet50/var_302", "shape": [512], "dtype": "float32", "quantization": {"dtype": "uint8", "min": 0.39317184686660767, "max": 1.2399693727493286}}, {"name": "resnet50/var_303", "shape": [512], "dtype": "float32", "quantization": {"dtype": "uint8", "min": -1.6608152389526367, "max": 0.7280942797660828}}, {"name": "resnet50/var_304", "shape": [512], "dtype": "float32", "quantization": {"dtype": "uint8", "min": -2.033583402633667, "max": 3.092033624649048}}, {"name": "resnet50/var_305", "shape": [512], "dtype": "float32", "quantization": {"dtype": "uint8", "min": 0.37264516949653625, "max": 6.092426300048828}}, {"name": "resnet50/var_306", "shape": [3, 3, 512, 512], "dtype": "float32", "quantization": {"dtype": "uint8", "min": -0.1495518833398819, "max": 0.13022515177726746}}, {"name": "resnet50/var_307", "shape": [512], "dtype": "float32", "quantization": {"dtype": "uint8", "min": -0.0012132445117458701, "max": 0.0016636146465316415}}, {"name": "resnet50/var_308", "shape": [512], "dtype": "float32", "quantization": {"dtype": "uint8", "min": 0.5371726751327515, "max": 1.3151240348815918}}, {"name": "resnet50/var_309", "shape": [512], "dtype": "float32", "quantization": {"dtype": "uint8", "min": -1.8786017894744873, "max": 1.1773815155029297}}, {"name": "resnet50/var_310", "shape": [512], "dtype": "float32", "quantization": {"dtype": "uint8", "min": -1.720358967781067, "max": 0.6082097291946411}}, {"name": "resnet50/var_311", "shape": [512], "dtype": "float32", "quantization": {"dtype": "uint8", "min": 0.18996337056159973, "max": 2.1761536598205566}}, {"name": "resnet50/var_312", "shape": [1, 1, 512, 2048], "dtype": "float32", "quantization": {"dtype": "uint8", "min": -0.14783044159412384, "max": 0.30090609192848206}}, {"name": "resnet50/var_313", "shape": [2048], "dtype": "float32", "quantization": {"dtype": "uint8", "min": -0.0030587848741561174, "max": 0.0019350613001734018}}, {"name": "resnet50/var_314", "shape": [2048], "dtype": "float32", "quantization": {"dtype": "uint8", "min": 0.4297468662261963, "max": 3.0571577548980713}}, {"name": "resnet50/var_315", "shape": [2048], "dtype": "float32", "quantization": {"dtype": "uint8", "min": -3.9070260524749756, "max": -0.3184087574481964}}, {"name": "resnet50/var_316", "shape": [2048], "dtype": "float32", "quantization": {"dtype": "uint8", "min": -0.672432541847229, "max": 0.3447471857070923}}, {"name": "resnet50/var_317", "shape": [2048], "dtype": "float32", "quantization": {"dtype": "uint8", "min": 0.016139240935444832, "max": 0.35398218035697937}}, {"name": "dense/kernel", "shape": [2048, 128], "dtype": "float32", "quantization": {"dtype": "uint8", "min": -5.128586292266846, "max": 6.7046122550964355}}, {"name": "dense/bias", "shape": [128], "dtype": "float32", "quantization": {"dtype": "uint8", "min": -0.24502117931842804, "max": 0.23133179545402527}}, {"name": "dense_1/kernel", "shape": [128, 29], "dtype": "float32", "quantization": {"dtype": "uint8", "min": -2.2953855991363525, "max": 1.0012550354003906}}, {"name": "dense_1/bias", "shape": [29], "dtype": "float32", "quantization": {"dtype": "uint8", "min": -0.48365649580955505, "max": 0.31244608759880066}}]}]}